logs/discharge_point/grin/2023-10-26_20-27-01_503734002/epoch=40-step=3567.ckpt (torch, 707635 bytes, 102 tensors)

model.bigrill.emb f4 [8, 20]
-0.10717389 0.21024136 0.6749509 -0.0628546 0.34212527 0.14449066 0.037020583 0.20033436
0.1591801 0.11046023 0.20075157 -0.45310512 -0.11655076 -0.20359845 0.5694648 -0.0018759324
0.31263375 -0.22938012 -0.7550286 0.23787959 0.15160295 -0.3219977 -0.1304539 0.14210488
-0.073818475 -0.026185557 -0.21314469 0.39802986 -0.07192108 0.11384784 -0.01720689 0.163842
-0.38649303 -0.23864049 -0.4168097 0.17379855 -0.28412303 0.35379356 -0.030740434 0.3842147
-0.2626497 -0.7600818 0.047522675 -0.11714856 0.0008457555 0.42639038 0.7442709 0.6545515
-0.30590105 0.3288426 0.24102958 0.12557039 0.32660568 -0.6709601 -0.15101914 -0.14498653
0.024765493 -0.046497073 0.5448598 -0.31827176 0.50918186 0.24929185 -0.5258798 -0.11390254
0.18042366 -0.06842429 0.300763 0.58876693 -0.3159924 0.25005046 0.55606246 -0.2595967
-0.15141742 0.19287491 -0.027248785 0.034056686 -0.3337785 0.11297766 0.42897943 -0.32919377
0.13411456 0.050966933 0.048923355 -0.040121153 0.10958632 -0.1867528 0.31151786 0.72279614
-0.07535443 -0.41562462 0.27252334 0.39859885 0.32186058 -0.22666937 0.38468415 -0.73553884
0.10343638 0.56460774 0.2481532 -0.39961082 -0.1890648 0.6166767 0.03483691 -0.2195833
0.24762316 -0.043844413 0.21464206 -0.72327954 0.28428283 0.19911425 0.13600118 -0.48523167
-0.11493561 0.3044265 0.13498406 -0.3167846 -0.05824668 -0.13070811 0.047673408 0.40123096
0.23275466 0.22721876 0.6600807 -0.4595577 0.6454891 0.3570055 0.23040532 -0.4492902
0.45839497 0.3436801 0.11039527 -0.09818362 0.5674909 0.30951363 0.32568324 0.13194738
0.040282995 -0.11780791 -0.09415229 0.21856299 0.5229182 0.3780124 -0.074128196 0.106033295
0.19554469 0.4696062 0.037029684 -0.59595287 -0.23010455 0.008584037 -0.23715897 0.06023546
-0.34619424 -0.19569361 0.26430148 0.5071915 0.04782526 0.009900745 -0.120957546 0.6831919
00000000: fc7d dbbd 8349 573e 95c9 2c3f eab9 80bd
00000010: 0b2b af3e 5cf5 133e e5a2 173d 7324 4d3e
00000020: 1c00 233e f938 e23d d291 4d3e 65fd e7be
00000030: 2ab2 eebd 1d7c 50be 72c8 113f d9e1 f5ba
00000040: 8811 a03e 9fe2 6abe 8e49 41bf b596 733e
00000050: ce3d 1b3e e2dc a4be b595 05be f183 113e
00000060: 242e 97bd 1883 d6bc 9a42 5abe 92ca cb3e
00000070: 5c4b 93bd 0e29 e93d 77f5 8cbc 32c6 273e
00000080: 6ae2 c5be 2c5e 74be 1568 d5be 3ff8 313e
00000090: 9378 91be 6e24 b53e 5dd3 fbbc cab7 c43e
000000a0: 057a 86be b994 42bf 23a7 423d 96eb efbd
000000b0: b1b5 5d3a d74f da3e 8a88 3e3f b090 273f
000000c0: 109f 9cbe 0f5e a83e 75d0 763e 8695 003e
000000d0: dc38 a73e 0bc4 2bbf c3a4 1abe 5977 14be
000000e0: 01e1 ca3c b773 3ebd ef7b 0b3f 84f4 a2be
000000f0: be59 023f 5d46 7f3e 0fa0 06bf bc45 e9bd
00000100: fbc0 383e 0922 8cbd 9cfd 993e 6eb9 163f
00000110: c1c9 a1be 9d06 803e 1c5a 0e3f dce9 84be
00000120: 2b0d 1bbe 0081 453e d838 dfbc 067f 0b3d
00000130: 04e5 aabe d560 e73d 31a3 db3e 168c a8be
00000140: 5455 093e b4c2 503d db63 483d 1456 24bd
00000150: cb6e e03d 203c 3fbe 457f 9f3e 2b09 393f
00000160: 6c53 9abd c0cc d4be 2e88 8b3e 2615 cc3e
00000170: e9ca a43e 041c 68be 52f5 c43e 464c 3cbf
00000180: 74d6 d33d 228a 103f df1b 7e3e ca99 ccbe
00000190: 349a 41be 86de 1d3f 26b1 0e3d 72da 60be
000001a0: ed90 7d3e 3396 33bd 21cb 5b3e d928 39bf
000001b0: 858d 913e 9be4 4b3e e543 0b3e 4970 f8be
000001c0: 5c63 ebbd cadd 9b3e 4339 0a3e 9731 a2be
000001d0: 1294 6ebd 59d8 05be 3145 433d 256e cd3e
000001e0: 3d57 6e3e 09ac 683e 0cfb 283f 264b ebbe
000001f0: c63e 253f 6dc9 b63e 5fef 6b3e 5d09 e6be
00000200: bfb2 ea3e d7f6 af3e ea16 e23d 7e14 c9bd
00000210: 1547 113f 9278 9e3e f4bf a63e 371d 073e
00000220: c8ff 243d 4645 f1bd ead2 c0bd face 5f3e
00000230: f8dd 053f d78a c13e 86d0 97bd fc27 d93d
00000240: de3c 483e 3970 f03e 70ac 173d 5e90 18bf
00000250: 87a0 6bbe 10a4 0c3c cdd9 72be 75b9 763d
00000260: 5f40 b1be e863 48be 8652 873e 4dd7 013f
00000270: 6be4 433d bc36 223c 97b8 f7bd aae5 2e3f

model.bigrill.fwd_rnn.cells.0.forget_gate.mlp.weight f4 [32, 170, 1, 1]
0.05158929 -0.13377231 -0.060218893 -0.026651898 -0.13114828 -0.106740296 0.20787422 0.009616066
0.03232821 0.05142119 0.10243797 0.014949522 -0.15643097 -0.020742016 0.039722912 0.007721216
0.04530664 0.067882024 -0.018698376 -0.021843992 0.032462995 -0.038609665 0.11343061 -0.036080975
0.051799797 -0.0043605655 0.111298 -0.10628829 -0.07680245 0.020130184 0.0036662295 -0.06928775
-0.077912815 -0.0030738364 0.0800181 -0.17164762 -0.030436255 -0.123949334 -0.06375476 -0.07600517
0.07985806 0.102423444 -0.04019253 -0.022718664 -0.039488807 0.15758033 -0.17992838 -0.122635685
0.01340006 -0.011873071 0.118971966 0.09379494 -0.037636317 -0.0153892925 -0.020663615 0.00018459017
0.036483843 -0.06992237 0.0727675 -0.044380836 -0.0130261015 -0.011483704 -0.022640895 0.04357939
0.045041684 0.09865171 0.030845158 -0.02348893 0.049568217 -0.15644893 -0.12883434 0.24441008
-0.18885337 -0.112776205 0.19699968 -0.022582563 -0.02773126 0.14633404 -0.024851862 0.14745833
-0.10177444 -0.026747255 0.1360921 0.11615584 -0.044705745 0.066115916 -0.039992593 0.19908339
-0.1213482 -0.05006277 0.18881606 -0.24791919 0.20247073 0.03779999 0.04480687 -0.12200505
-0.11861467 0.15023817 0.1257764 -0.088440716 0.11216675 0.023993934 0.2859583 -0.17662449
-0.09062467 -0.024541903 -0.007821308 0.043891646 0.10573115 -0.016429313 0.053581476 0.08002778
0.014051591 0.06675431 -0.13359341 -0.06947235 0.02027934 -0.040541958 0.042269044 0.00068071426
0.053921554 -0.028467523 -0.0289035 -0.06034203 0.0898085 -0.051062096 -0.04015343 -0.039158728
0.04697878 -0.035641555 -0.08937998 -0.043017197 0.22204387 -0.12817407 0.1647224 0.09573883
0.10237027 -0.092152126 -0.07294914 0.020576252 0.0009426875 0.06977794 0.058799516 0.020388348
-0.005378998 -0.015034328 -0.09079538 -0.002951769 -0.21874736 -0.108439 0.026661102 0.053400215
-0.042401597 -0.14100602 0.04138632 0.019934671 0.018028906 -0.0020167318 0.050325397 -0.103869684
0.035018273 -0.026297862 -0.076885946 -0.19444782 -0.14362165 -0.083552405 0.17600137 -0.060535073
0.21772851 0.11589832 0.1507566 -0.07750987 -0.10301202 0.109573886 -0.10583544 -0.10775275
0.061951727 -0.024734639 -0.057358056 0.021450987 -0.1823496 0.0390116 -0.23291397 -0.1645995
0.11256015 0.12576826 0.012458542 -0.010726571 -0.024569053 0.15830131 -0.04374711 -0.068684585
0.21453348 -0.14073628 0.20248754 -0.038433686 0.15708333 -0.14148484 -0.10848556 0.0010594137
0.0047474783 -0.11130304 0.20226863 0.14958829 0.14368999 -0.051537085 -0.00010817189 0.049115025
-0.031175107 0.075562984 0.14510047 0.07938402 -0.05147123 -0.06132443 -0.21292481 0.009827374
-0.04116847 -0.1860953 0.15313871 -0.013179532 -0.025351573 -0.15922056 0.010668002 0.09413204
0.079154134 0.06444306 0.10815114 -0.06732856 0.12557729 -0.11933205 -0.03507478 -0.0732346
-0.16887805 0.018339558 -0.04877039 0.08626187 0.08547989 -0.029605018 0.10172848 -0.013419828
-0.08900491 -0.061595473 -0.09742453 0.08773412 0.08179382 -0.00038882298 -0.109319724 -0.18103054
-0.16828966 0.019106882 0.03906863 -0.13906313 0.070396386 0.06854911 0.051823404 -0.12096145
00000000: 4b4f 533d 9cfb 08be 16a8 76bd 1555 dabc
00000010: bc4b 06be a89a dabd fbdc 543e b48c 1d3c
00000020: 966a 043d 079f 523d 00cb d13d d7ee 743c
00000030: 712f 20be 29eb a9bc 7eb4 223d 4102 fd3b
00000040: 7593 393d bb05 8b3d 562d 99bc 2cf2 b2bc
00000050: ebf7 043d 2b25 1ebd 4f4e e83d a5c9 13bd
00000060: 062c 543d 13e3 8ebb 35f0 e33d adad d9bd
00000070: 9a4a 9dbd 0ee8 a43c 2045 703b bce6 8dbd
00000080: c190 9fbd 6b72 49bb 88e0 a33d 65c4 2fbe
00000090: 7455 f9bc 26d9 fdbd db91 82bd 99a8 9bbd
000000a0: 9f8c a33d 62c3 d13d eca0 24bd 7e1c babc
000000b0: 04bf 21bd bd5c 213e 253f 38be 6b28 fbbd
000000c0: ed8b 5b3c 4587 42bc 93a7 f33d 9017 c03d
000000d0: 8a28 1abd 5f23 7cbc be46 a9bc 8c8e 4139
000000e0: 1570 153d 7633 8fbd 2107 953d aec8 35bd
000000f0: 6e6b 55bc 2526 3cbc 6679 b9bc 4d80 323d
00000100: a17d 383d e809 ca3d fcae fc3c db6b c0bc
00000110: 0b08 4b3d 2634 20be 26ed 03be a346 7a3e
00000120: c762 41be 36f7 e6bd 49ba 493e 11ff b8bc
00000130: ab2c e3bc 97d8 153e 2296 cbbc 51ff 163e
00000140: 1e6f d0bd 0f1d dbbc ba5b 0b3e 1de3 ed3d
00000150: 5f1d 37bd c867 873d 46cf 23bd 84dc 4b3e
00000160: 6885 f8bd 9e0e 4dbd ff58 413e 87de 7dbe
00000170: 7d54 4f3e 2ad4 1a3d 6987 373d c9dd f9bd
00000180: 40ec f2bd 09d8 193e 87cb 003e 6820 b5bd
00000190: aeb7 e53d ed8e c43c 2069 923e 0ddd 34be
000001a0: 6d99 b9bd 1a0c c9bc f224 00bc bac7 333d
000001b0: 9389 d83d c496 86bc 4078 5b3d 9be5 a33d
000001c0: a538 663c 7cb6 883d b6cc 08be 8547 8ebd
000001d0: dc20 a63c 530f 26bd 4e22 2d3d f671 323a
000001e0: d9dc 5c3d b934 e9bc 08c7 ecbc 3429 77bd
000001f0: 85ed b73d 7d26 51bd ec77 24bd e764 20bd
00000200: d26c 403d e1fc 11bd da0c b7bd cd32 30bd
00000210: 785f 633e 1040 03be fdac 283e b812 c43d
00000220: 81a7 d13d 41ba bcbd 5c66 95bd 878f a83c
00000230: b01e 773a bde7 8e3d c3d7 703d 7705 a73c
00000240: 4e42 b0bb 8b52 76bc eef2 b9bd 7772 41bb
00000250: 4fff 5fbe 4415 debd 6268 da3c 2fba 5a3d
00000260: 4cad 2dbd e263 10be b484 293d 094e a33c
00000270: 5bb1 933c 252b 04bb 0122 4e3d a1b9 d4bd
00000280: 526f 0f3d 9d6e d7bc 6176 9dbd 541d 47be
00000290: 8e11 13be 861d abbd b439 343e a0f3 77bd
000002a0: 39f4 5e3e 195c ed3d f05f 1a3e 7fbd 9ebd
000002b0: f7f7 d2bd 4668 e03d 40c0 d8bd 79ad dcbd
000002c0: 18c1 7d3d 4ca0 cabc 48f0 6abd fbb9 af3c
000002d0: dbb9 3abe a1ca 1f3d 0081 6ebe c58c 28be
000002e0: f085 e63d 65c9 003e ea1e 4c3c 80be 2fbc
000002f0: 0a45 c9bc bd19 223e 2b30 33bd 81aa 8cbd
00000300: aaae 5b3e 2c1d 10be e558 4f3e a46c 1dbd
00000310: 74da 203e 67e1 10be ad2d debd 06dc 8a3a
00000320: bc90 9b3b d9f2 e3bd 821f 4f3e ac2d 193e
00000330: 7823 133e 8d18 53bd 57da e2b8 d62c 493d
00000340: f062 ffbc c4c0 9a3d 3895 143e 1794 a23d
00000350: 7fd3 52bd 532f 7bbd f608 5abe fe02 213c
00000360: 45a0 28bd c48f 3ebe 65d0 1c3e f7ee 57bc
00000370: 1aae cfbc b70a 23be d8c8 2e3c 4dc8 c03d
00000380: 901b a23d b9fa 833d 587e dd3d 8ee3 89bd
00000390: 5597 003e 5d64 f4bd 93aa 0fbd 06fc 95bd
000003a0: 5eee 2cbe d73c 963c 76c3 47bd 10aa b03d
000003b0: 1510 af3d 3986 f2bc 0557 d03d d7de 5bbc
000003c0: 3548 b6bd 894b 7cbd 8386 c7bd f2ad b33d
000003d0: 8583 a73d f0da cbb9 05e3 dfbd 1260 39be
000003e0: 2054 2cbe 0986 9c3c 6e06 203d 9166 0ebe
000003f0: fb2b 903d 7a63 8c3d c744 543d a3ba f7bd

model.bigrill.fwd_rnn.cells.0.forget_gate.mlp.bias f4 [32]
-0.040151447 -0.04856846 -0.035143647 -0.026638238 0.06639661 0.0067583094 0.016207604 0.11499715
0.08912198 0.036324028 0.025717419 -0.022268755 -0.08727813 -0.124503806 0.15867293 -0.05688693
-0.0029830092 0.014133282 -0.05164597 0.0020441143 -0.15245636 -0.1897202 0.01412915 0.013026392
-0.054790374 0.04721676 -0.10071756 0.2022726 0.16062194 -0.17623466 0.1265958 -0.027172947
00000000: d875 24bd b9ef 46bd c9f2 0fbd 6f38 dabc
00000010: f2fa 873d cf74 dd3b cfc5 843c a083 eb3d
00000020: 9685 b63d 81c8 143d 56ad d23c f76c b6bc
00000030: e0be b2bd dafb febd 287b 223e 4502 69bd
00000040: 977e 43bb 488f 673c ba8a 53bd 8cf6 053b
00000050: 851d 1cbe 0346 42be f37d 673c a66c 553c
00000060: df6b 60bd 5d66 413d 0245 cebd 8c20 4f3e
00000070: 147a 243e dc76 34be 54a2 013e cd99 debc

model.bigrill.fwd_rnn.cells.0.update_gate.mlp.weight f4 [32, 170, 1, 1]
-0.047000688 -0.17982717 0.36324707 -0.21393219 0.14999226 0.07921922 -0.2280787 0.1386439
-0.105260275 -0.15784882 0.03863045 0.0018861928 -0.0767545 -0.12100857 -0.115901664 0.037621897
-0.26005742 0.06782707 -0.16046111 0.007776156 0.023380717 0.14524236 -0.33942232 0.3498092
-0.22501415 -0.13207525 -0.10369434 -0.044568654 0.0018688818 -0.09546773 0.23559654 -0.012676748
-0.039241556 0.0071078166 -0.055985477 -0.031166367 -0.47099757 0.18318158 0.11820167 0.02511925
-0.040672958 -0.0141146835 -0.08906633 0.02145674 0.37852913 0.12727807 -0.48462346 -0.056251667
-0.05981423 0.0811914 -0.23625372 -0.11323575 -0.11929449 -0.23695579 0.12406705 0.05237003
-0.11682249 -0.13384128 -0.04512361 0.45101455 -0.15076739 -0.18117136 0.13273306 -0.20612735
0.23306112 -0.18084212 0.18389925 0.1952481 -0.07842959 0.040899854 -0.22901861 -0.03060333
-0.017535621 0.12455755 -0.054678753 0.04999824 -0.050227147 -0.06115198 0.31718138 -0.10934629
-0.4609176 0.011936188 0.028942788 -0.15123437 -0.34705698 -0.15657483 -0.00046584397 0.009421919
0.07092342 -0.0007292076 -0.02514917 -0.25397944 -0.044184737 -0.014033716 -0.08412588 -0.43136603
0.01135698 -0.21419254 0.33793804 -0.18252921 0.21024723 0.1464286 -0.042565536 -0.11648327
-0.0021942325 0.12982771 -0.021421093 -0.13639826 -0.16627473 0.049315896 -0.07217792 -0.023473334
0.14517848 -0.047883574 -0.1640092 0.09534505 0.20889878 0.03110808 -0.37709767 0.060445625
-0.06383196 0.05574843 0.19132836 0.10691121 -0.07452149 -0.3746095 0.09732668 -0.019609232
-0.041848917 0.026929066 0.025212599 -0.11665599 0.40235385 -0.0046808515 -0.051290445 -0.15636559
-0.023532912 0.1153992 -0.1318025 0.011672466 0.09317331 0.13505208 -0.18651107 -0.025695272
-0.21037674 -0.08032889 0.09665503 0.026094485 -0.19422285 -0.060892753 0.19357838 0.009870219
-0.07520528 -0.2633651 0.15392569 0.15279374 0.17287597 0.18112174 -0.06102405 -0.0025101802
0.021468006 -0.054283272 -0.179704 -0.05137168 0.12664314 -0.09523849 0.028407997 -0.092611626
0.109038465 0.022823785 -0.000111616995 -0.2134582 0.17150082 -0.40444338 -0.00907523 0.13787052
-0.2549458 0.12996465 -0.095054306 -0.2018341 0.0073951143 -0.07562185 0.09225525 -0.04832345
0.009156055 0.15609476 -0.025459722 -0.010969342 0.028941853 -0.17461862 0.13855074 0.061919313
-0.23506404 0.22927384 -0.25249952 0.21314828 -0.09694495 0.026648438 0.18308803 -0.22040671
-0.033128187 0.0704646 0.047557984 -0.13761373 -0.011892292 0.09105672 0.047122575 0.029452877
-0.055540103 0.09118428 -0.08001666 0.11708712 -0.054992765 -0.15159215 0.42259756 0.061659504
-0.032229178 -0.01972207 -0.052479774 0.13161847 -0.10489174 0.0055207685 -0.05934089 -0.22766
0.13224326 0.043942355 0.07447413 0.22917353 -0.11192996 0.15316978 -0.039569896 -0.100866
0.21378957 -0.2715342 0.014662835 0.032597505 0.10745631 0.024589464 -0.0049695782 0.10150817
-0.069434 -0.044282276 -0.1491081 -0.15101719 0.053407956 0.024837645 -0.011024899 -0.052769955
0.36674702 -0.05289954 -0.2679884 0.08917037 -0.0029387178 0.011956546 -0.12185954 0.008621392
00000000: cb83 40bd 9d24 38be 85fb b93e 0a11 5bbe
00000010: 9297 193e b03d a23d 768d 69be abf8 0d3e
00000020: b392 d7bd 1fa3 21be f63a 1e3d 213a f73a
00000030: 7731 9dbd 57d3 f7bd da5d edbd 6b19 1a3d
00000040: 3f26 85be ebe8 8a3d eb4f 24be 20cf fe3b
00000050: eb88 bf3c 6aba 143e c3c8 adbe 311a b33e
00000060: 1c6a 66be bc3e 07be b35d d4bd 9f8d 36bd
00000070: 44f5 f43a 9684 c3bd 3840 713e 23b2 4fbc
00000080: c1bb 20bd b0e8 e83b 0751 65bd 9c50 ffbc
00000090: 9826 f1be f493 3b3e b813 f23d e3c6 cd3c
000000a0: b098 26bd 4641 67bc 6868 b6bd 0cc6 af3c
000000b0: 92ce c13e 2f55 023e 9120 f8be 2668 66bd
000000c0: c4ff 74bd ad47 a63d 7fec 71be 25e8 e7bd
000000d0: ab50 f4bd 8aa4 72be de16 fe3d f581 563d
000000e0: a140 efbd b00d 09be 89d3 38bd 61eb e63e
000000f0: c462 1abe fc84 39be 2deb 073e 0c13 53be
00000100: 93a7 6e3e ad2e 39be 1650 3c3e 1eef 473e
00000110: b19f a0bd 9b86 273d db83 6abe d6b3 fabc
00000120: dda6 8fbc 0718 ff3d d4f6 5fbd f4ca 4c3d
00000130: fbba 4dbd 807a 7abd 9965 a23e f3f0 dfbd
00000140: 64fd ebbe 0090 433c 6d19 ed3c 2fdd 1abe
00000150: 74b1 b1be 2755 20be 853c f4b9 645e 1a3c
00000160: 4c40 913d 4b28 3fba a205 cebc 9809 82be
00000170: 0efb 34bd aced 65bc 304a acbd 02dc dcbe
00000180: a012 3a3c 4a55 5bbe 3706 ad3e f0e8 3abe
00000190: 0d4b 573e 61f1 153e 3359 2ebd c88e eebd
000001a0: 1dcd 0fbb 8ef1 043e 4a7b afbc fcab 0bbe
000001b0: ec43 2abe 77ff 493d 04d2 93bd 264b c0bc
000001c0: aba9 143e 9121 44bd 07f2 27be 4444 c33d
000001d0: 90e9 553e 5fd6 fe3c f212 c1be d595 773d
000001e0: 55ba 82bd 7758 643d 95eb 433e 44f4 da3d
000001f0: b99e 98bd d1cc bfbe 3653 c73d 8aa3 a0bc
00000200: c569 2bbd 589a dc3c a78a ce3c 56e9 eebd
00000210: 5301 ce3e d461 99bb ee15 52bd 4d1e 20be
00000220: 18c8 c0bc 6a56 ec3d 3cf7 06be df3d 3f3c
00000230: a6d1 be3d 184b 0a3e c2fc 3ebe e47e d2bc
00000240: 006d 57be 7983 a4bd 13f3 c53d 1ac4 d53c
00000250: 5be2 46be ae6a 79bd 6939 463e b3b6 213c
00000260: 3a05 9abd cad7 86be b29e 1d3e f675 1c3e
00000270: 6606 313e fa77 393e 5bf4 79bd d681 24bb
00000280: acdd af3c 2358 5ebd 5304 38be 1c6b 52bd
00000290: bdae 013e 660c c3bd e3b7 e83c 2aab bdbd
000002a0: 8f4f df3d f2f8 ba3c eb13 eab8 c994 5abe
000002b0: e99d 2f3e 3413 cfbe 46b0 14bc ee2d 0d3e
000002c0: 4288 82be 7415 053e d5ab c2bd 99ad 4ebe
000002d0: b752 f23b a1df 9abd 52f0 bc3d cfee 45bd
000002e0: 4703 163c 4ed7 1f3e e890 d0bc c1b8 33bc
000002f0: 7717 ed3c 39cf 32be 3fe0 0d3e 1b9f 7d3d
00000300: a1b4 70be c3c6 6a3e 9e47 81be 8b43 5a3e
00000310: 138b c6bd d34d da3c 6e7b 3b3e 4cb2 61be
00000320: 6cb1 07bd bf4f 903d 29cc 423d 9dea 0cbe
00000330: e3d7 42bc f27b ba3d 9a03 413d 2947 f13c
00000340: 057e 63bd d3be ba3d c6df a3bd 5fcb ef3d
00000350: 1840 61bd f93a 1bbe b55e d83e ad8e 7c3d
00000360: be02 04bd 2e90 a1bc 08f5 56bd fec6 063e
00000370: 7bd1 d6bd 90e7 b43b 6f0f 73bd b41f 69be
00000380: c76a 073e e6fc 333d e585 983d 77ac 6a3e
00000390: 893b e5bd 8ad8 1c3e 0b14 22bd d592 cebd
000003a0: a7eb 5a3e 8806 8bbe 633c 703c f684 053d
000003b0: 0e12 dc3d d86f c93c d8d7 a2bb 84e3 cf3d
000003c0: 6a33 8ebd 5561 35bd cbaf 18be 40a4 1abe
000003d0: 4dc2 5a3d 5178 cb3c c7a1 34bc 4f25 58bd
000003e0: 44c6 bb3e 30ad 58bd c735 89be f49e b63d
000003f0: 8197 40bb 64e5 433c 7f91 f9bd bd40 0d3c

model.bigrill.fwd_rnn.cells.0.update_gate.mlp.bias f4 [32]
0.057328884 0.09613326 0.11715121 0.10222159 0.18774368 0.13470188 0.09174529 -0.06415612
0.029111352 0.19229966 0.16228645 -0.05311076 -0.01074247 -0.022547321 -0.06491903 0.028136281
0.12535684 -0.014238185 0.16155444 -0.041635957 0.24483807 0.15649812 -0.0536547 0.023883104
0.087067135 -0.18567015 0.09449646 -0.10140732 -0.09692561 0.06175193 -0.2067109 0.007888276
00000000: b1d1 6a3d 84e1 c43d f9ec ef3d 8e59 d13d
00000010: e13f 403e 4aef 093e f4e4 bb3d 4964 83bd
00000020: ee7a ee3c 34ea 443e 6b2e 263e ab8a 59bd
00000030: 2f01 30bc 29b5 b8bc 45f4 84bd 0f7e e63c
00000040: 8b5d 003e 4747 69bc 876e 253e 778a 2abd
00000050: d5b6 7a3e 0b41 203e 08c5 5bbd 80a6 c33c
00000060: 4150 b23d 5120 3ebe 5c87 c13d a4ae cfbd
00000070: ef80 c6bd 97ef 7c3d 06ac 53be d43d 013c

model.bigrill.fwd_rnn.cells.0.c_gate.mlp.weight f4 [32, 170, 1, 1]
-0.10092564 0.08572983 -0.005748427 0.023072341 0.13666616 0.0905314 -0.18544425 -0.08004791
0.030970585 -0.15899025 0.11424722 0.26017237 0.014918012 -0.028520105 -0.024064293 0.009073802
-0.1631145 0.027952405 0.0053259335 -0.09408569 0.0078117 0.09114794 0.011339029 0.075207494
-0.13659848 -0.033861756 -0.016734922 -0.11865767 0.11987014 -0.099365704 0.12390827 0.12483537
0.03587353 -0.024035066 0.0035003023 0.065543875 -0.101989426 0.043051742 0.049628388 0.044416524
-0.04866789 -0.03915284 -0.028011905 -0.13276127 0.24924308 0.25626355 -0.08766468 0.046618186
-0.014535388 0.10708457 -0.08942246 -0.036884006 0.07391489 -0.042836405 0.030500129 0.124562114
0.07295048 -0.043231994 -0.07622694 -0.069976 0.0712868 -0.0030922224 0.042582035 -0.22183578
0.12383152 -0.115400374 0.056428626 -0.035166267 -0.0025649292 0.05321988 -0.10034089 -0.09882933
-0.077764675 0.024043271 -0.08986748 0.027544051 -0.00502045 0.004653468 -0.0061445883 0.069061995
-0.19163494 0.01853771 0.0087197535 0.039458312 -0.14260487 0.0011549947 -0.052304193 -0.045517914
0.032969203 0.027086904 -0.09687839 -0.09883196 0.07622363 0.024554513 0.03570979 -0.013828807
0.032185663 -0.088544324 0.035583403 -0.052128475 0.0042188475 0.00056336145 -0.011113569 0.12036582
0.038064476 0.09606603 0.12809728 -0.026674319 -0.05950462 0.027015815 -0.09476341 -0.20421256
0.06745934 0.09496483 -0.11977164 0.08741365 -0.054343093 0.12573062 -0.13788748 0.029146552
0.12646942 0.011295892 0.11563293 0.1057565 -0.00094438944 -0.033819024 -0.09307143 0.041008458
0.03310733 -0.10588021 -0.071119666 -0.1324275 0.18785083 -0.058395028 -0.054994207 -0.029877715
-0.017273359 0.09827483 -0.066861205 0.050636064 0.038438153 0.09181093 -0.032177545 0.0499527
-0.09521503 -0.15709881 0.049647745 0.07546992 -0.12903266 0.057979207 0.08182647 -0.06895639
-0.13034345 -0.082748815 0.106985115 0.0060638855 -0.024675393 -0.0019591146 0.014274903 -0.019148763
-0.10643414 -0.06773544 0.13551553 -0.0018237141 0.11085005 0.00041981175 0.15011825 -0.04646002
0.014088943 -0.10205859 0.09031555 0.07035644 0.037964582 -0.18775874 -0.11490229 -0.0384563
0.09039013 0.020165773 0.020868607 0.03451801 -0.293505 -0.2174405 -0.008144639 -0.029616192
-0.011651647 0.012814273 0.104451165 0.07855085 0.0017522248 -0.0036766639 -0.04171645 -0.07105962
-0.16010407 0.26348364 0.027350444 0.0042688386 -0.05579362 0.08943174 -0.012386486 0.026814882
-0.08936667 -0.02083798 -0.106281996 -0.07527053 -0.00059300195 0.03272571 -0.06364192 -0.015176773
-0.101482734 0.03769956 0.00361194 0.07875123 0.098116145 0.064407095 -0.021925582 0.040878043
0.072065115 -0.025323218 0.003128292 -0.11546148 0.03113194 0.0013228374 -0.08593272 0.036850955
-0.03394036 -0.07594422 0.116791345 -0.022088459 -0.002193138 0.07111865 0.046790924 -0.016602132
0.06427459 0.04964588 0.020309817 -0.010542435 -0.028380552 -0.051362947 -0.0032365967 0.04042014
0.0447855 0.031441327 -0.057192504 0.026373522 0.0134013 0.08152099 -0.01989604 0.13133922
-0.0142656015 0.04486385 0.0010063271 -0.07315528 -0.02303251 -0.055858236 0.018706718 -0.01627195
00000000: 1ab2 cebd 1f93 af3d 4d5d bcbb 3502 bd3c
00000010: 37f2 0b3e 8768 b93d 19e5 3dbe 29f0 a3bd
00000020: 06b6 fd3c 57ce 22be 72fa e93d 5035 853e
00000030: ad6a 743c ffa2 e9bc 7b22 c5bc 49aa 143c
00000040: 7d07 27be 71fc e43c 2b85 ae3b 00b0 c0bd
00000050: 4af9 ff3b c5ab ba3d 56c7 393c 6306 9a3d
00000060: 79e0 0bbe a0b2 0abd ad17 89bc cb02 f3bd
00000070: 7a7e f53d 3f80 cbbd 9ec3 fd3d b0a9 ff3d
00000080: 1ff0 123d 30e5 c4bc 5465 653b de3b 863d
00000090: d5df d0bd 0657 303d 2347 4b3d 1aee 353d
000000a0: fb57 47bd ba5e 20bd 3979 e5bc 92f2 07be
000000b0: 9439 7f3e fa34 833e 8a89 b3bd b6f2 3e3d
000000c0: d625 6ebc 284f db3d 1f23 b7bd af13 17bd
000000d0: b160 973d 3a75 2fbd 68db f93c 6c1a ff3d
000000e0: 1067 953d 0814 31bd df1c 9cbd 944f 8fbd
000000f0: d0fe 913d e2a6 4abb 806a 2e3d eb28 63be
00000100: 619b fd3d 0857 ecbd b421 673d 810a 10bd
00000110: 5f18 28bb 17fd 593d 867f cdbd 0867 cabd
00000120: 1643 9fbd 65f6 c43c 710c b8bd 10a4 e13c
00000130: 9682 a4bb 1e7c 983b 8b58 c9bb 6070 8d3d
00000140: f33b 44be 65dc 973c 4cdd 0e3c 0a9f 213d
00000150: 0307 12be 3163 973a ec3c 56bd fe70 3abd
00000160: b70a 073d 5be5 dd3c 2d68 c6bd 6968 cabd
00000170: 221b 9c3d 8c26 c93c 6e44 123d 3892 62bc
00000180: 1dd5 033d ba56 b5bd e7bf 113d ab84 55bd
00000190: 423e 8a3b 8cae 133a b015 36bc 5b82 f63d
000001a0: 7fe9 1b3d 44be c43d ef2b 033e 1a84 dabc
000001b0: 1ebb 73bd 4550 dd3c 5213 c2bd 191d 51be
000001c0: 1f28 8a3d ec7c c23d d54a f5bd ed05 b33d
000001d0: dd96 5ebd 87bf 003e 6032 0dbe c0c4 ee3c
000001e0: 3381 013e 6812 393c f5d0 ec3d dd96 d83d
000001f0: e790 77ba d185 0abd 3c9c bebd 7cf8 273d
00000200: 8d9b 073d b9d7 d8bd 30a7 91bd 139b 07be
00000210: f85b 403e a02f 6fbd 9b41 61bd 1cc2 f4bc
00000220: dc80 8dbc 5044 c93d 87ee 88bd c367 4f3d
00000230: 5371 1d3d 5e07 bc3d 9acc 03bd 349b 4c3d
00000240: 1900 c3bd 83de 20be 6f5b 4b3d f98f 9a3d
00000250: 2321 04be 9b7b 6d3d a394 a73d 0239 8dbd
00000260: c178 05be 3678 a9bd 031b db3d 8fb3 c63b
00000270: 0d24 cabc 7d64 00bb 48e1 693c dedd 9cbc
00000280: 24fa d9bd e1b8 8abd 95c4 0a3e b109 efba
00000290: 5a05 e33d 2e1a dc39 99b8 193e dd4c 3ebd
000002a0: 4fd5 663c 1804 d1bd 5cf7 b83d 0a17 903d
000002b0: c080 1b3d d443 40be e451 ebbd 5a84 1dbd
000002c0: 761e b93d b132 a53c a4f4 aa3c c262 0d3d
000002d0: 4a46 96be b9a8 5ebe 1871 05bc a89d f2bc
000002e0: 8de6 3ebc f5f2 513c 7eea d53d 45df a03d
000002f0: e8aa e53a 2ff4 70bb dede 2abd b587 91bd
00000300: 52f2 23be 54e7 863e 0a0e e03c 9de1 8b3b
00000310: da87 64bd fd27 b73d b0f0 4abc e2aa db3c
00000320: df05 b7bd 69b4 aabc 60aa d9bd 7027 9abd
00000330: b073 1bba 650b 063d b256 82bd 00a8 78bc
00000340: 2ed6 cfbd db6a 1a3d 4cb6 6c3b 5348 a13d
00000350: 1ef1 c83d dee7 833d 479d b3bc bc6f 273d
00000360: e096 933d a372 cfbc 0804 4d3b 1277 ecbd
00000370: 6908 ff3c 0f63 ad3a 7efd afbd 07f1 163d
00000380: 0c05 0bbd a588 9bbd 4d30 ef3d dbf2 b4bc
00000390: c0ba 0fbb a8a6 913d d7a7 3f3d 3201 88bc
000003a0: 65a2 833d 7a59 4b3d c660 a63c 2dba 2cbc
000003b0: 557e e8bc f461 52bd 151d 54bb 978f 253d
000003c0: 0071 373d 9fc8 003d b042 6abd 490d d83c
000003d0: 2091 5b3c 7af4 a63d 05fd a2bc ca7d 063e
000003e0: 45ba 69bc 28c3 373d bce6 833a 6fd2 95bd
000003f0: adae bcbc 9bcb 64bd d53e 993c c14c 85bc

model.bigrill.fwd_rnn.cells.0.c_gate.mlp.bias f4 [32]
0.08049323 -0.048336003 0.22893031 0.19773224 -0.21929717 0.0014351405 -0.0022156604 -0.13807802
0.008579838 -0.08720292 0.07867316 0.16176991 -0.15525949 -0.1620774 -0.0011792821 0.026637748
-0.018345863 -0.15121189 -0.053063683 -0.06176075 -0.05842143 0.1162157 -0.21327841 0.13657665
0.025147066 0.10399434 0.12364064 -0.10377466 -0.07959885 0.101690084 -0.21921806 -0.13778906
00000000: a2d9 a43d f9fb 45bd b56c 6a3e 527a 4a3e
00000010: 708f 60be 531b bc3a 9d34 11bb 5364 0dbe
00000020: 7392 0c3c 7297 b2bd 651f a13d 03a7 253e
00000030: 58fc 1ebe 9ef7 25be 2492 9aba 6837 da3c
00000040: 104a 96bc 4ad7 1abe 4e59 59bd d7f8 7cbd
00000050: 4f4b 6fbd 7f02 ee3d a865 5abe c0da 0b3e
00000060: 3801 ce3c fcfa d43d 4e37 fd3d cf87 d4bd
00000070: b904 a3bd e442 d03d b37a 60be 9318 0dbe

model.bigrill.fwd_rnn.first_stage.weight f4 [1, 32, 1]
-1.0991627 0.77492934 0.5272125 1.399086 -0.93583065 -0.96662796 -1.0627233 -0.9353614
0.23497799 0.28526476 0.8296651 -1.1036711 1.2033126 1.1352407 -1.2331463 -0.9852857
0.9340906 1.1274543 1.0439005 1.0949564 0.24008903 -0.78331333 1.1154511 -0.89566433
-0.6275392 -0.8627721 0.07919052 -1.1447388 1.1432744 -1.0549378 1.1497939 1.0537498
00000000: 5db1 8cbf c561 463f 66f7 063f 4015 b33f
00000010: 9992 6fbf ee74 77bf 5107 88bf d873 6fbf
00000020: 129e 703e 390e 923e ef64 543f 1845 8dbf
00000030: 2606 9a3f 914f 913f bdd7 9dbf af3b 7cbf
00000040: 9020 6f3f 6c50 903f 889e 853f 8827 8c3f
00000050: e6d9 753e 3987 48bf 1ac7 8e3f 424a 65bf
00000060: 69a6 20bf a2de 5cbf a42e a23d cd86 92bf
00000070: d156 923f 3408 87bf 722c 933f 46e1 863f

model.bigrill.fwd_rnn.spatial_decoder.lin_in.weight f4 [32, 34, 1]
0.0331358 -0.31098738 -0.06130511 0.06054608 -0.48080367 -0.04518697 0.20581552 0.129256
-0.0950237 0.19556312 0.42091322 -0.25456917 0.046545353 -0.19463469 0.31345657 0.34746593
-0.20221938 -0.09784859 -0.1994949 0.03311888 0.14921655 -0.010115355 0.036860857 -0.056553714
0.1628606 0.099174924 0.103665486 0.08589418 -0.15903798 0.044732466 0.21823244 -0.15667331
-0.023217715 0.112863906 -0.109468035 -0.034215298 0.00033403418 0.028822077 0.20935634 -0.21962631
-0.02039866 0.10361363 0.1261149 0.17714517 0.44593412 -0.21569324 0.16576897 0.103663325
-0.09170171 -0.098246664 -0.07407168 0.07888027 0.0073575242 -0.008026495 0.021399882 -0.09266784
-0.097269915 -0.032092396 0.15447667 0.17296664 0.13179162 0.04694973 -0.07787298 -0.00734506
0.19289729 -0.2342186 -0.07916283 0.08268583 -0.021691596 -0.029646456 0.15985456 0.10649754
0.1714859 0.19823712 -0.13490812 -0.18884642 -0.047982402 -0.34709552 -0.35935324 0.30524632
-0.26933497 0.006610296 -0.008536502 0.20002954 0.021834733 -0.017034197 0.23137943 0.24290025
0.06332233 0.015927704 -0.008514405 -0.035318848 0.045236886 -0.22752196 -0.12726192 -0.1798022
-0.17354749 -0.2740491 -0.1935555 0.13630451 -0.06315059 -0.110027045 0.07019414 0.17269275
0.19422385 0.13662572 0.025507081 0.24376406 0.13552183 -0.17000264 0.025498841 0.001579701
-0.19518653 0.16294569 -0.24028765 -0.068154775 0.22427379 -0.06309666 -0.020490922 -0.19721065
0.1773978 0.12582757 0.01137412 0.30325812 0.12545213 -0.07864294 -0.024607886 -0.28180498
-0.22628802 0.056877423 -0.123588234 -0.09995996 0.10521204 0.05647359 0.058476772 0.07261373
0.07409338 -0.28404552 -0.08928997 -0.053173505 -0.17437239 0.34287786 -0.105088174 -0.14291298
-0.1611613 -0.16198553 -0.12662882 0.22126015 -0.3142976 -0.14783584 0.028809702 0.0275753
-0.083250225 -0.24122512 -0.00053617323 0.11114327 0.15936913 0.2265231 0.020962784 -0.016430432
0.13529488 0.06894629 0.07721387 0.033483397 -0.18400066 -0.111038186 0.06850896 -0.090795256
-0.02824853 0.20567505 -0.06257424 0.09074354 -0.0065239985 0.016960626 0.035587985 0.039913435
-0.24512365 0.014598981 0.05338817 -0.20813824 -0.37948865 0.28958437 0.0039061352 0.13254803
0.13896759 -0.1125055 -0.04767544 0.12491389 0.09336589 -0.047966536 0.066946484 0.048291218
0.073048934 -0.04130493 -0.21040218 -0.16242678 0.060086265 -0.10490743 0.15804662 0.105226435
-0.18546106 -0.13762295 -0.20218796 0.16028468 -0.028815994 -0.105056934 -0.12222484 0.24632409
0.16807811 -0.004206122 -0.2600435 -0.0008731487 -0.032328274 0.006144114 -0.54271466 0.035448622
-0.15675713 0.060297754 0.0058239293 -0.18186985 0.13835731 0.076394536 -0.08891747 0.16634321
-0.17722629 0.06041191 -0.083213635 0.23128542 0.038026676 -0.09071299 -0.13781027 -0.29227316
-0.03382987 -0.007572445 -0.20523608 -0.006042253 0.08546232 0.15421851 -0.121950164 0.11827923
0.2154086 -0.108345084 0.0911285 0.28239387 0.0059588263 0.10167281 -0.1362473 -0.18992768
-0.26592204 0.21107098 -0.2157635 0.069507144 -0.0060110297 0.030763607 0.27893186 -0.18894173
00000000: 68b9 073d bd39 9fbe 111b 7bbd 2bff 773d
00000010: e62b f6be f915 39bd 4ec1 523e af5b 043e
00000020: c99b c2bd b341 483e f081 d73e e456 82be
00000030: 57a6 3e3d 514e 47be 617d a03e 0ee7 b13e
00000040: 9912 4fbe d764 c8bd 6448 4cbe aaa7 073d
00000050: 39cc 183e e0ba 25bc 69fb 163d dea4 67bd
00000060: eec4 263e 391c cb3d 924e d43d 4ae9 af3d
00000070: dada 22be 6439 373d 5378 5f3e f86e 20be
00000080: 1433 bebc 3125 e73d c730 e0bd 5725 0cbd
00000090: 4f21 af39 471c ec3c 8261 563e b8e5 60be
000000a0: 171b a7bc 6233 d43d 4424 013e 8b65 353e
000000b0: 7a51 e43e b0de 5cbe 57bf 293e 704d d43d
000000c0: 1bce bbbd 8c35 c9bd e5b2 97bd fb8b a13d
000000d0: 6317 f13b 8f81 03bc ce4e af3c a3c8 bdbd
000000e0: 7335 c7bd 5173 03bd 222f 1e3e 2b1e 313e
000000f0: 62f4 063e 5c4e 403d de7b 9fbd d4ae f0bb
00000100: de86 453e 00d7 6fbe 1f20 a2bd 3057 a93d
00000110: 93b2 b1bc 20dd f2bc eab0 233e 621b da3d
00000120: 009a 2f3e acfe 4a3e 5b25 0abe f560 41be
00000130: 3289 44bd 81b6 b1be 26fd b7be 3f49 9c3e
00000140: 46e6 89be 2f9b d83b afdc 0bbc 8bd4 4c3e
00000150: c1de b23c 4d8b 8bbc bbee 6c3e d8ba 783e
00000160: 23af 813d d17a 823c 0180 0bbc 7faa 10bd
00000170: 504a 393d 84fb 68be f350 02be 111e 38be
00000180: 6fb6 31be 2a50 8cbe 6a33 46be 6993 0b3e
00000190: 1955 81bd dc55 e1bd f2c1 8f3d 5ed6 303e
000001a0: 9ee2 463e 9de7 0b3e 3af4 d03c 499d 793e
000001b0: 3cc6 0a3e 2c15 2ebe f2e2 d03c f80d cf3a
000001c0: fade 47be 3cdb 263e f70d 76be bb94 8bbd
000001d0: 07a8 653e d238 81bd 94dc a7bc 97f1 49be
000001e0: c5a7 353e f1d8 003e 845a 3a3c a644 9b3e
000001f0: 8676 003e 8d0f a1bd 7a96 c9bc be48 90be
00000200: 0cb8 67be 4df8 683d d41b fdbd cfb7 ccbd
00000210: 6979 d73d da50 673d 5785 6f3d 82b6 943d
00000220: 45be 973d 6a6e 91be a9dd b6bd 76cc 59bd
00000230: ad8e 32be b08d af3e 7838 d7bd c857 12be
00000240: 7807 25be 89df 25be fcaa 01be 0592 623e
00000250: 9deb a0be 4762 17be 5302 ec3c 98e5 e13c
00000260: 187f aabd b803 77be fa8d 0cba 159f e33d
00000270: a931 233e acf5 673e 25ba ab3c 1d99 86bc
00000280: be8a 0a3e b633 8d3d 4e22 9e3d e325 093d
00000290: ab6a 3cbe fd67 e3bd 6d4e 8c3d ddf2 b9bd
000002a0: 7669 e7bc 7b9c 523e ec26 80bd c0d7 b93d
000002b0: 44c7 d5bb 03f1 8a3c b5c4 113d 457c 233d
000002c0: b201 7bbe 9030 6f3c 8ead 5a3d 3122 55be
000002d0: 564c c2be 6744 943e 13fe 7f3b acba 073e
000002e0: 854d 0e3e 4969 e6bd 5247 43bd dbd2 ff3d
000002f0: 9e36 bf3d 8f78 44bd 3d1b 893d 03cd 453d
00000300: ae9a 953d 5c2f 29bd ab73 57be 3553 26be
00000310: 041d 763d b5d9 d6bd f9d6 213e f580 d73d
00000320: 81e9 3dbe 08ed 0cbe 5c0a 4fbe ab21 243e
00000330: 850f ecbc 1728 d7bd 0451 fabd 623c 7c3e
00000340: ab1c 2c3e 82d3 89bb 6c24 85be 04e4 64ba
00000350: a76a 04bd 9054 c93b 59ef 0abf 9332 113d
00000360: f184 20be c7fa 763d a9d6 be3b 173c 3abe
00000370: 8aad 0d3e bd74 9c3d 5d1a b6bd e055 2a3e
00000380: cf7a 35be 7b72 773d e96b aabd 16d6 6c3e
00000390: dcc1 1b3d bbc7 b9bd 231e 0dbe d4a4 95be
000003a0: 3191 0abd 4622 f8bb 6829 52be 18fe c5bb
000003b0: de06 af3d 75eb 1d3e 02c1 f9bd 623c f23d
000003c0: 1294 5c3e 07e4 ddbd 94a1 ba3d ee95 903e
000003d0: 4242 c33b d639 d03d 6a84 0bbe 677c 42be
000003e0: ef26 88be fe22 583e 1bf1 5cbe c359 8e3d
000003f0: 2cf8 c4bb f603 fc3c 28d0 8e3e f179 41be

model.bigrill.fwd_rnn.spatial_decoder.lin_in.bias f4 [32]
-0.022357317 -0.24104135 0.22866295 0.20095457 0.2513074 0.034915794 -0.14384975 0.21981554
0.047615394 0.29563773 0.119704306 -0.19647405 -0.08487193 -0.13772073 -0.16983187 -0.28628406
0.1327584 0.1288231 -0.03465298 -0.055603728 0.20498905 0.19212827 0.2736959 0.13663833
-0.24164338 0.07143498 -0.049359333 0.025389703 -0.30133596 -0.3231518 0.19408008 0.11115538
00000000: b126 b7bc 8bd3 76be 9f26 6a3e 09c7 4d3e
00000010: 5dab 803e dd03 0f3d 594d 13be 5317 613e
00000020: 5c08 433d d45d 973e 8827 f53d 7e30 49be
00000030: 56d1 adbd aa06 0dbe 68e8 2dbe d393 92be
00000040: d1f1 073e 34ea 033e 48f0 0dbd bcc0 63bd
00000050: a6e8 513e 46bd 443e de21 8c3e ebea 0b3e
00000060: 5d71 77be 814c 923d 032d 4abd 11fe cf3c
00000070: b548 9abe 2774 a5be eebc 463e 6fa5 e33d

model.bigrill.fwd_rnn.spatial_decoder.graph_conv.mlp.weight f4 [32, 64, 1, 1]
-0.07263123 -0.10301782 0.17047247 0.121311754 -0.00012387302 0.09068787 0.09479376 0.099939264
-0.07336264 0.101514466 0.05046445 -0.06284611 0.048100576 -0.044472672 -0.0853209 -0.123619996
0.1308208 0.09402612 -0.015728587 0.10138911 0.08032098 0.044200458 -0.0025853566 0.1554221
-0.049956813 -0.052808013 -0.114005506 0.089687 -0.11471357 -0.11475548 -0.0099406205 -0.046520118
0.08536922 -0.014071686 -0.019844597 -0.073563665 -0.016847553 -0.048805423 0.06653541 -0.024114441
-0.12290835 0.04696183 -0.07062405 -0.021600707 0.062497977 -0.087342896 0.033278164 0.114606746
-0.08955849 -0.11068372 -0.14089176 0.08504937 0.06429131 0.003183303 0.097681955 0.16245154
0.005512786 -0.0015906629 -0.06226422 0.084659025 0.02217181 0.045765173 0.086368196 0.14641221
-0.17074242 0.1050343 0.18850015 0.04836784 0.07609139 -0.012882219 -0.05367866 -0.08592261
0.03088807 0.13290599 0.13736488 -0.038997374 -0.09442607 -0.14497416 0.05770819 -0.004665278
-0.05536654 -0.004834547 0.1283478 -0.09615102 0.0069231912 -0.1229415 0.09098573 0.07051571
-0.18671085 -0.078639045 0.077077314 0.044290848 -0.049869392 0.045254465 0.07433114 0.006936301
-0.054658983 -0.044680495 0.05961705 -0.0002749465 -0.013779294 0.064430036 0.14441569 0.019377561
0.045753945 0.029307706 -0.056877855 0.033484437 -0.06872494 0.039976384 0.14540337 -0.055195794
0.10112639 0.06850835 -0.005459797 -0.011130414 0.012429465 -0.09093788 -0.059173945 0.05830699
-0.13192949 -0.08351186 0.025008403 0.059302073 -0.095684625 -0.0392298 0.07297086 -0.09355405
0.18199158 -0.07386058 -0.22331703 -0.11156973 0.06645544 -0.06881312 0.034195065 -0.110722885
0.103560895 0.03425847 -0.10622765 -0.093644544 -0.03920485 -0.15296604 -0.029531697 -0.0017306769
-0.08489284 0.03518196 0.07846415 -0.059862006 -0.14114451 -0.04765092 -0.066670746 0.08530924
0.21773583 0.011470226 0.034821004 -0.037298266 0.04865094 -0.007101278 -0.0406594 0.017502192
0.17506988 -0.040893164 -0.0076845316 -0.01283059 0.016170774 -0.086235255 -0.13439012 -0.08932049
0.07144155 0.07182429 0.035826158 -0.07881617 -0.06533121 -0.1566047 -0.06380431 0.005218776
-0.080101095 -0.05414356 -0.16330509 0.19054578 -0.11932552 0.100391224 -0.13673794 0.09845499
0.061633192 0.003989292 -0.10772774 -0.08168032 -0.08477821 -0.097130574 0.024831496 -0.16803204
0.1019477 -0.01714678 -0.022170095 -0.0078404965 -0.115254946 0.058975033 0.03576329 -0.03155298
-0.106880195 -0.05159875 -0.23836401 -0.039958477 0.12488184 0.065059364 -0.115536064 0.102777846
0.07437286 -0.00922411 0.058735598 0.0692874 -0.06538341 -0.09405611 -0.07496004 -0.040838886
0.002648591 0.042734064 0.10810409 0.03840099 0.089442626 -0.088349745 0.04394867 0.005595629
0.029187633 -0.036395058 0.073264144 -0.13658369 0.08530229 -0.06502782 -0.08973128 0.017306104
-0.10077322 -0.08877439 0.056198504 0.003695149 -0.027684128 -0.03285816 -0.11335711 0.089449726
-0.09631472 0.088858895 -0.25196186 0.071351506 0.100586325 0.06380591 -0.03635498 0.050223608
0.03796152 0.010562232 -0.016996723 0.10370553 -0.064197026 -0.090983905 -0.06268442 0.03607114
00000000: afbf 94bd 02fb d2bd 5690 2e3e 4c72 f83d
00000010: e9e3 01b9 90ba b93d 3b23 c23d f5ac cc3d
00000020: 273f 96bd d1e6 cf3d d0b3 4e3d 76b5 80bd
00000030: 1c05 453d fa28 36bd b9bc aebd 7b2c fdbd
00000040: e3f5 053e c490 c03d 3dd9 80bc 18a5 cf3d
00000050: 537f a43d 8a0b 353d 166f 29bb f926 1f3e
00000060: 849f 4cbd 374d 58bd b87b e9bd d1ad b73d
00000070: f3ee eabd ec04 ebbd fcdd 22bc e18b 3ebd
00000080: 0fd6 ae3d ee8c 66bc 2391 a2bc 8ca8 96bd
00000090: e103 8abc 32e8 47bd b843 883d a68b c5bc
000000a0: 5fb7 fbbd 0c5b 403d 58a3 90bd f7f3 b0bc
000000b0: e1fd 7f3d d5e0 b2bd af4e 083d f1b6 ea3d
000000c0: 716a b7bd 25ae e2bd ee45 10be 5d2e ae3d
000000d0: 2aab 833d f69e 503b 7a0d c83d b259 263e
000000e0: 9aa4 b43b ca7d d0ba c408 7fbd b661 ad3d
000000f0: a8a1 b53c 4374 3b3d cfe1 b03d 15ed 153e
00000100: 1ad7 2ebe 391c d73d 2f06 413e 5b1d 463d
00000110: cdd5 9b3d f10f 53bc 28de 5bbd 31f8 afbd
00000120: fa08 fd3c 8218 083e 61a9 0c3e b6bb 1fbd
00000130: 7562 c1bd 1b74 14be 6c5f 6c3d 30df 98bb
00000140: 06c8 62bd 1f6b 9ebb 9b6d 033e d3ea c4bd
00000150: f0db e23b c1c8 fbbd ba56 ba3d 8a6a 903d
00000160: 2131 3fbe 820d a1bd b6da 9d3d 526a 353d
00000170: d943 4cbd bf5c 393d ed3a 983d e949 e33b
00000180: 19e2 5fbd e502 37bd 0231 743d b226 90b9
00000190: 8cc2 61bc e5f3 833d b5e1 133e b1bd 9e3c
000001a0: 7d68 3b3d b716 f03c c1f8 68bd fa26 093d
000001b0: a9bf 8cbd 47be 233d 9fe4 143e fc14 62bd
000001c0: 5a1b cf3d 1b4e 8c3d 19e8 b2bb 575c 36bc
000001d0: f4a4 4b3c a43d babd 6160 72bd 4fd3 6e3d
000001e0: 8618 07be 4408 abbd 6cde cc3c bbe6 723d
000001f0: 4df6 c3bd 6daf 20bd bf71 953d 4499 bfbd
00000200: 005c 3a3e 3744 97bd 38ad 64be ac7e e4bd
00000210: ca19 883d e5ed 8cbd 2010 0c3d aec2 e2bd
00000220: bc17 d43d 9c52 0c3d e28d d9bd b6c8 bfbd
00000230: 4495 20bd 21a3 1cbe 75ec f1bc e1d7 e2ba
00000240: 4cdc adbd f51a 103d d0b1 a03d dd31 75bd
00000250: 3088 10be 9c2d 43bd ac8a 88bd 9cb6 ae3d
00000260: 24f6 5e3e 9ded 3b3c 78a0 0e3d 11c6 18bd
00000270: 3546 473d d6b1 e8bb 798a 26bd c260 8f3c
00000280: 8545 333e 977f 27bd 86ce fbbb 6537 52bc
00000290: 9278 843c 1c9c b0bd 909d 09be a9ed b6bd
000002a0: f34f 923d 9d18 933d 73be 123d 5f6a a1bd
000002b0: 5fcc 85bd fc5c 20be d6ab 82bd 4402 ab3b
000002c0: 0b0c a4bd a3c5 5dbd 7339 27be 6f1e 433e
000002d0: f060 f4bd ea99 cd3d 0805 0cbe c5a2 c93d
000002e0: 1673 7c3d 9bb8 823b 5da0 dcbd 0348 a7bd
000002f0: 33a0 adbd 65ec c6bd 6c6b cb3c 9710 2cbe
00000300: f5c9 d03d 6777 8cbc 0f9e b5bc 6d75 00bc
00000310: c90a ecbd ce8f 713d 877c 123d b33d 01bd
00000320: 01e4 dabd 3659 53bd b215 74be 80ab 23bd
00000330: 0dc2 ff3d d83d 853d 2c9e ecbd 317d d23d
00000340: cc50 983d b920 17bc bd94 703d 8de6 8d3d
00000350: bde7 85bd 7da0 c0bd a684 99bd ad46 27bd
00000360: fc93 2d3b ea09 2f3d ad65 dd3d 5b4a 1d3d
00000370: b22d b73d b6f0 b4bd 8503 343d 8a5b b73b
00000380: e71a ef3c fc12 15bd 830b 963d 98dc 0bbe
00000390: f8b2 ae3d 4e2d 85bd 09c5 b7bd 88c5 8d3c
000003a0: 3162 cebd 59cf b5bd 6730 663d 502a 723b
000003b0: d3c9 e2bc 4796 06bd c627 e8bd 6b31 b73d
000003c0: a740 c5bd a7fb b53d 2501 81be bd20 923d
000003d0: 3400 ce3d acac 823d f6e8 14bd 45b7 4d3d
000003e0: 8a7d 1b3d 360d 2d3c b63c 8bbc 9163 d43d
000003f0: bb79 83bd c555 babd b060 80bd 55bf 133d

model.bigrill.fwd_rnn.spatial_decoder.graph_conv.mlp.bias f4 [32]
0.06872478 0.13926804 -0.13695402 -0.27896574 0.044661157 0.046510465 0.30164143 0.22473392
0.1348407 0.26864448 -0.08527808 -0.15364426 0.3106446 -0.27611947 -0.15171671 0.25639495
0.076135695 0.27665785 0.1575971 -0.2870698 0.11522864 0.08584071 -0.13102534 -0.29576352
0.10180841 0.22864155 -0.02804938 -0.042537257 -0.09870383 0.18028188 0.1629371 -0.34550005
00000000: 94bf 8c3d 489c 0e3e ad3d 0cbe 99d4 8ebe
00000010: 9eee 363d c281 3e3d bf70 9a3e a620 663e
00000020: ae13 0a3e c58b 893e 46a6 aebd ec54 1dbe
00000030: cf0c 9f3e 885f 8dbe a05b 1bbe 3346 833e
00000040: 08ed 9b3d 19a6 8d3e 2261 213e d0fa 92be
00000050: fefc eb3d 41cd af3d 822b 06be 516e 97be
00000060: ed80 d03d 0321 6a3e d0c7 e5bc 8c3b 2ebd
00000070: 3c25 cabd d09b 383e fcd8 263e 62e5 b0be

model.bigrill.fwd_rnn.spatial_decoder.lin_out.weight f4 [32, 64, 1]
-0.029161595 -0.11918311 0.12385725 0.11560155 -0.08494863 0.0028539225 0.045686636 -0.14424296
0.065672405 0.053636767 -0.08490143 -0.05515364 0.08581737 0.0064864415 0.08372976 0.019238705
0.023039656 -0.171424 -0.054336846 0.18304607 0.029357826 -0.12750193 0.11638982 0.12533736
0.043081395 -0.09408081 -0.06270916 -0.139171 0.1404819 -0.066013925 -0.18830138 -0.0010203385
0.24905136 -0.44142106 0.33034965 0.08548577 -0.32080832 0.15298857 0.35573733 0.21861513
-0.8049343 -0.6466567 0.5946599 0.13092661 -0.21215606 -0.15760404 -0.050165147 0.24274482
-0.37146005 -0.20259753 -0.30581805 -0.24382499 -0.76790744 0.5014972 -0.023920612 0.2028679
-0.5717596 0.042922743 0.59057814 0.30424714 -0.06198827 0.030680457 -0.10163894 -0.059949305
-0.14319322 -0.12004873 0.07876293 -0.06832017 -0.10128454 0.048204146 -0.12319803 -0.061951615
0.05947474 -0.08637528 0.016637646 0.08661834 -0.0028297554 0.0012294841 -0.044709526 0.05828448
-0.05172047 -0.09262272 -0.096853055 0.10967906 -0.06309967 -0.050508443 -0.0021121392 0.106822185
-0.022282226 0.0109099485 -0.00063892576 -0.063360885 -0.05833426 -0.05821988 0.025630426 0.13824852
0.3493692 -0.27493292 0.3613153 0.19883427 -0.17436112 0.18013386 0.31284562 0.32883352
-0.56797945 -0.5506357 0.45838386 0.14919229 -0.23745787 -0.20754078 -0.05764805 0.2406162
-0.2649218 -0.1534664 -0.058872167 -0.14048567 -0.36026195 0.3958607 0.041985556 0.29858127
-0.55070734 0.07908329 0.45465592 0.2557348 0.045706756 0.15142684 0.0066811843 0.035885133
-0.20937465 -0.12048011 0.1230075 -0.03626102 -0.07108447 -0.09140329 -0.14168273 0.02376839
-0.100289926 -0.04876554 -0.044182815 -0.03665034 0.07223092 0.036621474 0.15906353 -0.018322295
-0.06820956 -0.16209161 -0.060294937 0.10767924 -0.01301373 0.070928074 -0.04967901 0.17358692
-0.093168505 -0.12624563 0.05341814 0.085372664 -0.015049663 -0.08056607 -0.09920643 0.0035691254
0.31664222 -0.42698583 0.041421715 0.07543445 -0.15205227 0.11536918 0.22180805 0.18006745
-0.49281216 -0.36312994 0.47684598 -0.068193465 -0.19018188 -0.18290405 -0.16780101 0.30794707
-0.31561363 -0.012526065 -0.22837372 -0.1402024 -0.63026655 0.5905414 -0.014085717 0.3214185
-0.65767044 0.2071211 0.609456 0.2403126 0.14195003 0.0036530574 -0.044340033 -0.121784
-0.049448464 0.07891893 -0.14927877 -0.02592825 -0.06536592 -0.013485844 -0.051409177 0.03777318
-0.05118949 0.14754634 0.04866294 -0.033673726 0.12990387 -0.040927444 -0.16604793 0.07907822
-0.06234693 0.1850071 -0.00029738943 0.022399433 0.0696784 0.044322178 -0.08567713 -0.0013296739
0.08224175 -0.02366541 -0.14143877 -0.0068924865 0.0675546 0.21674679 -0.00796452 -0.20184371
0.2793401 -0.41655487 0.41714194 0.32871112 -0.37619314 -0.06989262 0.042076577 0.02137419
-0.57214874 -0.15665458 0.42719722 0.022695463 -0.22102322 -0.17814216 -0.057379078 0.15360983
-0.12733833 -0.2593023 0.097317114 -0.090420164 -0.47623494 0.35387778 -0.086081505 0.11749659
-0.3918419 0.19650145 0.54552513 0.026963918 0.1409283 0.008258126 0.114514045 0.07230212
00000000: 4ce4 eebc 4616 f4bd dfa8 fd3d 81c0 ec3d
00000010: 8cf9 adbd e008 3b3b e921 3b3d 6db4 13be
00000020: 417f 863d 3ab2 5b3d cde0 adbd c9e8 61bd
00000030: 04c1 af3d 378c d43b 827a ab3d 7d9a 9d3c
00000040: a9bd bc3c c689 2fbe 5090 5ebd 6e70 3b3e
00000050: d37f f03c de8f 02be c95d ee3d 7058 003e
00000060: 1e76 303d 71ad c0bd a96d 80bd d882 0ebe
00000070: 7dda 0f3e 4f32 87bd 14d2 40be e1bc 85ba
00000080: 5207 7f3e f101 e2be 9723 a93e 2a13 af3d
00000090: fd40 a4be 09a9 1c3e 3423 b63e a5dc 5f3e
000000a0: 2d10 4ebf 4b8b 25bf a23b 183f a011 063e
000000b0: 703f 59be f462 21be f879 4dbd 1992 783e
000000c0: 0330 bebe ba75 4fbe 2f94 9cbe 42ad 79be
000000d0: 9595 44bf 1f62 003f 29f5 c3bc 9abc 4f3e
000000e0: d65e 12bf c2cf 2f3d 2130 173f 48c6 9b3e
000000f0: 6ae7 7dbd 9555 fb3c 1428 d0bd 678d 75bd
00000100: 3ea1 12be 1cdc f5bd 764e a13d 72eb 8bbd
00000110: 456e cfbd b671 453d 404f fcbd fac0 7dbd
00000120: c99b 733d 86e5 b0bd ac4b 883c f564 b13d
00000130: 6b73 39bb a426 a13a 5621 37bd b5bb 6e3d
00000140: d8d8 53bd fbb0 bdbd e55a c6bd 6a9f e03d
00000150: 663a 81bd f1e1 4ebd d16b 0abb 97c5 da3d
00000160: 3789 b6bc a4bf 323c 957d 27ba 5ac3 81bd
00000170: e8ef 6ebd f877 6ebd e6f6 d13c 0591 0d3e
00000180: 85e0 b23e 02c4 8cbe 52fe b83e 369b 4b3e
00000190: b98b 32be 0375 383e 4d2d a03e de5c a83e
000001a0: 1a67 11bf 76f6 0cbf 4ab1 ea3e ddc5 183e
000001b0: 2828 73be 9285 54be 5d20 6cbd 1864 763e
000001c0: d5a3 87be 4c26 1dbe f123 71bd 7adb 0fbe
000001d0: 4174 b8be 41ae ca3e 0cf9 2b3d a5df 983e
000001e0: 28fb 0cbf 6cf6 a13d a9c8 e83e acef 823e
000001f0: 0237 3b3d a30f 1b3e d6ed da3b 4afc 123d
00000200: 4f66 56be 47be f6bd 5beb fb3d 6f86 14bd
00000210: bc94 91bd a631 bbbd 4715 11be edb5 c23c
00000220: ce64 cdbd 60be 47bd 0af9 34bd ab1e 16bd
00000230: ceed 933d 6600 163d 8de1 223e a318 96bc
00000240: 74b1 8bbd 58fb 25be d3f7 76bd ef86 dc3d
00000250: 8a37 55bc bd42 913d 387c 4bbd c5c0 313e
00000260: 21cf bebd 8946 01be fbcc 5a3d ddd7 ae3d
00000270: dd92 76bc d3ff a4bd be2c cbbd fde7 693b
00000280: ee1e a23e e39d dabe d1a9 293d 607d 9a3d
00000290: 97b3 1bbe ad46 ec3d a621 633e 9a63 383e
000002a0: e051 fcbe 2bec b9be 2825 f43e 04a9 8bbd
000002b0: 0abf 42be 334b 3bbe 07d4 2bbe 3dab 9d3e
000002c0: 1c98 a1be 203a 4dbc cdda 69be 3891 0fbe
000002d0: 2659 21bf b92d 173f c7c7 66bc f790 a43e
000002e0: 175d 28bf 8e17 543e 4f05 1c3f 8214 763e
000002f0: 595b 113e 2268 6f3b e59d 35bd e469 f9bd
00000300: 798a 4abd 3fa0 a13d 89dc 18be 7b67 d4bc
00000310: 91de 85bd bbf3 5cbc 6e92 52bd 0db8 1a3d
00000320: 12ac 51bd 6316 173e ca52 473d 76ed 09bd
00000330: 8505 053e 89a3 27bd 7808 2abe c3f3 a13d
00000340: 7f5f 7fbd 8072 3d3e efea 9bb9 047f b73c
00000350: 8db3 8e3d 2c8b 353d 7e77 afbd 7448 aeba
00000360: 5d6e a83d f6dd c1bc 53d5 10be 5eda e1bb
00000370: 115a 8a3d dff2 5d3e 9e7d 02bc 1eb0 4ebe
00000380: aa05 8f3e ae46 d5be a193 d53e d34c a83e
00000390: 639c c0be dd23 8fbd 7d58 2c3d ed18 af3c
000003a0: 5778 12bf 0f6a 20be 98b9 da3e d6eb b93c
000003b0: e953 62be e66a 36be 5306 6bbd e54b 1d3e
000003c0: fb64 02be 45c3 84be 324e c73d 352e b9bd
000003d0: 11d5 f3be 782f b53e 804b b0bd 0da2 f03d
000003e0: 809f c8be ad37 493e 89a7 0b3f 6fe3 dc3c
000003f0: 824f 103e 174d 073c 5786 ea3d 2213 943d

model.bigrill.fwd_rnn.spatial_decoder.lin_out.bias f4 [32]
-0.111223385 -0.25641522 -0.12944987 0.15635172 -0.011330932 -0.14838463 0.08539812 0.08198906
-0.035412546 0.005065341 0.017243452 -0.23922896 0.21249373 -0.1195492 -0.1653371 0.16435935
0.11577233 -0.33215645 -0.110948704 -0.119800225 0.06359334 -0.2988086 -0.110575505 0.02964351
0.09269962 0.13993815 -0.17492399 0.13100432 -0.09485349 -0.1253878 0.19182548 -0.07941531
00000000: 16c9 e3bd db48 83be 828e 04be aa1a 203e
00000010: 60a5 39bc 24f2 17be 36e5 ae3d e1e9 a73d
00000020: bf0c 11bd 29fb a53b 2442 8d3c 70f8 74be
00000030: f597 593e 36d6 f4bd 214e 29be d14d 283e
00000040: 0b1a ed3d 6910 aabe 1339 e3bd d259 f5bd
00000050: 3a3d 823d 71fd 98be 6975 e2bd f2d6 f23c
00000060: 4cd9 bd3d f24b 0f3e 461f 33be ff25 063e
00000070: 8c42 c2bd a965 00be e66d 443e 7ea4 a2bd

model.bigrill.fwd_rnn.spatial_decoder.read_out.weight f4 [1, 64, 1]
-1.0997819 -0.690953 -0.8291333 -0.75090903 0.6028315 -0.76047677 0.51535726 0.5301083
-0.75964886 -1.0225929 0.6240544 -0.813787 0.59301245 -0.6950611 -0.80749464 0.5651102
0.4867172 -0.7217206 -1.0540127 -0.8054712 -0.6933339 -0.8242196 -0.7751611 0.6311504
0.57838225 -0.7525876 -0.7883164 0.41025865 -0.88530755 -0.77784157 0.42546093 -0.88079107
-0.32370484 0.39890945 -0.11942227 -0.00069114973 0.19547133 -0.3567324 -0.22206546 -0.21073377
0.38651162 0.50433284 -0.6347889 -0.13756159 0.2986668 0.1568978 -0.018292833 -0.23100851
0.2740753 0.1584907 0.12436678 0.266504 0.5510068 -0.43947977 0.067629986 -0.32726294
0.41788152 -0.43612775 -0.5801746 -0.2665794 0.23600656 -0.17699991 0.20016606 0.35665038
00000000: a7c5 8cbf 4ce2 30bf 1442 54bf 933b 40bf
00000010: 2a53 1a3f 9bae 42bf 74ee 033f 2db5 073f
00000020: 5978 42bf 53e4 82bf 07c2 1f3f 5854 50bf
00000030: aacf 173f 86ef 31bf f8b7 4ebf 10ab 103f
00000040: ff32 f93e aec2 38bf e3e9 86bf 5c33 4ebf
00000050: 557e 31bf 0e00 53bf f570 46bf 1393 213f
00000060: dc10 143f 95a9 40bf 1bcf 49bf 6c0d d23e
00000070: 84a3 62bf a020 47bf 04d6 d93e 867b 61bf
00000080: a4bc a5be dc3d cc3e aa93 f4bd 462e 35ba
00000090: a329 483e a1a5 b6be 2165 63be 98ca 57be
000000a0: dae4 c53e f51b 013f 8681 22bf f2dc 0cbe
000000b0: dbea 983e d1a9 203e dada 95bc 7f8d 6cbe
000000c0: 9953 8c3e 634b 223e 03b4 fe3d 3673 883e
000000d0: c80e 0d3f 7e03 e1be 9781 8a3d 028f a7be
000000e0: 91f4 d53e 234c dfbe 5386 14bf 187d 88be
000000f0: b4ab 713e 773f 35be 55f8 4c3e e19a b63e
