logs/discharge_point/grin/2023-10-26_17-00-42_199996496/epoch=35-step=3132.ckpt (torch, 707635 bytes, 102 tensors)

model.bigrill.emb f4 [8, 20]
0	0xbf2f3608	-0.6844182
1	0x3e012bb9	0.12614335
2	0xbd9f1347	-0.07767349
3	0xbe9ddde1	-0.30833343
4	0x3ec0214d	0.37525406
5	0xbf1b4341	-0.60649496
6	0xbf4ca9dc	-0.79946685
7	0xbf493db0	-0.7860975
8	0x3eaf54c2	0.34244353
9	0x3c355bae	0.011069221
10	0xbee91c14	-0.45529234
11	0xbdc01e9c	-0.09380838
12	0xbe461f99	-0.19347991
13	0xbc712d90	-0.014720336
14	0x3e72ce64	0.23711544
15	0x3f0e8cec	0.5568378
16	0x3ee1430c	0.43996465
17	0xbe950c12	-0.2911077
18	0xbdb33201	-0.08749772
19	0x3e03a794	0.12856895
20	0xbf047b5c	-0.5175073
21	0xbd796d65	-0.060895342
22	0x3d857976	0.065173075
23	0xbe5374ca	-0.2065002
24	0xbeb8cc11	-0.3609319
25	0xbe3f5563	-0.18684916
26	0x3dfd1999	0.12358398
27	0xbf2a9223	-0.66629237
28	0x3e840aa3	0.25789365
29	0xbe0bd232	-0.13654402
30	0xbf0aed78	-0.542686
31	0xbef98ddf	-0.48741052
32	0xbd38b017	-0.045089807
33	0x3d427809	0.047477756
34	0xbf0ce898	-0.5504241
35	0xbed09ae0	-0.4074316
36	0xbe8a261a	-0.26982194
37	0xbe80687b	-0.25079712
38	0xbd841ff1	-0.06451405
39	0xbef393f8	-0.4757383
40	0xbd6f0d74	-0.05836244
41	0xbd999614	-0.07499328
42	0x3eb917a5	0.36150852
43	0x3d9813cb	0.0742565
44	0xbe92aaff	-0.28646085
45	0x3f1bd48e	0.6087121
46	0x3d6b1e9a	0.05740223
47	0x3ec85bcf	0.39132544
48	0x3ebb7d29	0.36618927
49	0x3e43d8f3	0.19125728
50	0xbdfa0e79	-0.12209792
51	0x3e20e9f2	0.15714243
52	0xbd931d09	-0.071832724
53	0x3e956421	0.29177955
54	0x3d5aad96	0.0533882
55	0xbe9fe468	-0.31228948
56	0x3d57e0fe	0.052704804
57	0xbefb07bd	-0.4902934
58	0x3e447133	0.19183807
59	0x3f546642	0.82968533
60	0x3f890ac0	1.0706406
61	0xbe9003c7	-0.28127882
62	0x3dc42ef5	0.09579269
63	0xbe9eedb3	-0.31040725
64	0x3ceba96a	0.028767306
65	0xbeb6b77d	-0.35686865
66	0x3ea58616	0.32328862
67	0xbe1a8e4c	-0.15093344
68	0x3d0d03c4	0.03442742
69	0x3eb4beae	0.35301727
70	0x3eea6b91	0.45785192
71	0x3dbb137b	0.09134575
72	0x3ebcb246	0.36854762
73	0x3e84bf74	0.25927317
74	0xbe3d64ea	-0.18495527
75	0x3f5a4f7c	0.85277534
76	0x3e81d409	0.25357082
77	0xbe4c26bf	-0.19936655
78	0x3e43db07	0.19126521
79	0x3f10a738	0.56505156
80	0xbe19011b	-0.14941828
81	0xbcf7ac9f	-0.03023368
82	0x3da108a6	0.07862978
83	0xbe37ddf1	-0.17955758
84	0x3d24777b	0.040153008
85	0xbe2b31d9	-0.16718234
86	0x3e870350	0.26369715
87	0xbcc56f35	-0.02410088
88	0xbf1b5d0e	-0.60688865
89	0xbea797de	-0.32733053
90	0xbe318d3a	-0.1733903
91	0xbe8107b4	-0.2520119
92	0xbe850829	-0.25982788
93	0x3d43a262	0.047762282
94	0x3eed7511	0.46378377
95	0x3e208861	0.15677024
96	0x3e9bb3ac	0.30410516
97	0xbe46b1d5	-0.19403775
98	0x3f072bf8	0.52801466
99	0x3e8a8d61	0.2706099
100	0x3ebcab87	0.36849615
101	0x3ef9aba6	0.4876377
102	0xbf557ecb	-0.83396596
103	0x3e130c30	0.14360118
104	0x3e7357da	0.23763981
105	0xbee2745f	-0.4422941
106	0xbe83e18b	-0.25758013
107	0xbe826f3c	-0.2547549
108	0x3f550eb8	0.83225584
109	0xbea59f94	-0.3234831
110	0x3de0114a	0.109407976
111	0x3f32a3f4	0.6978142
112	0x3ebdb60e	0.3705296
113	0x3f4ff73e	0.81236637
114	0x3eb8367b	0.35979065
115	0x3f2fb8ef	0.6864156
116	0xbe578743	-0.21047692
117	0x3e8e1c32	0.27755886
118	0x3f0e29f5	0.5553277
119	0x3ecc3427	0.3988354
120	0xbeb53df4	-0.3539883
121	0x3fa17118	1.2612638
122	0xbdd7f55e	-0.10544847
123	0x3f182190	0.5942621
124	0x3e9f4494	0.31107008
125	0xbe867b27	-0.26265833
126	0xbed5a7dc	-0.4172963
127	0xbf1c73dc	-0.6111429
128	0x3f0dcf1b	0.5539414
129	0x3e9db220	0.3079996
130	0xbcdd66f7	-0.027026637
131	0xbdde7a38	-0.10863155
132	0xbd76d561	-0.060262088
133	0x3e9baacf	0.30403754
134	0x3ed51377	0.41616413
135	0x3efdcd62	0.49570757
136	0xbd9999e8	-0.075000584
137	0xbe553798	-0.20821989
138	0x3d242737	0.04007646
139	0x3cb3cb11	0.021947416
140	0x3f4ca7bb	0.79943436
141	0x3dcfed7b	0.10152718
142	0xbd1b523f	-0.037920233
143	0xbe81ec85	-0.25375763
144	0x3de88f00	0.113554
145	0x3f2b9928	0.6703057
146	0x3f0bb9d9	0.54580456
147	0x3e2d49b6	0.1692265
148	0xbed5d2ae	-0.41762298
149	0xbe0d73ac	-0.13813657
150	0xbdda2b31	-0.10652769
151	0xbe25dd7f	-0.16197775
152	0x3ef2486c	0.47320879
153	0x3ec2706c	0.37976396
154	0x3f33028d	0.6992577
155	0xbe8b90b8	-0.2725885
156	0x3cd64244	0.026154645
157	0x3f0f0f5a	0.558828
158	0x3e92fa57	0.2870662
159	0xbe80088b	-0.25006518

model.bigrill.fwd_rnn.cells.0.forget_gate.mlp.weight f4 [32, 170, 1, 1]
0	0x3e7e536f	0.24836515
1	0xbe23515c	-0.15949005
2	0xbca13624	-0.019679137
3	0xbbb17cd8	-0.005416494
4	0x3dd28af1	0.10280407
5	0xbde45ee7	-0.11150914
6	0xbdee3bfc	-0.11632535
7	0xbd86c22d	-0.06580005
8	0x3d84c2d4	0.06482473
9	0x3dd8a71e	0.1057875
10	0xbe827ac7	-0.25484297
11	0xbdfa01e2	-0.1220739
12	0xbdef88f3	-0.11696043
13	0xbe30a3d8	-0.17250001
14	0xbd47e32d	-0.048800636
15	0xbe75e3a9	-0.24012627
16	0x3ec715b9	0.3888376
17	0xbd0d5801	-0.034507755
18	0xbe2a549d	-0.1663384
19	0x3dafab02	0.08577539
20	0xbdcc3a90	-0.099721074
21	0x3d55d679	0.05220649
22	0x3e4e4156	0.20142111
23	0xbc88a22f	-0.016678898
24	0xbdae8058	-0.085205734
25	0x3df0d607	0.117595725
26	0x3ea2765c	0.31730926
27	0xbd1d67a6	-0.038428925
28	0xbc5946e5	-0.0132615315
29	0x3d926f72	0.07150163
30	0xbdb5bf65	-0.08874396
31	0x3e380beb	0.17973296
32	0xbd9e9b9f	-0.07744526
33	0x3e8928c3	0.2678891
34	0xbe0983b2	-0.13429144
35	0xbe928996	-0.28620595
36	0x3e029d96	0.12755427
37	0xbd5f4b4a	-0.05451516
38	0x3e0bedf0	0.13664985
39	0xbe499e8d	-0.19689389
40	0xbe397039	-0.18109216
41	0xbe46ad04	-0.19401938
42	0xbc98d999	-0.018658446
43	0x3e095e87	0.13414966
44	0xbe8c34a4	-0.27383912
45	0xbd17e0b8	-0.037079543
46	0xbc59263b	-0.013253744
47	0xbe771893	-0.24130468
48	0x3c04eb97	0.00811281
49	0xbe11ca5c	-0.1423735
50	0x3e1e42ce	0.15455171
51	0xbda8fbf5	-0.08251182
52	0xbb91034f	-0.0044254432
53	0xbe0775c2	-0.13228515
54	0xbd97fee7	-0.07421666
55	0x3e80516c	0.2506212
56	0x3dd23922	0.102648035
57	0xbdc352d3	-0.09537282
58	0xbaff3d98	-0.0019473312
59	0x3c7224fb	0.014779325
60	0x3e297c13	0.16551237
61	0xbe35d5e9	-0.17757381
62	0xbe1feeb4	-0.15618402
63	0xbc137c6d	-0.009001833
64	0xbd8f8405	-0.070076026
65	0x3e38699c	0.18009037
66	0x3d84b51c	0.06479856
67	0x3e7530df	0.23944424
68	0x3d83aa44	0.0642896
69	0xbe50ac72	-0.20378283
70	0x3de5624a	0.11200388
71	0xbd082a3c	-0.033243403
72	0x3b6b238e	0.0035879347
73	0x3caa1061	0.020759763
74	0xbc29d9b0	-0.010366842
75	0xbe19a03f	-0.15002535
76	0x3db1b1f8	0.08676523
77	0x3d83f225	0.0644267
78	0x3ccfe05c	0.025375538
79	0x3e44a38d	0.19203015
80	0xbdbd147a	-0.09232421
81	0xbda297fc	-0.07939145
82	0x3da0f649	0.07859475
83	0x3cc28683	0.02374578
84	0x3cd0d99b	0.025494387
85	0xbe435ebb	-0.19079106
86	0x3e474f2e	0.19463798
87	0xbd7e3989	-0.06206659
88	0x3d8aad53	0.0677134
89	0x3e19f7db	0.15035956
90	0x3e04feb4	0.12987787
91	0xbe31f661	-0.17379142
92	0x3dec6e92	0.11544527
93	0xbcd117df	-0.025524078
94	0x3dd6b920	0.104845285
95	0xbdd13628	-0.102154076
96	0xbe1d5f5c	-0.15368408
97	0xbe48c3eb	-0.19605987
98	0x3d1ce519	0.038304422
99	0xbdb8d44a	-0.09024866
100	0x3dd407bb	0.10353037
101	0x3dc8b456	0.09800021
102	0xbde7966c	-0.113079876
103	0xbd5b79b8	-0.053582877
104	0x3e0739dc	0.13205665
105	0xbdbf307f	-0.09335422
106	0x3db13b38	0.08653873
107	0xbe1c4dfb	-0.15264122
108	0xbe0d8c48	-0.13823044
109	0xbe5e77a8	-0.21725333
110	0x3e4d0f98	0.2002548
111	0x3dd647e0	0.10462928
112	0xbe52c322	-0.2058225
113	0xbc8bfbc9	-0.017087834
114	0xbe8e42c6	-0.2778532
115	0xbe6ddc39	-0.2322854
116	0xbe3b5583	-0.18294339
117	0xbe6e5adc	-0.23276848
118	0x3e4bf264	0.19916683
119	0x3e3b3293	0.18281011
120	0xbe73d469	-0.23811497
121	0x3e61a10e	0.22034094
122	0xbea1d0eb	-0.31604704
123	0xbe05ca2e	-0.13065407
124	0x3e803d3b	0.25046715
125	0x3e1654a1	0.14680721
126	0xbdeaf38d	-0.11472235
127	0x3e938005	0.2880861
128	0x3ea03bfa	0.31295758
129	0xbbc460cf	-0.005992986
130	0xbdab7cfe	-0.0837345
131	0x3ddb8c84	0.107201606
132	0xbe71c02b	-0.23608463
133	0x3e7d1399	0.24714507
134	0xbdd16088	-0.1022349
135	0x3e2a2925	0.16617258
136	0xbe5b423f	-0.2141199
137	0xbdd4f351	-0.103979714
138	0x3df25748	0.11833054
139	0xbe065bbb	-0.1312093
140	0x3e10f768	0.14156878
141	0xbe63d7e4	-0.22250324
142	0xbe7e0c22	-0.24809316
143	0xbe81d547	-0.2535803
144	0x3e2dba6e	0.16965649
145	0x3cbca45b	0.02302759
146	0xbe2e9508	-0.17049038
147	0xbdc89749	-0.0979448
148	0xbd2a73fc	-0.041614518
149	0xbe55b6d1	-0.2087052
150	0x3c0b095e	0.00848612
151	0xbeb116c6	-0.34587687
152	0x3c6c1e67	0.014411545
153	0x3d9833b1	0.07431734
154	0xbe2f468c	-0.17116755
155	0xbc84f36e	-0.016229358
156	0xbd7a8989	-0.06116632
157	0xbdf8c066	-0.12146072
158	0x3dac121c	0.084018916
159	0x3e427c82	0.18992808
160	0xbd8db058	-0.069184005
161	0x3ea877c7	0.32903883
162	0x3ea3461f	0.31889436
163	0xbcce92ec	-0.025216542
164	0xbebb0514	-0.36527312
165	0x3e355e19	0.17711677
166	0x3be73a7d	0.007056533
167	0x3e8c15e0	0.2736044
168	0xbe152e71	-0.14568497
169	0x3dd1fb58	0.10253018
170	0x3a3b10bf	0.0007135979
171	0xbe9dcb5b	-0.3081921
172	0xbda60533	-0.081064604
173	0xbb30c601	-0.0026973488
174	0xbd8945fd	-0.06702802
175	0x3d351620	0.044210553
176	0xbe0021b5	-0.12512858
177	0xbc310c1d	-0.010806111
178	0xbc6d72a7	-0.014492667
179	0x3e976169	0.29566506
180	0xbe27837f	-0.16358756
181	0xbd11f446	-0.035633348
182	0xbd9e87eb	-0.07740768
183	0xbe5d6200	-0.21619415
184	0x3bdc8019	0.0067291376
185	0xbdfae655	-0.122509636
186	0x3e0c2d2e	0.1368911
187	0xbe3d8b14	-0.18510085
188	0x3c6ab365	0.014324998
189	0x3e42346a	0.18965307
190	0xbdd72852	-0.10505737
191	0x3e5547fd	0.20828243
192	0x3de522d4	0.111882836
193	0xbdccbfb7	-0.09997504
194	0x3ced76ac	0.028987251
195	0xbe285fd5	-0.16442807
196	0x3e984d28	0.29746366
197	0xbe14e3c8	-0.14540017
198	0xbd15aa69	-0.03653947
199	0xbd47008c	-0.048584506
200	0x3d3f135a	0.046649314
201	0x3e3b69e9	0.1830212
202	0x3e33160f	0.17488883
203	0x3e05bbad	0.13059874
204	0x3de595e3	0.11210229
205	0xbe45901c	-0.19293255
206	0x3d6899ea	0.05678741
207	0xbdb351b6	-0.087558195
208	0xbd75c0c4	-0.05999829
209	0xbd518185	-0.05114891
210	0xbe43bb9e	-0.19114539
211	0xbda2ff3f	-0.079588406
212	0x3d28386b	0.04106943
213	0x3e10a0d3	0.1412385
214	0xbda9f3c9	-0.082984515
215	0x3dbc0e60	0.09182429
216	0xbdbfdfb3	-0.09368839
217	0xbe28a571	-0.16469361
218	0x3e33bef9	0.17553319
219	0xbe235840	-0.15951633
220	0x3c904dec	0.017615281
221	0xbe633033	-0.22186355
222	0x3d60fc32	0.054928012
223	0xbddc0fa3	-0.1074517
224	0xbdf10057	-0.11767643
225	0x3d8186da	0.06324549
226	0x3da5ded3	0.08099141
227	0xbe107478	-0.1410693
228	0x3e0404b0	0.12892413
229	0xbe044c94	-0.12919837
230	0x3dfc66ff	0.123243324
231	0xbe4e2413	-0.20130949
232	0xbe1bf249	-0.15229143
233	0xbe059765	-0.13046034
234	0x3cea9f8d	0.028640533
235	0x3dc3e462	0.09565045
236	0x3e0ef78c	0.13961619
237	0x3df46d8f	0.11934959
238	0x3dd21c64	0.10259321
239	0xbe287b01	-0.16453172
240	0x3c9d8561	0.01922864
241	0xbdfa1ea9	-0.12212879
242	0xbd6d7f74	-0.057982877
243	0x3b5d434d	0.0033762038
244	0xbe4c0a05	-0.19925697
245	0xbeb547ea	-0.3540643
246	0xbc597267	-0.013271905
247	0x3d38b662	0.04509581
248	0xbe2f6dd8	-0.17131746
249	0x3d073099	0.03300533
250	0x3cd92e79	0.026511418
251	0xbe891fbb	-0.2678202
252	0x3e9f8c4a	0.3116172
253	0xbe268b16	-0.16263995
254	0x3b466c01	0.0030276778
255	0xbe9303dc	-0.28713882

model.bigrill.fwd_rnn.cells.0.forget_gate.mlp.bias f4 [32]
0	0x3dc3c916	0.095598385
1	0x3c54351a	0.0129521135
2	0xbdacb5d1	-0.08433116
3	0xbd3b4fa6	-0.045730256
4	0x3e53fe0a	0.20702377
5	0x3e43b06f	0.19110273
6	0x3d06f1be	0.032945387
7	0x3d488974	0.04895921
8	0xbdb8d48b	-0.09024914
9	0xbd885a46	-0.06657843
10	0xbd306716	-0.04306706
11	0x3b0e9ffe	0.0021762843
12	0x3e2487b3	0.1606739
13	0x3e5e0532	0.2168167
14	0xbd812ed0	-0.06307757
15	0x3d3cc24f	0.046083745
16	0x3ddf91ee	0.10916506
17	0x3c59b31a	0.01328733
18	0xbdb311ab	-0.08743604
19	0xbdfff322	-0.12497546
20	0xbe384bbb	-0.17997639
21	0x3df765f7	0.12079995
22	0x3da1b182	0.07895185
23	0x3d9066e1	0.070508726
24	0x3dd20050	0.10253966
25	0xbd6920ed	-0.056916166
26	0xbe3c9425	-0.18415888
27	0xbdd574ae	-0.104226455
28	0xbc8bef02	-0.017081741
29	0x3e173e3c	0.14769834
30	0x3cade394	0.021226682
31	0xbd4cf8bd	-0.050041903

model.bigrill.fwd_rnn.cells.0.update_gate.mlp.weight f4 [32, 170, 1, 1]
0	0xbcaaca98	-0.020848557
1	0x3e7e5022	0.24835256
2	0xbd9f5465	-0.07779769
3	0x3e49f1d4	0.19721156
4	0xbc9df5b2	-0.019282196
5	0xbdcbbd35	-0.09948198
6	0xbd1ecdf2	-0.038770624
7	0x3c22ef87	0.009944803
8	0xbcda432b	-0.026643356
9	0x3be91d5f	0.007114097
10	0x3e79ae55	0.24382909
11	0xbe268676	-0.1626223
12	0x3ddd2ec5	0.10799936
13	0xbc5cf336	-0.01348572
14	0xbdac5ce0	-0.08416152
15	0xbce14452	-0.027498398
16	0xbc8ac2cd	-0.016938591
17	0x3d0b115f	0.033952113
18	0x3e1c46b3	0.15261345
19	0x3e51546f	0.20442365
20	0x3e90c155	0.282725
21	0xbe2196ac	-0.15780133
22	0xbb0ee2a1	-0.0021802562
23	0x3d4361f3	0.047700834
24	0xbe0c95b9	-0.1372899
25	0xbd7dd7ec	-0.061973497
26	0x3b2c518d	0.0026293725
27	0xbd980516	-0.07422845
28	0x3e041076	0.12896904
29	0x3d67de21	0.056608323
30	0x3c82e730	0.01597938
31	0xbd9632a4	-0.07333878
32	0xbdf55220	-0.11978555
33	0xbdb74d87	-0.08950334
34	0x3b0479ec	0.0020214273
35	0xbe4055ae	-0.18782684
36	0xbdde8c60	-0.10866618
37	0x3e1c15a8	0.15242636
38	0xbd7bdb00	-0.06148815
39	0x3d051675	0.03249212
40	0xbde99c1b	-0.11406728
41	0xbdb0a19e	-0.08624576
42	0xbe020d2d	-0.12700339
43	0x3d44e482	0.048069485
44	0x3d0b558a	0.034017123
45	0xbdbbc483	-0.09168341
46	0x3cc5adb8	0.024130687
47	0xbe2428bc	-0.16031164
48	0x3bda94e7	0.0066705826
49	0xbdb745f7	-0.089488916
50	0xbd760f70	-0.060073316
51	0xbdce64c3	-0.100778125
52	0x3d9964f9	0.07489962
53	0x3c88d6ba	0.016703952
54	0xb920b769	-0.00015327115
55	0x3d5d9a7d	0.05410241
56	0x3c1be4e3	0.00951502
57	0xbe43fa18	-0.19138372
58	0x3dc89f80	0.09796047
59	0xbd4ef6a8	-0.0505282
60	0x3e035c95	0.12828286
61	0xbd253443	-0.040333044
62	0xbc6cbb2b	-0.014448921
63	0xbd07c4e0	-0.03314674
64	0x3df0ae50	0.117519975
65	0x3decf546	0.1157022
66	0xbda9da06	-0.08293538
67	0xbc2ce9aa	-0.010553757
68	0xbdf432a3	-0.11923721
69	0xbcf56c5d	-0.029958898
70	0xbd871b95	-0.06597058
71	0xbd3a28b0	-0.04544896
72	0xbd0ece23	-0.034864556
73	0x3cf45b92	0.02982882
74	0xbe1b141d	-0.15144391
75	0xbe0307be	-0.12795922
76	0xbd3cbc75	-0.046078164
77	0x3defb679	0.11704726
78	0x3e1aec0d	0.15129109
79	0x3d58b8ac	0.05291049
80	0xbd330b7a	-0.043712117
81	0x3d0b43f9	0.03400037
82	0xbb3fe3e2	-0.0029280116
83	0xbe42d21b	-0.19025461
84	0xbbf4e47f	-0.007473528
85	0x3de588df	0.11207747
86	0xbcd64d74	-0.02615998
87	0x3d5652c4	0.052325025
88	0xbd1dcdbe	-0.03852629
89	0xbdfa310c	-0.12216386
90	0xbcd48745	-0.025943408
91	0x3c8399f9	0.01606463
92	0x3de55c51	0.111992486
93	0xbcea7e94	-0.02862481
94	0x3dd39526	0.10331182
95	0xbc2ab597	-0.010419271
96	0xbb83cb14	-0.0040220115
97	0x3d136a18	0.03598985
98	0xbcc905f2	-0.024538968
99	0x3d92c27f	0.071660034
100	0x3cedbcba	0.029020656
101	0xbdc9af5f	-0.098479025
102	0xbbd3e274	-0.0064662043
103	0x3c9ae9e6	0.01891036
104	0xbcb48b16	-0.022038978
105	0xbda17fe1	-0.07885719
106	0xbe181dab	-0.14855067
107	0xbd3878c9	-0.045037065
108	0xbe29663a	-0.16542903
109	0xbdc35930	-0.095384955
110	0x3df94d1c	0.121729106
111	0x3dd05bc2	0.101737514
112	0x3dd49c29	0.10381348
113	0x3dee521e	0.11636756
114	0x3d21a0e4	0.039460078
115	0xbddb1dcb	-0.10699042
116	0x3ca9fd7a	0.02075075
117	0xbe02b448	-0.12764084
118	0xbdfb84e1	-0.12281204
119	0xbdcac8c1	-0.09901572
120	0xbda39ded	-0.07989106
121	0xbd67a8de	-0.05655753
122	0xbd0eccde	-0.034863345
123	0xbc6c7d42	-0.014434161
124	0x3cac5ef2	0.021041367
125	0x3d586aba	0.052836157
126	0xbd92a53c	-0.07160422
127	0xbca58f46	-0.02020992
128	0x3d02cd5a	0.03193412
129	0xbe016c95	-0.12639077
130	0xbdbb5be0	-0.09148383
131	0x3ddcea18	0.10786837
132	0x3d27bdac	0.04095237
133	0x3dd04bfa	0.101707414
134	0xbe0078b7	-0.12546049
135	0xbdda7def	-0.10668551
136	0xbdf71ec3	-0.12066414
137	0xbccff4ae	-0.025385227
138	0x3d0d4948	0.034493715
139	0xbda9804d	-0.082764246
140	0x3c1326cd	0.008981419
141	0xbcb295c5	-0.021799931
142	0xbe710a52	-0.23539093
143	0xbe343a30	-0.17600322
144	0x3d1b0a96	0.037851892
145	0x3df5afc8	0.11996418
146	0x3d3989e5	0.045297522
147	0xbdbaa192	-0.09112848
148	0xbd4faed2	-0.05070383
149	0xbe7a73e0	-0.24458265
150	0x3dbf90ac	0.09353766
151	0xbe094be2	-0.13407853
152	0x3c2058ed	0.009786827
153	0xbb90e4fc	-0.0044218283
154	0x3d103215	0.035204012
155	0xbda43122	-0.08017184
156	0x3d24f7fb	0.040275555
157	0x3e0ae468	0.13563693
158	0x3c9091c5	0.017647633
159	0x3d22b143	0.03971983
160	0xbcfaf8b7	-0.030636175
161	0x3dfa7eef	0.12231242
162	0x3e60cae7	0.21952401
163	0x3bc4e97d	0.0060092793
164	0xbe3d587f	-0.1849079
165	0x3dbc2398	0.091864765
166	0xbd18f0bb	-0.037338953
167	0x3d44cb4d	0.048045445
168	0xbc23e3b5	-0.01000302
169	0xbded8de8	-0.11599332
170	0xbc790cbc	-0.01520079
171	0x3e8c6658	0.27421832
172	0xbe1dfb46	-0.15427884
173	0x3ec88c70	0.39169645
174	0xbd8f8219	-0.07007236
175	0x3ca1dd2a	0.01975878
176	0x3e2ce675	0.16884787
177	0x3e83d440	0.2574787
178	0xbe179377	-0.14802347
179	0xbd93b99e	-0.07213138
180	0x3e40b083	0.18817334
181	0xbe83dd5c	-0.2575482
182	0x3df2f0e4	0.118623525
183	0x3e1cedff	0.15325163
184	0xbd8bbaa5	-0.06822709
185	0x3de1fabd	0.11034153
186	0xbd96fc8e	-0.0737239
187	0x3d3d1008	0.046157867
188	0xbc28d520	-0.010304719
189	0x3d2cdb51	0.042201344
190	0x3e703632	0.23458174
191	0xbe9a455f	-0.3013105
192	0xbe03c5eb	-0.12868468
193	0x3d889891	0.06669725
194	0xbe7ade90	-0.24498963
195	0x3df814a3	0.12113311
196	0xbcc4e1ca	-0.024033446
197	0x3bb26bf6	0.005444999
198	0x3da48bd1	0.0803448
199	0x3e288ee3	0.16460757
200	0x3ce58766	0.028018665
201	0xbe43fa43	-0.19138436
202	0xbe65a4b8	-0.22426116
203	0xbe5eff12	-0.21776989
204	0xbc3469e2	-0.011011573
205	0x3e6cdb8d	0.23130627
206	0xbdc600a8	-0.09668094
207	0x3e11d472	0.14241198
208	0xbd8de62b	-0.06928667
209	0x3d7d3e3f	0.06182694
210	0xbca3f00c	-0.020011924
211	0xbd6bc162	-0.05755747
212	0xbb578a90	-0.0032888986
213	0xbd0b4cd6	-0.034008823
214	0x3d95f333	0.07321777
215	0xbd858075	-0.06518642
216	0x3d9574c4	0.07297662
217	0x3c868ab1	0.016423555
218	0xbd547da0	-0.051877618
219	0xbd59a762	-0.053138144
220	0x3da776e8	0.081769764
221	0x3e7de0cb	0.24792783
222	0xbdfaa852	-0.12239136
223	0xbd280948	-0.041024476
224	0x3c897257	0.016778154
225	0xbdcda329	-0.10040886
226	0x3daa9701	0.08329583
227	0x3d8c7ee0	0.06860137
228	0xbc7006df	-0.014650076
229	0x3c934ab0	0.01797995
230	0x3d2ea864	0.04264106
231	0x3dfdc1e1	0.12390495
232	0x3daf91c4	0.085727245
233	0x3d414956	0.04718908
234	0xbcd41b83	-0.025892025
235	0x3e25e4c5	0.1620055
236	0xbdc27d8f	-0.09496605
237	0xbd9a3361	-0.07529331
238	0xbbfe7b50	-0.007766165
239	0x3d51b7e0	0.051200747
240	0xbe4332e0	-0.19062376
241	0x3e53a2ee	0.20667621
242	0xbd98080c	-0.0742341
243	0x3db41bea	0.08794387
244	0x3c0c6a1e	0.008570222
245	0xbd004dbb	-0.03132413
246	0xbdc061d5	-0.0939366
247	0xbd50b10b	-0.05095009
248	0x3d358382	0.04431487
249	0x3ce4752b	0.027887901
250	0x3ba949e9	0.0051662815
251	0xbd0c6d9b	-0.034284215
252	0xbe4bb10a	-0.19891754
253	0xbe4a4b68	-0.19755328
254	0x3dd68c6f	0.10476004
255	0x3dcafbb4	0.0991129

model.bigrill.fwd_rnn.cells.0.update_gate.mlp.bias f4 [32]
0	0x3e02a6be	0.1275892
1	0x3df9366d	0.12168584
2	0x3c587a56	0.013212761
3	0x3e6471c1	0.22309019
4	0xbd53c7f0	-0.051704347
5	0xbe1eefc2	-0.15521148
6	0x3d6b1caf	0.0574004
7	0x3d23bfae	0.039977722
8	0x3e0501a8	0.12988913
9	0x3e6cbe85	0.23119552
10	0x3d8e779f	0.0695641
11	0xbd176c94	-0.036968783
12	0xbdc6beff	-0.09704398
13	0xbe22c37b	-0.15894882
14	0x3d7a932c	0.06117551
15	0x3dd78404	0.10523227
16	0xbd2d40a1	-0.042297963
17	0x3e61876c	0.22024316
18	0x3e46b79d	0.1940598
19	0xbd84e3a5	-0.06488732
20	0xbc8a26bc	-0.016864173
21	0xbdc6024c	-0.09668407
22	0xbd07d743	-0.033164274
23	0xbcc7dd9e	-0.024397667
24	0xbd86a147	-0.0657373
25	0x3cd7292a	0.026264746
26	0x3e233042	0.15936378
27	0x3e31806d	0.17334147
28	0xbd8b2989	-0.067950316
29	0x3de38912	0.111101285
30	0x3def42db	0.116826735
31	0x3da80bad	0.08205352

model.bigrill.fwd_rnn.cells.0.c_gate.mlp.weight f4 [32, 170, 1, 1]
0	0xbae4612f	-0.0017423982
1	0x3d6e5fa9	0.058196697
2	0x3d70df18	0.05880651
3	0xbe56f9c2	-0.20993713
4	0xbc40719a	-0.011745835
5	0xbd32f6af	-0.043692287
6	0x3e165dbd	0.14684196
7	0x3e4bb9f9	0.19895162
8	0xbb965121	-0.004587308
9	0xbd9d77bd	-0.07688854
10	0xbe2d1c6d	-0.16905375
11	0x3b19d0bc	0.0023470363
12	0xbd49076c	-0.049079344
13	0x3dc7b27b	0.09750839
14	0x3df45b83	0.11931517
15	0x3e5f222d	0.21790381
16	0x3d22022e	0.03955286
17	0xbc4dfe06	-0.012572771
18	0x3dc23f6a	0.094847515
19	0xbc1bf476	-0.009518733
20	0xbd81add3	-0.063319825
21	0x3bba38b1	0.0056830277
22	0x3dd4481b	0.103653155
23	0xbc816514	-0.015795268
24	0x3dd61057	0.10452335
25	0xbd095e71	-0.033537332
26	0x3c9688fd	0.018375868
27	0x3dbd39d8	0.092395484
28	0x3d1b8c59	0.037975643
29	0xbe074127	-0.13208447
30	0x3d5080ee	0.050904207
31	0x3d09e47c	0.033665165
32	0x3ddf92d3	0.10916676
33	0x3dd6ade6	0.10482387
34	0x3d992af9	0.074788995
35	0xbd88bf8c	-0.0667716
36	0x3e822e59	0.25425985
37	0xbdc4189f	-0.095750086
38	0x3c2a47c2	0.010393085
39	0x3d8faa28	0.070148766
40	0x3dab13c0	0.083533764
41	0x3d175993	0.03695066
42	0xbdae4ee3	-0.0851114
43	0xbcec417b	-0.028839817
44	0xbdf96dd1	-0.12179149
45	0x3d2d26df	0.0422734
46	0xbdaaaba0	-0.08333516
47	0x3d42c175	0.047547776
48	0x3d03900e	0.032119803
49	0x3e51b9a1	0.20480968
50	0xbd1b4305	-0.03790571
51	0x3db4f7c2	0.088363186
52	0x3e107e85	0.14110763
53	0x3d6de127	0.05807605
54	0xbe3abc2b	-0.18235843
55	0xbcbd1ea9	-0.023085909
56	0x3d4b7cbc	0.049679503
57	0xbb9389ab	-0.0045024953
58	0xbcdaff3b	-0.026733031
59	0xbd4134d9	-0.04716954
60	0x3c8e4fb3	0.017371988
61	0xbc4a136b	-0.012333731
62	0xbe20f235	-0.15717395
63	0xbe057a81	-0.13035013
64	0x3da313a1	0.07962728
65	0xbd6c54fa	-0.057698227
66	0x3da75be3	0.08171823
67	0xbcb33a10	-0.021878272
68	0x3cd80d0e	0.026373412
69	0x3d2f86a2	0.042853005
70	0x3e84a005	0.25903335
71	0xbd55d4c9	-0.05220488
72	0x3dc6b8a6	0.09703188
73	0xbdaff10e	-0.085908994
74	0x3d50d3fd	0.050983418
75	0x3ce503c1	0.027955892
76	0x3db09b77	0.086234026
77	0xbe1611f3	-0.14655285
78	0x3d4cb35d	0.04997574
79	0x3d83add7	0.06429642
80	0xbd90f422	-0.07077815
81	0x3e31c09f	0.17358635
82	0x3da78392	0.08179392
83	0x3df0554b	0.11735018
84	0x3c836aab	0.016042074
85	0x3ce373eb	0.027765235
86	0x3e1af7fa	0.15133658
87	0xbded66f8	-0.11591905
88	0xbd167ff0	-0.036743104
89	0x3cb7a061	0.022415342
90	0xbd640e9c	-0.055677995
91	0x3d714f36	0.058913432
92	0xbbd9ba91	-0.006644555
93	0x3e0c5197	0.13702999
94	0xbda287af	-0.07936036
95	0x3ceadf83	0.028671032
96	0x3d7bef14	0.0615073
97	0xbc4257ab	-0.011861722
98	0xbdac47c1	-0.084121235
99	0xbe010ec8	-0.12603295
100	0x3cf2261e	0.029559191
101	0xbdfa0fab	-0.1221002
102	0x3ced037c	0.028932326
103	0x3cac31b5	0.021019796
104	0x3c831ec5	0.016005883
105	0xbd5f3647	-0.054495122
106	0x3da647db	0.08119174
107	0xbd17efc8	-0.037093908
108	0x3da4a312	0.08038916
109	0xbd362e81	-0.044477943
110	0x3b90fa07	0.004424337
111	0x3cdbd7ec	0.026836358
112	0xbc9a7b9d	-0.018857772
113	0x3dad3160	0.08456683
114	0xbde3531a	-0.11099835
115	0x3da28fb1	0.07937563
116	0x3c1b6517	0.009484551
117	0x3ddb30aa	0.10702641
118	0x3de7460f	0.112926595
119	0x3dfa838e	0.12232123
120	0x3cbe54b6	0.023233753
121	0x3cceca9c	0.025243096
122	0xbd54d1ac	-0.05195777
123	0xbccf5ac4	-0.025311835
124	0x3e2a8a86	0.16654405
125	0x3c10c365	0.008835648
126	0x3d65ba17	0.056085672
127	0x3d6a964e	0.057272248
128	0x3d88e030	0.06683385
129	0x3d2e7923	0.042595994
130	0xbde447c3	-0.111465
131	0xbba5fae1	-0.0050653075
132	0xbd84caa0	-0.0648396
133	0x3d99cdcb	0.07509955
134	0xbd33bfe8	-0.043884188
135	0xbc3420fc	-0.010994192
136	0x3c68997a	0.014196748
137	0xbcc4cf99	-0.024024772
138	0xbc3b4f49	-0.011432477
139	0x3de52c25	0.111900605
140	0x3d37063f	0.04468369
141	0x3da7eb06	0.08199124
142	0x3e22bc8c	0.15892237
143	0x3c514012	0.012771623
144	0xbcf865ef	-0.030322043
145	0xbccebf3c	-0.025237672
146	0x3d4afaa7	0.049555447
147	0xbda24303	-0.07922938
148	0xbc09663a	-0.008386189
149	0x3d681767	0.056662943
150	0x3ce94643	0.028475886
151	0x3def6358	0.1168887
152	0xbcd40b14	-0.025884189
153	0xbd5062b6	-0.050875388
154	0xbb4d642b	-0.0031340222
155	0x3de67da0	0.1125443
156	0xbcf2efe9	-0.029655414
157	0xbdd28b81	-0.102805145
158	0x3dbde793	0.09272685
159	0xbd005712	-0.031333037
160	0x3da61b4b	0.081106745
161	0xbb8c16a3	-0.0042751594
162	0xbc916e6e	-0.017752852
163	0x3d80edae	0.06295334
164	0x3d3310a3	0.043717038
165	0x3d93874e	0.07203542
166	0x3a929690	0.0011183787
167	0x3b80ef3d	0.0039347694
168	0x3deae8ef	0.1147021
169	0xbd560ec0	-0.05226016
170	0xbd65c9cc	-0.05610065
171	0x3d5d12d9	0.053973053
172	0xbd4fab55	-0.050700504
173	0x3da53beb	0.08068069
174	0xbd6c94d1	-0.05775911
175	0xbd5a6a5d	-0.053324092
176	0x3d996c26	0.07491331
177	0xbd79010b	-0.06079201
178	0x3cf7a2f6	0.030229073
179	0x3cfb356b	0.03066512
180	0x3e53d47e	0.20686528
181	0xbdd1b42e	-0.10239445
182	0x3cb01b30	0.021497339
183	0xbd6b670c	-0.05747132
184	0xbcf33b79	-0.029691445
185	0xbd38052f	-0.04492682
186	0xbd70b465	-0.058765788
187	0x3ce6c3a0	0.028169453
188	0xbd63069d	-0.05542623
189	0x3e05cef5	0.13067229
190	0x3d9cdb74	0.07659045
191	0xbda90a0e	-0.08253871
192	0x3d058c75	0.032604653
193	0x3d965385	0.07340149
194	0xbd9fe266	-0.07806854
195	0x3dda15b5	0.106486715
196	0xbdbcfbc3	-0.09227707
197	0x3b8297e4	0.003985392
198	0x3db87ff1	0.09008778
199	0x3dc05c4c	0.09392604
200	0xbd44b098	-0.048019975
201	0xbe141359	-0.14460506
202	0xbe05cfac	-0.13067502
203	0xbdac4408	-0.084114134
204	0x3b3b58da	0.0028586895
205	0x3d152197	0.036408987
206	0xbdb75795	-0.08952252
207	0x3d31b423	0.043384682
208	0x3c32b376	0.010907045
209	0x3cac9336	0.02106629
210	0x3da8bf26	0.08239584
211	0xbd6e167a	-0.058126904
212	0xbd3a0914	-0.045418814
213	0x3cc5f3f3	0.024164176
214	0x3d5a96bc	0.053366408
215	0x3cb76c17	0.022390408
216	0xbd550282	-0.052004345
217	0x3cf08662	0.029360954
218	0xbdf6202b	-0.12017854
219	0xbd77025b	-0.06030498
220	0xbcb5b3ad	-0.022180403
221	0x3dcd4b29	0.10024101
222	0xbd2f4af3	-0.042796087
223	0x3d3b8cfa	0.045788743
224	0xbc25d9a5	-0.010122691
225	0x3dd98ade	0.1062219
226	0x3d1df664	0.038565055
227	0x3d267c07	0.040645625
228	0xbd41350e	-0.047169738
229	0x3e07a9b9	0.13248338
230	0x3ca001a3	0.01953203
231	0xbdd24f70	-0.10269058
232	0xbd05b8cc	-0.03264694
233	0x3c8d1f43	0.01722682
234	0x3cdbb513	0.026819741
235	0xba5bf2e6	-0.00083903817
236	0xbcfa5322	-0.030557219
237	0xbbe77a0b	-0.007064109
238	0xbb52297f	-0.003206819
239	0x3d0d97b0	0.03456849
240	0xbd66250e	-0.05618768
241	0xbd35dede	-0.044401996
242	0x3cacb8f7	0.021084292
243	0xba6244f7	-0.00086314924
244	0xbdf56546	-0.11982207
245	0xbd8aa80a	-0.06770332
246	0x3d6d9e8f	0.05801254
247	0x3c499b72	0.012305127
248	0xbd2a4d0a	-0.041577376
249	0x3d5d4d16	0.054028593
250	0xbcc2eec7	-0.023795499
251	0xbe5b962e	-0.21444008
252	0xbe04976c	-0.12948388
253	0xbe47c730	-0.19509578
254	0x3c65d2a7	0.014027274
255	0x3dac81c7	0.084231906

model.bigrill.fwd_rnn.cells.0.c_gate.mlp.bias f4 [32]
0	0xbd6c8add	-0.057749618
1	0x3d6ac205	0.057313938
2	0x3d3dffd0	0.04638654
3	0x3d83867b	0.064221345
4	0x3d3b634e	0.045749
5	0x3e27fc54	0.1640485
6	0xbdd96d84	-0.106165916
7	0xbdc6ab23	-0.097006105
8	0x3db7bdab	0.08971723
9	0x3bcb5cc7	0.0062061283
10	0x3d87b104	0.0662556
11	0x3dec2c4e	0.11531888
12	0xbe16083f	-0.14651583
13	0x3cbf9f90	0.023391515
14	0x3bf49e26	0.007465142
15	0x3d8a1148	0.067415774
16	0xbcb243eb	-0.021760901
17	0x3b18fc06	0.0023343577
18	0x3dee5c83	0.11638739
19	0xbdf138f4	-0.11778441
20	0xbd14f21a	-0.0363637
21	0x3e34c483	0.17653088
22	0xbe3019a1	-0.17197277
23	0x3df1081b	0.11769124
24	0xbe4c69b7	-0.19962202
25	0x3c6b9590	0.01437892
26	0x3d814d58	0.0631358
27	0x3d3e8cbb	0.04652093
28	0xbc8d43ab	-0.01724418
29	0xbdf12519	-0.11774654
30	0xbe215cd1	-0.15758063
31	0xbe0e7b6a	-0.13914266

model.bigrill.fwd_rnn.first_stage.weight f4 [1, 32, 1]
0	0x3f60496b	0.87612027
1	0xbf396ffd	-0.72436506
2	0x3f59705a	0.8493706
3	0xbf6b980d	-0.92028886
4	0xbf1b9737	-0.6077761
5	0xbf7edc29	-0.9955469
6	0x3f69dd12	0.9135295
7	0xbf17cf92	-0.593011
8	0xbf806fb6	-1.0034091
9	0x3f0cdcef	0.5502462
10	0xbf7c4dd9	-0.98556286
11	0xbf72ce5a	-0.9484612
12	0xbf446718	-0.7671981
13	0xbf889efd	-1.0673519
14	0x3f6bc7ad	0.92101556
15	0x3f47df4f	0.78075117
16	0xbf815b68	-1.010602
17	0xbea6af3d	-0.3255557
18	0xbf595c94	-0.8490689
19	0x3f26d3da	0.6516701
20	0x3f6489d3	0.89272803
21	0x3f758b7c	0.9591596
22	0xbf77de97	-0.9682402
23	0x3f73c960	0.9522915
24	0x3f817a92	1.011553
25	0x3f57e298	0.8433013
26	0xbf6562d8	-0.8960395
27	0xbe3944be	-0.1809263
28	0xbf644368	-0.89165354
29	0x3f579340	0.8420906
30	0xbf43381b	-0.76257485
31	0x3f690674	0.9102547

model.bigrill.fwd_rnn.spatial_decoder.lin_in.weight f4 [32, 34, 1]
0	0x3bddc1d9	0.006767493
1	0x3daea1b8	0.08526939
2	0x3e56b1ee	0.20966312
3	0xbddeeecc	-0.10885391
4	0x3e5de26d	0.21668406
5	0x3dcbb0d3	0.09945836
6	0x3da7a333	0.08185425
7	0x3db29141	0.08719111
8	0x3e776906	0.24161157
9	0x3e8edc37	0.27902386
10	0x3d02c3de	0.031925075
11	0xbe1c5c70	-0.15269637
12	0x3e00ac44	0.12565714
13	0xbc5de2dd	-0.013542858
14	0xbe188026	-0.14892635
15	0x3de016de	0.109418616
16	0xbd886ca0	-0.066613436
17	0xbebaba05	-0.36470047
18	0x3d31b53e	0.043385737
19	0xbd111505	-0.035420436
20	0xbd0a32a3	-0.033739697
21	0xbdf4bc14	-0.119499356
22	0xbc35f6ea	-0.011106232
23	0x3e512b59	0.20426692
24	0xbe312c87	-0.17302142
25	0x3d35d4ab	0.04439227
26	0xbd5d0191	-0.053956572
27	0x3bd73df6	0.0065686656
28	0x3e24bc03	0.16087346
29	0x3da1f592	0.07908167
30	0xbde2e210	-0.11078274
31	0xbda20e28	-0.07912856
32	0xbde85e2e	-0.11346088
33	0xbe46d1d5	-0.19415982
34	0xbd336b52	-0.04380352
35	0xbdbf6b67	-0.09346657
36	0xbc54cb5b	-0.012987937
37	0x3e0a7322	0.13520482
38	0xbe051026	-0.12994441
39	0x3da31d5f	0.079645865
40	0x3e40d28e	0.1883032
41	0xbd7eb91c	-0.062188253
42	0x3d779a79	0.06045005
43	0xbe864da7	-0.2623112
44	0x3c10fb03	0.008848908
45	0xbc2668d4	-0.010156829
46	0x3e193865	0.14962919
47	0xbdb8c821	-0.090225466
48	0xbc8cf5fd	-0.01720714
49	0xbd499a01	-0.049219135
50	0xbe538c81	-0.20659067
51	0x3ed6cd13	0.41953334
52	0x3e256bb5	0.16154368
53	0xbde57e16	-0.112056896
54	0x3da95ba4	0.08269432
55	0x3d35e16a	0.044404425
56	0xbd86609b	-0.06561395
57	0xbe4de330	-0.20106196
58	0xbc8db833	-0.017299747
59	0xbe5795c0	-0.21053219
60	0x3d493441	0.0491221
61	0xbdc9ab37	-0.0984711
62	0x3e04aa61	0.1295562
63	0x3e5d0d2f	0.2158706
64	0x3e5eebae	0.21769592
65	0x3d27375c	0.04082428
66	0xbd933f73	-0.07189836
67	0x3d04e870	0.032448232
68	0x3d978118	0.073976696
69	0x3e0686ee	0.13137409
70	0xbd788efc	-0.060683236
71	0xbd9dec34	-0.07711068
72	0x3daf2560	0.085520506
73	0x3c853bb5	0.016263822
74	0xbdcfafdf	-0.101409666
75	0xbdc1b779	-0.09458823
76	0xbde6a718	-0.11262339
77	0x3e563ea9	0.2092234
78	0x3dd2a5a3	0.10285499
79	0xbe0ca6cd	-0.13735504
80	0xbe32afb1	-0.17449833
81	0x3dfc286b	0.123123966
82	0xbe179845	-0.1480418
83	0x3da492d2	0.08035816
84	0x3e1a1a86	0.1504918
85	0xbd8c00ea	-0.06836112
86	0xbceeda66	-0.029156875
87	0xbe69399d	-0.22775884
88	0xbe1b9c1e	-0.15196273
89	0xbd5b9f21	-0.053618554
90	0x3d25c36f	0.040469583
91	0x3e169428	0.14704955
92	0xbe237753	-0.15963487
93	0x3e68c0c1	0.2272978
94	0xbe21e0d0	-0.15808415
95	0xbc84a242	-0.016190652
96	0xbda67d26	-0.08129339
97	0x3c0c6fc0	0.008571565
98	0xbdd661f6	-0.10467903
99	0x3dda0b90	0.106467366
100	0x3dbd424d	0.092411615
101	0xbdb944e9	-0.09046347
102	0x3db7ad3a	0.08968587
103	0x3f1e4453	0.61823004
104	0x3e7d43cd	0.24732895
105	0x3e1b8314	0.15186721
106	0x3e10a1d3	0.14124231
107	0xbdeb958f	-0.115031354
108	0xbcfba4f4	-0.030718304
109	0xbdaf08e1	-0.085466154
110	0x3e4524ae	0.19252273
111	0xbecd25bf	-0.4006786
112	0xbda4d879	-0.080491014
113	0x3c02288c	0.007944237
114	0xbd3cb215	-0.04606827
115	0x3e0c215a	0.13684598
116	0x3c2981a7	0.010345853
117	0x3e5c1bfe	0.21495053
118	0xbe2277ac	-0.15865964
119	0xbce1bb52	-0.027555142
120	0xbe320f7c	-0.1738872
121	0xbe51ba87	-0.20481311
122	0x3cc56c7e	0.024099585
123	0xbe814021	-0.2524424
124	0xbe451da1	-0.19249584
125	0x3d0dddd7	0.03463539
126	0xbc0dffad	-0.008666915
127	0x3c12e0d6	0.008964738
128	0xbe18ebde	-0.14933726
129	0x3c9b95f3	0.0189924
130	0xbe01485d	-0.1262526
131	0x3d85675a	0.06513853
132	0xbe06325f	-0.13105153
133	0xbe94aeed	-0.29039708
134	0xbdc19462	-0.0945213
135	0x3d180b01	0.03711987
136	0xbdb8b344	-0.09018567
137	0x3ef8f99c	0.48627937
138	0x3e321ced	0.17393847
139	0xbd5ae919	-0.053444955
140	0x3e45ca72	0.19315508
141	0x3deb926c	0.11502537
142	0x3c18d1b8	0.009327345
143	0x3d8c02e3	0.06836488
144	0xbdbaf3a1	-0.091285
145	0xbe9d8bef	-0.30770823
146	0xbd8edd4c	-0.06975803
147	0x3d855122	0.065096155
148	0xbb4cff68	-0.0031280164
149	0x3d93f10a	0.07223709
150	0xbcad8ae0	-0.021184385
151	0x3de146b5	0.109998144
152	0xbde3269d	-0.11091349
153	0x3de47a9f	0.111562006
154	0x3d91a162	0.071108595
155	0xbe8bb4e8	-0.27286458
156	0xbbe7ace8	-0.0070701726
157	0xbe4b3451	-0.19844176
158	0x3aaaf4d8	0.001304294
159	0xbb886aa6	-0.004163104
160	0xbd81d400	-0.06339264
161	0xbd33b242	-0.04387117
162	0xbe4261b7	-0.18982588
163	0x3e2b277e	0.16714284
164	0xbc741257	-0.014896951
165	0xbd4ab086	-0.049484752
166	0x3dd545ab	0.10413679
167	0xbe60d605	-0.21956642
168	0xbda5f03e	-0.08102463
169	0x3d7ebf60	0.06219423
170	0xbd805257	-0.06265705
171	0xbe177da8	-0.14794028
172	0x3d3d94c3	0.04628445
173	0x3c78cc6a	0.015185455
174	0x3cf8cbd6	0.030370634
175	0x3cf8595f	0.030316053
176	0xbe27d7cd	-0.16390915
177	0x3caf14e0	0.021372259
178	0x3e066b00	0.13126755
179	0x3e87f72a	0.2655576
180	0x3e209ae6	0.15684089
181	0x3d8bfc7e	0.068352684
182	0xbe189c24	-0.14903313
183	0xbda3f801	-0.08006287
184	0xbd558f77	-0.05213877
185	0x3c59f514	0.01330306
186	0x3d75ec47	0.060039785
187	0xbecc28b8	-0.39874816
188	0x3d793e7d	0.06085061
189	0x3d2f78ec	0.04283993
190	0xbe272359	-0.16322078
191	0x3db73da8	0.08947307
192	0x3c5f9a7a	0.01364767
193	0xbd6f99cf	-0.058496293
194	0x3d62ab40	0.055339098
195	0x3e02318a	0.1271421
196	0xbe108766	-0.1411415
197	0x3be35e02	0.006938697
198	0x3ac32b23	0.0014890175
199	0xbe27d3ad	-0.16389342
200	0x3c47f248	0.01220376
201	0x3e5a86ea	0.21340528
202	0x3dba4c01	0.09096528
203	0x3e28b392	0.1647475
204	0xbd168f1f	-0.036757585
205	0x3d632e5a	0.055464126
206	0x3e4c898c	0.19974345
207	0xbe1ff99f	-0.15622567
208	0x3d9ace1e	0.07558845
209	0x3d9beb3e	0.07613228
210	0x3b5006ed	0.003174241
211	0xbdcdda4f	-0.10051405
212	0x3e67ab04	0.22623831
213	0xbe279bff	-0.16368102
214	0x3e98b7cc	0.29827726
215	0x3e04fa39	0.12986077
216	0x3d80d06e	0.06289755
217	0xbd528eda	-0.051405765
218	0x3d071760	0.032981277
219	0xbc0c6275	-0.008568396
220	0x3e05318c	0.13007182
221	0xbeb37efe	-0.35057825
222	0xbe789465	-0.24275358
223	0xbde6c41c	-0.11267874
224	0xbd5d66e6	-0.05405321
225	0x3d9301b8	0.07178062
226	0xbe05dcfa	-0.13072577
227	0xbd0ca3f1	-0.034336034
228	0xbc66fec6	-0.014098829
229	0x3e33b61c	0.17549938
230	0xbdb20f28	-0.08694297
231	0x3d81a3c4	0.06330064
232	0xbce9c36e	-0.028535571
233	0xbd5a32c6	-0.053271078
234	0xbe2344be	-0.15944192
235	0x3dd52840	0.10408068
236	0xbe13adbe	-0.14421746
237	0xbd1abc6b	-0.037777346
238	0xbbd951f1	-0.0066320826
239	0xbd061079	-0.032730553
240	0xbdf88f14	-0.12136665
241	0xbe1d5dbe	-0.15367791
242	0xbc14ed12	-0.009089725
243	0xbdc59a14	-0.09648529
244	0x3c97ef76	0.018546801
245	0xbd1d42ad	-0.038393665
246	0x3e72cea3	0.23711638
247	0x3e91b76e	0.28460258
248	0x3de95673	0.11393442
249	0x3d805416	0.06266038
250	0xbe3b1936	-0.18271336
251	0x3c87c42a	0.01657303
252	0xbe583a75	-0.2111605
253	0x3e37375c	0.17892212
254	0xbd9d355c	-0.07676193
255	0xbe9db902	-0.30805212

model.bigrill.fwd_rnn.spatial_decoder.lin_in.bias f4 [32]
0	0x3e141990	0.14462876
1	0xbe804443	-0.2505208
2	0x3e5f85bf	0.21828364
3	0xbe11f027	-0.14251767
4	0xbd3da6d1	-0.046301667
5	0x3d6e6749	0.05820397
6	0x3e2b0676	0.16701683
7	0x3e0dc462	0.13844445
8	0x3e118bbd	0.14213462
9	0x3e80d935	0.25165716
10	0xbe690a0b	-0.22757737
11	0xbcd331a3	-0.025780505
12	0xbe5c0857	-0.21487556
13	0xbd94ba17	-0.07262056
14	0xbdb9b208	-0.0906716
15	0xbe339781	-0.17538263
16	0xbd1d50c8	-0.038407117
17	0xbdfa2719	-0.122144885
18	0x3ddda148	0.108217776
19	0xbe4c3e8c	-0.19945735
20	0x3d93cd75	0.07216922
21	0xbcc38645	-0.023867736
22	0x3d8728e0	0.06599593
23	0x3e7ff11f	0.24994324
24	0xbe767718	-0.24068868
25	0x3c7f09a3	0.015566262
26	0xbe695383	-0.22785763
27	0x3e6c9d62	0.23106912
28	0x3c9f8608	0.01947309
29	0x3e01b917	0.12668262
30	0xbe34fd4e	-0.17674753
31	0xbe1a52b5	-0.15070613

model.bigrill.fwd_rnn.spatial_decoder.graph_conv.mlp.weight f4 [32, 64, 1, 1]
0	0xbdaf062d	-0.085461
1	0x3ce3d46f	0.027811257
2	0x3dceb9c8	0.10094029
3	0xbdb9efcf	-0.09078943
4	0xbdad4d0c	-0.08461961
5	0x3da0c64a	0.07850321
6	0xbd7756db	-0.060385566
7	0x3c83dce1	0.016096534
8	0x3dc50b5d	0.09621308
9	0x3cb5d111	0.022194417
10	0xbbaf461b	-0.0053489334
11	0x3da8d0af	0.08242928
12	0xbdd70668	-0.10499269
13	0x3c65e5e3	0.01403186
14	0x3be4dde8	0.006984461
15	0xbdd32bc3	-0.10311081
16	0xbe13642a	-0.14393678
17	0xbdad44c7	-0.08460384
18	0xbc6c9c75	-0.014441599
19	0x3d0dac7d	0.034588326
20	0xbe098edf	-0.13433407
21	0x3e2871ca	0.16449657
22	0x3ddb54c5	0.10709528
23	0x3b7706bd	0.0037693225
24	0x3dff27e7	0.12458783
25	0xbc0eccc1	-0.008715809
26	0xbd96add8	-0.07357377
27	0x3d182561	0.037145022
28	0xbd9cf0a8	-0.07663089
29	0x3d0f8136	0.035035335
30	0xbd9d31b2	-0.07675494
31	0x3bc8a5a2	0.0061232606
32	0x3dce1b76	0.100638315
33	0x3d7e4759	0.06207976
34	0x3d919a42	0.071095005
35	0xbd8b1c67	-0.06792527
36	0xbc3df4c2	-0.011593999
37	0x3da38ad1	0.079854615
38	0x3e05b5a7	0.13057576
39	0x3d8ae258	0.06781453
40	0xbd24bd59	-0.04021964
41	0x3e29f877	0.16598688
42	0xbd78c32f	-0.060733017
43	0x3d9df542	0.07712795
44	0xbd05663f	-0.032568213
45	0xbdd2e630	-0.10297811
46	0xbd4a409a	-0.049378015
47	0xbd8ea597	-0.069651775
48	0xbde5e1c9	-0.11224706
49	0x3dd0177b	0.101607285
50	0x3cc1bd01	0.023649694
51	0xbd4de128	-0.050263554
52	0x3d176bc3	0.036968004
53	0xbc51f5b7	-0.012814931
54	0x3d5dfe91	0.05419785
55	0x3e0bed58	0.13664758
56	0xbd8c01d7	-0.068362884
57	0x3bf06a82	0.0073369155
58	0xbdbd2383	-0.09235289
59	0x3cff9368	0.031198218
60	0x3ca55cad	0.020185793
61	0x3dd10010	0.1020509
62	0x3d4b7ead	0.049681354
63	0xbdcf499b	-0.10121461
64	0xbdd97b57	-0.10619228
65	0x3e303564	0.17207867
66	0x3dd503ba	0.104011014
67	0x3c8cbb87	0.017179264
68	0xbdbfc988	-0.09364611
69	0xbde8eab4	-0.11372891
70	0xbd5406d0	-0.05176431
71	0xbdd2dd22	-0.10296084
72	0xbd27d9f0	-0.040979326
73	0xbc43df72	-0.011955129
74	0x3d1d03ee	0.038333826
75	0xbd9e141a	-0.07718678
76	0xbdb6bcdd	-0.089227416
77	0x3e202232	0.15638044
78	0xbcc3a783	-0.023883587
79	0xbc02f11c	-0.007992055
80	0x3cff679c	0.031177334
81	0xbda789e6	-0.08180599
82	0xbdc68bdd	-0.096946456
83	0xbdb65596	-0.08903043
84	0x3da1d4ff	0.07901954
85	0xbdf26dd5	-0.11837355
86	0x3d2250ae	0.039627723
87	0xbd9af3e3	-0.07566049
88	0x3d207ab9	0.039179537
89	0x3d3101f9	0.043214772
90	0x3d3e3e0e	0.0464459
91	0xbdb90151	-0.09033454
92	0xbe04b34e	-0.12959024
93	0xbe022bf1	-0.12712075
94	0x3df97898	0.121812046
95	0x3d333894	0.04375513
96	0xbb653c6b	-0.003497864
97	0x3d163d68	0.036679655
98	0x3d09ddd1	0.033658806
99	0x3de3d9dc	0.11125538
100	0x3e1e0c09	0.15434279
101	0xbd80adc4	-0.06283143
102	0xbdc3ac63	-0.095543645
103	0xbd6f1eda	-0.05837903
104	0xbcd02dcd	-0.025412465
105	0xbe34c724	-0.17654091
106	0x3d1fef76	0.039046727
107	0x3d6c07fd	0.057624806
108	0x3c12708c	0.008937966
109	0x3d8fe574	0.070261866
110	0xbdc8e8f4	-0.09810057
111	0x3df56591	0.11982263
112	0x3caa61f5	0.020798663
113	0x3e1092cc	0.14118499
114	0xbe078d35	-0.1323746
115	0x3df2967c	0.11845109
116	0x3e097227	0.13422452
117	0xbe1c8610	-0.15285516
118	0xbde5e70e	-0.11225711
119	0x3d2972de	0.04136931
120	0x3cdd34c9	0.027002709
121	0x3d7126e7	0.05887499
122	0x3d716149	0.05893067
123	0xbd8c8cb7	-0.06862777
124	0xbd8d627f	-0.06903552
125	0xbcb2398c	-0.021755956
126	0x3b9af986	0.0047294525
127	0x3e05eb2a	0.13077989
128	0xbddb1a47	-0.106983714
129	0xbc9aa4a0	-0.018877327
130	0x3da7d953	0.08195748
131	0xbcaeea94	-0.02135209
132	0x3e0aa524	0.13539559
133	0xbd37b145	-0.04484679
134	0xbe0ccc8c	-0.13749903
135	0xbe2f7289	-0.17133535
136	0x3d4eaed3	0.050459694
137	0xbd7c7e40	-0.06164384
138	0xbdc786b3	-0.09742489
139	0xbc12132b	-0.008915703
140	0x3c385b2d	0.011252207
141	0x3e053643	0.1300898
142	0xbdbe94f7	-0.093057565
143	0x3dc1895b	0.094500266
144	0xbdde4d45	-0.10854582
145	0xbd31fdd4	-0.04345496
146	0x3d5c1989	0.05373529
147	0x3d874933	0.066057585
148	0xbdd397d0	-0.1033169
149	0x3dc0d7a5	0.09416131
150	0xbd9d2348	-0.07672745
151	0xbe550f49	-0.20806612
152	0xbc4b5838	-0.01241117
153	0xbda3c64a	-0.07996805
154	0x3db95cd8	0.09050912
155	0xbd9c71c2	-0.07638885
156	0x3d1940e9	0.03741542
157	0xbd571b07	-0.05251601
158	0xbd384902	-0.0449915
159	0xbdfad694	-0.12247959
160	0xbddae0a4	-0.10687378
161	0xbc8a0e04	-0.016852386
162	0xbcd09b8a	-0.025464792
163	0xbdf4b8b0	-0.11949289
164	0x3dbceb39	0.09224553
165	0xbdb2a264	-0.0872238
166	0x3dd10bc1	0.1020732
167	0xbc659f4b	-0.014015029
168	0x3d9e8fe1	0.077422865
169	0xbd1ebb7e	-0.038753025
170	0x3d455109	0.048172984
171	0xbdabba9c	-0.08385202
172	0xbc55e3e1	-0.013054819
173	0xbb3e7997	-0.0029064172
174	0x3e0418af	0.12900041
175	0xbd511975	-0.05104967
176	0x3dadf426	0.08493833
177	0xbd8e387b	-0.069443665
178	0xbd3fb421	-0.046802644
179	0xbdb40e31	-0.08791769
180	0x3c31ec3a	0.010859543
181	0xba8e4587	-0.0010854461
182	0x3d42596c	0.04744856
183	0xbc394029	-0.011306801
184	0xbd9a2f73	-0.075285815
185	0x3c7ac4d1	0.015305714
186	0x3db36d8b	0.08761128
187	0xbd474299	-0.048647497
188	0xbd04200b	-0.03225712
189	0x3d681246	0.056658052
190	0x3d5a0f21	0.053237084
191	0xbdb753c9	-0.089515276
192	0xbdf03733	-0.117292784
193	0xbcb74986	-0.022373926
194	0xbdbcb471	-0.09214104
195	0x3e061cd7	0.13096939
196	0x3dbfbea1	0.093625315
197	0x3d35f19e	0.044419877
198	0x3d35d97f	0.044396874
199	0xbe83e8e1	-0.2576361
200	0x3d43a516	0.04776486
201	0x3d4bc32d	0.04974668
202	0xbc533368	-0.012890674
203	0x3b91705f	0.0044384445
204	0x3d376333	0.044772338
205	0xbd568891	-0.052376334
206	0xbdd556f3	-0.10416975
207	0xbced3f15	-0.028960744
208	0x3dd9753b	0.10618063
209	0x3dadccd7	0.08486336
210	0x3cb781c7	0.02240075
211	0x3cef94d0	0.029245764
212	0x3e0dce4a	0.13848224
213	0x3dc62a21	0.09676004
214	0xbd97711e	-0.07394622
215	0xbe4f9683	-0.2027226
216	0x3ca25ca3	0.019819563
217	0x3dc26ef6	0.0949382
218	0x3e567dea	0.2094647
219	0xbd48f284	-0.049059406
220	0x3cc3ba0a	0.023892421
221	0xbe1c8e91	-0.1528876
222	0xbd0db25c	-0.034593925
223	0x3d0b21bd	0.033967722
224	0xbe1dc9f2	-0.15409067
225	0x3e252f17	0.16131245
226	0xbdd8312c	-0.10556254
227	0xbd0e8dd1	-0.034803215
228	0x3d593c9a	0.05303631
229	0xbda387e8	-0.079849064
230	0x3cb3115d	0.021858865
231	0xbe17ae55	-0.14812596
232	0xbdf6cca8	-0.12050754
233	0xbd3aa8ec	-0.045571253
234	0xbc3b84ce	-0.011445237
235	0x3c02e965	0.007990216
236	0x3dab6bff	0.08370208
237	0x3cc95d66	0.024580669
238	0x3b51f638	0.0032037627
239	0x3d46968d	0.04848342
240	0x3ddc2a99	0.10750312
241	0xbd21c59d	-0.0394951
242	0xbda73a87	-0.0816546
243	0xbcefd83b	-0.029277911
244	0x3e0443cd	0.12916489
245	0xbd08ccba	-0.033398367
246	0x3d955674	0.0729188
247	0x3cfed59b	0.031107714
248	0x3d808c7a	0.06276794
249	0x3ddda187	0.108218245
250	0x3da2a96b	0.0794247
251	0xbd42bd35	-0.047543723
252	0x3d851c12	0.064994946
253	0xbdc77969	-0.09739954
254	0x3d76e2a0	0.06027472
255	0x3d4e8200	0.050416946

model.bigrill.fwd_rnn.spatial_decoder.graph_conv.mlp.bias f4 [32]
0	0x3dd87a37	0.10570186
1	0xbdb3e709	-0.08784301
2	0xbd971d0a	-0.07378586
3	0xbe77f51a	-0.24214593
4	0x3e01f9e0	0.12692976
5	0xbe381b69	-0.17979206
6	0x3e128ce0	0.14311552
7	0xbe22f23e	-0.1591272
8	0x3edbbc50	0.4291711
9	0x3e874215	0.26417604
10	0x3e2a4011	0.16626002
11	0x3de28e41	0.11062289
12	0x3d34d55a	0.04414878
13	0x3cb09c84	0.021559007
14	0x3e17b8d9	0.14816608
15	0xbe404a32	-0.18778303
16	0xbd0fdd89	-0.03512338
17	0x3e685622	0.22689107
18	0xbe09cfae	-0.1345813
19	0x3d8cd50b	0.06876572
20	0x3e79edb6	0.24407086
21	0x3de047e2	0.109512106
22	0x3e2935f0	0.16524482
23	0xbe3e9802	-0.18612674
24	0xbe062930	-0.1310165
25	0x3ea47ab5	0.32124868
26	0x3df9f193	0.1220428
27	0x3e02cd30	0.12773585
28	0xbe4ca488	-0.19984639
29	0xbe1352f2	-0.1438711
30	0x3d919478	0.07108396
31	0x3e6cee9b	0.23137896

model.bigrill.fwd_rnn.spatial_decoder.lin_out.weight f4 [32, 64, 1]
0	0xbcc5f3d8	-0.024164125
1	0x3d51e7b1	0.05124635
2	0x3c012db7	0.007884434
3	0x3d917a0b	0.07103356
4	0x3d122f6b	0.035689753
5	0x3df7613c	0.12079093
6	0x3d274f61	0.040847186
7	0x3d9e7c77	0.077385835
8	0xbd4f228f	-0.050570067
9	0x3d4c77aa	0.049918808
10	0x3bfbc52f	0.007683418
11	0x3d28a585	0.041173477
12	0x3ca11a03	0.019665724
13	0x3dc6d03d	0.09707687
14	0x3d9b86a7	0.07594042
15	0x3dfc1075	0.123078264
16	0xbdda0302	-0.10645105
17	0x3d162761	0.03665865
18	0x3d847f29	0.064695664
19	0xbd8e8144	-0.06958249
20	0x3d39f88b	0.045403045
21	0x3d5cb3e8	0.05388251
22	0x3d82060d	0.0634881
23	0x3dc585fc	0.09644696
24	0xbbc94083	-0.0061417236
25	0xbd459cec	-0.048245355
26	0x3d438789	0.04773668
27	0xbdc48e30	-0.095974326
28	0x3d80f0e2	0.06295945
29	0xbd98b888	-0.074570715
30	0xbd9d478c	-0.07679662
31	0x3db10db8	0.08645195
32	0x3e34e5f5	0.17665847
33	0xbe12f7d8	-0.14352357
34	0x3e625d02	0.22105792
35	0xbd34037c	-0.043948635
36	0xbef697c0	-0.4816265
37	0xbd9539ff	-0.072864525
38	0xbc60d46e	-0.013722522
39	0x3e28852b	0.1645705
40	0xbe264ad1	-0.16239478
41	0x3f08567e	0.53256977
42	0xbe61135f	-0.21980046
43	0xbda12b9a	-0.078696445
44	0xbd4cb658	-0.049978584
45	0xbda396f5	-0.07987777
46	0x3a0d7d23	0.000539737
47	0xbe046589	-0.12929358
48	0xbc058883	-0.008150223
49	0xbee75688	-0.45183206
50	0x3c781f94	0.015144248
51	0x3e8b3520	0.2718897
52	0x3d12a96a	0.035806097
53	0x3dea5e5f	0.11443781
54	0x3daab520	0.08335328
55	0x3e6ad35a	0.22932187
56	0xbe053ec3	-0.13012223
57	0xbe1d8353	-0.15382127
58	0xbe54af2e	-0.20769951
59	0xbeb02b80	-0.34408188
60	0x3c80a41e	0.015703257
61	0x3d6d4bc8	0.0579336
62	0x3e199315	0.14997514
63	0xbd531eae	-0.05154293
64	0xbcd5df42	-0.026107434
65	0x3c9f1db8	0.01942335
66	0x3c91f639	0.017817603
67	0x3d0893e4	0.033344164
68	0xbdf7f76f	-0.12107741
69	0x3d85173b	0.064985715
70	0xbdb86a87	-0.090046935
71	0x3df5432d	0.119757034
72	0xbde25554	-0.11051431
73	0xbe3f05c9	-0.1865455
74	0x3cb5f1b4	0.02220998
75	0xbd7c0861	-0.06153143
76	0xbe2d52d1	-0.16926123
77	0xbe17bae6	-0.1481739
78	0xbd8d9e5a	-0.06914969
79	0xbd150bad	-0.036388088
80	0x3d1ee0ec	0.03878872
81	0xbd10dbb4	-0.035365775
82	0xbdd4015b	-0.10351821
83	0xbd84797d	-0.064684846
84	0xbe13df2f	-0.14440607
85	0xbe239241	-0.1597376
86	0x3c817ef2	0.015807603
87	0x3ce27742	0.027644757
88	0x3e4cc4f1	0.19997002
89	0xbe3d74f8	-0.18501651
90	0xbe4f0046	-0.20214948
91	0xbe1af760	-0.15133429
92	0x3e4131ba	0.18866625
93	0x3c6ee3e8	0.014580704
94	0x38974da9	7.2147064e-05
95	0xbe27f3f1	-0.1640165
96	0xbd9b1b4e	-0.07573567
97	0x3e727b44	0.23679835
98	0xbe431a1e	-0.19052932
99	0x3e93cff7	0.28869602
100	0x3eda2fe9	0.42614678
101	0xbd879b8f	-0.06621467
102	0xbdd1ba8d	-0.1024066
103	0xbf1ff6b8	-0.6248584
104	0x3ebc491f	0.36774537
105	0xbf09ad12	-0.5377971
106	0x3e908fbb	0.28234658
107	0xbd435761	-0.047690753
108	0x3ed4190b	0.41425356
109	0xbd40fd85	-0.047116775
110	0xbe0e50c8	-0.13898003
111	0xbe3e7042	-0.1859751
112	0xbc33ddff	-0.010978221
113	0x3f17b882	0.5926591
114	0x3e0b5b72	0.13609102
115	0xbefc4d7e	-0.49277872
116	0xbe79205b	-0.24328749
117	0xbe399d85	-0.18126495
118	0x3e0d5050	0.13800168
119	0xbe6aacf8	-0.22917545
120	0xbdd3dcfb	-0.10344883
121	0x3eda8c54	0.42685187
122	0x3e53cf5e	0.20684573
123	0x3eca33c2	0.39492613
124	0x3e8edf11	0.2790456
125	0xbe5719c3	-0.21005921
126	0xbea357e2	-0.31902987
127	0xbe1db944	-0.15402704
128	0x3e66d5fb	0.22542565
129	0xbe2d34f4	-0.16914731
130	0x3d244636	0.04010602
131	0xbde2a391	-0.11066354
132	0x3de687b7	0.11256354
133	0xbe157fe3	-0.14599566
134	0xbd46ed4d	-0.04856615
135	0xbe5565fc	-0.20839685
136	0x3d656061	0.056000117
137	0xbd647f86	-0.05578568
138	0xbd82b906	-0.06382947
139	0x3d878b2b	0.06618341
140	0x3c7a78fd	0.015287635
141	0x3c7697dd	0.015050855
142	0x3e085c3a	0.13316432
143	0x3ba810ef	0.0051289718
144	0x3d604036	0.054748736
145	0xbca73be5	-0.020414302
146	0x3dec3d95	0.11535183
147	0xbd7a490c	-0.06110482
148	0xbd1cee40	-0.03831315
149	0x3c8a37d1	0.016872318
150	0xbdde7acc	-0.108632654
151	0x3df5332c	0.11972651
152	0xbe4935a2	-0.19649366
153	0x3c5803aa	0.013184467
154	0xbd0a28f8	-0.033730477
155	0xbd2a116b	-0.041520517
156	0x3dffd12d	0.12491069
157	0xbdc4d3f1	-0.09610737
158	0x3e2e335a	0.17011777
159	0xbd92fd3d	-0.071772076
160	0xbe087719	-0.13326682
161	0xbe03c09a	-0.1286644
162	0xbcad6c6c	-0.021169864
163	0x3d099903	0.03359319
164	0x3cddfab6	0.027097087
165	0x3db9b740	0.09068155
166	0xbcf2d651	-0.02964321
167	0x3f2726fc	0.6529386
168	0xbe425b2e	-0.18980095
169	0x3eb739af	0.35786197
170	0xbdab1ed5	-0.0835549
171	0xbd6994e9	-0.057026777
172	0xbe7d685d	-0.24746843
173	0xbced7832	-0.028987978
174	0xbb582e85	-0.0032986712
175	0xbdeae5c4	-0.114696056
176	0xbc9a2dea	-0.018820722
177	0xbd53ff98	-0.051757425
178	0x3dd16397	0.102240734
179	0x3e87b7bf	0.26507375
180	0x3e002ed3	0.12517862
181	0x3cd30af6	0.025762063
182	0xbe05781d	-0.13034101
183	0xbd59238f	-0.053012427
184	0x3e7a10ed	0.24420519
185	0xbef1ae70	-0.47203398
186	0x3ca2e354	0.01988379
187	0xbe882605	-0.26591507
188	0xbe07c457	-0.13258491
189	0x3cdfb22b	0.027306637
190	0x3f0065ff	0.50155634
191	0x3e6cb096	0.23114237
192	0x3d25fee4	0.040526286
193	0x3c244faa	0.010028759
194	0xbc4ad833	-0.0123806475
195	0x3bbec52e	0.0058218455
196	0x3db8cd8b	0.09023579
197	0xbd61010c	-0.05493264
198	0x3d7e2c10	0.06205374
199	0x3d884493	0.066537045
200	0x3b8ed0ed	0.004358402
201	0xbd528b2c	-0.051402256
202	0x3db5810e	0.08862506
203	0x3da91168	0.08255273
204	0x3de1545b	0.11002418
205	0x3d8209f6	0.06349556
206	0xbd84a220	-0.064762354
207	0xbcc47f85	-0.023986587
208	0x3ccd0a70	0.025029391
209	0x3d773216	0.0603505
210	0x3ca45cbc	0.02006375
211	0xbd87d2b9	-0.06631989
212	0x3d81c13b	0.06335684
213	0x3d6a6d22	0.057232983
214	0x3dc43d22	0.09581973
215	0x3c964085	0.018341312
216	0x3d9977b5	0.074935354
217	0xbd4137c2	-0.047172315
218	0x3d37ac08	0.044841796
219	0xbc95cadb	-0.018285206
220	0xbd524f85	-0.051345367
221	0xbcb3297f	-0.021870373
222	0xbd7b24f8	-0.061314553
223	0x3d84e538	0.064890325
224	0x3b336a5c	0.0027376628
225	0xbe57b245	-0.21064098
226	0x3e3fa470	0.18715072
227	0xbb2cec7c	-0.0026386073
228	0xbe3ca0e7	-0.18420754
229	0x3da2bc3d	0.0794606
230	0x3ddc6fe9	0.10763533
231	0x3dd137ef	0.102157466
232	0xbd18330c	-0.037158057
233	0x3e3fc94a	0.1872913
234	0x3d052a0c	0.032510802
235	0xbdd51757	-0.10404842
236	0xbdb08bb5	-0.08620397
237	0xbcca9caa	-0.024732906
238	0x3dc6d2b7	0.097081594
239	0xbdccd0da	-0.10000773
240	0xbdb5441d	-0.08850882
241	0xbe86469d	-0.2622575
242	0xbe3e784c	-0.18600577
243	0x3e834580	0.25638962
244	0x3e06637d	0.1312389
245	0xbd57aab2	-0.052653022
246	0x3c468013	0.012115496
247	0x3cfb336c	0.030664168
248	0x3da661d5	0.08124129
249	0xbe44cc24	-0.19218498
250	0xbe1e2c43	-0.15446572
251	0xbea5d4b1	-0.32388833
252	0xbdf8f07b	-0.12155243
253	0x3dc57cdd	0.096429564
254	0x3ea90e05	0.3301851
255	0x3da65055	0.08120791
