logs/discharge_point/grin/2023-11-16_20-15-06_92227593/epoch=48-step=4263.ckpt (torch, 708004 bytes, 102 tensors)

model.bigrill.emb f4 [8, 20]
0	0x3f5dd665	0.86655265
1	0xbf532414	-0.82476926
2	0xbe95ace3	-0.29233465
3	0xbe8069d4	-0.2508074
4	0x3f755801	0.9583741
5	0x3f6ba0fd	0.92042524
6	0x3f58784e	0.8455857
7	0x3f919703	1.137421
8	0x3e30a8b8	0.17251861
9	0x3d9a3d9e	0.07531284
10	0xbf38501f	-0.71997255
11	0x3f2b40eb	0.6689593
12	0x3eb263f7	0.34841892
13	0x3ce15041	0.027504088
14	0xbeab9f09	-0.33519772
15	0xbedc145a	-0.42984277
16	0xbf43484c	-0.7628219
17	0x3eec9848	0.4620993
18	0x3f16229d	0.58646566
19	0x3e75f4a7	0.24019109
20	0xbf1da497	-0.6157927
21	0x3f4d1480	0.80109406
22	0x3ddd5172	0.1080655
23	0x3e769e87	0.24083911
24	0xbd97b077	-0.07406705
25	0xbf8ccfc4	-1.1000905
26	0xbe1d5c97	-0.15367351
27	0xbf6e6ac5	-0.9313167
28	0x3ed5c9d1	0.41755536
29	0xbe4e9f82	-0.20178035
30	0x3eb83beb	0.35983214
31	0xbec45790	-0.38348055
32	0xbd7f0860	-0.062263846
33	0xbeeda072	-0.46411473
34	0x3eb3e73d	0.35137358
35	0xbdee63e3	-0.11640146
36	0xbe9d83fc	-0.3076476
37	0xbd1c87db	-0.0382155
38	0xbf53b788	-0.8270192
39	0xbf73c978	-0.9522929
40	0xbe8d003a	-0.27539235
41	0x3ec64e00	0.38731384
42	0x3e61ed81	0.22063257
43	0x3f4477fc	0.7674558
44	0x3db0f20f	0.08639919
45	0xbec36108	-0.38159966
46	0xbe07edaf	-0.13274263
47	0xbeb0f2d8	-0.34560275
48	0x3edb91c8	0.4288466
49	0x3f68d764	0.9095366
50	0x3f53ebfe	0.8278197
51	0xbd8287a5	-0.063735284
52	0xbf08a45f	-0.5337581
53	0xbc8a0eea	-0.016852815
54	0x3ea4c363	0.32180318
55	0xbebb5adf	-0.36592767
56	0x3f2b0a6c	0.6681278
57	0x3f1cdfb4	0.61278844
58	0xbf1da8f8	-0.6158595
59	0xbe87d80e	-0.26532024
60	0xbf27d7c8	-0.6556363
61	0x3f290ea2	0.6603795
62	0x3e04e0ec	0.12976426
63	0xbd9034c0	-0.07041311
64	0x3f92fc2f	1.148321
65	0xbccf6f55	-0.025321642
66	0xbe713455	-0.2355512
67	0xbf3ad06b	-0.7297427
68	0xbf026034	-0.50928044
69	0xbeba19e0	-0.36347866
70	0x3f005610	0.5013132
71	0xbe137034	-0.14398271
72	0xbe8f4e52	-0.2798944
73	0x3eed9659	0.4640377
74	0x3f2861d5	0.6577428
75	0x3d58bf03	0.052916538
76	0xbe70795c	-0.23483795
77	0xbe811a3f	-0.25215337
78	0xbd9b69c2	-0.07588531
79	0x3d241459	0.040058468
80	0x3e176b11	0.14786936
81	0xbf52035f	-0.82036394
82	0xbeb5e3d5	-0.35525385
83	0x3e546e3c	0.20745176
84	0xbd99a594	-0.07502285
85	0xbcfbe50e	-0.03074887
86	0x3ea80819	0.32818678
87	0x3f842766	1.0324523
88	0x3de4a642	0.11164524
89	0x3f5a63d0	0.8530855
90	0xbd618b54	-0.055064514
91	0x3f9163d1	1.1358587
92	0x3f425b48	0.75920534
93	0x3f1b67c8	0.6070523
94	0xbf1fb6f7	-0.6238856
95	0xbcd21009	-0.025642412
96	0x3e59a377	0.21253763
97	0x3ed06306	0.4070055
98	0x3e292f64	0.16521984
99	0x3db3f101	0.08786202
100	0x3e841590	0.257977
101	0x3f28934c	0.6584976
102	0xbef9e063	-0.48804006
103	0x3e94fe2a	0.29100162
104	0xbe525208	-0.20539105
105	0xbf441a5b	-0.76602715
106	0xbe51dcf6	-0.20494446
107	0xbf76be8c	-0.963845
108	0xbecac92e	-0.39606613
109	0xbf251da7	-0.6449837
110	0x3f11b48a	0.56916106
111	0xbe79276b	-0.24331443
112	0xbe5f071e	-0.21780059
113	0xbea3207f	-0.3186073
114	0x3e535a73	0.20639972
115	0x3ec7469f	0.38921067
116	0x3c090158	0.008362137
117	0x3ef62250	0.48073053
118	0xbf63fd28	-0.8905816
119	0xbeb7debc	-0.3591212
120	0x3f0e7d5c	0.55660033
121	0xbef8d4e7	-0.48599932
122	0xbe9aec9d	-0.30258647
123	0xbf5340ce	-0.8252076
124	0x3d9e9e5f	0.07745051
125	0xbd87ef24	-0.06637409
126	0xbdaf1a46	-0.08549933
127	0x3eb2e0b2	0.34937054
128	0x3e3b6bcf	0.18302844
129	0xbe5e7cb3	-0.21727256
130	0xbeb7b460	-0.35879803
131	0xbe5ce830	-0.21572948
132	0xbf65e24f	-0.89798445
133	0xbe0acc3d	-0.13554473
134	0x3eda6ee1	0.4266272
135	0xbd8f3c2f	-0.06993901
136	0xbebbce02	-0.3668061
137	0xbe392f89	-0.1808454
138	0xbe179a0a	-0.14804855
139	0x3f5b14bf	0.8557853
140	0x3e94dcdd	0.29074755
141	0xbf62037e	-0.8828658
142	0xbe8b23c0	-0.27175713
143	0xbf06ad6f	-0.5260839
144	0xbf0cae35	-0.5495332
145	0x3e9b0946	0.30280513
146	0xbe8eeada	-0.27913553
147	0x3ec975f6	0.3934781
148	0xbeccc43c	-0.39993465
149	0xbd9cb9aa	-0.076526
150	0xbd2976b6	-0.041372977
151	0x3f0265f4	0.5093682
152	0xbb4f8d75	-0.0031670008
153	0xbde7acbf	-0.113122456
154	0xbe443d09	-0.19163908
155	0xbe6e8a04	-0.23294836
156	0xbe962e3c	-0.2933215
157	0xbeeaad95	-0.45835558
158	0x3f1a397d	0.6024397
159	0xbe99545a	-0.29947168

model.bigrill.fwd_rnn.cells.0.forget_gate.mlp.weight f4 [32, 170, 1, 1]
0	0x3d19131f	0.03737175
1	0x3e074237	0.13208853
2	0x3dc25e3d	0.09490631
3	0xbc051031	-0.008121536
4	0xbe585353	-0.21125536
5	0x3e9b2e60	0.3030882
6	0x3ddc1416	0.107460186
7	0x3e7c252b	0.24623553
8	0xbe801e34	-0.25023043
9	0xbdfe8dde	-0.12429403
10	0x3e2a2eac	0.16619366
11	0x3d56c54d	0.052434254
12	0x3e55ad5a	0.2086691
13	0x3e618ee4	0.22027165
14	0xbd636b24	-0.0555221
15	0x3d37f218	0.044908613
16	0x3e8c47bd	0.27398482
17	0xbe0510bb	-0.12994663
18	0x3e0f893e	0.14017197
19	0xbec96984	-0.39338315
20	0xbe2ed35f	-0.17072819
21	0xbdd23924	-0.10264805
22	0x3e4d7927	0.20065747
23	0xbe5a2a28	-0.21305144
24	0x3e1b4a1e	0.15164992
25	0xbddaaf3e	-0.10677956
26	0xbeeb0c29	-0.45907715
27	0x3cd28c79	0.025701748
28	0xbe50c426	-0.20387325
29	0x3dcbefa5	0.09957818
30	0xbe1e90ff	-0.15484999
31	0x3d8e7c35	0.06957284
32	0x3e680da0	0.22661448
33	0x3dd61fb0	0.10455263
34	0xbcf780ca	-0.030212779
35	0x3d916c9a	0.07100792
36	0x3df47f93	0.11938395
37	0x3a51069c	0.0007973702
38	0xbe1b3383	-0.15156369
39	0x3ed55eba	0.41673833
40	0x3e8569e1	0.26057342
41	0x3e41c79e	0.18923804
42	0xbe2f8db2	-0.17143896
43	0xbda6df5d	-0.08148072
44	0x3d9e27ba	0.07722421
45	0x3d3532b4	0.044237807
46	0x3ee0f9ce	0.43940586
47	0x3e739bcf	0.23789905
48	0xbd94229a	-0.07233162
49	0xbc652ac1	-0.013987244
50	0x3ea0e68b	0.3142589
51	0xbdabb0e9	-0.08383352
52	0x3e033ee8	0.12816966
53	0xbeddbf15	-0.43309847
54	0xbde50b9f	-0.11183857
55	0xbdda4464	-0.10657576
56	0xbdd7cc26	-0.10536985
57	0xbe6c5a14	-0.23081237
58	0x3eb58378	0.35451865
59	0xbca949d8	-0.020665094
60	0xbee1e370	-0.44118834
61	0x3e74d452	0.23909119
62	0xbdfc911b	-0.12332364
63	0x3e715585	0.2356778
64	0xbdcb5b03	-0.099294685
65	0x3e06960e	0.13143179
66	0x3e4455be	0.19173333
67	0x3e412da3	0.18865065
68	0x3de3b97d	0.111193635
69	0xbd4fe654	-0.050756767
70	0x3dc0ef6d	0.09420667
71	0xbd209a66	-0.039209746
72	0xbe5fdfbd	-0.21862693
73	0x3e89a280	0.2688179
74	0x3dbc9946	0.09208922
75	0x3e45bf81	0.19311334
76	0xbd76c728	-0.060248524
77	0xbd40ba8d	-0.04705291
78	0x3d868bb1	0.06569613
79	0xbe4851fb	-0.19562523
80	0xbd59a1c3	-0.053132784
81	0x3e0b3bb8	0.13597
82	0x3df9bc95	0.12194172
83	0x3e3ad166	0.18243942
84	0x3e27374b	0.16329686
85	0x3b5c1bad	0.0033585832
86	0x3e469ca9	0.19395699
87	0xbe4b9338	-0.19880378
88	0xbe047d1d	-0.12938352
89	0xbe80b661	-0.25139144
90	0xbe961721	-0.2931452
91	0xbdb7041d	-0.089363314
92	0xbeac4de5	-0.3365318
93	0xbd9121b3	-0.07086506
94	0xbe1edd8b	-0.155142
95	0x3b0c8b2a	0.0021445253
96	0x3d30cb46	0.043162607
97	0x3dbdccb8	0.09267563
98	0xbd859aa3	-0.06523635
99	0x3df61adf	0.12016844
100	0x3e0ca05a	0.13733044
101	0x3d84f1ae	0.06491409
102	0xbdbf7c74	-0.093499094
103	0x3e6e20f9	0.23254766
104	0x3e1a1425	0.15046747
105	0x3d1be22c	0.03805749
106	0xbcd001a0	-0.0253914
107	0x3de0bab9	0.109731145
108	0x3e1a7938	0.15085304
109	0x3e5c4828	0.215119
110	0xbdc4ed67	-0.096155934
111	0xbe0cf050	-0.13763547
112	0x3e68a206	0.22718057
113	0xbd820401	-0.0634842
114	0x3e9c553d	0.30533782
115	0x3ded043d	0.11573074
116	0x3ddc5c8c	0.107598394
117	0x3d72e0d9	0.059296463
118	0x3ea5351b	0.3226708
119	0xbe24ea90	-0.16105103
120	0x3e101eed	0.14074297
121	0xbe8cf1d2	-0.27528244
122	0xbdf0b95e	-0.11754106
123	0xbb2bb678	-0.002620129
124	0x3d8df757	0.06931942
125	0xbe253c44	-0.16136271
126	0x3ecd778b	0.40130267
127	0xbd12d997	-0.03585204
128	0xbeb1c6ce	-0.34721988
129	0x3d03d3eb	0.032184523
130	0x3b711fa4	0.003679254
131	0x3d62c0d5	0.05535968
132	0x3d8bf4f8	0.068338335
133	0x3e756f53	0.23968248
134	0x3e4a60f5	0.19763549
135	0x3dcd0257	0.10010212
136	0xbd5d2091	-0.053986136
137	0x3df69352	0.12039818
138	0x3e6ff07d	0.23431583
139	0xbc9d21e0	-0.019181192
140	0x3d790b2b	0.060801666
141	0x3e071b13	0.13193922
142	0x3e4803a0	0.19532633
143	0x3da92a23	0.0825999
144	0xbe6647df	-0.22488354
145	0xbad6bcd9	-0.0016383185
146	0x3e9aa598	0.30204463
147	0x3c51d14a	0.012806246
148	0x3e85a310	0.2610097
149	0x3e2013cd	0.15632553
150	0x3d8ea6d1	0.069654115
151	0xbda557f3	-0.080734156
152	0x3e75c1bd	0.23999687
153	0x3ce4da04	0.02793599
154	0x3e466d65	0.19377668
155	0xbe768742	-0.24075034
156	0xbde62da5	-0.11239175
157	0x3e4c6cfb	0.19963448
158	0x3e051fab	0.13000362
159	0xbc7f0baa	-0.015566746
160	0x3e824cb3	0.25449142
161	0xbe1ee693	-0.15517645
162	0xbea4e432	-0.3220535
163	0xbd665fca	-0.056243695
164	0x3d7e2b24	0.06205286
165	0x3dcc1348	0.09964615
166	0xbd56674f	-0.052344617
167	0x3c2d8a1f	0.010592013
168	0x3d86c5a2	0.06580664
169	0x3de53599	0.111918636
170	0xbc4facd2	-0.012675481
171	0x3de2a0ce	0.11065827
172	0xbcf6f693	-0.030146873
173	0xba3ea496	-0.000727245
174	0xbda319b8	-0.0796389
175	0x3cdab6fa	0.026698578
176	0xbce0cd77	-0.027441723
177	0x3dfb7559	0.12278242
178	0xbaaba13e	-0.0013094319
179	0xbdb7ecec	-0.08980736
180	0x3d3b119b	0.045671087
181	0xbd2bc362	-0.04193438
182	0xbc6b1d5d	-0.0143502625
183	0x3d9f7ea4	0.07787827
184	0x3d112955	0.035439808
185	0xbd0068ba	-0.031349875
186	0x3e04df93	0.12975912
187	0xbd94233a	-0.072332814
188	0x3b858230	0.0040743575
189	0x3c354db6	0.011065891
190	0x3ba880f5	0.005142326
191	0x3d2e2d84	0.042523876
192	0x3d9de507	0.07709699
193	0xbd2897f8	-0.041160554
194	0x3e15a313	0.14612989
195	0xbd37d0a4	-0.04487671
196	0xbdd53bc0	-0.10411787
197	0x3e38145a	0.17976514
198	0x3d3cca27	0.046091225
199	0x3d9af6dd	0.07566617
200	0xbd331471	-0.043720666
201	0x3d534025	0.051574845
202	0x3d764236	0.060121737
203	0x3d447c27	0.047969963
204	0xba53751c	-0.0008066462
205	0x3d76480c	0.060127303
206	0x3bf0af05	0.0073450827
207	0x3c86823d	0.016419524
208	0xbdaf78d6	-0.085679695
209	0xbcfd549f	-0.03092414
210	0x3c4601dc	0.012085404
211	0xbceeada1	-0.029135527
212	0xbe1be5a4	-0.1522432
213	0xbd8b103a	-0.06790204
214	0xbd90f06b	-0.07077106
215	0xbd91e722	-0.07124163
216	0xbd1959b4	-0.037439063
217	0x3ccb3dfe	0.024809834
218	0xbce3a48b	-0.027788421
219	0x3cfecf51	0.031104716
220	0xbb5bb7b1	-0.0033526237
221	0xbdf1cd74	-0.11806765
222	0x3d692486	0.056919597
223	0x3cb5e11c	0.022202067
224	0xbd9dcc83	-0.07705023
225	0x3c707dd1	0.0146784345
226	0x3dcb98e1	0.09941269
227	0xbd523ce3	-0.051327597
228	0x3e07a1d7	0.13245331
229	0x3ab3550e	0.0013681964
230	0xbce7e26b	-0.028306207
231	0x3dfe81a7	0.12427073
232	0xbd986e16	-0.07442872
233	0x3d8dc54f	0.06922399
234	0xbe0e7889	-0.13913168
235	0x3da89188	0.08230883
236	0x3daad7f8	0.08341974
237	0x3d88cc31	0.066795714
238	0x3d0c2473	0.03421445
239	0x3ccc8a1c	0.0249682
240	0x3d62417b	0.05523823
241	0x3d31cdfa	0.043409325
242	0xbd22cbd2	-0.03974516
243	0x3c92c618	0.017916724
244	0x3c3ae56b	0.011407237
245	0x3dcc6a0a	0.09981163
246	0xbdaab401	-0.08335114
247	0xbdb2d175	-0.08731357
248	0x3ca5f338	0.020257577
249	0x3aeab060	0.0017905347
250	0xbc85c32d	-0.016328419
251	0x3e0f1255	0.13971837
252	0x3df79fb3	0.12091007
253	0xbdf0fb22	-0.1176665
254	0x3de9fbbc	0.11424968
255	0xbd5f247e	-0.05447816

model.bigrill.fwd_rnn.cells.0.forget_gate.mlp.bias f4 [32]
0	0xbd6081c5	-0.054811258
1	0x3e107e26	0.14110622
2	0x38a7a5c2	7.994055e-05
3	0x3cf1ca73	0.02951548
4	0xbe2ccc46	-0.16874799
5	0x3c3c8fb6	0.011508873
6	0xbda9aa75	-0.08284465
7	0xbd164555	-0.036687214
8	0xbcbc7fff	-0.023010252
9	0xbd709f08	-0.058745414
10	0xbde52e13	-0.111904286
11	0x3d9cf957	0.07664745
12	0x3dc63c10	0.09679425
13	0xbd6c3651	-0.057668988
14	0xbd377c4b	-0.04479627
15	0x3d25ff18	0.04052648
16	0xbd80923c	-0.06277892
17	0xbdf26190	-0.11835015
18	0xbdb849ad	-0.089984275
19	0x3daca60d	0.08430109
20	0x3e11e318	0.14246786
21	0xbde7a3e2	-0.11310555
22	0xbdbbda7b	-0.09172531
23	0xbe2954c5	-0.16536243
24	0xbd51e46b	-0.051243227
25	0xbd6820c1	-0.05667186
26	0xbe2c5e54	-0.16832858
27	0x3d5a23fe	0.05325698
28	0xbc77bb55	-0.015120347
29	0x3d0a7af6	0.03380867
30	0xbdae3c35	-0.08507577
31	0x3e3fde6a	0.18737188

model.bigrill.fwd_rnn.cells.0.update_gate.mlp.weight f4 [32, 170, 1, 1]
0	0xbdd2898e	-0.10280143
1	0xbdb95dde	-0.09051107
2	0x3e0de04a	0.1385509
3	0xbe3f1ef9	-0.18664159
4	0xbd9fc01c	-0.07800314
5	0x3e0a56b4	0.13509637
6	0x3d66e827	0.05637374
7	0x3dfa4a1e	0.12221168
8	0xbe1d19ed	-0.15341921
9	0x3e3ccec0	0.18438244
10	0x3e41ad24	0.18913704
11	0xbef47193	-0.477429
12	0xbe472161	-0.19446327
13	0xbe43f66e	-0.19136974
14	0x3ea9de66	0.3317749
15	0x3d969f71	0.0735463
16	0xbdbf708d	-0.09347639
17	0x3df686ca	0.12037428
18	0x3ce0f4cc	0.027460478
19	0x3c62bd7d	0.013839123
20	0x3d3b1e8d	0.045683432
21	0x3dc0ae37	0.09408229
22	0xbd26ddf6	-0.040739022
23	0x3d4d247e	0.05008363
24	0xbde4527f	-0.111485474
25	0xbe33f234	-0.17572862
26	0x3e5cc5d6	0.21559843
27	0xbd24005b	-0.0400394
28	0x3c20819a	0.009796524
29	0x3e61b2c8	0.22040856
30	0xbe635ba4	-0.22202927
31	0x3e55c72f	0.20876764
32	0x3e0b36c9	0.13595118
33	0x3dc438cc	0.09581146
34	0xbdd28b98	-0.10280532
35	0xbe0efae2	-0.13962892
36	0x3e850cde	0.2598638
37	0xbdc69357	-0.096960716
38	0x3d0f2bef	0.034954008
39	0x3d629830	0.05532092
40	0x3dc16f73	0.094450854
41	0xbd95b24d	-0.07309399
42	0xbd8357c4	-0.06413224
43	0x3e5aee47	0.21379958
44	0x3dd134f2	0.10215177
45	0xbed5fa03	-0.41792306
46	0xbe8fc579	-0.28080347
47	0xbe549163	-0.20758586
48	0x3e99a7d5	0.30010858
49	0x3d39dfba	0.045379378
50	0x3cbf9e84	0.023391016
51	0x3e2fce19	0.17168464
52	0xbccfed9e	-0.02538186
53	0xbe43480f	-0.19070457
54	0x3cbf0a85	0.023320446
55	0x3e481138	0.19537818
56	0x3d20f981	0.039300445
57	0x3e82e75f	0.25567147
58	0xbd002d41	-0.031293157
59	0xbe32b54a	-0.17451969
60	0x3e3f3fb8	0.1867665
61	0x3d46cd94	0.0485359
62	0x3d1bfc52	0.03808243
63	0x3ee1d25c	0.44105804
64	0xbdcf2b10	-0.101156354
65	0x3e19eb31	0.15031125
66	0x3dfca061	0.12335277
67	0x3e9f3f45	0.31102958
68	0xbe4926fb	-0.19643776
69	0xbe25c92a	-0.16190019
70	0x3ec66a4e	0.3875298
71	0xbd9fb184	-0.0779753
72	0x3e1d9846	0.15390119
73	0x3e22a9c9	0.1588508
74	0xbde071f3	-0.10959234
75	0x3d8a29bf	0.06746244
76	0xbe61209e	-0.21985099
77	0x3e430595	0.19045098
78	0x3e8bad8b	0.2728084
79	0xbf0be403	-0.54644793
80	0xbe778ca7	-0.24174748
81	0xbe832faa	-0.25622302
82	0x3ede1190	0.43372774
83	0x3e27ed2e	0.1639907
84	0xbdb35c8f	-0.087578885
85	0x3e0bde19	0.13658942
86	0x3b0a0d1d	0.0021064945
87	0x3dd8dacd	0.10588608
88	0xbd7f628c	-0.06234984
89	0xbd2661d4	-0.04062064
90	0xbe1ddf4b	-0.15417211
91	0x3e74e782	0.23916438
92	0xbea26d59	-0.3172405
93	0xbee0b5be	-0.43888658
94	0x3e82a9a3	0.25520048
95	0xbe5f78eb	-0.2182347
96	0x3e874495	0.2641951
97	0x3ee1212f	0.4397063
98	0xbdeead1d	-0.116541125
99	0x3ebedb0b	0.37276492
100	0x3ec13221	0.37733558
101	0x3e8b5d79	0.2721975
102	0xbd808d90	-0.06277001
103	0xbdc22a29	-0.09480698
104	0x3dbb2a4e	0.09138928
105	0xbc0d0e4b	-0.008609365
106	0xbe0101f8	-0.12598407
107	0x3e3a20fa	0.18176642
108	0x3e32e037	0.17468344
109	0x3e01cf5f	0.12676762
110	0xbdb4ed8b	-0.0883437
111	0x3e169dd5	0.14708646
112	0x3e5caa38	0.21549308
113	0xbeb20aac	-0.34773767
114	0xbde08085	-0.10962013
115	0xbe1d4721	-0.15359165
116	0x3ddb430d	0.10706148
117	0xbc3bdd6f	-0.011466368
118	0xbd2fcefd	-0.04292201
119	0x3dc5f7df	0.09666418
120	0xbcc89ffa	-0.024490345
121	0xbe0ea3b6	-0.13929638
122	0x3d070bf2	0.032970376
123	0x3d0bc578	0.034123868
124	0x3dc73d64	0.09728506
125	0x3e05f67e	0.1308231
126	0xbda5827c	-0.080815285
127	0xbe8445a3	-0.2583438
128	0x3d261517	0.040547457
129	0xbb5f0592	-0.003403042
130	0x3d85ab90	0.065268636
131	0x3ea87227	0.3289959
132	0xbe637992	-0.22214344
133	0x3e36d420	0.17854357
134	0x3e4fccf2	0.20293024
135	0x3e053449	0.13008226
136	0xbe3d59ed	-0.18491335
137	0xbdb8759e	-0.09006809
138	0x3dc3a81d	0.095535494
139	0xbe043338	-0.12910163
140	0xbd44acd4	-0.048016384
141	0x3e80ab6f	0.25130793
142	0x3dd70fe1	0.105010755
143	0x3e22a846	0.15884504
144	0xbd43fd15	-0.04784878
145	0x3e03fac2	0.12888625
146	0x3e0ac527	0.1355177
147	0xbe43738a	-0.19087043
148	0xbd95972b	-0.073042236
149	0xbde989ac	-0.11403212
150	0x3e08a023	0.13342337
151	0x3d45caf4	0.048289254
152	0xbba1ff0b	-0.0049437336
153	0x3e29d825	0.16586359
154	0x3ca4b8a8	0.020107582
155	0xbe35e042	-0.17761329
156	0x3d5e62a0	0.054293275
157	0xbc99b190	-0.018761426
158	0x3cd362de	0.02580398
159	0x3e094f06	0.13409051
160	0x3c6bca53	0.0143915
161	0xbe8b4bad	-0.27206174
162	0x3dfe6813	0.12422194
163	0xbc26e350	-0.010186031
164	0xbc9b4297	-0.018952651
165	0x3e9fabda	0.311858
166	0xbe39fd8c	-0.18163127
167	0x3e40930a	0.18806091
168	0x3e22b312	0.15888622
169	0x3e22a9be	0.15885064
170	0x3c01ec39	0.007929855
171	0xbd107472	-0.0352673
172	0xbde44647	-0.11146217
173	0xbe6f5a01	-0.23374178
174	0x3da9400c	0.08264169
175	0xbde0ef00	-0.10983086
176	0xbe86494f	-0.26227805
177	0xbe817626	-0.25285453
178	0x3e099d67	0.1343895
179	0x3eabe6d1	0.33574536
180	0xbd966c94	-0.073449284
181	0xbe20e857	-0.1571363
182	0xbe9ffad8	-0.31246066
183	0xbe368f5b	-0.17828123
184	0x3eae355c	0.34025085
185	0x3e4fe612	0.20302609
186	0xbe15b2ae	-0.14618942
187	0x3de411a9	0.11136181
188	0xbe04b087	-0.12957965
189	0x3e59a213	0.21253233
190	0x3e0ce839	0.13760461
191	0xbdf28977	-0.118426256
192	0xbe4044fd	-0.18776317
193	0x3e423a7a	0.1896762
194	0xbe7169b9	-0.23575486
195	0x3e82f9ef	0.2558131
196	0x3e4bf086	0.19915971
197	0xbe852ffa	-0.26013166
198	0xbe4223c9	-0.18958963
199	0xbccc438e	-0.024934556
200	0x3ce2fbed	0.027708018
201	0x3df9e6fa	0.122022584
202	0xbe87860e	-0.26469463
203	0xbdb9a347	-0.09064346
204	0x3a6237ee	0.000862955
205	0x3e141a3a	0.1446313
206	0xbdf60ceb	-0.12014183
207	0xbc8146b5	-0.015780786
208	0x3e0ae645	0.13564403
209	0xbe33289b	-0.17495959
210	0xbeabbd8c	-0.3354305
211	0xbcc96d80	-0.024588346
212	0xbbea6f1a	-0.0071543576
213	0x3df6d1e1	0.1205175
214	0xbe2216ed	-0.15829058
215	0xbd05100c	-0.032486007
216	0xbe742a13	-0.23844175
217	0xbe34898c	-0.17630595
218	0x3c8a1fc8	0.016860858
219	0x3d9cdcb8	0.07659286
220	0xbdb608e5	-0.08888415
221	0x3cfe354e	0.031031277
222	0xbd7fdde5	-0.062467474
223	0x3e3b0749	0.18264498
224	0x3e063777	0.13107096
225	0xbe155534	-0.14583284
226	0xbe084aa7	-0.13309728
227	0x3e706fb2	0.23480108
228	0xbe37a71b	-0.1793484
229	0xbe806076	-0.25073594
230	0x3e885a2f	0.26631305
231	0xbecf0242	-0.4043141
232	0x3cf11e89	0.029433506
233	0xbd3a1115	-0.045426447
234	0xbe1e4da3	-0.15459304
235	0x3e860abe	0.2618007
236	0xbd441954	-0.047875717
237	0xbe5a15cc	-0.21297377
238	0xba58a87f	-0.0008264854
239	0xbd9235f3	-0.07139196
240	0xbe37111f	-0.17877625
241	0x3e05c70f	0.13064216
242	0x3e3725c8	0.17885506
243	0xbdd7d68d	-0.10538969
244	0xbeb39506	-0.35074633
245	0xbc5b8144	-0.013397519
246	0xbc032321	-0.008003981
247	0xbc402601	-0.011727811
248	0xbe617d3e	-0.22020432
249	0xbe0e84a4	-0.13917786
250	0x3c8ea648	0.017413273
251	0xbdbce06b	-0.09222492
252	0x3e96b634	0.29435885
253	0x3d92b605	0.07163624
254	0xbe668faf	-0.22515748
255	0x3de85986	0.113452

model.bigrill.fwd_rnn.cells.0.update_gate.mlp.bias f4 [32]
0	0xbe48e035	-0.19616778
1	0xbe65f2f6	-0.22455963
2	0x3e27087b	0.16311829
3	0x3c5e7c07	0.013579375
4	0xbe3bd31d	-0.18342252
5	0x3e4a2648	0.19741166
6	0x3e4caee9	0.19988598
7	0xbe57a171	-0.21057679
8	0xbde90f75	-0.11379901
9	0x3e3390eb	0.1753575
10	0x3d23f8bf	0.040032145
11	0x3da68839	0.08131451
12	0xb8af0761	-8.346025e-05
13	0x3ddf143e	0.10892533
14	0x3d2e9dc1	0.042630915
15	0xbe4fc0fb	-0.2028846
16	0x3d3e28ba	0.04642556
17	0x3a3ae36d	0.0007129226
18	0xbc30233e	-0.01075059
19	0x3e06c261	0.13160087
20	0xbda3f415	-0.08005539
21	0x3de12ae6	0.1099451
22	0x3e4b6a78	0.19864833
23	0x3e070722	0.13186315
24	0xbd1da573	-0.038487863
25	0x3eac0064	0.33594048
26	0x3e679b97	0.22617947
27	0x3c8e9aee	0.01740786
28	0x3d9e64ba	0.07734056
29	0x3e482e04	0.19548804
30	0x3dc0bf61	0.09411503
31	0xbe25623e	-0.16150758

model.bigrill.fwd_rnn.cells.0.c_gate.mlp.weight f4 [32, 170, 1, 1]
0	0x3daeb52d	0.0853065
1	0xbde585b2	-0.11207141
2	0x3da6c67f	0.08143329
3	0xbe3f5229	-0.18683685
4	0xbdb75a85	-0.08952812
5	0x3d39574d	0.045249272
6	0x3e452f48	0.19256318
7	0x3da4a8fb	0.08040043
8	0xbd332521	-0.04373658
9	0x3e04d989	0.12973608
10	0xbd3bdaed	-0.04586308
11	0xbcdf5bbf	-0.027265428
12	0x3df707ab	0.120620094
13	0xbd64534f	-0.05574351
14	0x3e9b8071	0.3037143
15	0xbd556ef8	-0.05210778
16	0x3da106e5	0.07862643
17	0x3e1d89c9	0.15384592
18	0x3d1ca371	0.038241807
19	0xbdf3480a	-0.11878975
20	0x3c8f3d76	0.017485362
21	0x3cd67e18	0.026183173
22	0xbd4602d8	-0.048342556
23	0xbaec94e6	-0.0018049746
24	0xbda299c1	-0.079394825
25	0x3d1a6000	0.03768921
26	0x3e2627e1	0.1622615
27	0xbd684786	-0.056708835
28	0x3db37120	0.08761811
29	0x3cd4e1d5	0.025986591
30	0xbe01331b	-0.12617151
31	0x3e5b115c	0.21393341
32	0x3e070b75	0.13187964
33	0x3cc0ce13	0.023535764
34	0x3dd96619	0.10615177
35	0xbe4de775	-0.20107825
36	0x3e4e1c52	0.20127991
37	0xbe0b413b	-0.13599102
38	0xbd3b2427	-0.045688774
39	0x3db63b9f	0.088980906
40	0x3e80d43b	0.2516192
41	0x3df21a9b	0.11821481
42	0x3d3ae610	0.04562956
43	0x3e2677a2	0.16256574
44	0xbd1e67d2	-0.03867323
45	0xbdb4c2df	-0.08826231
46	0x3dae0e36	0.08498804
47	0xbe1fe83d	-0.15615936
48	0x3e5a3472	0.21309069
49	0x3d73ae34	0.059492305
50	0x3dbd5f3f	0.092466824
51	0x3e3cd117	0.18439136
52	0x3e3a3b42	0.18186668
53	0xbdabebf9	-0.083946176
54	0xbe27d8b5	-0.16391261
55	0xbda95e31	-0.08269919
56	0xbd361c0f	-0.044460353
57	0x3de4812a	0.111574486
58	0xbe31d331	-0.1736572
59	0xbd8fd0db	-0.07022258
60	0x3e3e0e24	0.18560082
61	0xb8fc4e75	-0.0001203091
62	0xbd854aeb	-0.0650843
63	0x3e3982c0	0.18116283
64	0x3c287431	0.010281608
65	0x3e97d0b4	0.29651415
66	0x3de3e776	0.11128132
67	0x3d909811	0.07060254
68	0x3dd0c27e	0.101933464
69	0xbdb911b4	-0.0903658
70	0x3e924028	0.28564572
71	0xbe0fcd71	-0.14043213
72	0xbb965af5	-0.0045884796
73	0x3d97f3ba	0.07419534
74	0x3e94f4cc	0.29093015
75	0x3e1aab3a	0.1510438
76	0x3d8b6275	0.068058886
77	0x3e63ac0f	0.22233604
78	0x3b50d9b0	0.0031868033
79	0x3dac28ac	0.08406195
80	0x3ea1a469	0.31570747
81	0xbe05d4bc	-0.13069433
82	0x3e9b2f5e	0.30309576
83	0x3d88bff8	0.0667724
84	0x3db44531	0.0880226
85	0x3debdd75	0.11516849
86	0x3e015a1b	0.12632029
87	0xbe02b04d	-0.12762566
88	0xbd7c3c4b	-0.061580937
89	0x3d665a20	0.056238294
90	0xbe279b40	-0.16367817
91	0xbd88a490	-0.06672013
92	0x3d82abcb	0.06380423
93	0xbd09e1c7	-0.033662584
94	0x3bd27673	0.0064228117
95	0x3b4cf159	0.0031271784
96	0x3e6f3bac	0.23362607
97	0x3e846853	0.25860843
98	0x3d85f525	0.06540898
99	0x3e7f657f	0.24941061
100	0x3e0d58a7	0.1380335
101	0x3ded553e	0.11588524
102	0x3e0b1f2f	0.13586114
103	0xbe3c6b38	-0.18400276
104	0x3db734b6	0.08945601
105	0xbdabc676	-0.08387463
106	0xbd438296	-0.04773196
107	0x3e115a29	0.1419455
108	0x3df166d2	0.117871895
109	0x3e09c44e	0.1345379
110	0xbdd662f6	-0.10468094
111	0x3e27c239	0.16382684
112	0x3cba2a57	0.022725267
113	0xbdf37f80	-0.11889553
114	0x3d14f2ee	0.03636449
115	0xbe0fe3ed	-0.1405179
116	0x3d95587f	0.0729227
117	0xbd0a5f15	-0.033782084
118	0x3d074a25	0.033029694
119	0x3df331b9	0.11874718
120	0xbd950c80	-0.07277775
121	0xbda5ccd2	-0.08095707
122	0xbda81735	-0.082075514
123	0xbd8f79ff	-0.07005691
124	0xbd7b48a0	-0.061348557
125	0x3c893bd1	0.016752155
126	0xbca4999d	-0.02009278
127	0xbd608aa4	-0.054819718
128	0x3c7056b4	0.014669109
129	0x3d5e9ea3	0.054350507
130	0xbdb29c13	-0.08721175
131	0x3d9a2ec9	0.07528455
132	0xbb167bb8	-0.0022961926
133	0x3e661164	0.22467571
134	0x3e332db3	0.17497902
135	0x3d723295	0.05913027
136	0x3e07c2d2	0.13257912
137	0xbe2f6f50	-0.17132306
138	0x3de06093	0.1095592
139	0xbe59c59f	-0.21266793
140	0xbccc7f8f	-0.024963168
141	0x3e0a206c	0.1348893
142	0x3d4765f9	0.048681233
143	0x3daf6fb4	0.085662276
144	0xbd7e2404	-0.062046066
145	0x3e0f1eb7	0.1397656
146	0xbcc898f8	-0.024487004
147	0xbd98ee57	-0.07467335
148	0xbd241872	-0.040062375
149	0xbd874e4a	-0.06606729
150	0x3dad86d2	0.084729806
151	0x3d72f253	0.05931313
152	0xbd410fed	-0.04713433
153	0x3e264e11	0.16240717
154	0x3d6f9c29	0.058498535
155	0xbdd0141e	-0.10160087
156	0xbced2c78	-0.028951868
157	0xbe0bab8d	-0.1363966
158	0xbde3458d	-0.1109725
159	0x3d6bdd16	0.05758389
160	0xbe021d4e	-0.12706491
161	0x3a5fc1ad	0.0008535635
162	0x3d22cae7	0.039744284
163	0xbd0ccb84	-0.034373775
164	0xbc8e9eb3	-0.017409658
165	0x3e0eb965	0.1393791
166	0xbd8744ce	-0.0660492
167	0x3dee66c0	0.11640692
168	0x3e58a2d8	0.2115587
169	0x3dfd17b2	0.12358035
170	0x3b7f01ae	0.0038910913
171	0x3ea2ec9f	0.31821153
172	0x3d1b778e	0.037955813
173	0x3ce23661	0.02761382
174	0xbe41e885	-0.18936355
175	0xbe1d96d9	-0.15389575
176	0xbc875697	-0.016520781
177	0xbc7ae186	-0.015312558
178	0x3dcc8914	0.09987083
179	0xbe2f69d9	-0.17130221
180	0xbdfdd0a9	-0.123933144
181	0xbd4a01af	-0.04931801
182	0x3e2dd92f	0.1697738
183	0x3db94787	0.09046846
184	0xbdb3dc21	-0.08782221
185	0x3df05df7	0.11736672
186	0x3dfcfd7b	0.12353035
187	0x3d755664	0.05989684
188	0x3db4bf34	0.088255316
189	0xbd8861e7	-0.066592984
190	0x3b875bf6	0.0041308356
191	0xbde61bf5	-0.11235801
192	0xbdef05df	-0.11671042
193	0x3c961a23	0.01832301
194	0xbd8a1d4f	-0.067438714
195	0x3db80aae	0.08986412
196	0xbd74ad5a	-0.059735633
197	0xbd444c80	-0.04792452
198	0xbcc02268	-0.023453906
199	0xbe64230c	-0.22278994
200	0xbd2d0daa	-0.04224936
201	0xbe48c74b	-0.19607274
202	0x3c5c05e2	0.013429137
203	0xbddeb2f0	-0.10873973
204	0x3c8b998d	0.017040992
205	0x3e964227	0.29347345
206	0x3d06705f	0.03282201
207	0x3e1262a9	0.14295448
208	0xbc9b2fb4	-0.018943645
209	0xbe27a0ae	-0.16369888
210	0x3d7306b9	0.059332583
211	0x3dcf02e9	0.10107977
212	0x3dfc903a	0.123321965
213	0xbc9759f8	-0.018475518
214	0xbe30ac4e	-0.17253229
215	0x3e07f074	0.1327532
216	0x3ec3bcbb	0.38229927
217	0x3d82e646	0.063915774
218	0xbd9e6a9b	-0.07735177
219	0xbd1de133	-0.038544845
220	0x3dd77dd3	0.10522046
221	0xbd3f5ff0	-0.046722353
222	0xbc486911	-0.012232081
223	0xbe488e22	-0.1958547
224	0xbce9f6b9	-0.02856003
225	0xbd8dac53	-0.06917634
226	0xbe3af79f	-0.18258522
227	0xbe3e9553	-0.1861165
228	0xbd19e3cf	-0.03757077
229	0xbd50e1f5	-0.05099674
230	0xbe5c05dc	-0.2148661
231	0xbda04092	-0.07824816
232	0x3d67c91d	0.05658828
233	0xbdee7773	-0.11643877
234	0x3d2a8a71	0.041635934
235	0xbdd1b97d	-0.10240457
236	0x3e04065f	0.12893055
237	0xbd4d0644	-0.050054803
238	0x3d18278f	0.0371471
239	0x3e4c70c7	0.19964896
240	0x3dd7e79e	0.10542224
241	0x3d47a0c4	0.048737302
242	0xbccb049c	-0.024782471
243	0x3b728b40	0.003700927
244	0x3db40248	0.087894976
245	0x3db6e874	0.08931056
246	0x3d4ab9b3	0.049493503
247	0xbdcce97e	-0.100054726
248	0xbe2cd414	-0.16877776
249	0x3da9b981	0.08287335
250	0x3e2d240b	0.1690828
251	0xbc226465	-0.009911631
252	0xbd21fcf8	-0.03954789
253	0xbd755fb5	-0.059905726
254	0x3e0fe214	0.14051086
255	0xbdf75012	-0.12075819

model.bigrill.fwd_rnn.cells.0.c_gate.mlp.bias f4 [32]
0	0xbe3a5cc4	-0.1819945
1	0x3e800b0e	0.25008434
2	0x3c8d7c0f	0.01727107
3	0xbda4114d	-0.08011112
4	0xbe39019c	-0.1806702
5	0xbce4f337	-0.027948005
6	0xbcbe0af7	-0.023198588
7	0xbe1f6845	-0.1556712
8	0xbe3c0f6d	-0.1836526
9	0x3d147b2b	0.036250275
10	0xbd451d64	-0.048123732
11	0xbbe5d45e	-0.0070138415
12	0xbd96f64d	-0.07371197
13	0x3e014b33	0.12626342
14	0xbd01fbfc	-0.03173445
15	0xbe4c2111	-0.19934489
16	0xbdbf264c	-0.093334764
17	0x3dd3fe2a	0.10351212
18	0x3cdcf121	0.026970448
19	0xbd081b28	-0.033229023
20	0x3c4b38c3	0.01240367
21	0x3d984be8	0.07436353
22	0xbe04fd2d	-0.12987204
23	0x3dca6b0d	0.098836996
24	0x3dd230ba	0.102632
25	0x3cff4155	0.031159082
26	0x3d985b7f	0.074393265
27	0xbd1b82d1	-0.037966553
28	0x3d52a033	0.05142231
29	0xbd9986f0	-0.074964404
30	0xbc25eb39	-0.010126882
31	0xbd892861	-0.06697155

model.bigrill.fwd_rnn.first_stage.weight f4 [1, 32, 1]
0	0x3f579118	0.8420577
1	0x3f410187	0.75392956
2	0xbf49527e	-0.786415
3	0x3f48eee8	0.7848954
4	0x3f4b13b6	0.7932695
5	0x3f61d39a	0.88213503
6	0x3eb81460	0.35953045
7	0xbf4c7113	-0.7986004
8	0x3f54604d	0.82959443
9	0x3f70cd2b	0.9406306
10	0x3f571f81	0.84032446
11	0x3f434e03	0.7629091
12	0xbebe7de4	-0.37205422
13	0x3f369fd5	0.71337634
14	0x3f51824a	0.8183943
15	0xbf42c544	-0.76082253
16	0x3f461df8	0.7738948
17	0xbf649b23	-0.8929922
18	0xbf3b1ab6	-0.7308763
19	0x3edb15d0	0.4279008
20	0xbe34cae5	-0.17655523
21	0xbf4fa305	-0.81108123
22	0x3e9e6ed9	0.30943945
23	0xbe6d10fe	-0.23151013
24	0xbf48bcab	-0.78412884
25	0x3f2cf53e	0.6756171
26	0x3efe4056	0.4965846
27	0x3f4bdca4	0.79633546
28	0x3edf1aaa	0.4357503
29	0x3dff9717	0.1247999
30	0x3f46bc66	0.77631223
31	0x3f3e32bc	0.74296165

model.bigrill.fwd_rnn.spatial_decoder.lin_in.weight f4 [32, 34, 1]
0	0xbc1c7642	-0.009549679
1	0x3da693d1	0.081336625
2	0xbcfb8a18	-0.030705497
3	0xbd8b162f	-0.067913406
4	0x3e53fe52	0.20702484
5	0xbc28434a	-0.010269949
6	0x3de0dc99	0.10979576
7	0xbd097896	-0.033562265
8	0x3ec2a9e4	0.3802024
9	0x3e568aa9	0.20951332
10	0x3bf79ab5	0.0075562843
11	0x3eda0eab	0.42589316
12	0xbb80920b	-0.0039236597
13	0x3c1e4c1f	0.009661703
14	0xbe1ea186	-0.15491304
15	0x3ecae78e	0.39629787
16	0x3dc84875	0.09779445
17	0xbe30a67a	-0.17251006
18	0x3dc6d1d7	0.097079925
19	0x3e13cd16	0.14433703
20	0x3d086d16	0.033307157
21	0xbd08b4a6	-0.033375405
22	0xbd87626a	-0.06610568
23	0x3e7a69ce	0.24454424
24	0xbe883503	-0.26602945
25	0x3d42d2a8	0.04756418
26	0xbbcd85b6	-0.006272043
27	0xbe85d3f5	-0.26138273
28	0xbb417117	-0.002951687
29	0xbe141a86	-0.14463243
30	0x3ee13ca8	0.4399159
31	0xbe8a040d	-0.26956216
32	0x3c856a5c	0.016286068
33	0xbda94d09	-0.082666464
34	0xbcc677dd	-0.024227077
35	0xbddf577d	-0.10905359
36	0x3b38b951	0.002818663
37	0xbe79a149	-0.24377932
38	0x3dad3dc5	0.08459047
39	0xbda345a5	-0.07972268
40	0x3dc98cb1	0.09841288
41	0xbe50b4cb	-0.20381467
42	0x3ef4896e	0.477611
43	0x3e638efd	0.22222514
44	0xbe1092b8	-0.14118469
45	0x3db0ec7e	0.08638857
46	0x3d06eebc	0.03294252
47	0xbe1b4e82	-0.15166667
48	0xbec282dd	-0.37990466
49	0x3e409fb8	0.18810928
50	0x3d9b9156	0.0759608
51	0xbce02b17	-0.027364297
52	0x3d183544	0.037160173
53	0x3e20ead1	0.15714575
54	0x3e47b722	0.19503453
55	0x3eba2bc4	0.36361516
56	0xbbcdfa52	-0.006285944
57	0x3e8b6f45	0.2723333
58	0xbbd6ea2b	-0.0065586767
59	0xbd9bebfe	-0.07613371
60	0xbd19065b	-0.037359577
61	0xbd4496e2	-0.047995456
62	0xbd8a4e64	-0.06753233
63	0xbe0fcf40	-0.14043903
64	0x3e8c400e	0.2739262
65	0xbe69cf46	-0.22832975
66	0x3d6f7081	0.0584569
67	0x3e08efb0	0.13372684
68	0x3c841bcc	0.016126536
69	0x3e2e7cb5	0.1703976
70	0x3cd1cd58	0.02561061
71	0x3e8c99d8	0.27461123
72	0xbe929d18	-0.28635478
73	0xbd75bcf9	-0.05999467
74	0x3ce12c57	0.027486963
75	0x3d88ecf9	0.06685824
76	0xbe817e2e	-0.2529158
77	0xbe8015dc	-0.25016677
78	0x3e086700	0.13320541
79	0xbee7f6c2	-0.4530545
80	0x3e0ce3bb	0.13758747
81	0x3e995742	0.29949385
82	0x3e350d15	0.17680772
83	0xbe2994a0	-0.16560602
84	0x3e758432	0.2397621
85	0x3cd7645b	0.02629297
86	0x3e6c360e	0.23067495
87	0x3d553ba7	0.052058842
88	0x3c1b5746	0.009481257
89	0x3d4657fb	0.04842375
90	0x3e4991a2	0.19684461
91	0xbbb5c646	-0.0055473177
92	0x3e044f34	0.12920839
93	0xbe5c84a7	-0.21534978
94	0x3dd05fb2	0.101745024
95	0x3e45db04	0.19321829
96	0x3df1a33e	0.11798714
97	0x3e4afa74	0.19822103
98	0xbed5b355	-0.41738382
99	0x3eb3bac0	0.35103416
100	0x3d8d9bba	0.06914468
101	0xbe10fb5b	-0.14158385
102	0xbdd8562c	-0.10563311
103	0xbdd46d9d	-0.103724696
104	0xbe39cc26	-0.18144283
105	0x3d27fd22	0.04101289
106	0x3e6ccaf0	0.2312429
107	0x3d32155a	0.043477394
108	0x3d320b20	0.04346764
109	0x3dfcb2c6	0.12338786
110	0x3e4d225d	0.2003264
111	0x3d8fe986	0.07026963
112	0x3d07c1b9	0.033143733
113	0x3e6598f7	0.22421633
114	0xbda24be7	-0.079246335
115	0xbd6a11c1	-0.057145838
116	0xbe3267e2	-0.1742244
117	0x3e287547	0.16450988
118	0xbce6bce6	-0.028166246
119	0xbd7fd0f3	-0.06245513
120	0xbd993704	-0.074811965
121	0x3e7894b4	0.24275476
122	0x3e4c7e06	0.19969949
123	0xbe8e54a6	-0.27798957
124	0x3e0a046d	0.13478251
125	0x3dd2d9a9	0.10295422
126	0xbdef6ce5	-0.11690692
127	0x3eb37f5c	0.35058105
128	0xbae1b0c9	-0.0017218824
129	0xbe9d7310	-0.30751848
130	0xbe8dfa83	-0.27730188
131	0xbd0e2d8e	-0.034711413
132	0x3e3053b4	0.1721943
133	0xbd77cb86	-0.06049683
134	0xbe54ee07	-0.20793925
135	0xbdc41d7f	-0.095759384
136	0x3db9e669	0.090771504
137	0xbdc01b6e	-0.09380232
138	0xbe1e927d	-0.15485568
139	0xbe1ca030	-0.15295482
140	0xbe3ee3c7	-0.18641578
141	0xbd73d908	-0.05953315
142	0xbc49a9ce	-0.012308551
143	0xbe1f7919	-0.15573539
144	0xbebdd387	-0.37075445
145	0xbe3d5ddf	-0.1849284
146	0xbe0efb74	-0.13963109
147	0xbe01968d	-0.12655087
148	0xbe24f662	-0.16109613
149	0x3e526436	0.2054604
150	0x3e1990ef	0.14996694
151	0xbea1ddd0	-0.31614542
152	0xbdb63508	-0.08896834
153	0xbd11c6f5	-0.03559013
154	0xbc0a1a88	-0.008429177
155	0xbda5abf4	-0.08089438
156	0xbd9e7981	-0.07738019
157	0xbe9e0f38	-0.30870986
158	0x3e8e6b46	0.27816218
159	0xbe473c62	-0.19456628
160	0x3c0241f4	0.007950295
161	0x3e20f726	0.1571928
162	0x3b84dbae	0.004054508
163	0x3d812a27	0.06306868
164	0xbda9959e	-0.0828049
165	0xbd856d07	-0.06514936
166	0xbea384ee	-0.31937355
167	0x3d79b01f	0.060958978
168	0xbc130a7b	-0.008974667
169	0xbe0dd58b	-0.13850991
170	0x3c6a8588	0.014314063
171	0xbd6273e3	-0.0552863
172	0x3db74dca	0.08950384
173	0x3e1e45ee	0.15456364
174	0xbde45119	-0.11148281
175	0xbdb701e1	-0.08935905
176	0x3d393b06	0.045222305
177	0x3d10f500	0.0353899
178	0xbe8e2ae0	-0.27767086
179	0xbe0366b8	-0.12832153
180	0x3ccfb0c1	0.025352838
181	0xbe6dac76	-0.2321032
182	0x3de8b450	0.11362517
183	0x3e580fc8	0.2109977
184	0x3ddc01e3	0.10742547
185	0xbe9fc196	-0.31202382
186	0x3dbfc5be	0.09363888
187	0xbe1ab387	-0.15107547
188	0x3e1f1fb1	0.15539433
189	0xbe0bd990	-0.13657212
190	0xbe93dcbe	-0.2887935
191	0xbdc64822	-0.09681727
192	0x3e394385	0.18092163
193	0xbe36ff65	-0.17870863
194	0xbd33d1c3	-0.043901216
195	0xbe915c08	-0.28390527
196	0xbdcd3625	-0.10020093
197	0x3d9803db	0.0742261
198	0x3d1e21da	0.038606502
199	0x3e05711e	0.13031432
200	0xbe9dda01	-0.30830386
201	0x3e00385e	0.12521502
202	0x3d0f129a	0.03492985
203	0x3e075e91	0.13219668
204	0x3d125c3a	0.035732485
205	0x3e2d19f1	0.16904427
206	0xbe1dcb06	-0.15409479
207	0x3e88cb8b	0.2671779
208	0xbeb60ad0	-0.35555124
209	0x3cca8ab2	0.024724338
210	0xbe178d1f	-0.14799927
211	0xbc571018	-0.013126396
212	0xbf026877	-0.5094065
213	0xbe325f96	-0.17419276
214	0x3cc9fd90	0.02465704
215	0xbe3812af	-0.17975877
216	0x3e0a958c	0.1353361
217	0x3e67aaee	0.22623798
218	0x3e68d024	0.2273565
219	0xbed6f23f	-0.41981694
220	0xbc675d54	-0.014121372
221	0x3d5168e1	0.05112541
222	0x3c87c4a8	0.016573265
223	0xbd3a0688	-0.045416385
224	0xbe2b6cd8	-0.1674074
225	0xbed0e6ca	-0.40801078
226	0x3e8fb039	0.28064135
227	0xbe915c0c	-0.2839054
228	0xbb918e58	-0.0044420175
229	0x3def13ae	0.116736755
230	0x3d9446cc	0.07240066
231	0xbd2b8f70	-0.04188484
232	0x3e1ee918	0.15518606
233	0xbcea89d4	-0.028630175
234	0xbe81a515	-0.2532126
235	0x3e3aae51	0.18230559
236	0x3dfae1a0	0.12250066
237	0xbd9665a4	-0.07343605
238	0xbe051ca5	-0.12999208
239	0xbcd548f4	-0.026035763
240	0x3dbaaa4a	0.09114511
241	0xbdbec60a	-0.09315117
242	0x3e2c3417	0.16816746
243	0x3db463c3	0.088080905
244	0xbe29eae6	-0.16593513
245	0xbdd2a1dc	-0.102847785
246	0x3ea9218b	0.33033404
247	0x3e20dd4b	0.15709417
248	0xbe241b29	-0.16025986
249	0x3ec141c4	0.37745488
250	0xbe4e6190	-0.20154405
251	0xbca63169	-0.020287232
252	0xbd80ea11	-0.062946446
253	0x3ebcc2ab	0.3686727
254	0xbe44cce2	-0.19218782
255	0xbd37fbe5	-0.04491796

model.bigrill.fwd_rnn.spatial_decoder.lin_in.bias f4 [32]
0	0xbd6ddf3c	-0.05807422
1	0xbe0d08e9	-0.1377293
2	0xbd117916	-0.035515867
3	0xbdc7a33c	-0.09747931
4	0x3d909730	0.07060087
5	0x3d8e8dc5	0.06960634
6	0xbdbcabcd	-0.09212456
7	0xbc179eca	-0.009254167
8	0xbd496e87	-0.049177673
9	0x3e769063	0.24078517
10	0xbd82667c	-0.063672036
11	0x3e2b5242	0.16730598
12	0xbd9edd73	-0.07757082
13	0x3dcf0eb4	0.10110226
14	0xbe085440	-0.13313389
15	0xba3288f4	-0.0006810569
16	0xbd364492	-0.044498987
17	0x3cec1a56	0.028821152
18	0xbac1465d	-0.0014745701
19	0x3e012fab	0.1261584
20	0xbd8b96f5	-0.06815902
21	0x3de6538d	0.11246405
22	0xbd249e6b	-0.04019014
23	0x3e7c655f	0.24648045
24	0xbd30e35c	-0.043185577
25	0xbe238624	-0.1596914
26	0x3db5147e	0.08841799
27	0xbdcd3189	-0.10019214
28	0xbbd7df10	-0.0065878704
29	0xbd329ea3	-0.04360832
30	0xbd3df36d	-0.046374727
31	0x3dccb528	0.0999549

model.bigrill.fwd_rnn.spatial_decoder.graph_conv.mlp.weight f4 [32, 64, 1, 1]
0	0x3cb4780c	0.022029899
1	0xbdd47b5e	-0.10375093
2	0x3dd8f9c4	0.10594514
3	0xbdc58cf9	-0.09646029
4	0x3dbd7c0f	0.09252178
5	0x3e1076ea	0.14107862
6	0xbddf400e	-0.10900889
7	0xbdb6b7a0	-0.089217424
8	0xbe42b226	-0.1901327
9	0x3dca430e	0.09876071
10	0xbc1d6de5	-0.00960872
11	0x3e9b01c9	0.302748
12	0x3bd1343b	0.0063844
13	0xbd652cdc	-0.055950984
14	0x3db37df5	0.08764259
15	0x3d1d4cbc	0.038403258
16	0xbcf15c47	-0.029462947
17	0x3da0868d	0.078381635
18	0x3d2a9906	0.04164984
19	0x3d3a82b5	0.04553481
20	0xbbcdaf0f	-0.006276972
21	0x3dd50cc8	0.104028285
22	0xbdb64c60	-0.08901286
23	0xbc3e5713	-0.01161744
24	0x3e2e1fbc	0.17004293
25	0x3a475cd3	0.00076050794
26	0xbdc7f14c	-0.097628206
27	0x3dd50571	0.104014285
28	0xbd7e80a5	-0.062134404
29	0xbcb5958e	-0.02216604
30	0x3d85b6ef	0.065290324
31	0x3cf02470	0.02931425
32	0xbe34a819	-0.17642249
33	0x3afda96f	0.0019352863
34	0x3e2fcb90	0.17167497
35	0x3dca0366	0.098639295
36	0x3e14edfe	0.14543912
37	0x3d6808fb	0.05664919
38	0x3ddfd5ad	0.10929427
39	0xbb870766	-0.004120755
40	0xbe7af21b	-0.24506418
41	0x3e947300	0.28993988
42	0xbd23f916	-0.04003247
43	0x3e74f68b	0.23922174
44	0x3e32bd51	0.17455031
45	0xbc5ce775	-0.013482918
46	0xbc4914c3	-0.012273016
47	0xbc8f9a6f	-0.017529694
48	0xbd0a63cd	-0.033786584
49	0x3d27f822	0.041008122
50	0xbe2d04a3	-0.168963
51	0xbc2f80bc	-0.010711845
52	0xbd5896e4	-0.052878276
53	0x3e0358d5	0.12826855
54	0xbe9b05f3	-0.30277976
55	0x3e913edd	0.28368273
56	0x3dc0fd31	0.094232924
57	0xbde7992e	-0.113085136
58	0x3d259247	0.040422704
59	0xbe81fa9a	-0.25386506
60	0x3d145d65	0.03622188
61	0xbd58f03f	-0.05296349
62	0x3dfb3153	0.12265267
63	0xbd95dc1c	-0.07317373
64	0xbd3257ac	-0.04354064
65	0xbd37b76f	-0.04485267
66	0x3c243fbc	0.010024961
67	0xbd695141	-0.056962255
68	0x3c42c57c	0.011887904
69	0x3e0cace9	0.13737835
70	0x3e34d1d7	0.17658173
71	0xbdf7b591	-0.12095178
72	0xbc6a3eba	-0.014297182
73	0x3e4de741	0.20107748
74	0xbdafb165	-0.08578757
75	0x3e68e766	0.22744521
76	0x3e20099c	0.15628666
77	0xbd80133a	-0.06253667
78	0x3ba6986a	0.005084087
79	0xbd9fd784	-0.07804778
80	0x3d6611ea	0.056169428
81	0xbdec0ed9	-0.115262695
82	0xbd43c760	-0.04779756
83	0xbd4a0abd	-0.049326647
84	0xbe29ef55	-0.16595204
85	0x3c62eb1f	0.013850003
86	0xbdb92ef8	-0.09042162
87	0x3e627baf	0.22117494
88	0x3ca14af0	0.019689053
89	0x3cdea072	0.027176116
90	0x3dd97e04	0.10619739
91	0x3d44cd03	0.048047077
92	0x3d95f7db	0.07322665
93	0x3bc4cba5	0.0060057216
94	0x3da050f2	0.07827939
95	0x3c9d2dcd	0.019186879
96	0xbdb33442	-0.08750202
97	0xbe6c789b	-0.23092882
98	0xbcf2c4d0	-0.029634863
99	0xbd8be0f2	-0.06830014
100	0x3b3216bf	0.0027174202
101	0x3d1e0e9f	0.038588163
102	0x3df0a70e	0.11750613
103	0xbe06b023	-0.13153128
104	0xbe31b0d8	-0.17352617
105	0x3dea64c0	0.11444998
106	0x3c67ae6c	0.0141407065
107	0x3e201c77	0.15635858
108	0x3e0d451a	0.13795891
109	0xbd03ded8	-0.032194942
110	0x3d9a4f2a	0.075346306
111	0xbd4c08e1	-0.049813155
112	0x3d8defb5	0.06930486
113	0x3c276270	0.01021634
114	0x3bbeed86	0.005826655
115	0x3b3c4c2b	0.0028731923
116	0x3d2de583	0.042455208
117	0x3d8e6299	0.069524
118	0xbe2a9722	-0.16659215
119	0x3e69ec64	0.22844082
120	0x3dcf7ade	0.10130857
121	0xbd489da5	-0.048978467
122	0x3d98365f	0.074322455
123	0xbe703b7e	-0.23460194
124	0xbb0f05d6	-0.0021823547
125	0xbe849ef0	-0.2590251
126	0x3e0125ae	0.1261203
127	0x3e0528ef	0.13003896
128	0xbdebafb5	-0.11508123
129	0xbd0e3bc1	-0.034724955
130	0xbd1d2a06	-0.038370155
131	0xbc44817c	-0.011993762
132	0x3d080d3e	0.033215754
133	0x3d2e2d6d	0.04252379
134	0x3d99f578	0.075175226
135	0xbdde4f39	-0.10854954
136	0xbe11a1b1	-0.14221837
137	0x3dd5b1f4	0.104343325
138	0x3dab1efe	0.08355521
139	0x3d7e313d	0.062058676
140	0x3b91891a	0.0044413926
141	0xbdd54ab8	-0.10414642
142	0x3c79701b	0.015224482
143	0xbd76634e	-0.060153298
144	0x3ab7ee07	0.001403273
145	0x3d4d36a8	0.050100952
146	0xbe0493d2	-0.12947014
147	0x3d9eb6b9	0.07749695
148	0x3b88cdc9	0.004174922
149	0x3d9bb43c	0.07602736
150	0xbcd80a12	-0.02637199
151	0x3d9d965c	0.076946944
152	0x3d85b050	0.065277696
153	0x3d299f7b	0.041411858
154	0x3e050b57	0.12992607
155	0xbc922d93	-0.017843997
156	0xbccca028	-0.024978712
157	0x3da0010d	0.078127004
158	0x3c4956d8	0.012288772
159	0xbdb3856f	-0.08765685
160	0xbd6f1512	-0.058369704
161	0xbde8ecaf	-0.11373269
162	0x3d13d5f8	0.03609273
163	0x3ca781b9	0.020447599
164	0x3d262fbf	0.040572878
165	0x3e1c5a82	0.15268901
166	0x3d6b5631	0.057455245
167	0xbb8bd48c	-0.004267281
168	0xbdd1b08a	-0.1023875
169	0x3e397ff9	0.18115224
170	0xbc08fd35	-0.0083611505
171	0x3da540f0	0.080690265
172	0x3e4c562a	0.19954744
173	0xbe535e6c	-0.20641488
174	0x3c88a684	0.016680963
175	0xbd1bc5d4	-0.03803046
176	0xbe0f6402	-0.14002994
177	0xbd93b380	-0.07211971
178	0xbe57ea4a	-0.21085468
179	0x3deff6b5	0.117169775
180	0xbd39c07a	-0.045349576
181	0xbd177285	-0.03697445
182	0xbe5c655f	-0.21523045
183	0x3e8ad8c1	0.27118495
184	0x3cc3757d	0.023859734
185	0xbe003195	-0.12518914
186	0x3c19ad2b	0.009379665
187	0xbe708204	-0.23487097
188	0x3c6a1f1f	0.014289646
189	0xbdfd8625	-0.12379102
190	0x3dec741e	0.11545585
191	0xbb4c50f5	-0.0031176184
192	0xbde96a6b	-0.11397251
193	0xbc1d1dfd	-0.009589669
194	0x3e0c9508	0.13728726
195	0x3dba4575	0.09095279
196	0xbe1bbc24	-0.15208489
197	0x3c2fe18e	0.010734929
198	0xbdc5bec4	-0.09655526
199	0x3bb92b56	0.005650918
200	0xbe064d54	-0.13115436
201	0x3eac5483	0.33658227
202	0x3d997a9f	0.07494091
203	0x3ea4aad0	0.3216157
204	0xbd98924a	-0.074497774
205	0x3e1dd805	0.15414436
206	0xbd9ad126	-0.07559423
207	0x3d9af13b	0.07565542
208	0x3e02f8cd	0.12790222
209	0x3db971b8	0.09054893
210	0xbd0e42f3	-0.034731817
211	0xbe1304c8	-0.14357293
212	0xbdc517cf	-0.09623682
213	0x3d8b0b74	0.06789294
214	0xbecb2ca3	-0.39682493
215	0x3da93606	0.08262257
216	0x3e9fe996	0.312329
217	0x390a6635	0.0001319878
218	0x3dac211f	0.08404755
219	0x3db71355	0.08939234
220	0xbdb7f4a9	-0.08982212
221	0xbc5804ef	-0.01318477
222	0xbbad729b	-0.005293203
223	0xbe038865	-0.12844999
224	0xbda1a298	-0.078923404
225	0xbd6928c1	-0.05692363
226	0x3bf7d5ad	0.007563314
227	0x3d80ce21	0.06289316
228	0x3deb5267	0.114903264
229	0xbcf94b14	-0.030431308
230	0x3e6e8a61	0.23294975
231	0x3dbd90e8	0.09256154
232	0xbe76da4f	-0.24106716
233	0x3ea0195f	0.31269357
234	0xbe53c276	-0.2067965
235	0x3e4dc4cf	0.20094608
236	0x3e3c0a16	0.18363222
237	0xbd955c06	-0.07292943
238	0x3de99553	0.114054345
239	0xbd866cf3	-0.06563749
240	0xbdd74cd2	-0.10512699
241	0xbdae57dd	-0.08512852
242	0xbe0dd8f8	-0.13852298
243	0x3cdc35db	0.026881149
244	0x3cd45d1a	0.0259233
245	0x3d6eb551	0.058278386
246	0xbe6d302f	-0.23162912
247	0x3ec1dc25	0.3786327
248	0x3e8a6add	0.27034655
249	0x3c98daff	0.018659113
250	0xbd5b6863	-0.053566348
251	0xbe59259e	-0.21205756
252	0x3dd847d6	0.105605766
253	0xbe474055	-0.19458134
254	0x3dc3b2b6	0.09555571
255	0xbd9fb660	-0.07798457

model.bigrill.fwd_rnn.spatial_decoder.graph_conv.mlp.bias f4 [32]
0	0x3dbba64d	0.09162579
1	0x3d09cc0f	0.03364187
2	0xbb946c6c	-0.0045295265
3	0xbda67e89	-0.081296034
4	0xbe48732e	-0.19575188
5	0xbe1f9b52	-0.15586594
6	0x3e094494	0.13405067
7	0xbdf0062f	-0.117199294
8	0x3e43cca9	0.1912104
9	0xbd2901cd	-0.041261483
10	0xbe0bb749	-0.13644136
11	0x3e3ff5e6	0.18746147
12	0x3e3bccb6	0.1833981
13	0x3d9f60e8	0.07782155
14	0xbe15fe35	-0.14647754
15	0x3da54182	0.08069135
16	0x3dd1ecaf	0.10250222
17	0xbe3e12db	-0.1856188
18	0xbe6c0bd3	-0.23051386
19	0x3e1e9347	0.1548587
20	0xbd95b4a6	-0.073098466
21	0x3d139ab0	0.036036193
22	0xbd9b3183	-0.07577803
23	0x3e28f964	0.16501385
24	0x3e04c1a7	0.12964498
25	0x3d9b3b8c	0.07579717
26	0xbe646e46	-0.22307691
27	0x3e6ad54e	0.22932932
28	0x3df70e31	0.12063254
29	0xbe0960b5	-0.13415797
30	0xbdb2a006	-0.08721928
31	0xbe267f87	-0.16259585

model.bigrill.fwd_rnn.spatial_decoder.lin_out.weight f4 [32, 64, 1]
0	0x3e4352bb	0.19074528
1	0x3d4154b5	0.047199924
2	0xbc46991c	-0.012121465
3	0x3ad153c8	0.0015970403
4	0x3d799d1f	0.060940858
5	0x3d767763	0.06017245
6	0x3dd37c0a	0.10326393
7	0xbd259960	-0.040429473
8	0x3d7778c6	0.060417913
9	0xba864694	-0.0010244423
10	0xbdbb5638	-0.09147304
11	0x3e325962	0.1741691
12	0x3e10135a	0.14069882
13	0x3d51bb3d	0.051203955
14	0xbe3e334e	-0.18574259
15	0x3e5fa222	0.21839193
16	0x3e24d584	0.16097075
17	0xbe2cd443	-0.16877846
18	0xbda48214	-0.08032623
19	0x3e1ab248	0.15107071
20	0xbdb52de2	-0.08846642
21	0x3dee803c	0.116455525
22	0xbe346dd6	-0.17620024
23	0x3dfbcb02	0.1229458
24	0xbd05fb05	-0.032710094
25	0x3e50e7fb	0.20400994
26	0xbe1a6047	-0.1507579
27	0x3e38e9ee	0.18057987
28	0x3e2765b6	0.16347393
29	0xba779e22	-0.0009445866
30	0xbe5150b9	-0.2044095
31	0xbd90c848	-0.070694506
32	0x3d889724	0.06669453
33	0xbd39ea2c	-0.04538934
34	0xbd89ca38	-0.06728023
35	0x3d52e45e	0.05148732
36	0x3e21d740	0.15804768
37	0x3d8c41df	0.068485014
38	0xbe74ec4c	-0.23918265
39	0xbdb1f8dd	-0.08690045
40	0x3d635e21	0.05550969
41	0xbdfa067a	-0.122082666
42	0x3e3a43a5	0.18189867
43	0x3de09c0f	0.10967266
44	0x3e3d39b4	0.18479043
45	0xbedb8abf	-0.42879292
46	0x3d97c3d2	0.07410397
47	0x3d973613	0.07383361
48	0x3e36f57b	0.17867081
49	0xbd66f6ac	-0.05638759
50	0xbe27f060	-0.1640029
51	0x3f526bde	0.8219584
52	0x3f37ff7c	0.71874213
53	0xbe1b2631	-0.15151288
54	0x3f1bb4ca	0.6082274
55	0xbe7a250c	-0.24428195
56	0xbd137cf6	-0.036007844
57	0x3eab50ab	0.33459982
58	0x3ece3ce2	0.40280825
59	0x3da562d7	0.08075493
60	0xbe8c1b90	-0.2736478
61	0xbf2c6a38	-0.67349577
62	0x3dc176df	0.09446501
63	0xbd8c4483	-0.06849005
64	0xbe07ee5c	-0.1327452
65	0xbe43e7ea	-0.19131437
66	0xbdf44291	-0.11926759
67	0x3ca57394	0.020196714
68	0x3d6ec955	0.058297474
69	0x3b6c7b00	0.0036084056
70	0xbe1e8244	-0.1547938
71	0x3c247150	0.010036781
72	0xbdc92866	-0.098221585
73	0x3d737143	0.059434187
74	0x3e1c794a	0.15280643
75	0xbd7a2141	-0.06106687
76	0xbbed44cc	-0.0072408672
77	0xbde572f5	-0.11203567
78	0x3d3b04ca	0.045658864
79	0xbdbd5cba	-0.09246202
80	0x3d3fdd26	0.046841763
81	0x3de03b0e	0.10948764
82	0x3e18359b	0.14864199
83	0xbd8c7a4b	-0.06859263
84	0xbd717936	-0.058953486
85	0x3dd5ff06	0.104490325
86	0xbcfd3e2e	-0.030913439
87	0x3c698ddf	0.014255016
88	0xbdbc41f5	-0.09192268
89	0x3d22695b	0.039651256
90	0x3dbfa0a2	0.0935681
91	0xbc1f5685	-0.009725218
92	0xbe271587	-0.16316806
93	0xbe0c68f8	-0.13711917
94	0xbd30cdc7	-0.043164995
95	0x3de0b627	0.10972243
96	0x3cdcfec9	0.02697696
97	0xbeafd209	-0.34339932
98	0x3ea0672c	0.31328714
99	0xbeb1cfd9	-0.34728888
100	0xbe5edd93	-0.21764211
101	0xbe542f59	-0.20721187
102	0xbc406578	-0.011742942
103	0x3e864bfe	0.26229852
104	0x3cf75a68	0.030194476
105	0x3d2e289b	0.042519193
106	0xbe1e8186	-0.15479097
107	0xbdb80393	-0.08985057
108	0xbe844845	-0.25836387
109	0x3d833e6e	0.06408392
110	0xbe73a23c	-0.23792356
111	0x3dbfc99f	0.09364628
112	0xbe60a782	-0.21938899
113	0x3db54b89	0.08852298
114	0x3e67b126	0.2262617
115	0xbf6c971d	-0.9241808
116	0xbf19bba3	-0.60051936
117	0x3db37355	0.08762232
118	0xbeae09c4	-0.33991826
119	0x3ec821bf	0.39088246
120	0x3e42287e	0.18960759
121	0xbe906a33	-0.28206024
122	0xbea03cda	-0.31296426
123	0xbd775002	-0.060379036
124	0x3deb8b6c	0.11501202
125	0x3ed476fc	0.41497028
126	0xbd14eded	-0.036359716
127	0xbcb9350c	-0.022608303
128	0x3d9c9cd7	0.07647102
129	0xbbb37ab1	-0.0054772724
130	0xbd8eb35d	-0.069678046
131	0xbbd4ec9f	-0.006497934
132	0x3c4cb0b1	0.012493298
133	0x3e4ad755	0.19808705
134	0x3d197f00	0.037474632
135	0x3d615271	0.055010263
136	0xbd8a07bb	-0.06739756
137	0xbd17f107	-0.037095096
138	0x3d9e6044	0.07733205
139	0xbdf7afda	-0.12094088
140	0xbdd463b8	-0.10370582
141	0xbdee8daf	-0.11648118
142	0xbd9e81f3	-0.077396296
143	0x3c50a262	0.012734028
144	0xbd963488	-0.07334238
145	0x3c8fabcc	0.017537974
146	0x3d4956e7	0.049155142
147	0xbdca3649	-0.09873635
148	0x3d381a6e	0.04494708
149	0x3d88ab4b	0.066732965
150	0x3ca3983e	0.019970056
151	0x3d398c63	0.0452999
152	0xbc5d1112	-0.013492839
153	0xbdbb281a	-0.09138508
154	0x3e3ec950	0.18631482
155	0xb9e702ca	-0.0004406183
156	0xbe403aea	-0.18772474
157	0xbdf9657f	-0.12177562
158	0x3d9d4321	0.076788194
159	0x3de458b4	0.11149731
160	0x3d691b9b	0.056911092
161	0xbe63b8c8	-0.22238457
162	0x3e554b73	0.20829563
163	0xbe0c4361	-0.13697578
164	0xbe4d407d	-0.20044132
165	0xbe534de6	-0.20635185
166	0x3da8b84d	0.082382776
167	0x3e937c7a	0.28805906
168	0xbdb9b053	-0.09066834
169	0x3c6989a8	0.014254011
170	0xbd1a479e	-0.037665956
171	0xbe892e6a	-0.26793224
172	0xbe5c3700	-0.21505356
173	0x3df030e0	0.11728072
174	0xbe292113	-0.16516523
175	0x3e00fc0e	0.12596151
176	0xbe495efa	-0.19665137
177	0x3d96f83f	0.07371568
178	0x3d5c36f9	0.053763364
179	0xbf85c65a	-1.0451157
180	0xbf326550	-0.6968584
181	0x3e5300ba	0.20605746
182	0xbef762db	-0.48317608
183	0x3e9c5bad	0.30538693
184	0x3e7d065e	0.2470946
185	0xbea4a2b7	-0.32155392
186	0xbf1b6a29	-0.6070886
187	0xbdd90956	-0.10597484
188	0x3e81fbbe	0.25387377
189	0x3f1ee8f1	0.6207419
190	0xbe524828	-0.20535338
191	0xbcae0f85	-0.021247635
192	0xbd4b1664	-0.0495819
193	0xbe2450d1	-0.16046454
194	0x3cb042de	0.02151626
195	0x3e1ad490	0.15120149
196	0xbe04cec0	-0.12969494
197	0x3d7022cc	0.058626935
198	0xbbe0daf1	-0.0068620373
199	0x3e2488c2	0.16067794
200	0x3da56a39	0.08076901
201	0x3d92c596	0.07166593
202	0x3d86e8e3	0.06587388
203	0xbde81b6d	-0.11333356
204	0xbd8dfbea	-0.069328144
205	0x3d906f70	0.07052505
206	0x3de8a1eb	0.113590084
207	0x3dab224b	0.0835615
208	0xbd68bdb7	-0.05682155
209	0x3c511290	0.012760773
210	0xbce118b4	-0.0274776
211	0xbd8ed9f0	-0.06975162
212	0xbd9a3e60	-0.07531428
213	0x3e23b572	0.15987185
214	0xbaf2088b	-0.0018465681
215	0x3d84f625	0.06492261
216	0xbdce965c	-0.100872725
217	0xbd95ea42	-0.07320072
218	0x3e2cc194	0.16870719
219	0xbc999012	-0.018745456
220	0xbe2e322b	-0.17011325
221	0xbe031dca	-0.12804332
222	0x3d4fcbce	0.050731473
223	0xbcd383e2	-0.025819723
224	0xbc9a7098	-0.018852517
225	0xbe0f5503	-0.13997273
226	0x3e783284	0.2423802
227	0xbde947f3	-0.11390676
228	0xbe1cbddd	-0.15306802
229	0xbe1d5f45	-0.15368374
230	0x3e498231	0.1967857
231	0x3d8c0762	0.06837346
232	0xbda23a58	-0.079212844
233	0xbc33eea3	-0.010982188
234	0xbe308086	-0.17236528
235	0xbd636097	-0.055512037
236	0xbe745c81	-0.23863412
237	0x3e8043ff	0.25051877
238	0xbe0b1e3f	-0.13585757
239	0x3c884b03	0.01663733
240	0xbe4e5f45	-0.2015353
241	0x3d988364	0.07446936
242	0x3e490d4f	0.19633983
243	0xbf560c42	-0.83612454
244	0xbf273fd5	-0.65331775
245	0x3dabef8a	0.08395298
246	0xbee8e568	-0.45487523
247	0x3e9a0f4d	0.300898
248	0x3d45fc80	0.048336506
249	0xbe3442db	-0.17603628
250	0xbe9ab6be	-0.30217546
251	0xbd0f4f7e	-0.03498792
252	0x3e21b954	0.15793353
253	0x3ed4f470	0.4159274
254	0xbdc1834d	-0.09448872
255	0x3d1ca170	0.038239896
