logs/discharge_point/grin/2023-10-05_12-39-48_336393316/epoch=0-step=87.ckpt (torch, 707571 bytes, 102 tensors)

model.bigrill.emb f4 [8, 20]
000000 e3 e1 00 bd 01 84 cc be c7 75 56 be bd d7 8a be
       -0.031465422 -0.3994446 -0.20943366 -0.2711772
000010 0f 1c 05 bf 66 c4 92 3d da c3 e2 3d 00 bc 1e 3f
       -0.5199594 0.07166366 0.11072512 0.62005615
000020 3d c5 50 3e 70 85 06 3e ae ee 0d bf 0a fd 06 3f
       0.2038774 0.1313684 -0.5544232 0.52729857
000030 7b ec 8a be dd 68 7c be aa 71 55 bf d9 37 e7 bd
       -0.27133545 -0.24649377 -0.8337656 -0.11289949
000040 fc 67 02 bf 76 0a d1 bc ee 26 5a 3d ab b7 9f 3d
       -0.5093992 -0.025517683 0.053259782 0.07798704
000050 27 7b 4d be 5d d1 86 bf 1c 36 60 3d a8 82 05 3f
       -0.2006651 -1.0532643 0.054739103 0.5215249
000060 f5 0e 07 bf 1b 37 75 3e b7 da d2 be 49 78 97 3e
       -0.527572 0.23946802 -0.4118249 0.29583958
000070 ca 50 fe 3e f2 fe e7 3e 55 72 03 bf 46 04 29 bd
       0.49671012 0.45311695 -0.5134633 -0.04126384
000080 39 d2 05 bf 5c 13 1c be d5 82 45 bf ce 22 ef bd
       -0.522739 -0.1524176 -0.7715276 -0.1167656
000090 cb f4 89 bf 48 78 4b bf 7e 77 a3 3e 12 3d e0 3e
       -1.077783 -0.7948041 0.31927103 0.43796593
0000a0 2d 7c 3d 3f f7 e6 eb 3e 59 29 01 bf 22 39 49 3e
       0.740176 0.4607465 -0.50453717 0.196507
0000b0 8e ae 82 3f 68 d0 8f bd 4b 39 a5 3e 7f 47 44 bf
       1.020952 -0.07022172 0.32270274 -0.76671594
0000c0 dc c8 68 3e 34 ac 35 be 3f 22 03 3f 09 ba 9b be
       0.22732872 -0.17741472 0.5122413 -0.3041537
0000d0 2d 59 fc 3e 14 a2 b9 3e fd 65 8a 3f 16 ad 97 3d
       0.49286786 0.36256468 1.0812374 0.074060604
0000e0 b4 f6 1f 3f 8f 30 dd be 70 e3 d0 be 1a 19 de be
       0.62485814 -0.4320111 -0.4079852 -0.43378526
0000f0 fa 5f 0a be 80 ba 54 be ba 41 12 3f 36 e1 bb 3e
       -0.13513175 -0.20774269 0.5713154 0.3669526
000100 b3 f2 c8 be f4 45 36 3e 81 e6 38 be 7d 1d 8e 3f
       -0.39247665 0.17800122 -0.1805668 1.1102749
000110 a6 35 17 be fe f7 9a 3e b8 59 12 bf 09 86 b8 bd
       -0.14766559 0.30267328 -0.5716815 -0.0900994
000120 94 a6 83 3e 31 e7 c6 3e a8 2e 0e be 38 42 b0 be
       0.25713027 0.3884826 -0.13884985 -0.3442552
000130 30 61 62 bf b4 92 86 be 70 f4 e1 3e e1 fa b4 bd
       -0.88429546 -0.262838 0.44131804 -0.08836914
000140 31 27 53 3e 1d 05 21 bf 55 37 a1 3e fc 6e a1 3e
       0.20620419 -0.6289843 0.31487527 0.31529987
000150 9b ed 65 be 55 79 c4 3e 97 20 7d bd c0 8a 38 3f
       -0.2245392 0.3837382 -0.06179866 0.72086716
000160 0f 76 92 be f8 0d 89 3e 33 43 d5 be 63 09 25 3e
       -0.28605697 0.2676847 -0.4165283 0.16116862
000170 04 d5 15 bf 14 da 74 bd 8c e7 8a bf 50 76 46 bf
       -0.5852816 -0.059778288 -1.0851912 -0.7752428
000180 00 5b 20 bf 60 f1 8d be e8 c3 24 be 4a 62 c4 be
       -0.62638855 -0.27723217 -0.16090357 -0.3835624
000190 d1 90 6e be b7 f9 e2 3e 90 ec 17 bf 98 50 08 3e
       -0.2329743 0.44331142 -0.5934534 0.13311994
0001a0 33 e9 52 3f 60 8b 2a bf 64 ee e0 3d a5 db 7c bf
       0.82387084 -0.6661892 0.109829694 -0.9877265
0001b0 3a 9f 68 bd c8 30 9a be 41 3d a6 3e d4 5c 8a bd
       -0.056792475 -0.30115342 0.32468608 -0.06755987
0001c0 3a 4d bf 3e 63 7f 5f be 45 bf 30 3f 13 69 8d 3e
       0.37363607 -0.21825938 0.69041854 0.27619228
0001d0 7a 12 31 3d 8a 1c 81 be 46 74 60 bf 68 84 d0 3c
       0.04323051 -0.25217086 -0.8767742 0.025453761
0001e0 a0 2f 2a ba 6a 5e ee bd e3 e7 13 be fe 7c 25 3c
       -0.0006492082 -0.11639102 -0.14443927 0.010100601
0001f0 ce 09 e1 be 15 68 aa 3e 5e 41 85 be a9 f5 8a 3e
       -0.43952793 0.33282533 -0.26026434 0.2714055
000200 d3 20 41 3e e0 e0 23 3f ab f9 66 be f8 6d 0d 3f
       0.18860178 0.64015007 -0.22556178 0.55245924
000210 1b fa d1 3e fb 06 e6 be 34 2c 06 bf 7b 92 82 bd
       0.41011128 -0.449272 -0.524112 -0.06375595
000220 32 2b f6 bd 3e 84 08 3f 41 70 77 3f 95 a2 6b bf
       -0.120199576 0.53326786 0.9665566 -0.92044955
000230 88 a5 19 bf a0 fb 85 be ae d4 4d 3e 4b 96 9f bd
       -0.60018206 -0.26168537 0.20100662 -0.07792338
000240 3c e3 09 3e 64 d4 10 bd 5b fd e6 be bb 9f 9d 3e
       0.1346559 -0.0353588 -0.4511517 0.30785927
000250 f1 b1 81 3e cd 36 3c 3e 94 f9 9a be a3 12 8b 3e
       0.2533107 0.1838028 -0.30268538 0.27162656
000260 27 07 06 be 08 91 0d bf ea ae 2a 3d bd e1 b3 bc
       -0.13088666 -0.55299425 0.041670717 -0.021958226
000270 84 f8 2f bf 60 ad 26 3f 72 91 99 3e dd 45 cd be
       -0.6873858 0.651083 0.29993778 -0.40092364

model.bigrill.fwd_rnn.cells.0.forget_gate.mlp.weight f4 [32, 170, 1, 1]
000000 2f 47 11 3e b9 fa 77 3d 9b f6 05 bd 77 16 2c 3e
       0.1418731 0.060541842 -0.032705884 0.16805445
000010 51 fb 02 be cc 8e e6 3d 58 86 f1 3d 47 ac 07 3e
       -0.12791182 0.11257705 0.11793202 0.13249312
000020 02 aa 4d bd aa fc 66 3d 42 07 ba bc ec 9f 0f bc
       -0.05021096 0.056393303 -0.022708539 -0.008766156
000030 34 f5 7d bd 41 a3 8f bd b7 9c c5 bd b7 bd 0e 3e
       -0.062001422 -0.0701356 -0.096490316 0.13939558
000040 57 c6 ed bd 76 0c c4 3d 2e 85 31 3e 5e 7c c8 bd
       -0.11610096 0.09572689 0.1733596 -0.09789346
000050 76 87 85 bd b3 98 25 bd 41 26 a6 3a 2e dc 4a be
       -0.06519978 -0.04042883 0.0012676195 -0.19810554
000060 93 2f 31 3e 57 d7 00 3e 79 b0 8e bd 82 43 a2 bd
       0.17303304 0.12582146 -0.06967253 -0.07923032
000070 ba f1 14 bc 9b fe 36 3e 63 be ea 3d 9d 50 c1 3c
       -0.009090835 0.17870562 0.11462095 0.02359801
000080 b9 27 9f 3d 8e ae 18 3c d0 53 b2 3d 3e a0 e7 3c
       0.07771248 0.009318961 0.08707392 0.028274652
000090 ca 57 a4 bb 81 e0 24 3e 30 d1 ad bd 35 fe ca 3d
       -0.005015348 0.16101266 -0.08487165 0.099117674
0000a0 1b 8c 27 3e 35 e5 1d 3e 5f e7 c7 bb a1 70 d2 ba
       0.1636204 0.15419467 -0.0061005796 -0.0016055295
0000b0 06 95 b3 bd b8 5a 4d bb f9 d4 75 bd 3e 52 e7 bd
       -0.08768658 -0.003133459 -0.06001756 -0.11294983
0000c0 6c 60 8c 3c bc ac b2 3d b1 bf 8b bd 3c 77 9b 3d
       0.017135821 0.08724353 -0.068236716 0.075911015
0000d0 c5 d8 47 3d 2e 38 98 bd 99 c9 bb bd ca 56 62 be
       0.048790712 -0.074325904 -0.09169311 -0.2210342
0000e0 b6 1c 26 ba db e4 37 be 32 98 2e 3e 41 29 3b 3e
       -0.0006336676 -0.17958395 0.17050245 0.18277456
0000f0 20 ab 91 bd c1 e1 55 bd ab 69 db 3d 17 08 39 3e
       -0.07112718 -0.05221725 0.10713514 0.18069492
000100 09 58 c7 3d 46 e5 5a 3d 2f 92 09 3e 91 a2 a4 bd
       0.09733588 0.05344131 0.13434671 -0.080388196
000110 06 07 91 3d 63 d8 3b bd bd bf 80 bd 94 d3 91 3d
       0.07081418 -0.04586066 -0.06286571 0.071204334
000120 5b f7 e7 bd bd 64 26 3e 28 e0 02 3e 63 63 49 3d
       -0.11326476 0.16249366 0.12780821 0.04916705
000130 73 35 76 be dd e9 82 3b 22 7a 30 bd 43 38 bf 3d
       -0.24043827 0.003995164 -0.043085225 0.09336903
000140 e6 da 1f be b5 6b d3 bd ff 8b cc bd e0 b3 91 3d
       -0.15610847 -0.10323278 -0.0998764 0.071143866
000150 70 7e 03 3d 31 03 3b 3e 2c d3 dd 3d 88 ef 2b bd
       0.032103002 0.18262936 0.108312935 -0.04197648
000160 08 1c 99 bd ce 43 0f be 3f 4d c6 bd 6d 57 8a bd
       -0.0747605 -0.13990709 -0.09682702 -0.067549564
000170 ca 32 2a 3e 6c 7f d5 3d 48 3c 89 bd 71 67 7e bc
       0.16620937 0.104246944 -0.06700951 -0.015527592
000180 ed b5 17 3e 5b cc d2 3d ca 7e cc 3d 5f 81 93 3d
       0.14815493 0.10292884 0.099851206 0.0720241
000190 7c 8b bf 3d df f1 4c be 59 61 ec bc a8 57 bb 3d
       0.093527764 -0.20014141 -0.028855013 0.091475785
0001a0 65 ba f7 3c 5d cc 2a 3e 45 8a 86 bb d2 5a ba 3d
       0.030240247 0.16679521 -0.0041058385 0.09099354
0001b0 cc 0f 01 3e b0 4d 8c 3d 33 2f ee bc f8 38 9b 3d
       0.12603682 0.06850755 -0.02907524 0.07579225
0001c0 27 29 2e bd 3b fa 17 3d c1 a5 9f bd fb 64 b5 bd
       -0.042519715 0.037103873 -0.07795287 -0.08857151
0001d0 10 07 1c 3b a0 97 c0 3d ca ad c0 bd 27 44 82 3c
       0.002380792 0.0940392 -0.09408148 0.015901638
0001e0 82 86 73 3d 5a c2 83 bd 8f 84 d3 bd a2 9f 5d bd
       0.05945445 -0.06433554 -0.10328018 -0.054107316
0001f0 68 5d 97 bd 2c c7 84 bd 27 17 15 3e 14 cd 21 3e
       -0.07390863 -0.064833015 0.14559613 0.15800887
000200 c2 ed aa bd e0 02 08 be f2 79 77 3d 37 6a 12 3d
       -0.0834613 -0.13282347 0.06041903 0.035745826
000210 98 7c 05 3d 71 5b 4f 3d 65 1e 89 3d e0 c6 70 3d
       0.032589525 0.050624315 0.066952504 0.058783412
000220 11 ba a2 bd fe 13 fa 3d aa 57 ea bd 75 0e 34 3d
       -0.079456456 0.122108445 -0.11442502 0.0439591
000230 ba 28 2d bc 74 f8 a3 3d 09 19 25 3e 47 af 0f 3d
       -0.010568792 0.08006373 0.16122831 0.035079267
000240 9b 32 7c bd 19 6c 0e 3e 39 54 13 bd 9a 34 a1 3d
       -0.0615717 0.13908423 -0.035968993 0.07871361
000250 23 a7 4d be 7a 31 ea bc 2a fe 64 bd be 7e da 3a
       -0.20083289 -0.028588045 -0.055906452 0.0016669852
000260 7a 4f e3 bd 71 59 d0 3c 4f 87 64 3e 66 fd 49 be
       -0.11099143 0.025433274 0.22317241 -0.1972557
000270 ba 43 23 be 53 26 d3 bc 74 ef dc bc 99 67 91 bd
       -0.15943804 -0.02577511 -0.026969649 -0.07099838
000280 b4 3c 25 3e a0 91 d3 3d 05 cd b9 bd 03 d8 d2 bd
       0.16136438 0.1033051 -0.090723075 -0.10295107
000290 5d 8e 0b 3e be 83 fa 3c 67 38 aa 3d 06 a0 75 bc
       0.13628526 0.030580398 0.08311539 -0.014991766
0002a0 1c 8c 34 3e 68 a6 25 3c 2b 84 01 3e 5b 3b 92 3d
       0.17631572 0.010110475 0.12648074 0.071402274
0002b0 f2 fe 9c bc 4e 72 32 3c cb 0a c1 bd 73 5f 5e bd
       -0.019164536 0.01089151 -0.09425887 -0.054290246
0002c0 6e b6 25 3c db 4e d0 3d 9c a1 a1 bd 05 79 68 3d
       0.010114295 0.101712905 -0.07892153 0.05675604
0002d0 68 ea 7c 3b e4 5a c7 3d ff d7 db bd 18 11 b9 bd
       0.0038591865 0.09734133 -0.10734557 -0.090364635
0002e0 09 23 40 3c 5f 29 e9 3c 77 9d dd ba b9 d9 75 3d
       0.011727103 0.02846211 -0.001690789 0.06002209
0002f0 1d ad 2f 3d 66 35 c8 bd 0d 48 df bd 13 a0 1f bd
       0.042889703 -0.0977581 -0.109024145 -0.038971018
000300 3c 02 9a 3c f8 3e 1b bd 03 a9 5f 3c c7 9f 5d 3c
       0.018799894 -0.03790185 0.013651135 0.013526863
000310 f7 70 b5 bd 79 77 5e bd 9b 15 44 bc 8c 3b 1d 3d
       -0.08859437 -0.054313157 -0.011968042 0.038386866
000320 d6 d4 c5 3d 04 de ad bb e0 35 2a 3d 90 29 c7 bd
       0.09659736 -0.0053060073 0.041555285 -0.09724724
000330 28 e6 18 3d 50 f1 03 3e 84 4e 0b be 5e 83 42 3c
       0.03732887 0.12885022 -0.1360417 0.011872141
000340 ca 1e fb bb 23 79 9c 3d 1e 95 95 3c 06 af fa 3d
       -0.0076635825 0.076402925 0.018259581 0.12240414
000350 81 95 3f bd 8f 6e 3c 3d bf d0 86 bd cf 90 0b 3e
       -0.046773437 0.046003874 -0.06582784 0.13629459
000360 87 8d f6 bd 33 22 0b bc fd 67 b2 bd 9a 95 a2 3c
       -0.12038713 -0.00849204 -0.087112404 0.019846726
000370 fd 9a 20 bd e4 6b 1d 3e 63 d5 6b 3d 68 bb 03 be
       -0.03921031 0.15373188 0.05757655 -0.12864459
000380 6c 5d f4 bd a5 91 21 be 1f 78 76 bc ba 32 15 be
       -0.11931881 -0.15778215 -0.015043288 -0.14570132
000390 a0 dd 91 bd 3f 8f 37 3c e7 7e aa bd ac 86 e0 bc
       -0.0712235 0.011203586 -0.08324986 -0.027407967
0003a0 ea 9c c9 bc 2e 3f 84 ba 9b c2 f2 3d 6f 9b 55 bc
       -0.024610955 -0.001008963 0.11853524 -0.013037547
0003b0 bf 68 8d 3c 00 40 d1 bb dd 07 82 3d 24 e6 30 3e
       0.01726186 -0.006385803 0.06349156 0.17275292
0003c0 1e 49 de bd fc 55 c0 3d c0 72 46 bd 2d 6e 0c 3d
       -0.1085379 0.093914 -0.048449278 0.03428476
0003d0 60 e2 90 bb af 18 be 3d e3 cf fc bc 16 a9 1a 3e
       -0.0044215173 0.09282052 -0.030860847 0.15103564
0003e0 b8 f4 2f be 47 87 c6 3c ec e9 86 3b ac 9c 1e be
       -0.17183197 0.024234427 0.004117241 -0.15489453
0003f0 9f 9f 2a be ec 01 ea 3c e3 7e b7 bd be ac 00 3e
       -0.16662453 0.02856537 -0.089597486 0.12565896

model.bigrill.fwd_rnn.cells.0.forget_gate.mlp.bias f4 [32]
000000 8d 6e ea 3d e7 ce 35 3d 14 07 2d 3e c7 0a bf 3c
       0.11446867 0.04438677 0.16897231 0.023320569
000010 63 09 83 bc a5 be a2 3d 14 c5 01 3e cb cd 07 3e
       -0.015995687 0.07946519 0.12672836 0.13262098
000020 2f fa 07 3e 26 23 4b 3e 0e 67 04 be 62 ba 00 3e
       0.13279031 0.19837627 -0.12929937 0.125711
000030 41 5a ae 3d 86 ab ab 3d c5 6b 64 bc 71 fb 1c 3e
       0.08513308 0.08382325 -0.01394171 0.15330292
000040 e7 fb 0c 3d 95 6b 96 3d 33 ef d2 3d 47 d0 bf 3d
       0.03441992 0.073447384 0.1029953 0.093658976
000050 31 91 84 3e 8e 93 ae 3d 41 b1 c4 bd 11 e6 91 3d
       0.25892022 0.085242376 -0.09604121 0.0712396
000060 f1 6c 1a 3e bc 31 bc bd 6d bd a5 bd e7 68 79 3d
       0.1508062 -0.091891736 -0.08092771 0.06089106
000070 8c 74 f2 3d 51 2f 6c 3c bb 69 01 3d 51 29 94 3d
       0.11838636 0.014415578 0.031594973 0.07234443

model.bigrill.fwd_rnn.cells.0.update_gate.mlp.weight f4 [32, 170, 1, 1]
000000 87 31 8d be a9 b1 ab bd 49 96 4f be df 0e 8b 3e
       -0.2757685 -0.08383495 -0.20272173 0.27159783
000010 a1 a8 a7 be 63 c3 13 bd f9 70 41 3d 73 9e ef 3d
       -0.3274584 -0.036075007 0.04722688 0.11700144
000020 65 98 29 be ef 24 8d bd 06 89 b9 bd 4b f3 9a 3c
       -0.1656204 -0.0689181 -0.09059338 0.01891484
000030 40 ee 76 be 15 76 34 be 15 d4 ef bc 60 cf aa bd
       -0.24114323 -0.1762317 -0.029275933 -0.08340335
000040 5f 84 e0 bd cb 72 a6 bd e5 5e 95 3e 52 fa 7b be
       -0.10962748 -0.08127364 0.2917396 -0.24607208
000050 4e 23 f7 bd c1 2c 7f be cb 4b e4 bd 50 1a 5a be
       -0.12067281 -0.24919416 -0.11147269 -0.212991
000060 30 dd a1 bd bb 79 4a 3e 7e 92 79 be 35 5e 4f 3d
       -0.07903516 0.19772999 -0.24372289 0.050626952
000070 1f 34 3a bc 03 71 3a bd fa dc 45 3e ce e2 ba bb
       -0.011364966 -0.045517933 0.19322577 -0.0057033068
000080 56 a7 99 bd 56 da 3b 3e 96 82 c2 bc b8 bb 56 3d
       -0.0750262 0.18345007 -0.023743909 0.052425116
000090 c4 36 08 be c1 85 e2 3d cb c5 8b be a4 f0 8e be
       -0.13302141 0.11060668 -0.27299342 -0.2791797
0000a0 c5 7f 8a 3d e9 8d 33 3e 03 dc 84 be a4 ee 6b bc
       0.06762651 0.17534603 -0.25949106 -0.014400158
0000b0 9b 2c 79 be aa a7 85 3d 01 b3 3e be 28 07 8e be
       -0.24333422 0.0652612 -0.18622972 -0.27739835
0000c0 d3 27 2b be 7b 0a 8b 3e c2 eb 86 be 89 47 27 3e
       -0.1671441 0.27156433 -0.26351744 0.16335882
0000d0 de ae 46 3e 7b 8f 84 be bb 67 80 be 54 8c 9b be
       0.19402644 -0.25890717 -0.2507914 -0.303805
0000e0 db e0 36 bd 04 fc 0b be 3b 95 89 3d 53 80 54 3e
       -0.044648033 -0.13670355 0.067179166 0.20752077
0000f0 55 f0 c9 be bb 03 ca 3e 10 6f 83 be 8b 5b 17 3e
       -0.3944117 0.3945597 -0.2567067 0.14781015
000100 f3 b3 82 3e 99 ef a6 3e 85 10 5f 3e c6 d2 17 bc
       0.25527915 0.32604674 0.21783645 -0.009266561
000110 9f 85 50 3d 44 05 5e 3d 98 2f cc bc 99 2b 18 3e
       0.05090868 0.05420424 -0.024925038 0.14860381
000120 f0 64 a4 be b3 0a 65 bd 8d 8e 19 be e3 0b 5a bc
       -0.3210826 -0.055918407 -0.14995785 -0.013308498
000130 04 ca aa bd 65 ed 10 3c db b5 86 be a3 00 2f 3e
       -0.08339313 0.008845662 -0.2631062 0.17090087
000140 40 cb 96 3d 3d 34 86 be 86 82 14 be c5 9a 59 3e
       0.073629856 -0.2621173 -0.14502916 0.21250446
000150 bc a7 34 be 1a c3 26 3e d9 9d 12 3d 80 ed fe bd
       -0.1764211 0.16285363 0.035795067 -0.12447643
000160 0d 7a 9a bd ca 5d ab bd b2 1d ad bd d2 a0 92 bb
       -0.075428106 -0.08367498 -0.084529296 -0.0044747377
000170 6e a7 9d 3e 90 0c 20 3e c7 d8 59 be 8c 64 be 3e
       0.307918 0.15629792 -0.212741 0.37186086
000180 a2 7f bb bd c8 89 17 3e 46 b4 5d 3e 55 2b 40 3e
       -0.091552034 0.14798653 0.216508 0.1876653
000190 ef ba 3d 3e 09 6f 84 3d fe 85 17 be 4d a6 94 bd
       0.18528341 0.06466491 -0.14797208 -0.07258282
0001a0 0a 25 06 be 56 d4 25 3e 3e 44 ef bd 21 4f 29 3d
       -0.13100067 0.16194281 -0.11682938 0.04133523
0001b0 dc ff 76 3e bc 53 de 3d b9 35 aa bd 5e f2 fb bc
       0.2412104 0.10855815 -0.08311028 -0.030755218
0001c0 5b 0f 15 be 4a c2 bc bd 7a b3 c6 bc 54 16 af bd
       -0.14556639 -0.09216745 -0.024255503 -0.085491806
0001d0 fe 75 ff bd cd f3 f8 3d f4 5f 04 bd 14 fd ae 3d
       -0.12473677 0.12155876 -0.03231807 0.085443646
0001e0 68 0c e4 3d a3 e7 8b bd 46 59 09 bd 35 a3 84 be
       0.11135179 -0.068312906 -0.033532403 -0.25905767
0001f0 92 5a 73 be b3 b6 44 be b5 ed 89 3d a6 c7 49 3d
       -0.23765019 -0.19210319 0.06734792 0.049262665
000200 12 5e aa bd 82 22 8c bd 93 02 cf 3d 8d cd 9c 3d
       -0.08318724 -0.06842519 0.10107913 0.07656393
000210 dd fd c8 3d 2d 08 f2 3d 59 45 25 be ea 78 97 be
       0.098140456 0.11817966 -0.16139735 -0.29584438
000220 db bf aa bd 56 d9 3f bd 8a 83 6e bd 3a 4f 69 3d
       -0.08337375 -0.046838127 -0.058230914 0.056960322
000230 2c 50 88 3c 3c 0a 35 be 4c e4 0d 3d d8 d7 84 3e
       0.016639791 -0.17679685 0.03464155 0.25945926
000240 5e cf 5f b9 7f 5b e9 3b 94 69 57 3c c9 04 ea ba
       -0.00021344188 0.007121503 0.01314773 -0.0017854209
000250 61 a7 fb bd ff c4 95 bc f9 37 dc bc 6b 61 9b 3d
       -0.12287784 -0.018282412 -0.026882159 0.075869404
000260 b4 78 17 3c 3b b5 bd 3d 2d ba 89 bd ca 24 bc 3d
       0.009245086 0.092630826 -0.06724963 0.091867045
000270 70 e1 98 bc 9d a1 aa ba df 06 bd bd 97 60 f0 bd
       -0.018662184 -0.0013018135 -0.09229826 -0.11737173
000280 4b 07 95 3e 5a 5b 8a bd c1 91 a4 3c bc 2e 0c bd
       0.29107127 -0.06755705 0.020089032 -0.034224257
000290 60 07 57 be b3 ee 3c 3d ca 27 0c bc b8 c8 cd 3d
       -0.20998907 0.04612608 -0.008554408 0.1004805
0002a0 42 5f dd 3d f8 99 36 bd 52 bc 3f bd a9 d8 dd 3b
       0.108091846 -0.04458043 -0.046810456 0.0067702127
0002b0 f7 a7 9e 3d a0 e4 71 bd f3 40 20 3e 90 8c c7 3d
       0.077468805 -0.059055924 0.15649776 0.09743607
0002c0 82 2b 00 bd 26 db ad bd 56 50 16 3e e8 f6 7b bd
       -0.031291492 -0.08489065 0.14679083 -0.061514765
0002d0 b9 09 60 3d 65 f4 d7 bd 9a d3 0b 3e ae 62 28 3d
       0.054696772 -0.105446614 0.13654938 0.041109733
0002e0 a2 26 34 3d 1e bb 25 be e7 da 1f 3e ec 09 b6 bd
       0.043982156 -0.16184661 0.15610848 -0.08888611
0002f0 c4 79 78 bd 80 54 ed 3d 89 73 07 3e de 2b bb 3d
       -0.060663 0.11588383 0.13227667 0.091392264
000300 a6 a1 03 3e 74 4c c4 3d c5 20 66 bd 3b c3 e5 bd
       0.12854633 0.09584895 -0.056183595 -0.11218878
000310 a2 0b 81 3d 32 80 88 3b e0 28 86 3c 71 ea 26 bd
       0.06301047 0.0041656727 0.016376913 -0.040750924
000320 31 73 91 bd c4 2e cb 3d 70 98 d0 bc 05 66 86 3d
       -0.07102049 0.09921029 -0.025463313 0.065624274
000330 b0 f0 4e bd 98 78 6b bd 6c 0b 1b 3e 74 e3 e8 bd
       -0.050522506 -0.057488054 0.15141076 -0.11371508
000340 66 a4 dd 3d 1c 54 02 3d 7e 5f 19 be ab 10 7e bd
       0.10822372 0.031818494 -0.14977834 -0.062027615
000350 4b cc 26 3d 09 f8 c7 bd b9 4b 71 3d 5e d1 fb bd
       0.040722173 -0.09764106 0.058910105 -0.12295793
000360 ac d9 42 3d f9 32 29 3e d1 40 11 3e 13 b7 06 be
       0.04757087 0.16523351 0.14184882 -0.13155775
000370 57 ae cd 3d d3 dc 42 be c7 a3 c7 bd 4b 93 24 3d
       0.10043018 -0.1902955 -0.09748035 0.040179532
000380 9b 11 13 3e ab ce 28 3e 9d 10 95 3d d7 8e 01 3e
       0.14362185 0.16485088 0.07278559 0.12652145
000390 3f 71 cf bd 1d 2e 57 bd 19 0a e9 3d cf e1 3c 3d
       -0.10129022 -0.05253421 0.11378879 0.046113785
0003a0 68 f5 91 3c c8 db 08 be fd 2b 3c be 7b 73 ae 3c
       0.017817214 -0.1336509 -0.18376155 0.0212953
0003b0 49 95 3a be 48 05 8a bc b5 42 c1 bd b9 f9 05 be
       -0.1822101 -0.016848221 -0.094365515 -0.13083543
0003c0 74 9c 99 3d 4d de 62 bc f3 95 db 3c 2c 26 af bb
       0.07500544 -0.013846946 0.0268049 -0.0053451266
0003d0 b8 ab 1f bd 85 3c 60 bd 4b 37 04 3e b5 cb 90 bd
       -0.038982123 -0.054745216 0.12911718 -0.07070104
0003e0 77 73 78 3d 2e cb 03 be 15 e2 bb 3c 8f 94 d1 3d
       0.06065699 -0.12870476 0.022934953 0.102334134
0003f0 93 4e 00 3e 08 85 80 bd 70 e4 c0 3d 0d 42 03 be
       0.12529974 -0.06275374 0.09418571 -0.12818165

model.bigrill.fwd_rnn.cells.0.update_gate.mlp.bias f4 [32]
000000 f3 a7 11 3e 34 33 d5 bc 71 20 54 3e 04 0e ee bd
       0.14224224 -0.026025392 0.207155 -0.11623767
000010 ec 37 cd bd ad 1e 88 3e 48 ee 94 bc 47 8f 7b 3e
       -0.10020432 0.26585904 -0.018180028 0.24566375
000020 ed e1 8f bd 48 de 75 3e d0 bd e4 bd 76 59 02 bd
       -0.07025514 0.24010575 -0.11169016 -0.031823598
000030 0a 99 6e 3e ce b2 8c bd fb ad 97 3e 3a a3 00 be
       0.23300567 -0.06870042 0.29624924 -0.12562266
000040 a0 a5 6d bd eb d2 2d bd cb 47 13 be 03 13 60 bb
       -0.05801928 -0.042437475 -0.14382856 -0.003419102
000050 5e c3 e7 bd 4f d2 01 be 37 97 9d bd 1a 29 ad bd
       -0.1131656 -0.12677883 -0.076948576 -0.08455105
000060 bf 81 3e 3e 7e 1f a8 be 79 58 4d bd ca 4c 2a 3e
       0.18604182 -0.32836527 -0.050133202 0.16630855
000070 ec 4c bb bd 0f 29 0d be f8 bd e0 bd 2d 97 1a 3e
       -0.09145531 -0.13785194 -0.10973734 0.15096731

model.bigrill.fwd_rnn.cells.0.c_gate.mlp.weight f4 [32, 170, 1, 1]
000000 1b 30 e8 bd 00 b0 0d be 6f 4b e6 3c 03 bb e6 bd
       -0.113373004 -0.1383667 0.028112141 -0.112661384
000010 b1 58 95 3d 82 a8 00 3e 2f 1c 6f bd b4 a0 33 bd
       0.07292307 0.1256428 -0.058376487 -0.04385443
000020 67 b6 2a 3e d1 33 2d be 09 2e ea 3d 3d 2f c2 bd
       0.16671143 -0.16914298 0.11434562 -0.09481666
000030 b0 9b a2 bd 91 e3 31 3e 66 92 bd 3d 38 69 20 be
       -0.07939851 0.17371966 0.09256439 -0.15665138
000040 01 4b 04 3e 49 23 c4 bd 00 0a b4 bc 9b 9e fb 3d
       0.12919237 -0.095770426 -0.021977425 0.12286111
000050 83 e2 1c 3d 77 18 c7 3d c0 dd 06 3e ad d4 95 3d
       0.038301956 0.09721463 0.13170528 0.07315955
000060 fc 68 2a 3d c4 8c 73 bd 4a 00 76 3d dc c1 14 be
       0.041604027 -0.059460416 0.06005887 -0.14527076
000070 e7 93 ae 3c bb ac a7 bc 41 99 f0 bd 4a 97 b4 bc
       0.02131076 -0.020468106 -0.11747981 -0.022044796
000080 db 57 f3 bd b2 e6 45 bd 04 01 18 be 0a 09 f1 bd
       -0.118819915 -0.04831571 -0.14844137 -0.11769302
000090 2e 27 96 3c 75 2f 09 be 22 95 7f 3d 3a f1 0c 3d
       0.01832923 -0.1339701 0.062398084 0.03440974
0000a0 ff 4b 19 3d 6e 31 0c be 96 39 3c 3d ee f4 85 bd
       0.03742599 -0.13690731 0.045953356 -0.06540857
0000b0 13 09 0f 3e b8 a7 17 be 20 ea 2e bd e7 5c a5 3d
       0.13968305 -0.14810073 -0.042703748 0.0807436
0000c0 b2 b7 23 3e 3b 15 27 be a7 b7 c6 3d 12 5e e0 bd
       0.15988043 -0.16316693 0.09702998 -0.109554425
0000d0 c3 88 e3 bd 91 3c 89 3d 6f a2 b7 3d 0d 82 75 3d
       -0.111100696 0.06701005 0.089665286 0.05993848
0000e0 b8 52 cb 3d 82 d4 82 bc 75 10 62 bc e8 c1 36 bd
       0.09927887 -0.015970472 -0.013797869 -0.044618517
0000f0 1a c9 b8 3d 92 48 09 be 23 ed 83 3d 08 c4 00 b9
       0.09022732 -0.1340659 0.064417146 -0.00012280059
000100 b5 55 f1 bc 8e 49 18 be d4 3b d7 bd 6b b2 f1 38
       -0.029459814 -0.14871809 -0.10509458 0.000115250084
000110 5b df fb bd 7b 25 0c bd 02 a6 83 3d 0e a9 b5 3d
       -0.12298461 -0.03421543 0.06428148 0.08870135
000120 59 e0 15 3e e3 41 a4 3d df f0 60 3c 38 49 3e bd
       0.14636363 0.080203794 0.013729303 -0.046456546
000130 79 d7 a9 3d c9 22 8e bd 67 9b b2 3d 90 ad 55 bd
       0.08293051 -0.069402285 0.08721047 -0.052167475
000140 f7 aa c0 bc 6f 84 aa 3d 76 4c 0e 3d d7 8a 26 be
       -0.023519022 0.08326041 0.034740888 -0.162639
000150 0c 82 41 3d 59 28 92 bd a7 23 d1 bd f4 c2 00 3e
       0.047243163 -0.07136602 -0.10211878 0.12574369
000160 92 cb ff 3d 09 cf 8b 3d de 36 86 3d ed ab db 3b
       0.1249 0.06826598 0.06553434 0.0067038448
000170 89 22 95 3c e4 86 05 bc c9 5d 3c 3d 99 0f 99 bc
       0.018204944 -0.008149836 0.045987878 -0.018684195
000180 ff 0a 47 3d 33 91 ec 3b 24 9c aa bd c2 45 09 be
       0.04859447 0.0072194575 -0.08330563 -0.13405517
000190 a6 a2 b0 bc 4b c8 61 bc d9 53 90 bd 44 55 8f bd
       -0.021561932 -0.013780664 -0.07047243 -0.06998685
0001a0 1b 3b ad 3d 80 9f 22 be fb 46 18 3d 22 5f 14 3e
       0.08458539 -0.15881157 0.037177067 0.14489415
0001b0 94 ba 1b 3d 31 9a 8f bd f4 a0 94 3d 61 fd e0 bd
       0.03801973 -0.070118316 0.07257262 -0.10985828
0001c0 1d 4d 7e 3d c7 f7 21 be 19 c9 0a 3a ae d3 1a 3e
       0.06208526 -0.15817176 0.0005294248 0.15119812
0001d0 d3 e9 1f 3e 92 22 18 be a6 17 dd 3c 43 1b 0d be
       0.1561654 -0.14856938 0.026988816 -0.13779931
0001e0 af 4e 91 bd b3 85 e5 3d a8 f6 07 3d 7c 15 6b 3d
       -0.07095086 0.11207142 0.033194214 0.057393536
0001f0 fc cb 43 bb 1f cb 31 3d 80 46 c4 3d 50 21 13 3d
       -0.0029876223 0.043406602 0.09583759 0.03592044
000200 76 79 2d 3e f6 04 d2 bc e2 7a fc 3c 1f b1 85 bd
       0.16940865 -0.025637131 0.030820314 -0.06527924
000210 73 91 05 be c5 4f d4 bc 73 49 7a bd 2d 72 f3 3c
       -0.13043766 -0.025916943 -0.061105203 0.02971753
000220 f8 be ee bd 48 94 19 bd 5b 45 1d 3e c8 0b 98 bd
       -0.11657518 -0.037494928 0.15358488 -0.07424122
000230 2c 6e e4 3d 6f f4 95 3d bd 3a 62 bc 9a 9a 18 be
       0.11153826 0.07322013 -0.01380795 -0.14902726
000240 37 76 27 3e 84 8a d3 bd cc e6 1f 3e 9e 5d 91 bd
       0.16353689 -0.10329154 0.15615386 -0.07097934
000250 4a cb 7a bc 76 b8 3b 3d d8 67 33 3e 38 50 0b bd
       -0.015307257 0.045830213 0.17520082 -0.03401205
000260 59 19 a6 3d 94 5e d8 bd bc 45 8d bc 36 77 be 3c
       0.081103034 -0.10564914 -0.017245166 0.023250204
000270 e1 10 b9 3d a2 70 ac 3d 64 52 13 3e 29 5c e1 3d
       0.090364225 0.084199205 0.14386898 0.11003906
000280 71 f3 45 3c 23 1d 67 bb c9 e6 26 3e 31 b2 17 bd
       0.012081967 -0.003526517 0.16298975 -0.03703517
000290 53 ff c9 3d 98 e6 5f bd a7 37 07 be ad 61 89 bc
       0.09863152 -0.05466327 -0.13204823 -0.016770208
0002a0 12 f6 b4 bd ee a6 bd 3d 92 c4 a5 3d f9 0c 8d 3d
       -0.08835997 0.09260355 0.080941334 0.0688724
0002b0 b1 48 d0 bd 4d 07 1a 3e 74 f6 08 be b3 0b 88 bd
       -0.10170115 0.15041848 -0.13375264 -0.066428564
0002c0 06 2a a1 bd ec 74 a0 3d 37 df bf bd 6c b0 ba 3d
       -0.078693435 0.07834801 -0.09368747 0.09115681
0002d0 4d fc 64 bd 4f fa a2 3d 5d 87 35 3d e0 b4 1e be
       -0.055904675 0.07957899 0.044318546 -0.15498686
0002e0 98 d1 45 bd 60 f8 e2 3d 55 e3 ef bd 27 5a 11 3e
       -0.048295587 0.1108253 -0.11713282 0.14194547
0002f0 c6 54 5d 3d 43 3f eb bd bb 95 65 bd 51 01 a0 bd
       0.054035924 -0.114866756 -0.056050997 -0.07812751
000300 3e 1e 17 bd 26 b7 15 be c4 5e 8e 3d 59 0e a1 bd
       -0.036894076 -0.14620647 0.06951669 -0.07864065
000310 89 04 27 be 85 4d fd 3d 65 d9 dd bd 60 99 63 3d
       -0.16310324 0.12368301 -0.1083248 0.05556619
000320 15 ed 22 3e 3d b9 04 3c 8b 32 d7 3d 4f fa 95 bd
       0.15910752 0.008100805 0.10507687 -0.07323133
000330 86 e8 a2 3d 88 93 ca 3c 7d 22 ce bc 53 c9 6b 3d
       0.079545066 0.024728552 -0.02516293 0.057565045
000340 bd 76 14 be 9d 3c 14 be 04 61 aa 3d 23 f5 28 3e
       -0.1449842 -0.14476247 0.083192855 0.16499762
000350 3a 4e 2f be 17 fb fb 3d b1 38 1b be bd 8b cb 3d
       -0.17119685 0.12303751 -0.15158345 0.09938762
000360 e0 ab b1 3c 25 ab 1e be 91 80 b3 bd 7f ae 31 3e
       0.021688402 -0.15494974 -0.087647565 0.17351721
000370 a2 4d eb bc d4 08 ab 3d 65 3c 8a 3d f3 62 f4 bd
       -0.028723542 0.08351293 0.067498006 -0.119329356
000380 48 8a 89 bd f8 b4 57 bd 4d cc 3f bd 94 eb 85 bb
       -0.06715828 -0.05266282 -0.046825696 -0.004086921
000390 f2 9c 88 3d 16 85 4b 3d e0 ab ee bc b1 39 f0 3c
       0.0667056 0.049687468 -0.02913469 0.029324384
0003a0 93 ac e2 bd d6 ad 7b 3d 9f 69 0f 3e 43 15 d9 3c
       -0.11068072 0.06144508 0.14005135 0.026499396
0003b0 79 7c 1d 3e 2a 40 87 bd 2f 10 02 3e d9 f9 40 3c
       0.15379514 -0.06604035 0.12701486 0.011778318
0003c0 e5 4f 06 be c5 69 c2 3c ef 2d 27 bd ee 0b a7 3a
       -0.13116415 0.023732075 -0.04081529 0.0012744644
0003d0 49 9d 90 bd d1 46 dc bd d8 d7 fe bd c0 e6 07 3d
       -0.0706125 -0.10755695 -0.12443513 0.033179045
0003e0 12 39 07 be 87 ca d2 3d 6f 05 15 3e 29 b9 10 be
       -0.13205364 0.10292535 0.14552854 -0.14133133
0003f0 a2 06 38 be a7 50 d0 3d 3a 7e 16 be 47 37 6a bc
       -0.1797128 0.10171633 -0.14696589 -0.014295406

model.bigrill.fwd_rnn.cells.0.c_gate.mlp.bias f4 [32]
000000 31 b5 6e bd 6a c0 9b 3d f5 ab 2c be 7b b5 e8 3d
       -0.058278266 0.076050594 -0.16862471 0.1136274
000010 d0 00 64 3d 13 43 15 3d 43 b2 c1 bd eb f4 b9 3d
       0.055664837 0.03644092 -0.09457829 0.090799175
000020 da 65 28 be b6 43 05 3e 31 93 91 bd de 2b bf b9
       -0.16445103 0.13014111 -0.07108153 -0.00036463042
000030 03 e5 25 be 6a f5 ee 3c 5f 23 6b bd fb 38 fe 3d
       -0.16200642 0.029169757 -0.05740678 0.12413212
000040 04 af 3b 3d 24 7d b5 bd 77 bb 35 bd 98 12 2c be
       0.045821205 -0.08861759 -0.044368234 -0.16803968
000050 f5 ac 85 bd 3c a6 2c bd 46 77 f9 bd 1b 24 05 3e
       -0.065271296 -0.04215072 -0.12180953 0.13002054
000060 ba 40 57 bd 15 3f 24 be 9f 2c 96 3e ad 06 85 3d
       -0.052551962 -0.16039689 0.29330918 0.06495414
000070 dc b9 2a 3e 22 b6 2c bb cc bf 6a 3d dd c5 cf bd
       0.16672462 -0.0026353677 0.057311818 -0.10145161

model.bigrill.fwd_rnn.first_stage.weight f4 [1, 32, 1]
000000 0a 0a 3c bf 84 03 22 3f 76 e0 1d bf c5 d3 02 3f
       -0.7345282 0.63286614 -0.61670625 0.51104385
000010 e2 45 1a 3f 98 9b 0f 3f 2c 26 00 bf 89 9f 1e 3f
       0.6026288 0.5609679 -0.50058246 0.6196218
000020 45 d3 34 bf bb 1d 1a 3f 4e 1a 31 bf 51 f5 19 bf
       -0.7063487 0.60201615 -0.6918076 -0.6013995
000030 1f 2e 39 bf bd 1f 12 3f 2d 3f 2a bf 8b 0f 10 3f
       -0.72336 0.5707968 -0.6650265 0.56273717
000040 15 b2 44 3f a1 55 40 bf ba e0 26 bf 8f 91 2c bf
       0.7683423 -0.7513066 -0.65186656 -0.67409605
000050 60 b7 19 bf a2 c9 28 bf 0f f0 18 3f 64 8a 25 3f
       -0.60045433 -0.6593267 0.597413 0.6466429
000060 ac f3 41 bf 5c 37 07 bf 9e ff 68 3e da a3 2b 3f
       -0.7576244 -0.52818847 0.2275376 0.6704689
000070 25 1a 18 3f 1f e0 06 3f 78 9a 35 3f 5a 70 e6 be
       0.59414893 0.5268573 0.70938826 -0.45007592

model.bigrill.fwd_rnn.spatial_decoder.lin_in.weight f4 [32, 34, 1]
000000 fd 69 86 bd 1e 39 f4 3e c8 23 a9 3c 58 e8 bc bb
       -0.065631844 0.47699827 0.020646945 -0.005765002
000010 f0 6f 71 3b 2d 5f a1 3d ea ba 81 bd 92 17 5f bd
       0.0036840402 0.078794815 -0.06334479 -0.054465838
000020 e1 c5 cb 3d 9a a2 4b be c3 ee c2 3d 60 b5 81 bc
       0.09949852 -0.19886246 0.095181964 -0.015833557
000030 69 ad 18 bb 46 3b b0 bc 80 d5 f4 bb e4 78 77 3b
       -0.002329672 -0.021512639 -0.0074717402 0.0037761265
000040 7e d4 98 3e 0c b2 d0 3d af 95 3f be c7 4a 75 bd
       0.2984962 0.1019021 -0.18709444 -0.059885766
000050 ce 0e 30 3c 07 55 b0 3d 02 b0 ec 3d 2e de 9e bd
       0.010745717 0.08609968 0.11557008 -0.07757221
000060 78 db 99 bd bd f3 18 3c fd c8 97 bb f5 43 13 be
       -0.075125635 0.0093354555 -0.004632114 -0.14381392
000070 3d ff 2f 3f 69 4b 33 3d 45 c9 48 be e6 39 dc 3e
       0.6874884 0.04377309 -0.19608028 0.43012923
000080 ff 29 fb 3d 64 3a ac bd df 10 af 3c 7a 2c 56 3e
       0.122638695 -0.08409575 0.02137035 0.20915404
000090 4a 8e 35 3e 29 d2 c1 3c bc 98 f0 3d 20 fc 07 3e
       0.1773006 0.023659782 0.11747882 0.13279772
0000a0 61 37 67 bd f1 48 a4 be 7c fc 8e 3c c2 44 15 bc
       -0.056449298 -0.320869 0.017454378 -0.009110631
0000b0 0b fd 1c 3e 42 b6 2f be 96 04 59 3d b1 e2 6a 3d
       0.15330903 -0.1715937 0.05298289 0.057345096
0000c0 38 f9 1b 3e 81 c5 c5 3c c9 4c 4c 3e a4 ab 84 be
       0.15231788 0.024142029 0.19951166 -0.259122
0000d0 41 7d be bd cb 92 de 3d 77 85 c4 bd 91 1a df 3d
       -0.09301234 0.10867842 -0.09595769 0.10893739
0000e0 12 ea 37 3e 3e 0e 84 bd 45 bc 9f 3c 5a 56 cb bb
       0.17960384 -0.06448029 0.019498954 -0.0062053623
0000f0 4a 85 27 bd bf f1 a1 bd 9a c6 14 3f 93 f1 e9 3d
       -0.0408986 -0.079074375 0.5811554 0.1142303
000100 4a b6 05 be 47 dd f0 3e 27 c1 19 3b b4 51 88 be
       -0.13057819 0.4704382 0.0023461075 -0.26624835
000110 5b b7 c7 bd f9 f6 9f 3e 06 7a 55 3e 37 26 ca 3d
       -0.09751769 0.31243113 0.2084733 0.0987057
000120 32 f7 db 3c a4 ec 90 3c 11 1f c2 3d 9d 30 05 be
       0.02685127 0.017690964 0.09478582 -0.13006826
000130 df bf be 3d 97 44 f2 bd 15 19 d8 3d f6 ef 2b 3d
       0.0931394 -0.11829489 0.10551659 0.04197689
000140 24 fe 41 3e 59 ed 0e 3e 5c 2c 68 3e 80 dd d6 3d
       0.18944603 0.13957728 0.22673172 0.104914665
000150 cb 4f d5 3d 88 71 e5 3c c9 98 7d 3d 58 cb 19 bc
       0.1041561 0.028008237 0.061913285 -0.00938686
000160 a3 92 9d 3d b1 32 0b 3d 9c 8f 67 3d 78 51 11 3e
       0.07693984 0.03398389 0.05653344 0.14191234
000170 95 ec 33 bd 6e a8 09 3d 40 db 85 bd 7c d0 92 3c
       -0.043926794 0.033607893 -0.06535959 0.017921679
000180 cd 05 e0 3e 68 e6 44 3c f3 4e d2 3d 86 1c 14 3f
       0.43754426 0.012017824 0.102689646 0.57856023
000190 de b5 4e 3d 1c 28 a0 be 06 75 a4 3d 5d 1a e5 be
       0.05046641 -0.312806 0.08030133 -0.44746676
0001a0 e3 3f 66 be 43 fc e4 bd e1 7f 71 bd 20 3d 51 3d
       -0.22485308 -0.111809276 -0.058959845 0.051083684
0001b0 7a 7e 90 bc 98 9e 65 bd 8f 14 f5 bd d7 aa 6c bd
       -0.017638434 -0.05605945 -0.11966812 -0.057780113
0001c0 82 c7 d6 3d 80 c0 cb bd e2 54 ee 3d 58 fb c9 bd
       0.10487272 -0.09948826 0.11637284 -0.09862393
0001d0 39 dc 56 be 55 19 a4 3d 4c 6b c4 bd 33 6e 76 bd
       -0.20982446 0.08012644 -0.09590778 -0.060163688
0001e0 35 7a 8c 3d d5 ba d8 bd ef ac b3 3c 7f 9f 01 be
       0.06859247 -0.105825104 0.021933047 -0.12658499
0001f0 98 26 af 3c 9d 53 d0 bd 3d cc f2 39 9b 38 3b 3d
       0.021380708 -0.10172198 0.00046310006 0.04570828
000200 77 dd c5 3d db a0 33 3d e6 3e 1c bf 7b 43 3c be
       0.09661382 0.043854576 -0.61033475 -0.18385117
000210 b7 2a a7 bd b2 45 eb be a8 8f 7f 3d 1e 10 6d 3e
       -0.08162444 -0.4595161 0.06239286 0.2315068
000220 ac 9b 93 bd a0 9f f6 3e 6c 8b a7 3d 4a e7 a2 bd
       -0.072074264 0.4816866 0.081808895 -0.07954271
000230 22 58 75 3d 09 5d 91 bd 48 21 43 bd 76 dc df bd
       0.059898503 -0.07097823 -0.04763916 -0.109307215
000240 47 44 b1 3d 33 ce 1c be 12 19 25 3e f0 5b fa bd
       0.08655601 -0.15313034 0.16122845 -0.12224567
000250 24 ff 67 bc e3 7e f2 bc 5b 4e 92 bc be a2 80 3d
       -0.014159951 -0.02960152 -0.017859628 0.062810406
000260 0e b9 be bd 38 28 8e 3d 06 0f 1a bd 2b 12 e2 bc
       -0.0931264 0.06941265 -0.037611984 -0.027596554
000270 16 53 b0 3d 46 7c bb bd a5 67 77 bd 6a 22 ce bc
       0.086095974 -0.09154563 -0.060401578 -0.025162894
000280 f0 0f 9c 3d bd 2e 0d be 4b df 40 3d d2 09 26 bd
       0.07620227 -0.1378736 0.04708795 -0.04053671
000290 0a 96 96 3e 00 bf 1d 3e 81 ce 1d 3e ca 16 80 3e
       0.29411346 0.15404892 0.15410806 0.25017387
0002a0 06 af 04 3c 87 50 6b be 53 46 de bc 10 91 a8 be
       0.008098369 -0.22979937 -0.027133143 -0.32923174
0002b0 b2 04 94 bd c5 0c 15 3e aa f1 07 be dc 48 73 3d
       -0.07227458 0.14555652 -0.13275781 0.059395656
0002c0 18 d1 c7 3d 0a 31 0e bd 6b 27 d9 bd c7 71 fb bd
       0.09756678 -0.034714736 -0.106032215 -0.12277561
0002d0 44 89 c7 3d 0b 44 17 3e a2 7a 68 bd d8 8a e5 bc
       0.09742978 0.1477205 -0.056757577 -0.028020307
0002e0 e7 0f 38 3c 31 e9 e7 3c f4 26 b4 bd e1 5f 9a bb
       0.01123426 0.028309437 -0.08796492 -0.0047111367
0002f0 e4 9f b7 3d f0 04 f0 3a e5 80 0f bd 2d 59 d1 3c
       0.089660436 0.0018312018 -0.035035033 0.025555218
000300 06 18 f9 3d fd fa 89 bb ba c5 61 be ac 7f 3f bd
       0.12162785 -0.0042108283 -0.22048083 -0.046752617
000310 a2 58 31 be 53 2b 09 3e 14 0a 25 bf 1e c1 a5 bd
       -0.17318967 0.13395433 -0.64468503 -0.08093475
000320 f7 dc 08 3e 4e af 96 be 6a ff d5 bd 12 7f a0 3e
       0.13365541 -0.29430622 -0.10449107 0.31346947
000330 d0 d1 58 bc 8b 3c dc be 94 be 3a 3d 38 c2 c2 3c
       -0.013233617 -0.4301494 0.045591906 0.023774251
000340 75 82 8a 3d 3e 96 05 be 98 3c 84 3d ea 99 73 bd
       0.06763164 -0.13045594 0.0645687 -0.059472956
000350 e6 6f b8 3d ec e7 1f 3e 40 96 19 3c b6 cf ca bd
       0.09005718 0.15615815 0.009374201 -0.09902899
000360 4d a2 5c bd dc 77 1a be 3a b0 18 be be e1 5c bb
       -0.05386572 -0.15084785 -0.14910975 -0.0033703889
000370 bb 83 ac 3d 49 3b 52 bd 36 0b e2 3d 42 83 65 bd
       0.08423563 -0.05132607 0.110372946 -0.05603338
000380 06 3f 14 3e d2 65 9d bd 79 b1 f2 bd f1 f7 91 3d
       0.14477167 -0.07685436 -0.118502565 0.07127369
000390 34 55 b5 3d 3f f7 2f 3e b7 d1 79 bd ca db 55 3e
       0.08854142 0.1718416 -0.060991015 0.20884624
0003a0 a8 53 f4 be d3 cf cb 3d 76 b1 32 be ba 83 94 be
       -0.47720075 0.09951749 -0.17450508 -0.2900675
0003b0 14 f1 a5 bd 1b 85 01 3e f4 4d 7a 3b 4d c3 bc 3e
       -0.08102623 0.12648432 0.0038193436 0.36867753
0003c0 5b b7 44 3d 7c 5c 95 bc fc 9b 05 3d 5c b2 7a 3d
       0.048026424 -0.018232577 0.03261946 0.061205253
0003d0 3a e3 8e bd c9 99 b5 3d 9e 9b 22 be 38 bc 0c 3e
       -0.06976934 0.08867223 -0.15879676 0.13743675
0003e0 d8 9d 93 3d b2 5d b4 39 67 c0 39 3d 89 34 dc 3c
       0.07207841 0.00034402084 0.045349505 0.02688052
0003f0 d1 5e 21 bc a5 52 ac 3d bb c6 2f 3e 63 e6 71 bd
       -0.009849266 0.08414201 0.17165653 -0.059057605

model.bigrill.fwd_rnn.spatial_decoder.lin_in.bias f4 [32]
000000 4b 0a 8a bd 7e ae 80 bd fb 39 7a 3d 7a 8a 63 3d
       -0.067402445 -0.06283282 0.06109045 0.055551983
000010 0f 56 40 bd bf c9 3f 3e 08 5d 0c 3d 96 e0 ec 3d
       -0.046957072 0.18729304 0.03426841 0.11566274
000020 d2 26 15 be 4d b4 93 bd b5 e4 59 bd 22 cb 3e be
       -0.1456559 -0.07212124 -0.053196628 -0.18632177
000030 43 0e 07 3e 45 9a f7 bc f5 82 aa bd f9 ee 68 be
       0.13189034 -0.030224929 -0.08325759 -0.22747411
000040 8c 0b 06 bd fa a0 ec bd ab 79 85 bc 2b 94 5d 3d
       -0.032725856 -0.11554141 -0.016293367 0.054096382
000050 62 17 82 be ff 5c 58 3e ae aa 3a be 94 96 75 bd
       -0.25408465 0.21129225 -0.18229172 -0.059958056
000060 6a 53 f7 3d 07 3a be 3d 30 5c ef 3c 39 3f 4b 3c
       0.12076457 0.092884116 0.029218763 0.01240521
000070 35 f1 bf bd be 75 76 3e 8c 78 e5 bd 60 7f 08 3e
       -0.093721785 0.24068353 -0.11204633 0.1332984

model.bigrill.fwd_rnn.spatial_decoder.graph_conv.mlp.weight f4 [32, 64, 1, 1]
000000 2d 01 6c 3d 16 52 a8 bd ff 0e a4 bd cd b7 76 3c
       0.05761831 -0.08218782 -0.08010673 0.01505847
000010 af 1d 99 bc 63 46 06 be 8b dc 86 3d f9 e9 e8 bc
       -0.018690912 -0.13112788 0.06585034 -0.02843188
000020 16 70 ae bd 4f 6a 7d bd 2a c6 d5 3d ee a5 12 3d
       -0.085174724 -0.061868962 0.104381874 0.035802774
000030 0b 8d 09 3d 4a c5 dc bd e3 b3 db bd 71 ed 5c bd
       0.033581775 -0.107798174 -0.1072767 -0.05393738
000040 ce 23 a3 bd a7 7f 0a bd 7e 3f a8 3d b1 a5 01 3e
       -0.079658136 -0.033813145 0.08215235 0.12660863
000050 9a 2b d4 3d 4b 42 a9 bd c3 2a 84 be 4b d5 7a 3b
       0.10359879 -0.082645975 -0.25813875 0.0038274105
000060 50 e6 e5 bd d3 84 7b 3d 0d 90 64 3d f0 85 fd bd
       -0.11225569 0.061405968 0.05580144 -0.12379062
000070 9b 27 b4 3d cc 7e 34 3d 89 8c 36 bd d6 82 be 3d
       0.08796617 0.044066235 -0.04456762 0.09302299
000080 e0 d0 03 3d b8 42 1f be 36 80 f9 3d b3 96 e3 3d
       0.03218162 -0.15552795 0.121826574 0.11112728
000090 2b cd cf 3d 6e 22 08 be ac 05 e9 bc 14 f9 02 3e
       0.101465546 -0.13294384 -0.028445087 0.12790328
0000a0 76 8d d7 3d 13 97 c5 3c d6 70 d4 3d 63 f1 93 bd
       0.105250284 0.02411989 0.10373084 -0.07223775
0000b0 eb 35 bc 3d 95 12 ae bd f0 84 5d 3d 41 fd db bd
       0.091899715 -0.08499638 0.054081857 -0.10741664
0000c0 b1 7f 79 3d 00 e9 90 3c 15 4d 0c be fd ba f7 3c
       0.06091279 0.017689228 -0.1370128 0.03024053
0000d0 34 b9 b9 3d 05 30 82 3d 05 d3 b4 bc b5 85 03 be
       0.09068528 0.06356815 -0.022073278 -0.12843974
0000e0 e5 75 80 3d 3b e4 08 be fd 47 46 3d 39 69 b8 bd
       0.062724866 -0.13368313 0.048408497 -0.09004445
0000f0 59 e2 f8 3d 18 8a e9 bd 29 3f 9d 3d ec 58 ae 3d
       0.121525474 -0.114032924 0.076780625 0.08513054
000100 b2 e9 57 bd ac 70 f8 3b a9 7f ac bd 4a 49 13 bd
       -0.052713104 0.007581791 -0.08422787 -0.035958566
000110 f6 96 b7 3d 57 e5 61 3e d2 92 1d 3d 0e 36 f8 bd
       0.089643404 0.22060142 0.038470097 -0.12119685
000120 83 e8 54 bd 25 c8 eb bd 93 80 85 3d c6 2b f6 bd
       -0.051979553 -0.11512784 0.06518664 -0.12020068
000130 47 50 a8 bd 66 2a 09 be 8b 01 11 bc f3 3b ef bb
       -0.08218437 -0.1339508 -0.0088504655 -0.0073008477
000140 f0 1c c9 3d ed 90 f6 3c 01 d2 dd 3d e7 34 0f 3e
       0.098199725 0.030098403 0.10831071 0.13985024
000150 d3 a0 17 ba a1 da 9a bc 39 04 b7 bd da 88 df 3d
       -0.00057841575 -0.018903079 -0.08936352 0.10914774
000160 9c 2c fc bd 78 cd d1 3d 96 4c 01 be e5 cc 7f bd
       -0.12313196 0.10244268 -0.12626871 -0.062451262
000170 50 e8 bd bd 39 3f 67 3d ea e4 10 be 65 c2 5b 3e
       -0.09272826 0.05645678 -0.14149824 0.21460874
000180 3c 80 44 be fa 0c 9d be ea ba 11 be 3d 7c 26 3e
       -0.19189543 -0.30673963 -0.14231458 0.1625833
000190 5c 0d e8 bd f7 49 4c 3e a7 77 8f 3e 21 13 0f be
       -0.11330673 0.1995009 0.28020975 -0.13972141
0001a0 d4 f6 a0 be a6 11 6e be 94 86 c1 bd 74 0b d8 bc
       -0.31438315 -0.2324892 -0.09449497 -0.026372649
0001b0 b4 ca 0c 3e 2c ec 51 be bd e8 e6 bd ae ac ff bd
       0.137492 -0.20500249 -0.1127486 -0.12484108
0001c0 7e 7b 76 bc a8 0d 66 bc 14 84 b0 bc 84 cf 17 3e
       -0.015044091 -0.014041342 -0.021547355 0.14825255
0001d0 83 d8 a6 bd 8a 1d a0 bb f7 e3 51 bd 68 16 21 3c
       -0.08146765 -0.004886334 -0.051242795 0.009832002
0001e0 aa 76 27 be 1c e3 98 3e 11 a7 79 be aa 94 5d 3c
       -0.1635386 0.2986077 -0.24380137 0.013524214
0001f0 31 1b 74 3c 6f 71 1d bd 4a bc 70 be 2b 68 ad 3e
       0.014899061 -0.038438257 -0.23509327 0.33868536
000200 b9 8d 89 bd 77 f7 ab bd f5 f3 03 3e 1b e2 a2 3d
       -0.067164846 -0.083968095 0.12886031 0.079532824
000210 c0 48 28 3d 10 54 37 3d 8a f7 fc bc 77 33 3b bd
       0.041085005 0.044757903 -0.030879755 -0.045703378
000220 c9 b2 95 3c 73 2b 03 be 39 fc ec 3d 01 f5 00 3d
       0.018273728 -0.12809543 0.11571545 0.031483654
000230 3e b4 d0 3d 70 07 4d bd c3 1d a9 3c 30 4a 99 bc
       0.101906285 -0.05005592 0.020644074 -0.018712133
000240 5b 83 01 be 46 5f 08 bc f4 a6 ea bc 71 55 a1 3e
       -0.12647764 -0.008323496 -0.028644063 0.315105
000250 c6 84 f4 bd 7d 1c c9 ba 34 b9 55 bc 6b ff 62 bd
       -0.11939387 -0.0015343573 -0.013044644 -0.055419367
000260 d7 a1 3f be 9f d9 1b 3e 8b f2 b3 bd a1 dc 36 bd
       -0.18714081 0.15219735 -0.08786496 -0.044644002
000270 49 9d 41 bd ed b6 90 bd 43 09 52 bd c5 f0 a2 3e
       -0.04726914 -0.0706614 -0.051278364 0.31824318
000280 a1 5f 3d be cc 9b 24 be 04 5c e6 bd e3 a1 bb 3c
       -0.18493511 -0.16075057 -0.11248019 0.022904342
000290 7f 54 f7 bd 3e 1b 88 3e 28 8e 44 3e 54 fb 56 bd
       -0.12076663 0.26583284 0.19194853 -0.05248578
0002a0 23 bc 28 be 5e 87 54 be 98 15 80 bd 46 04 d3 3d
       -0.16478018 -0.20754763 -0.06254119 0.103035495
0002b0 2a 10 05 bd 49 1e cb bd c1 9b c1 bd 10 b8 17 be
       -0.03248612 -0.09917886 -0.09453536 -0.14816308
0002c0 db 7d 64 3d f9 4f b5 bc 09 88 67 3d 9b 5a 61 3e
       0.055784088 -0.02213286 0.056526218 0.2200722
0002d0 43 a3 ee bd c7 10 36 3d b5 d1 64 bd 2d c2 dc 3c
       -0.116522335 0.044449594 -0.055864055 0.026948059
0002e0 1d 62 4c be 21 c0 a2 3d 56 03 61 be b8 cc 32 be
       -0.19959302 0.07946802 -0.21973929 -0.17460907
0002f0 36 44 1d be 1a 14 6f 3d 0a 46 4d be ea a1 24 3e
       -0.15358052 0.05836878 -0.20046249 0.1607739
000300 86 2a d0 bd da 81 0d be 9c 1f 20 bd d7 ee 1c 3c
       -0.10164361 -0.13819066 -0.039092645 0.009578428
000310 50 5a fd bc 42 fe b1 bc 9c 7f c7 bd 0b ce 0d 3e
       -0.030926853 -0.021727685 -0.097411364 0.1384813
000320 15 53 95 3c c2 a8 8e 3d cb 6f b2 3c ed 54 8d bd
       0.018228093 0.06965782 0.021781823 -0.06900964
000330 8a 7c b6 bb 5c 93 61 3c 8c c5 08 3e 6f d0 cb bc
       -0.0055690454 0.013768043 0.13356608 -0.024879662
000340 33 13 77 3b de 87 24 3d f0 0a 94 3c 40 30 32 3e
       0.0037700653 0.040168636 0.018071622 0.17401218
000350 f1 31 d4 bd c4 84 0e 3d e2 41 a8 bd b8 db 90 bd
       -0.10361088 0.034794584 -0.08215691 -0.07073158
000360 15 4a 84 bd d7 18 9b 3d 99 c7 a2 bc 6d e5 c0 3d
       -0.064594425 0.07573097 -0.019870566 0.094187595
000370 59 61 01 3e d1 1b 09 3d 9b 44 d4 bd b4 52 f7 3c
       0.12634791 0.033473793 -0.10364648 0.030190803
000380 64 a8 c8 3d 30 53 74 bc 2a ab a4 3c cc d2 10 3d
       0.09797743 -0.014912412 0.020101149 0.03535728
000390 3b 47 1d 3e 85 7d cc bd 7f 46 1e 3d 11 3c 75 3d
       0.15359204 -0.099848785 0.03864145 0.059871737
0003a0 f2 a8 33 bd 01 87 90 3d 2e 50 a4 3d 87 10 4d 3d
       -0.04386229 0.07057 0.080231056 0.05006459
0003b0 83 aa 90 3d 17 76 e3 3d a9 13 d4 3d 9a 1a 75 bd
       0.070637725 0.11106508 0.103553124 -0.059839822
0003c0 11 bb 92 bd 05 40 df bd 6c 22 09 3d 6a d0 a1 3d
       -0.07164586 -0.10900883 0.033480093 0.0790108
0003d0 c9 3f a9 bd 00 74 e6 3d c0 08 bc bd 32 2b 52 bd
       -0.08264119 0.11252594 -0.091813564 -0.051310726
0003e0 0e 94 ce bc 75 33 75 3d 8a c5 b4 bc bb 92 e6 bd
       -0.025217082 0.059863526 -0.02206685 -0.11258455
0003f0 b7 4d 7a 3d 4d 2b b8 bc fb cf a3 bd 43 22 e9 3d
       0.06110927 -0.022481585 -0.079986535 0.11383488

model.bigrill.fwd_rnn.spatial_decoder.graph_conv.mlp.bias f4 [32]
000000 c7 68 7e bd bd b9 24 3e 10 12 f4 3c fe cf ee 3d
       -0.062111642 0.16086479 0.02979377 0.11660765
000010 7d 44 dc 3d b4 3f 74 be b7 b2 07 3e e8 d2 e6 3d
       0.107552506 -0.23852426 0.13251768 0.11270696
000020 f3 68 4d be c0 5e ad 3e 80 83 50 3d 3e 3b 76 be
       -0.20059566 0.3386135 0.05090666 -0.24046037
000030 db b8 a3 bb 50 61 7d bd 11 e1 79 bd 5b d4 88 be
       -0.0049964017 -0.061860383 -0.061005656 -0.26724514
000040 40 ce d4 3d c6 5a 4d 3e 70 b7 76 3e c4 7a 7f 3e
       0.103909016 0.20054159 0.24093413 0.24949175
000050 90 a7 f0 3c 39 fe 23 be 09 7e da bd bc e5 5b be
       0.029376775 -0.16014947 -0.106685705 -0.21474355
000060 6c 1c 52 bd f1 86 3a be 05 32 d4 3d 81 f1 8c 3e
       -0.051296636 -0.18215539 0.10361103 0.27528003
000070 a9 c6 49 3e 5b d1 45 bd a5 e7 33 3e 67 cd 87 bd
       0.19704689 -0.04829536 0.17568834 -0.06630974
