logs/discharge_point/grin/2023-11-16_13-50-25_911524991/epoch=49-step=4350.ckpt (torch, 708068 bytes, 102 tensors)

model.bigrill.emb f4 [8, 20]
0	0x3e02bb6b	0.12766807
1	0x3f02db7e	0.5111617
2	0x3e7ccab6	0.24686703
3	0x3eb34b77	0.35018513
4	0xbe469fbe	-0.19396874
5	0xbebc976f	-0.36834285
6	0x3d57e2c0	0.05270648
7	0xbf8cd1a2	-1.1001475
8	0xbd9f565d	-0.07780144
9	0x3f2be907	0.67152447
10	0xbf304ccb	-0.68867177
11	0xbe95e6eb	-0.2927774
12	0x3e5dd4c5	0.21663196
13	0xbde6232a	-0.11237176
14	0xbc1d1a9e	-0.009588866
15	0x3ede3b85	0.43404785
16	0xbdc7b1f3	-0.09750738
17	0x3dcf9033	0.10134926
18	0xbf5a474d	-0.85265046
19	0xbd6cbcb9	-0.057797167
20	0xbec1c819	-0.37847975
21	0xbe9207e2	-0.2852164
22	0xbd5fa33b	-0.054599028
23	0xbef8776a	-0.48528606
24	0xbe82e1be	-0.25562853
25	0xbe9c34e8	-0.30509114
26	0xbf552e5c	-0.83273864
27	0x3e53aa1f	0.20670365
28	0x3e28fc92	0.16502598
29	0xbe1a8bf3	-0.15092449
30	0xbea32bf6	-0.31869477
31	0x3e0a8e6e	0.13530895
32	0x3e95bb06	0.2924425
33	0xbee5dd61	-0.4489546
34	0xbe83d621	-0.25749305
35	0xbe1036b5	-0.14083369
36	0x3e894db0	0.26817083
37	0x3e13196d	0.14365168
38	0xbeb647e4	-0.35601723
39	0x3cfb5684	0.030680902
40	0x3f03fb53	0.51555365
41	0xbf01ef16	-0.5075544
42	0x3d202a61	0.039102916
43	0xbeb2ed87	-0.34946844
44	0xbd4f9af6	-0.05068489
45	0x3f99a16c	1.2002387
46	0x3e14990d	0.14511509
47	0x3ed04813	0.40679988
48	0xbf0d9cc2	-0.5531732
49	0xbdaa8713	-0.083265446
50	0x3eb6bae2	0.35689455
51	0x3e337e52	0.17528656
52	0xba9aaad4	-0.0011800178
53	0x3ce422f8	0.027848706
54	0xbf09b365	-0.5378936
55	0xbd93281d	-0.071853854
56	0x3eb4aa46	0.35286158
57	0xba35e27a	-0.00069383497
58	0x3edf00a4	0.43555176
59	0x3eb62a88	0.35579324
60	0xbe698663	-0.2280517
61	0xbe04763f	-0.12935732
62	0xbe42e570	-0.19032836
63	0x3ec7347d	0.38907233
64	0xbef675d7	-0.4813678
65	0x3e751ac0	0.23935986
66	0xbe8d8be6	-0.27645797
67	0x3d8c1fa4	0.068419725
68	0xbdb56799	-0.0885765
69	0xbeca1ea5	-0.39476505
70	0x3d766e0e	0.06016355
71	0x3ec6dd7a	0.38840848
72	0x3c614af3	0.013750779
73	0xbf1ae88e	-0.605111
74	0xbef0600b	-0.46948275
75	0xbf10babb	-0.5653493
76	0xbeb7c82e	-0.35894912
77	0x3d8af829	0.06785614
78	0xbcf8a03c	-0.030349843
79	0x3e482694	0.19545966
80	0xbd05e049	-0.032684598
81	0xbf430c73	-0.7619087
82	0xbe9ffcb0	-0.31247473
83	0xbf289314	-0.65849423
84	0xbf2eba8f	-0.68253416
85	0xbf2898db	-0.6585824
86	0x3eb3568e	0.35026973
87	0x3ed37f1d	0.41307917
88	0xbef6e8e8	-0.48224568
89	0xbf13a270	-0.57669735
90	0x3df8f26e	0.12155615
91	0xbe640aff	-0.2226982
92	0xbe848114	-0.2587973
93	0xbe34d1ea	-0.17658201
94	0xbeb8a125	-0.36060444
95	0xbed3bf0d	-0.41356698
96	0xbe25a77a	-0.16177168
97	0x3ef35078	0.4752233
98	0x3ebfba1c	0.37446678
99	0xbc6364a8	-0.013878979
100	0x3c039383	0.008030775
101	0xbf4de050	-0.804204
102	0x3eca15e0	0.39469814
103	0xbdbfb39e	-0.09360431
104	0xbe74edad	-0.23918791
105	0x3e8aab03	0.27083597
106	0x3eca126d	0.39467183
107	0x3e1d3caa	0.15355173
108	0x3e5e62b2	0.21717337
109	0xbeb30606	-0.34965533
110	0x3e9cce8f	0.30626342
111	0x3f771854	0.96521497
112	0x3d2727b8	0.040809363
113	0xbe896719	-0.2683647
114	0xbe8671e0	-0.26258755
115	0xbf095331	-0.53642565
116	0x3ef5a2a6	0.47975653
117	0x3e9e6161	0.3093367
118	0xbe2e21e7	-0.1700512
119	0xbc85af5c	-0.01631897
120	0xbe2d3aeb	-0.16917007
121	0xbee6f14c	-0.4510597
122	0xbe01b495	-0.12666543
123	0x3da1fbc5	0.07909349
124	0xbec3eb0a	-0.38265258
125	0xbe4c3f3f	-0.19946001
126	0x3f46d12c	0.7766292
127	0x3f71f664	0.9451659
128	0xbeca2bea	-0.3948663
129	0x3f161e79	0.5864025
130	0xbe6fdd02	-0.23424152
131	0x3e4db12e	0.2008712
132	0xbf2710e5	-0.65260154
133	0x3ddcfa29	0.10789902
134	0xbdd3b83d	-0.10337875
135	0xbdd4f4e0	-0.10398269
136	0x3df11ca4	0.11773041
137	0x3eb310e6	0.3497383
138	0x3f1a6004	0.6030276
139	0xbb92a123	-0.0044747754
140	0xbe92084b	-0.28521952
141	0x3f8d2e47	1.1029748
142	0x3edaab3d	0.4270877
143	0x3d613ed6	0.054991566
144	0x3d593110	0.053025305
145	0xbec515f3	-0.38493308
146	0x3e891c5e	0.26779455
147	0xbedb993f	-0.42890355
148	0x3f4ec60a	0.80770934
149	0x3d86b46f	0.06577384
150	0xbdf678bd	-0.12034748
151	0xbf1a43c0	-0.6025963
152	0x3d205fd6	0.039153896
153	0x3e930b52	0.28719574
154	0x3f606b16	0.876634
155	0x3f7b65c4	0.9820216
156	0xbe232704	-0.15932852
157	0xbe1608b5	-0.14651759
158	0x3e9d919d	0.30775157
159	0xbd772e93	-0.06034715

model.bigrill.fwd_rnn.cells.0.forget_gate.mlp.weight f4 [32, 170, 1, 1]
0	0x3af2675f	0.0018493942
1	0x3d01f9da	0.031732418
2	0xbd2769e9	-0.04087249
3	0x3ea124cc	0.31473386
4	0xbdde3bc1	-0.10851241
5	0x3c6bb496	0.014386317
6	0x3e5ac03a	0.21362391
7	0x3cd3169b	0.025767615
8	0x3e4b2ef0	0.19842124
9	0x3c1c7c77	0.009551159
10	0x3d9eeacd	0.077596284
11	0x3e1e100b	0.15435807
12	0x3e082607	0.13295756
13	0xbe34d1e5	-0.17658193
14	0x3cfa567f	0.030558823
15	0x3dd97d82	0.10619642
16	0x3d1b788d	0.037956763
17	0xbe25c338	-0.16187751
18	0xbddf408e	-0.10900985
19	0xbe33eb6d	-0.17570277
20	0x3d6225e0	0.0552119
21	0xbccc7f98	-0.024963185
22	0x3e1c185e	0.1524367
23	0xbdb6da61	-0.08928371
24	0x3e6c330b	0.23066346
25	0x3e759e76	0.2398623
26	0x3ded241a	0.115791515
27	0x3d99ca4e	0.0750929
28	0x3dab1085	0.0835276
29	0xbd3d4f4d	-0.046218205
30	0xbd9bd87a	-0.07609649
31	0xbe5a5a2b	-0.21323459
32	0xbe364f7c	-0.17803758
33	0x3e2bdee0	0.16784239
34	0x3d6ec357	0.05829176
35	0xbdd2856d	-0.10279355
36	0x3df7ced6	0.12099998
37	0x3e6d57e8	0.23178065
38	0xbd83c401	-0.06433869
39	0x3d3b3e01	0.04571343
40	0xbd2a0278	-0.04150626
41	0xbdb401ca	-0.08789404
42	0x3e26b604	0.16280371
43	0x3e0d2552	0.13783768
44	0xbdfc79ca	-0.12327917
45	0xbcb1709c	-0.021660142
46	0x3d2f18c5	0.04274823
47	0xbc2402b8	-0.010010414
48	0x3dcd98aa	0.10038884
49	0x3daebccb	0.08532103
50	0x3e56d779	0.20980634
51	0xbdd30960	-0.103045225
52	0x3d087bf7	0.033321347
53	0xbe1b1db4	-0.1514805
54	0x3d0e4b0d	0.034739543
55	0x3e0b5407	0.13606273
56	0x3e09371a	0.13399926
57	0xbe1bea12	-0.1522601
58	0x3e4e53be	0.20149133
59	0x3e09c2d5	0.13453229
60	0x3e8422b3	0.25807723
61	0x3d66cd3a	0.056348063
62	0x3d24eda3	0.04026569
63	0xbe23858f	-0.15968917
64	0x3da6a7c6	0.08137469
65	0xbe22208b	-0.15832727
66	0xbded9dd9	-0.11602373
67	0x3ecf6b11	0.40511373
68	0x3dea3f82	0.114378944
69	0xbe41b53a	-0.18916789
70	0x3ebd68f4	0.36994135
71	0x3e8e93aa	0.27847034
72	0xbe5cdaef	-0.21567892
73	0x3b12e5f6	0.00224149
74	0x3dfb6637	0.12275355
75	0x3e0d8169	0.13818897
76	0x3c289408	0.0102892
77	0x3e66e427	0.2254797
78	0xbe3cbfe9	-0.18432583
79	0xbc8c3777	-0.017116291
80	0x3d4908c2	0.049080618
81	0xbda1aea7	-0.078946404
82	0x3dc8af12	0.09799017
83	0x3e711eb5	0.2354687
84	0x3d573686	0.052542232
85	0xbe4474bf	-0.1918516
86	0x3dc12976	0.09431736
87	0xbe2da57e	-0.16957662
88	0xbc22edf8	-0.0099444315
89	0xbd231bac	-0.03982131
90	0x3c589a76	0.01322042
91	0xbebee43d	-0.37283507
92	0x3e46a17d	0.1939754
93	0x3d7dd591	0.06197125
94	0x3d7b41d3	0.06134207
95	0x3ce3eccc	0.027822874
96	0x3d468b1a	0.0484725
97	0xbeba899a	-0.36433107
98	0xbe3985d6	-0.1811746
99	0xbccf78be	-0.025326129
100	0xbecfe6db	-0.40605816
101	0x3e8bf7d0	0.27337503
102	0x3c5c57cb	0.013448666
103	0x3e26e376	0.16297707
104	0x3c807a31	0.015683265
105	0x3e2a1cb7	0.16612516
106	0x3b6dbb5d	0.0036275007
107	0xbd5307ab	-0.051520985
108	0x3df63697	0.12022131
109	0x3d30f1a2	0.04319919
110	0x3cd725c1	0.02626312
111	0x3d58230e	0.052767806
112	0x3df2a235	0.11847345
113	0xbc339a71	-0.010962115
114	0x3e26963f	0.16268252
115	0xbe373b80	-0.17893791
116	0xbdf33f21	-0.11877275
117	0xbd78c3e7	-0.060733702
118	0x3d1e6a1d	0.038675416
119	0x3c5996d0	0.013280585
120	0x3c02673f	0.007959186
121	0xbcc04d67	-0.023474408
122	0x3ceca5b1	0.028887602
123	0x3c86a2ab	0.016434988
124	0xbde40950	-0.11134589
125	0xbd5a89d3	-0.053354096
126	0x3d7798af	0.060448345
127	0x3d900ad0	0.07033312
128	0xbcebd9fe	-0.02879047
129	0xbd46efb8	-0.048568457
130	0x3d912146	0.070864245
131	0xbde52aa4	-0.11189774
132	0xbe3f1d05	-0.18663414
133	0x3e4e26df	0.20132016
134	0xbdb709b3	-0.08937397
135	0xbe4146ae	-0.18874618
136	0xbe04a363	-0.12952952
137	0xbd213ebf	-0.03936648
138	0x3de11289	0.109898634
139	0x3e4aa1bc	0.1978826
140	0xbe0cfe80	-0.13768959
141	0xbe2df487	-0.16987811
142	0x3e287253	0.16449861
143	0x3d22ed97	0.039777365
144	0xbe081a67	-0.13291322
145	0x3c9673e5	0.01836581
146	0x3e5d643f	0.21620272
147	0xbc1b7944	-0.009489361
148	0x3e41e9c7	0.18936835
149	0xbe83402d	-0.256349
150	0xbd7f0a63	-0.062265765
151	0xbd854731	-0.06507719
152	0xbdebebef	-0.1151961
153	0xbcd8e5b6	-0.026476722
154	0xbdab9056	-0.08377139
155	0xbe0dc7ea	-0.13845792
156	0x3eacf150	0.33777857
157	0xbe81ff81	-0.25390247
158	0xbd27fcc1	-0.04101253
159	0xbe45b9c5	-0.19309147
160	0x3e3edde6	0.18639335
161	0x3dd59fb3	0.10430851
162	0xbdfb1f06	-0.122617766
163	0xbd108ad8	-0.03528866
164	0x3e0b4cef	0.13603567
165	0xbe4e3efc	-0.20141214
166	0x3cd54f02	0.02603865
167	0x3d952ab8	0.072835386
168	0xbe250114	-0.16113693
169	0x3cc519d2	0.024060164
170	0x3d7ca543	0.061681043
171	0xbd2d81fa	-0.042360283
172	0x3dc8cc61	0.09804607
173	0xbc5a9ebb	-0.013343508
174	0xbc3b9bbd	-0.011450705
175	0xbe06a2bc	-0.13148016
176	0x3e1f20c5	0.15539844
177	0x3e2b30dd	0.16717859
178	0x3d4c4f0c	0.049880072
179	0x3d29e0b7	0.04147407
180	0x3de3eb58	0.11128873
181	0x3d89d136	0.06729357
182	0xbbe158fb	-0.0068770624
183	0xbdecead8	-0.115682304
184	0xbe245c98	-0.16050947
185	0xbcce196e	-0.02515861
186	0xbe1fa8f4	-0.15591794
187	0x3d072d40	0.03300214
188	0xbd73c5ba	-0.05951474
189	0x3df094fa	0.11747165
190	0x3e1e7220	0.15473223
191	0xbd2fbb8f	-0.04290348
192	0x3db73272	0.089451686
193	0xbcb038b0	-0.021511406
194	0xbcdaa724	-0.026691027
195	0x3e1c36e2	0.15255311
196	0xbd6b3d2a	-0.057431377
197	0xbe55af39	-0.20867623
198	0xbd9543d3	-0.07288327
199	0xbe22ea4f	-0.15909694
200	0xbc1f5ce4	-0.009726737
201	0x3cf56d6e	0.029959407
202	0x3d51e19c	0.05124055
203	0xbdb0dbb5	-0.08635656
204	0xbc236bc8	-0.0099744275
205	0xbdaab0a5	-0.083344735
206	0xbd48f6f6	-0.049063645
207	0x3de9aa46	0.1140943
208	0x3ca7ad84	0.02046848
209	0xbd278ea5	-0.04090752
210	0x3e3bc55f	0.1833701
211	0x3c3f0f6f	0.0116613945
212	0x3e1d01c5	0.15332706
213	0x3d886f05	0.066618
214	0xbc85cde8	-0.016333535
215	0x3db203df	0.086921446
216	0xbde7bf44	-0.11315778
217	0x3d2146b5	0.039374072
218	0x3dd2fc20	0.10301995
219	0xbd89406e	-0.06701742
220	0x3d6b76be	0.05748629
221	0xbe32352f	-0.174031
222	0xbd0def0e	-0.03465181
223	0xbd840494	-0.06446186
224	0xbd6a6752	-0.05722744
225	0xbb8633b0	-0.004095517
226	0x3e2dea1a	0.16983834
227	0x3ddb429d	0.10706065
228	0xbb403528	-0.0029328559
229	0x3dc65563	0.09684255
230	0x3cdd9b32	0.027051542
231	0x3d7c7f07	0.06164458
232	0xbd976f8d	-0.073943235
233	0xbdc87af4	-0.097890764
234	0xbd43b08f	-0.0477758
235	0xbc06351a	-0.008191371
236	0x3c0da809	0.00864602
237	0xbd32ff15	-0.043700296
238	0x3e0b125a	0.1358122
239	0xbcaf2d8d	-0.021384025
240	0x3de7ce85	0.11318687
241	0x3e531c59	0.20616283
242	0xbdfcc409	-0.12342078
243	0xbdab1a50	-0.08354628
244	0x3eb8a02c	0.360597
245	0x3c801d78	0.015639052
246	0x3e20cd9a	0.15703431
247	0x3e3694fe	0.17830274
248	0xbcf228a3	-0.029560393
249	0x3e4dd109	0.20099272
250	0x3dba46f1	0.09095562
251	0xbd6fa56a	-0.05850736
252	0x3e8982af	0.26857516
253	0x3cbd158d	0.023081565
254	0x3e667d47	0.22508727
255	0xbe472ce7	-0.19450723

model.bigrill.fwd_rnn.cells.0.forget_gate.mlp.bias f4 [32]
0	0x3c80c4c9	0.015718834
1	0x3dd5715e	0.10422014
2	0x3da59922	0.080858484
3	0x3d8fb1a3	0.070163034
4	0x3dc34b03	0.09535792
5	0xbd39172a	-0.045188107
6	0xbe19165d	-0.14949937
7	0xbdd95ca7	-0.10613375
8	0x3d9e5c9c	0.077325076
9	0x3e544a50	0.20731473
10	0x3d57ac79	0.052654717
11	0xbe07169f	-0.13192223
12	0x3df008d4	0.11720434
13	0xbdb7c69f	-0.08973431
14	0x3e28896f	0.16458677
15	0x3c50ede6	0.012752032
16	0x3d8aa1f1	0.06769169
17	0x3cb9930b	0.022653123
18	0x3bc99c6d	0.0061526806
19	0xbcf38704	-0.029727466
20	0xbc41b2eb	-0.0118224425
21	0xbd9156da	-0.07096644
22	0xbcff0a73	-0.031132912
23	0xbd7ab1d9	-0.061204765
24	0xbd957300	-0.07297325
25	0x3c9b135c	0.01893013
26	0xbcb1bd84	-0.021696813
27	0x3d8bd64f	0.068279855
28	0xbe06661f	-0.13124894
29	0x3d4e49d6	0.050363384
30	0xbd9fd336	-0.07803957
31	0xbe01c33d	-0.12672134

model.bigrill.fwd_rnn.cells.0.update_gate.mlp.weight f4 [32, 170, 1, 1]
0	0xbdbe4fe7	-0.09292584
1	0x3dc0bd7b	0.094111405
2	0x3bf648f4	0.007516021
3	0xbd9cc07e	-0.076539025
4	0xbd9114f4	-0.070840746
5	0x3d012a99	0.031534765
6	0xbd993387	-0.07480531
7	0xbe1e1604	-0.15438086
8	0xbdab68f0	-0.083696246
9	0xbe3323c4	-0.17494112
10	0x3ce0d3cc	0.027444743
11	0xbccc9385	-0.024972687
12	0x3ba82e2f	0.0051324586
13	0x3e893f4e	0.2680611
14	0x3dfc67c9	0.12324483
15	0xbeda7438	-0.42666793
16	0xbdf798d1	-0.12089694
17	0x3e421796	0.1895431
18	0xbd33fa68	-0.043939978
19	0x3e295cde	0.16539332
20	0xbc8da1f1	-0.017289134
21	0x3d5b5041	0.053543333
22	0xbdb0ed86	-0.08639054
23	0x3e3ab2fc	0.1823234
24	0xbd9dfb0b	-0.07713898
25	0xbc5fa250	-0.013649538
26	0xbde7627c	-0.11298081
27	0x3c99d64b	0.01877894
28	0xbe79a037	-0.24377523
29	0x3e45185b	0.19247572
30	0x3e816ff5	0.2528073
31	0x3cd5a7e2	0.02608103
32	0x3da77d17	0.08178156
33	0xbea6cb0b	-0.32576784
34	0xbc27c5d8	-0.010240041
35	0x3e116fe3	0.14202838
36	0xbdab56ff	-0.083662026
37	0x3d3eacd2	0.046551533
38	0x3e83b843	0.25726518
39	0xbdf8f9cb	-0.12157019
40	0x3c3f60a2	0.011680754
41	0xbdaa7ccb	-0.083245836
42	0x3e2002d9	0.15626086
43	0xbe4ebe23	-0.20189719
44	0x3d34c37c	0.04413174
45	0x3e42895f	0.18997715
46	0x3d4bb416	0.04973229
47	0xbd2b3e34	-0.04180737
48	0xbda58996	-0.08082883
49	0xbc1cc2cb	-0.009567927
50	0xbe0f1c21	-0.13975574
51	0x3e2ce970	0.16885924
52	0xbe12af1c	-0.14324611
53	0xbd883138	-0.06650013
54	0xbd14a329	-0.036288414
55	0x3c0e903c	0.00870138
56	0xbc25e91c	-0.010126378
57	0x3e5156dd	0.20443292
58	0xbe42336f	-0.18964933
59	0x3cf2154a	0.029551167
60	0xbd88098f	-0.06642448
61	0x3d82cc0e	0.063865766
62	0x3bca69e0	0.006177172
63	0x3e2fc6c5	0.17165668
64	0x3e7cd050	0.2468884
65	0xbce15dfd	-0.027510637
66	0x3d7b3191	0.061326567
67	0xbe1014fd	-0.14070506
68	0xbd7a812d	-0.061158348
69	0x3da7c1b1	0.081912406
70	0xbdeb05c5	-0.1147571
71	0x3da00e76	0.07815258
72	0x3e5180bd	0.20459266
73	0xbe65a964	-0.22427899
74	0x3e56fd13	0.20994978
75	0x3bbd2294	0.0057719443
76	0x3d9f5cda	0.07781382
77	0xbe106596	-0.14101252
78	0x3c9bca69	0.019017415
79	0x3e825d61	0.25461867
80	0xbd0eb8ad	-0.03484409
81	0xbc5b3376	-0.013378968
82	0xbcfba6b3	-0.030719137
83	0xbe16b456	-0.1471723
84	0xbd3a5340	-0.04548955
85	0x3dbbf084	0.09176734
86	0xbd09ccad	-0.03364246
87	0xbd6ba746	-0.05753257
88	0x3c54e8d6	0.012994966
89	0x3d943eea	0.072385624
90	0x3dd1e441	0.10248614
91	0x3d9db50b	0.07700547
92	0xbdb57364	-0.088599
93	0x3d9c272e	0.076246604
94	0x3e0bbe2e	0.13646767
95	0x3e522a53	0.20523958
96	0xbd43bf5c	-0.047789916
97	0x3e853db3	0.26023635
98	0x3e3ee86c	0.1864335
99	0xbd9d01e8	-0.07666379
100	0xbc546ef5	-0.012965907
101	0xbe1b739f	-0.15180825
102	0xbceeccf6	-0.029150467
103	0x3dd79397	0.105261974
104	0x3d167217	0.0367299
105	0xbe661dee	-0.22472355
106	0xbe31db9a	-0.17368928
107	0x3b819010	0.003953941
108	0x3d1cef22	0.038313992
109	0xbd690b4b	-0.056895535
110	0x3d375458	0.04475817
111	0xbde99349	-0.114050455
112	0xbd048c70	-0.032360494
113	0x3daf3fd8	0.08557099
114	0x3d2fc895	0.0429159
115	0x3d2e504c	0.042557046
116	0xbd4e3380	-0.050342083
117	0xbe3e4d30	-0.18584132
118	0xbdcf79f5	-0.10130683
119	0x3d5959d1	0.05306417
120	0xbc48106d	-0.012210947
121	0xbce20681	-0.027590992
122	0x3c848767	0.016177846
123	0x3db7dcdb	0.08977672
124	0xbcc68293	-0.024232185
125	0x3ccec773	0.02524159
126	0xbc96f04e	-0.018425133
127	0x3b2c763a	0.0026315586
128	0xbd8d6935	-0.06904832
129	0x3c38be7a	0.011275882
130	0xbd07757a	-0.03307102
131	0x3e2058ee	0.15658924
132	0x3e2aeba3	0.16691451
133	0xbd89c711	-0.06727422
134	0xbd7afa00	-0.061273575
135	0xbebe1d8b	-0.37131914
136	0xbc698231	-0.014252231
137	0xbd1f717a	-0.03892658
138	0x3e4fdc64	0.20298916
139	0xbe0484d6	-0.12941298
140	0xbe5d4394	-0.2160781
141	0xbdbd9aaf	-0.09258019
142	0x3e757efa	0.23974219
143	0xbd5f99e3	-0.054590117
144	0x3dc0c3ee	0.094123706
145	0x3d2552d7	0.040362205
146	0x3e059388	0.1304456
147	0x3eab3fcf	0.3344712
148	0x3e22def1	0.15905358
149	0x3d742afa	0.0596113
150	0xbe89a055	-0.26880136
151	0xbcb0f29b	-0.021600058
152	0xbe8257c7	-0.25457594
153	0x3e212adb	0.15739004
154	0xbe69eee2	-0.22845033
155	0xbe1e3a59	-0.15451945
156	0x3c62f5fb	0.013852592
157	0xbe2e6077	-0.17028986
158	0xbd86be25	-0.06579236
159	0xbdd6150e	-0.104532346
160	0x3e6f838a	0.23390022
161	0x3d7d7a00	0.061883926
162	0x3eae7155	0.3407084
163	0x3e4b2834	0.19839555
164	0x3e44d67f	0.19222449
165	0x3db46dd6	0.08810012
166	0x3c4232a6	0.011852896
167	0xbec5dbfa	-0.3864439
168	0xbe2121b3	-0.15735511
169	0x3d62ca6d	0.05536883
170	0xbdc6a62f	-0.09699666
171	0xbd3ccaa3	-0.046091687
172	0xbe1113f5	-0.14167769
173	0xbf04bb6c	-0.51848483
174	0x3d83e72e	0.064405784
175	0x3e1db379	0.15400495
176	0xbe711c3d	-0.23545928
177	0xbdf21572	-0.118204966
178	0x3e085d75	0.13316901
179	0xbeb64def	-0.35606334
180	0xbe836f5d	-0.256709
181	0xbd0efd89	-0.03490976
182	0xbe61948f	-0.22029327
183	0x3ec8d8e4	0.39227974
184	0x3e8d48bb	0.2759455
185	0x3c9df5ff	0.01928234
186	0x3d7274fb	0.059193593
187	0xbdeb161d	-0.11478827
188	0x3e1bfb4c	0.15232581
189	0x3e02f5eb	0.12789123
190	0xbe6d9a0d	-0.23203297
191	0x3e849c24	0.25900376
192	0x3dc0bb6e	0.094107494
193	0x3df29b9b	0.11846086
194	0xbe92b649	-0.28654698
195	0xbea586ab	-0.32329306
196	0xbea401d4	-0.32032645
197	0xbc903b97	-0.01760654
198	0xbe497b68	-0.19675982
199	0x3e294b53	0.1653264
200	0x3e0ab71b	0.13546412
201	0xbee75831	-0.45184472
202	0x3e5c8c27	0.21537839
203	0xbe5dc9d6	-0.21659026
204	0xbd87099d	-0.065936305
205	0x3bc28b79	0.0059370366
206	0xbd9502b0	-0.07275903
207	0xbdee96e9	-0.116498776
208	0x3e21314d	0.15741463
209	0xbcac1c0a	-0.021009464
210	0x3ca2a56d	0.019854272
211	0xbd641bbe	-0.05569052
212	0x3e0a7a5f	0.13523243
213	0xbe3ffd6e	-0.1874902
214	0xbdcd3489	-0.10019786
215	0x3e29faff	0.16599654
216	0x3c0baafa	0.008524651
217	0x3e2e1277	0.16999231
218	0x3dc42e8f	0.09579193
219	0x3da1b12f	0.07895123
220	0xbd28f5f5	-0.041250188
221	0xbdf1091d	-0.11769316
222	0xbc46025f	-0.012085526
223	0x3d29df0d	0.041472483
224	0xbcb8782a	-0.022518236
225	0xbbf3b41a	-0.0074372413
226	0x3c376322	0.011193069
227	0x3dbb10e1	0.09134079
228	0x3c82791f	0.015926896
229	0xbdaaa5ac	-0.08332381
230	0xbd624fd0	-0.055251896
231	0x3d362cdf	0.044476386
232	0xbd28e1d1	-0.04123098
233	0x3d2e7689	0.042593513
234	0x3e5a7c36	0.21336445
235	0xbea41af3	-0.3205181
236	0xba910978	-0.0011065444
237	0xbe14eaad	-0.14542647
238	0xbcd1c3a7	-0.02560599
239	0xbb931d5a	-0.004489583
240	0x3d95b9e9	0.0731085
241	0xbd15a5ab	-0.036534946
242	0x3e06b65e	0.13155505
243	0xbe1c1379	-0.15241803
244	0x3ca42059	0.020034956
245	0xbc01a1e5	-0.007912134
246	0x3e66d398	0.22541654
247	0xbdf12058	-0.11773747
248	0x3d80aa92	0.06282534
249	0x3e017019	0.12640418
250	0x3d1c0943	0.03809477
251	0x3b581e1a	0.0032976926
252	0xbe7a7020	-0.24456835
253	0xbd071afb	-0.032984715
254	0xbcdcac3d	-0.026937598
255	0x3c5bcc2e	0.013415379

model.bigrill.fwd_rnn.cells.0.update_gate.mlp.bias f4 [32]
0	0x3df8bc12	0.121452466
1	0x3d0b13e4	0.033954516
2	0x3e07a635	0.13246997
3	0x3e25ee0a	0.16204086
4	0xbe824e08	-0.25450158
5	0x3e16b3db	0.14717047
6	0x3db14a59	0.08656759
7	0x3dc8d555	0.09806315
8	0x3e162207	0.14661418
9	0xbd554deb	-0.05207626
10	0x3dd30f1d	0.10305617
11	0xbc69618f	-0.014244451
12	0xbe4f1036	-0.20221028
13	0x3e567811	0.20944239
14	0xbdc76d46	-0.09737639
15	0x3c8b8e64	0.01703567
16	0x3c052b5f	0.008128016
17	0x3d8234e3	0.063577436
18	0x3e36eb84	0.1786328
19	0x3e52e351	0.20594527
20	0x3e1863b9	0.14881791
21	0xbcc91268	-0.02454491
22	0x3e330945	0.17484005
23	0x3de8afc3	0.11361649
24	0x3e85029a	0.25978547
25	0x3da87bbf	0.08226728
26	0x3da961a7	0.08270579
27	0x3e1a744b	0.15083425
28	0x3dca1707	0.09867673
29	0x3d261fdc	0.040557727
30	0x3dc450bd	0.09585712
31	0x3e822037	0.25415203

model.bigrill.fwd_rnn.cells.0.c_gate.mlp.weight f4 [32, 170, 1, 1]
0	0x3ba745ff	0.0051047797
1	0x3db6a993	0.089190625
2	0x3d4a4b18	0.04938802
3	0x3d9bb084	0.07602027
4	0xbbfbc8aa	-0.007683833
5	0xbdb88fe5	-0.09011821
6	0x3d9f7b27	0.07787161
7	0x3cd89583	0.02643848
8	0x3d0f3c6a	0.034969725
9	0xbc4c1e30	-0.012458369
10	0xbd8aee01	-0.06783677
11	0xbe0f0b2c	-0.13969105
12	0xbd600053	-0.05468781
13	0x3d5eb8ac	0.054375336
14	0x3ddaa120	0.106752634
15	0xbc4ea301	-0.012612105
16	0x3da2a6f5	0.07942001
17	0xbaa9237b	-0.0012904251
18	0xbd90c677	-0.07069104
19	0x3c855288	0.016274706
20	0xbd149353	-0.03627331
21	0xbd92fc7b	-0.07177063
22	0xbda42440	-0.08014727
23	0xbd5b85aa	-0.05359427
24	0x3b6ec1b7	0.003643138
25	0x3d4397ab	0.047752064
26	0xbd541932	-0.05178184
27	0xbe014ea9	-0.12627663
28	0x3cafbf4a	0.021453518
29	0xbe1ffd87	-0.15624057
30	0xbdaf8497	-0.085702114
31	0x3c28903b	0.0102882935
32	0x3c9484f2	0.0181298
33	0x3dd1d7ae	0.10246216
34	0x3c721cd9	0.014777386
35	0xbdd6126d	-0.10452733
36	0x3e120f6e	0.14263698
37	0x3d9ec1e7	0.07751828
38	0x3d4b7c4d	0.04967909
39	0x3d299988	0.041406184
40	0xbd632504	-0.055455223
41	0x3d7bbe43	0.061460745
42	0xbda5a419	-0.0808794
43	0x3d0271d8	0.03184685
44	0xbca69d32	-0.020338628
45	0x3a9e94d8	0.0012098802
46	0xbcfeff7d	-0.031127686
47	0xbccf74a4	-0.025324173
48	0x3ded5fce	0.11590539
49	0xbbabe2aa	-0.0052455263
50	0x3cecf6bf	0.028926251
51	0x3d312154	0.043244675
52	0xbd86a1d5	-0.06573836
53	0x3d94a5a1	0.07258154
54	0x3d8ec616	0.06971376
55	0xbcc0db2c	-0.02354201
56	0xbdfcf068	-0.12350541
57	0xbdaeb996	-0.085314915
58	0xbcb89d93	-0.022536075
59	0x3d2e815b	0.04260383
60	0xbdc1ebb2	-0.094687834
61	0xbe1575b7	-0.14595686
62	0x3c370423	0.01117042
63	0xbe147a0e	-0.14499685
64	0x3b4c5fcf	0.0031185036
65	0x3d984bac	0.07436308
66	0xbdc38dcc	-0.0954853
67	0x3e097602	0.13423923
68	0x3d07adeb	0.033124845
69	0xbce0dd4b	-0.02744927
70	0x3e66bb5f	0.22532414
71	0xbc2315dc	-0.009953942
72	0xbd9d3abb	-0.076772176
73	0x3cf72983	0.030171162
74	0x3b50f1eb	0.0031882476
75	0xbd7929e0	-0.06083095
76	0xbce24505	-0.027620802
77	0x3d5f021a	0.054445364
78	0xbdcc1020	-0.09964013
79	0xbdbf4699	-0.09339637
80	0x3ce5dce4	0.02805943
81	0x3d3b24ce	0.045689397
82	0x3e28587a	0.16440001
83	0xbcfeeb02	-0.03111792
84	0x3cf46bd5	0.029836575
85	0x3cd1140e	0.025522258
86	0x3c07e24b	0.008293699
87	0x3d859e7a	0.06524368
88	0x3d2b389a	0.041802026
89	0xbdcab0d6	-0.0989701
90	0xbcbff5ec	-0.023432694
91	0xbdc3434f	-0.095343225
92	0x3db71d8f	0.08941185
93	0xbb38b247	-0.0028182433
94	0xbdf39b39	-0.11894841
95	0xbd575188	-0.05256799
96	0xbbcd033d	-0.0062564895
97	0xbdf0489c	-0.11732599
98	0xbcb22465	-0.02174587
99	0x3ccf4c93	0.025305068
100	0xbd1d6de0	-0.038434863
101	0x3dfca21a	0.12335606
102	0x3cd35e9c	0.02580195
103	0x3d44122c	0.047868893
104	0x3d1f38f9	0.038872693
105	0x3cadd700	0.021220684
106	0x3d3bb2ce	0.04582482
107	0xbd9034fb	-0.07041355
108	0xbd82044d	-0.063484766
109	0x3da08fe4	0.07839945
110	0xbdf19d2b	-0.117975555
111	0x3ccfc7bf	0.025363801
112	0xbd82cedd	-0.06387112
113	0xbd578c94	-0.0526243
114	0xbd631ca3	-0.055447232
115	0xbd77e599	-0.060521696
116	0x3c12adb9	0.0089525515
117	0x3cf8d987	0.030377163
118	0x3dd0be68	0.10192567
119	0x3df1a9f1	0.11799992
120	0xbda95fa6	-0.082701966
121	0x3d8bf16e	0.068331584
122	0x3d55f8f7	0.052239385
123	0x3cb665d3	0.02226535
124	0xbd5902fa	-0.052981354
125	0x3da33ec4	0.07970956
126	0xbd705755	-0.058677036
127	0x3dc22063	0.094788335
128	0x3d3715f0	0.044698656
129	0x3c8669ea	0.016407926
130	0xbdb75dbc	-0.08953425
131	0xbdb96a71	-0.09053505
132	0xbc9449cc	-0.018101595
133	0xbbb39ce5	-0.00548135
134	0x3c87dec2	0.016585711
135	0x3cb3eddd	0.021964008
136	0x3d043829	0.03228012
137	0xbce0cf1b	-0.027442506
138	0xbd152a63	-0.036417376
139	0x3db4ed84	0.08834365
140	0xbd352ea0	-0.04423392
141	0x3d209bc8	0.039211065
142	0x3d4d795b	0.05016456
143	0xbd295c83	-0.04134799
144	0x3d8c0425	0.06836728
145	0x3d6694a8	0.056294113
146	0xbd03a186	-0.032136463
147	0x3d718d17	0.058972444
148	0xbd4afc33	-0.049556922
149	0x3cb2acf4	0.021810986
150	0x3d1e61ea	0.038667597
151	0x38740cfa	5.818622e-05
152	0x3ce1bced	0.027555907
153	0xbbe95844	-0.007121118
154	0xbc7fc2f5	-0.015610446
155	0x3d2260a2	0.039642937
156	0xbcb32456	-0.021867912
157	0x3c22c8e9	0.009935596
158	0xbd412ea1	-0.04716361
159	0xbcaee157	-0.021347685
160	0x3cf2e02b	0.029647907
161	0xbd9366ac	-0.071973175
162	0xbe021ada	-0.12705556
163	0x3be9b7f0	0.0071325228
164	0x3cf0d145	0.029396662
165	0xbced7dd8	-0.028990671
166	0x3cd83306	0.026391517
167	0x3de9084b	0.11378535
168	0xbd32f6b9	-0.043692324
169	0x3dc84e57	0.09780567
170	0x3bcd575b	0.006266517
171	0xbddc992e	-0.10771404
172	0xbcf5def7	-0.030013544
173	0x3e9f42de	0.31105703
174	0x3d6fb916	0.05852612
175	0xbbcc9316	-0.00624312
176	0xbccafd4c	-0.024778984
177	0x3bf49f3c	0.0074652713
178	0x3d01e5ad	0.031713177
179	0xbd1fb448	-0.03899029
180	0xbd649cc7	-0.055813577
181	0x3e394872	0.18094042
182	0xbcc96e42	-0.024588708
183	0xba94b99b	-0.0011346819
184	0x3e0a35c9	0.1349708
185	0xbd69c87e	-0.05707597
186	0x3e0f6ec5	0.14007099
187	0xbdedb23f	-0.11606263
188	0x3dad357b	0.08457466
189	0x3d0b5d0e	0.03402429
190	0x3ad7924a	0.0016446796
191	0xbe4142ab	-0.18873088
192	0xbbdb3d34	-0.0066906456
193	0xbe768cf4	-0.24077207
194	0x3c3019f5	0.010748376
195	0x3d183302	0.03715802
196	0xbe3eebbd	-0.18644615
197	0xbdadaba3	-0.08480003
198	0x3e1e461b	0.1545643
199	0xbdaecf4a	-0.08535631
200	0x3daebe93	0.08532443
201	0xbd564926	-0.052315854
202	0xbe2e754d	-0.17036934
203	0x3ca700af	0.020386068
204	0x3c6d7584	0.01449335
205	0xbd8ae0d1	-0.067811616
206	0x3defdc1b	0.11711904
207	0x3e1ac90d	0.15115757
208	0x3dcaae13	0.09896483
209	0x3dac8741	0.08424235
210	0xbdb0a91d	-0.08626006
211	0xbd182f7a	-0.037154652
212	0xbd4f8591	-0.05066449
213	0xbd860e30	-0.06545675
214	0xbe33e855	-0.17569096
215	0x3d8318ef	0.0640124
216	0xbdab6efc	-0.08370778
217	0xbcbd19b4	-0.023083545
218	0x3e31c241	0.17359258
219	0xbdebe8ba	-0.115189984
220	0x3e5f60f4	0.21814328
221	0xbd8a5284	-0.0675402
222	0x3d961afa	0.07329364
223	0x3d86db3d	0.06584785
224	0xbd1c88a3	-0.038216244
225	0xbe0e0c01	-0.13871767
226	0xbd5e84a1	-0.054325704
227	0xbd2277ec	-0.039665148
228	0x3d3db729	0.046317253
229	0x3c9149bc	0.017735355
230	0xbe2bca49	-0.16776384
231	0xbe60b1e2	-0.21942857
232	0x3d381c47	0.044948842
233	0xbd8e6608	-0.06953055
234	0x3e087333	0.13325195
235	0x3b8b2728	0.004246611
236	0xbe4c1c33	-0.19932632
237	0x3cd45c6d	0.025922978
238	0x3d9f383e	0.07774399
239	0xbd198039	-0.0374758
240	0x3e01a52e	0.12660667
241	0x3c24532e	0.010029597
242	0x3d06e9a2	0.032937653
243	0x3dd40699	0.10352821
244	0x3d3348f1	0.043770734
245	0x3d5c8f8b	0.05384783
246	0x3d408959	0.047005985
247	0x3e4e9bba	0.20176592
248	0xbe87a4fb	-0.26493058
249	0x3def1f64	0.11675909
250	0x3dcb30f5	0.09921447
251	0xbd0f9960	-0.03505838
252	0x3dd0ad40	0.10189295
253	0xbce3bc53	-0.02779976
254	0x3e615d0e	0.22008154
255	0xbe2562d8	-0.16150987

model.bigrill.fwd_rnn.cells.0.c_gate.mlp.bias f4 [32]
0	0xbd46f40d	-0.04857259
1	0xbe37455e	-0.17897555
2	0x3c707c8e	0.014678134
3	0x3dbb4b79	0.09145255
4	0xbde2afe1	-0.110687025
5	0xbd3e0dc8	-0.04639986
6	0xbe2c0ed0	-0.16802526
7	0xbd73ab5c	-0.059489593
8	0x3c4fba11	0.012678639
9	0xbd079030	-0.033096492
10	0xbb55bd35	-0.0032613997
11	0x3e1bf877	0.152315
12	0x3c45971e	0.012059955
13	0xbe124276	-0.14283165
14	0xbdba0c8f	-0.090844266
15	0x3e75a988	0.23990452
16	0xbd774b9a	-0.060374834
17	0x3e0c5826	0.13705501
18	0x3c40f8c2	0.0117780585
19	0x3b445a3b	0.0029961008
20	0xbe892e60	-0.26793194
21	0x3e55079e	0.20803687
22	0xbc7d7edc	-0.01547214
23	0xbdb7cb2e	-0.089743
24	0xbe08433f	-0.13306902
25	0xbe15eaf0	-0.14640403
26	0x3c025555	0.007954915
27	0x3e2c9fdd	0.16857858
28	0x3e3fa69c	0.187159
29	0x3cada7de	0.02119821
30	0x3e0110d4	0.12604076
31	0xbb92944a	-0.004473244

model.bigrill.fwd_rnn.first_stage.weight f4 [1, 32, 1]
0	0x3f890d61	1.0707208
1	0x3f997573	1.1988968
2	0xbf9a94c4	-1.207665
3	0xbf8d1f23	-1.1025127
4	0x3f99b561	1.2008477
5	0x3f8a77a5	1.0817763
6	0xbf0e9175	-0.556907
7	0x3f88d1a3	1.0688976
8	0x3f8bdbaf	1.0926417
9	0x3f0a1add	0.5394724
10	0x3f8cff14	1.1015344
11	0xbf9a6ad0	-1.2063847
12	0xbf9c7520	-1.2223244
13	0x3f49781d	0.78698903
14	0xbf9ef8e2	-1.2419703
15	0x3f1bed8a	0.6090933
16	0xbf8ab992	-1.0837882
17	0xbfac1100	-1.3442688
18	0x3f8aefc1	1.0854417
19	0xbf8daf49	-1.1069118
20	0xbf726505	-0.94685394
21	0xbfaf3446	-1.3687828
22	0x3fa3d568	1.2799501
23	0x3f9b7d0c	1.2147536
24	0x3f159083	0.5842363
25	0x3f5ccd85	0.862511
26	0x3f83492b	1.0256704
27	0xbf92f1d7	-1.1480054
28	0xbea4ac46	-0.32162684
29	0x3df04374	0.11731616
30	0xbf992e3d	-1.1967236
31	0x3f8ceae7	1.1009187

model.bigrill.fwd_rnn.spatial_decoder.lin_in.weight f4 [32, 34, 1]
0	0xbc31efa1	-0.010860355
1	0x3de24233	0.11047783
2	0x3daca5ba	0.08430047
3	0xbe81bc0e	-0.25338787
4	0x3e0effea	0.13964811
5	0x3e028815	0.12747224
6	0xbdfccce8	-0.1234377
7	0x3dd1ae40	0.10238314
8	0xbe5181e0	-0.204597
9	0x3ebed5a5	0.37272373
10	0x3d8c4f90	0.06851113
11	0xbe754389	-0.23951544
12	0xbd93d462	-0.07218243
13	0x3e1e9c51	0.15489317
14	0x3e3ac688	0.18239796
15	0xbb9d46ae	-0.0047996854
16	0x3e43029f	0.19043969
17	0x3e37e823	0.17959647
18	0xbd0dad6f	-0.034589227
19	0x3e66ca2e	0.22538063
20	0xbeb34727	-0.35015222
21	0xbde6bcb7	-0.11266463
22	0xbd81c49a	-0.06336327
23	0x3ead682d	0.33868542
24	0xbe15a9ea	-0.14615598
25	0xbd2f46ad	-0.04279201
26	0x3d80cf97	0.062895946
27	0xba2c4b12	-0.00065724656
28	0x3e01e957	0.12686668
29	0x3e74c6ff	0.23904036
30	0xbe9d16db	-0.306815
31	0x3e9df4ae	0.30850738
32	0x3db78bdd	0.08962224
33	0xbf1a7cc5	-0.60346633
34	0x3b6d75ab	0.0036233466
35	0xbe8447df	-0.25836083
36	0x3c099d90	0.008399382
37	0x3dca5f75	0.09881488
38	0x3d3605f6	0.04443928
39	0x3c4981ba	0.012298996
40	0x3d5ab8cd	0.053398896
41	0x3e59c7f9	0.2126769
42	0x3df38f76	0.118925974
43	0x3e3dfaf1	0.18552758
44	0x3db6ed6e	0.08932005
45	0x3e2009b3	0.156287
46	0x3e004e14	0.12529784
47	0xbe51dbc5	-0.20493992
48	0x3de5da66	0.11223297
49	0x3e2f8e69	0.17144169
50	0xbd2172e7	-0.03941622
51	0x3e09ffdd	0.1347651
52	0x3c8e3fcb	0.017364403
53	0x3e8a0e79	0.26964167
54	0x3c2a5eef	0.0103986105
55	0xbe8614c0	-0.26187706
56	0x3ea7e876	0.3279454
57	0x3c816009	0.015792863
58	0xbd44d3b7	-0.04805347
59	0x3c2ce794	0.010553259
60	0x3cf43eb2	0.029815052
61	0x3e3082ca	0.17237392
62	0x3d914135	0.070925154
63	0x3d34eb9e	0.044170015
64	0xbe2c2014	-0.16809112
65	0x3d7261ad	0.059175182
66	0x3b878880	0.004136145
67	0xbe21d04a	-0.15802112
68	0x3b78e86d	0.0037980333
69	0xbe83ca8b	-0.25740466
70	0x3e0a2022	0.1348882
71	0x3e4c3281	0.1994114
72	0xbe702214	-0.234505
73	0xbdbd9135	-0.09256212
74	0x3e36a74e	0.17837259
75	0xbd438ea4	-0.047743455
76	0xbd8a3951	-0.067492135
77	0xbb0a6411	-0.0021116773
78	0xbcbf3843	-0.023342257
79	0xbe0c4fe6	-0.13702354
80	0x3e415c77	0.18882929
81	0x3d0cbe5c	0.03436123
82	0x3e1ebf41	0.15502645
83	0x3e67a5dd	0.22621866
84	0xbd36725f	-0.044542667
85	0x3e20df8b	0.15710275
86	0xbe8be330	-0.27321768
87	0x3e4fa9e5	0.20279653
88	0x3e03261b	0.12807505
89	0xbdc6ab39	-0.09700627
90	0x3eabd60b	0.3356174
91	0x3dc0bac0	0.0941062
92	0xbd62f0f5	-0.055405576
93	0xbcd06a20	-0.02544123
94	0xbda33c4c	-0.07970485
95	0x3e0f860c	0.14015979
96	0x3e3f2086	0.1866475
97	0x3dcf783c	0.10130355
98	0xbe6201e8	-0.2207104
99	0x3dd34297	0.103154354
100	0xbb9a9c16	-0.004718314
101	0xbe05c702	-0.13064197
102	0x3d1b45d1	0.03790838
103	0x3d004b40	0.031321764
104	0x3d5927bf	0.05301642
105	0x3dd74d77	0.10512822
106	0x3d3b8363	0.045779597
107	0xbd6a04ff	-0.05713367
108	0x3d053653	0.03252251
109	0xbe81704b	-0.25280985
110	0xbe8a5001	-0.27014163
111	0xbcae641b	-0.021287968
112	0xbe76fd1e	-0.24119994
113	0xbe0846bb	-0.13308232
114	0x3d768931	0.06018943
115	0xbd33b2e3	-0.04387177
116	0xbcde2367	-0.02711649
117	0xbe6355c6	-0.22200689
118	0x3de7a86d	0.113114215
119	0xbc93bf68	-0.018035606
120	0xbd8d1ca2	-0.06890227
121	0xbe2b177a	-0.16708174
122	0xbe15367a	-0.14571562
123	0x3e5bdd97	0.21471249
124	0xbd9628e5	-0.07332019
125	0x3baf6974	0.005353147
126	0x3db8dbd2	0.090263024
127	0x3e392a2e	0.18082497
128	0xbd7fd3ba	-0.062457778
129	0xbda19a4a	-0.078907564
130	0x3e3262f6	0.17420563
131	0x3e817daf	0.252912
132	0xbdb53962	-0.088488355
133	0xbdff5482	-0.124672905
134	0xbe1a7a87	-0.15085803
135	0xbdabf13e	-0.08395623
136	0xbdd68175	-0.10473911
137	0xbd3bde80	-0.04586649
138	0xbe7c7ebf	-0.24657725
139	0x3e274c23	0.16337638
140	0x3e46889d	0.19388051
141	0x3d1c9121	0.038224343
142	0x3e059293	0.13044195
143	0x3d46b51a	0.048512556
144	0xbe17105d	-0.14752336
145	0xbdf73760	-0.12071109
146	0x3d74314c	0.059617326
147	0xbd0aeef3	-0.033919286
148	0x3c110149	0.008850404
149	0x3e4abfe1	0.19799758
150	0x3da0191a	0.07817288
151	0xbe66e766	-0.22549209
152	0x3c9818fb	0.0185666
153	0xbe147b4e	-0.14500162
154	0x3e29ce53	0.16582613
155	0xbe61ba22	-0.2204366
156	0x3e0c026e	0.13672802
157	0x3d739e37	0.059477057
158	0x3dba5d54	0.09099832
159	0xbe3218c7	-0.17392264
160	0x3ceb6303	0.028733736
161	0xbd29785b	-0.041374546
162	0xbd9e36a3	-0.07725265
163	0xbe369e71	-0.17833878
164	0xbe1dd0a4	-0.15411621
165	0x3e6bfc10	0.23045373
166	0xbcff45ad	-0.031161154
167	0x3e15dcc2	0.14634994
168	0xbe7e35a6	-0.24825153
169	0x3dda7bbd	0.106681325
170	0x3da8a8ec	0.08235344
171	0xbdb56819	-0.08857746
172	0xbd781ec4	-0.060576215
173	0x3b8bed4e	0.0042702323
174	0xbe0ef682	-0.13961223
175	0xbe015cf5	-0.12633117
176	0x3dd2ebb2	0.102988616
177	0x3dd4e3f2	0.103950396
178	0x3e83d0bf	0.25745198
179	0x3cbd5a01	0.023114206
180	0x3df712c0	0.12064123
181	0x3e9c8b00	0.305748
182	0xbe226424	-0.15858513
183	0xbd526677	-0.05136725
184	0xbba921d6	-0.0051615043
185	0x3d337573	0.04381318
186	0xbd00e44e	-0.03146773
187	0xbdf288f5	-0.11842529
188	0xbe179806	-0.14804086
189	0x3e297497	0.16548382
190	0x3daaa504	0.083322555
191	0xbe74e5cb	-0.23915784
192	0x3e307950	0.17233777
193	0xbdb1f962	-0.08690144
194	0x3e0074b4	0.12544519
195	0xbd333e6a	-0.043760695
196	0xbde2f239	-0.110813566
197	0xbce10060	-0.027466
198	0x3dfa6c31	0.12227667
199	0xbe4aac0a	-0.1979219
200	0x3be3c42b	0.0069508753
201	0xbde2b6af	-0.110700004
202	0xbddd1efb	-0.10796925
203	0x3e5f180f	0.21786521
204	0x3ba2af74	0.0049647633
205	0xbd934284	-0.07190421
206	0x3e17750b	0.14790742
207	0xbdff7a8d	-0.124745466
208	0xbe55632d	-0.20838614
209	0xbdf03559	-0.11728925
210	0x3c80f1eb	0.015740355
211	0x3e406370	0.18787932
212	0x3cde99ee	0.027173009
213	0x3dba0218	0.090824306
214	0x3e27368f	0.16329406
215	0x3c0ae820	0.0084781945
216	0x3de6236b	0.11237224
217	0x3dd27690	0.1027652
218	0xbc4618a6	-0.012090838
219	0x3cc770ed	0.02434584
220	0xbcb460d7	-0.022018833
221	0xbd6a4c87	-0.05720189
222	0xbda25160	-0.07925677
223	0x3ea21125	0.31653705
224	0xbcb76e25	-0.022391388
225	0xbe38df03	-0.18053822
226	0x3ea943a6	0.33059424
227	0x3db86359	0.09003324
228	0x3c8f548c	0.01749637
229	0xbcb0695c	-0.021534614
230	0xbc93289d	-0.017963702
231	0xbe24578e	-0.16049024
232	0x3e0df07a	0.13861266
233	0xbe0a62d1	-0.13514258
234	0xbcd28a58	-0.025700733
235	0xbdc65e23	-0.09685924
236	0xbd66046a	-0.056156553
237	0x3bab068b	0.005219286
238	0x3d009bf4	0.03139873
239	0x3c418684	0.011811856
240	0x3dd451e4	0.10367182
241	0x3cd1e8be	0.025623675
242	0xbd72e2cb	-0.059298318
243	0xbdc5a8c3	-0.09651329
244	0x3e14f9f6	0.14548478
245	0x3d439216	0.04774674
246	0x3debb433	0.1150898
247	0xbe424909	-0.18973173
248	0x3e001663	0.1250854
249	0x3d2fad02	0.042889602
250	0xbe0caa8e	-0.13736936
251	0xbe06b3ed	-0.13154574
252	0xb918b3f9	-0.00014562895
253	0x3e6afc73	0.22947864
254	0xbe6e8048	-0.23291123
255	0xbd954e72	-0.07290353

model.bigrill.fwd_rnn.spatial_decoder.lin_in.bias f4 [32]
0	0x3d3bb2ee	0.045824938
1	0x3e123078	0.14276302
2	0x3c37a2fb	0.011208291
3	0xbe552f4c	-0.20818824
4	0x3cac0d14	0.02100233
5	0xbc151257	-0.009098611
6	0x3e84fc1b	0.2597359
7	0x3e29c007	0.16577159
8	0xbca3dffc	-0.020004265
9	0xbdd65970	-0.104662776
10	0x3e425237	0.18976675
11	0x3e1fb44c	0.15596122
12	0x3d61bd71	0.055112306
13	0xbcb01e97	-0.021498961
14	0x3df994b7	0.12186568
15	0xbe5dc924	-0.2165876
16	0xbd6c22bc	-0.057650313
17	0xbe32b9c7	-0.17453681
18	0xbd3816f3	-0.04494376
19	0xbcefef2d	-0.029288853
20	0x3dbf85ed	0.09351716
21	0x3e4ba60e	0.19887564
22	0xbe029810	-0.1275332
23	0xbe376805	-0.17910774
24	0xbe09aaf8	-0.13444126
25	0x3e218ec5	0.15777119
26	0xbd315add	-0.043299545
27	0x3c809a4c	0.015698574
28	0xbe421da4	-0.1895662
29	0xbcc63cab	-0.02419885
30	0x3d8d4c63	0.06899335
31	0xbe35f28b	-0.17768304

model.bigrill.fwd_rnn.spatial_decoder.graph_conv.mlp.weight f4 [32, 64, 1, 1]
0	0xbd4eca61	-0.050485972
1	0x3e34a754	0.17641956
2	0x3e18188b	0.14853112
3	0x3dc0542f	0.09391057
4	0x3d9ba58f	0.07599937
5	0x3d79d68e	0.06099563
6	0xbd301283	-0.042986404
7	0x3d5ecda1	0.05439532
8	0x3dfa10e4	0.12210253
9	0x3e1894e3	0.14900546
10	0xbc861b60	-0.016370475
11	0x3d29aa0f	0.041421946
12	0x3d157d05	0.03649618
13	0x3d215d6f	0.039395746
14	0x3d4e21d7	0.05032524
15	0xbd45e35f	-0.04831254
16	0x3df0edaf	0.117640845
17	0xbdd5fbd4	-0.10448423
18	0x3e1be252	0.15223053
19	0xbda302ea	-0.0795954
20	0x3d80ce11	0.06289304
21	0xbdd4aefc	-0.10384938
22	0x3d3a24d2	0.04544527
23	0xbd785620	-0.06062901
24	0x3de2ef40	0.110807896
25	0x3c1ce115	0.009575148
26	0x3cfeab16	0.03108744
27	0xbd510d32	-0.051037975
28	0xbd4dbe30	-0.050230205
29	0xbdf29989	-0.11845691
30	0xbd7c86b5	-0.061651904
31	0xbdcfa511	-0.10138906
32	0xbe382e67	-0.17986451
33	0x3be517c8	0.0069913603
34	0x3db941ab	0.09045728
35	0x3d0442a0	0.0322901
36	0xbd78d4f9	-0.06074998
37	0xbbf6c29b	-0.007530523
38	0xbd703a1e	-0.058649175
39	0xbcade3af	-0.021226732
40	0x3d203b90	0.039119303
41	0xbce1b4bd	-0.027552003
42	0x3e0395d3	0.12850122
43	0x3d409625	0.04701819
44	0x3e038e6a	0.12847295
45	0x3cd86fa4	0.026420422
46	0x3c2e3c58	0.010634504
47	0x3e04cd43	0.12968926
48	0x3d2b31f4	0.041795686
49	0xbd53a2cb	-0.051668923
50	0xb9ab5cde	-0.00032684853
51	0xbdd8ce16	-0.10586183
52	0xbdc0555b	-0.0939128
53	0xbcfee1d9	-0.031113552
54	0x3dfc7cd0	0.123284936
55	0x3cddf1c5	0.027092824
56	0x3dd0ba47	0.101917796
57	0x3dcaf577	0.099101
58	0xbd8e5c4b	-0.06951197
59	0x3d612c68	0.05497399
60	0xbd9928ff	-0.074785225
61	0xbc941ce2	-0.018080179
62	0x3df012ab	0.11722311
63	0xbd571615	-0.052511293
64	0xbd2427f5	-0.04007717
65	0x3d31c725	0.04340281
66	0xbb8def30	-0.004331492
67	0x3dca9d7b	0.09893318
68	0x3d811638	0.06303066
69	0x3cbbab0b	0.022908708
70	0xbcea318b	-0.028588077
71	0xbdef5cdb	-0.11687633
72	0x3c3a0c21	0.011355431
73	0x3da7802f	0.08178746
74	0xbca2dbef	-0.019880263
75	0x3dc2e4a2	0.095162645
76	0xbd0fd211	-0.035112444
77	0xbd9b7958	-0.07591504
78	0x3d91bb9f	0.07115864
79	0x3d506ef4	0.050887063
80	0xbc157004	-0.009120945
81	0xbd83e06b	-0.06439289
82	0x3d2aabb6	0.041667663
83	0x3d5b164b	0.053488057
84	0x3caf677e	0.021411654
85	0x3db0310e	0.086031064
86	0xbde9a334	-0.11408082
87	0xbd297464	-0.041370764
88	0xbd0b1b17	-0.03396138
89	0xbd9fd9ca	-0.07805212
90	0x3cf7cc8b	0.0302489
91	0x3c81b437	0.015833003
92	0xbdaa880c	-0.0832673
93	0xbd99fac1	-0.07518531
94	0x3dcc7371	0.09982956
95	0x3d142469	0.036167536
96	0x3d95d20d	0.07315455
97	0x3da305b1	0.0796007
98	0x3df12236	0.11774103
99	0xbd32dad3	-0.04366572
100	0x3cbe13dc	0.023202829
101	0xbdd2d89e	-0.10295223
102	0xbe11b27d	-0.14228244
103	0xbdc7bb41	-0.09752513
104	0xbde027e8	-0.109451115
105	0xbbb099e0	-0.005389437
106	0xbd1c90ac	-0.038223907
107	0x3b3ae37a	0.0028516934
108	0x3da4b9e8	0.08043271
109	0xbd88a1da	-0.06671496
110	0x3d146e4e	0.036238007
111	0xbccfde6f	-0.02537462
112	0x3d20b364	0.03923358
113	0x3d75f9bd	0.060052622
114	0x3bdd7b5d	0.006759091
115	0xbc046089	-0.008079656
116	0xbdf39262	-0.11893155
117	0x3d32247a	0.043491818
118	0x3bccaa99	0.0062459228
119	0xbe068b99	-0.1313919
120	0x3e041015	0.1289676
121	0x3d5fd677	0.05464789
122	0x3c4a8ef7	0.012363187
123	0x3d6da61a	0.058019735
124	0x3e1ee033	0.15515213
125	0x3d033950	0.03203708
126	0xbc5eb0e8	-0.013591982
127	0x3e05bbce	0.13059923
128	0x3da4ad87	0.0804091
129	0xbe30db4e	-0.17271158
130	0xbdd2ff89	-0.10302646
131	0x3d6af45c	0.057361946
132	0xbdbda616	-0.09260194
133	0x3c887648	0.016657963
134	0xbd823edc	-0.06359646
135	0xbdeb0bba	-0.11476846
136	0xbd3f0879	-0.04663894
137	0xbbbe03e6	-0.0057988046
138	0xbd6e9b46	-0.05825355
139	0xbc988551	-0.018618258
140	0xbdd32a04	-0.10310748
141	0x3cdcc8bd	0.026951188
142	0x3deb189a	0.11479302
143	0x3e02af8e	0.12762281
144	0x3e13988a	0.14413658
145	0x3dd0fe8b	0.102048
146	0xbde5bf5f	-0.11218142
147	0x3e0990c1	0.13434125
148	0xbcd6c433	-0.026216602
149	0x3d68732d	0.056750465
150	0xbdc953d9	-0.09830446
151	0xbdc64dae	-0.09682785
152	0xbc250fbd	-0.010074553
153	0xbbc6554e	-0.0060526496
154	0x3c91fc48	0.017820492
155	0xbcb86a7c	-0.022511713
156	0x3dbe677e	0.09297083
157	0x3cc5704b	0.024101397
158	0xbe134781	-0.14382745
159	0x3deb4b96	0.11489026
160	0xbd751f8b	-0.059844535
161	0xbe36df76	-0.17858681
162	0xbe29f9b0	-0.16599154
163	0xbdbce504	-0.09223369
164	0xbcfea15e	-0.031082805
165	0x3cdb8978	0.026798949
166	0xbe2a4979	-0.1662959
167	0x3cd609d6	0.026127737
168	0xbd6f0008	-0.05834964
169	0xbdb99e31	-0.09063376
170	0xbe3b0b97	-0.1826614
171	0x3d1dacfd	0.038495053
172	0x3d354abc	0.044260725
173	0x3c21cf06	0.009876018
174	0x3d489e51	0.048979107
175	0xbd29f176	-0.04149004
176	0xbcd686e6	-0.026187371
177	0x3ded47c3	0.11585953
178	0xbe1a0dfb	-0.15044396
179	0x3e723945	0.23654659
180	0x3e02d829	0.12777771
181	0x3b6a1a01	0.0035721066
182	0xbded7149	-0.11593873
183	0xbbba1703	-0.0056790127
184	0xbe053ac3	-0.13010697
185	0x3d1c4aef	0.0381574
186	0x3d9d5b38	0.07683414
187	0xbe04fad8	-0.12986314
188	0x3e11cf60	0.14239264
189	0x3dc2a191	0.095034726
190	0xbe178259	-0.14795817
191	0x3dff12fb	0.12454792
192	0xbd914dbe	-0.07094906
193	0x3d078652	0.033087082
194	0x3c2b56f9	0.010457748
195	0xbbe0a4ec	-0.0068555977
196	0x3dddb1d1	0.108249314
197	0xbe0bb5ff	-0.13643645
198	0xbd001c6d	-0.03127711
199	0x3db455f3	0.08805456
200	0x3da37599	0.07981414
201	0x3e023d61	0.12718727
202	0xbcbe94b3	-0.023264265
203	0x3c9d1d61	0.019179048
204	0x3dca02ea	0.09863837
205	0x3cbe9327	0.023263527
206	0x3dad63ae	0.08466278
207	0x3da0cd27	0.0785163
208	0x3d2ce0ee	0.042206697
209	0x3d736153	0.059418987
210	0x3be365d7	0.0069396305
211	0xbcfa0741	-0.030521037
212	0x3d5a3e7a	0.05328224
213	0xbd642446	-0.055698656
214	0x3dd10af6	0.10207169
215	0x3d1f9b7a	0.038966633
216	0x3e130f3c	0.1436128
217	0xbddd06e5	-0.10792331
218	0x3d2653c0	0.040607214
219	0xbe09f2a4	-0.13471466
220	0xbb79fc6b	-0.0038144838
221	0xbdaf38aa	-0.0855573
222	0x3cdfa3ec	0.027299844
223	0x3db5e0d3	0.088807724
224	0xbe428bfa	-0.1899871
225	0xbd70d77f	-0.058799263
226	0xbe0e4dce	-0.13896868
227	0xbde074ff	-0.10959815
228	0xbcade29e	-0.021226224
229	0x3d9e0130	0.0771507
230	0xbcc3f226	-0.023919176
231	0x3b08c1ec	0.002086754
232	0xbd6c6fd1	-0.057723824
233	0xbc8516cd	-0.016246224
234	0x3c979c8f	0.01850727
235	0xbd0c4391	-0.034244124
236	0x3e04a769	0.12954487
237	0x3db96a3b	0.09053465
238	0xbd5d3267	-0.054003146
239	0x3d573bdd	0.052547324
240	0x3cea2e49	0.028586524
241	0x3dc8d79a	0.09806748
242	0x3d0dbcd0	0.034603894
243	0x3de35156	0.11099498
244	0x3df4d599	0.11954803
245	0xbe0106ba	-0.12600222
246	0x3d12c867	0.03583565
247	0x3e1f1ada	0.15537587
248	0xbd68823e	-0.056764834
249	0x3c07a11c	0.008278158
250	0x3d8cf7e0	0.06883216
251	0xbd58e8ce	-0.052956395
252	0x3dc94f96	0.09829633
253	0x3cb7bea5	0.022429774
254	0xbd067260	-0.03282392
255	0x3de6e801	0.1127472

model.bigrill.fwd_rnn.spatial_decoder.graph_conv.mlp.bias f4 [32]
0	0xbd644074	-0.05572553
1	0xbd30e9f8	-0.04319188
2	0xbdf7e10a	-0.1210347
3	0xbcf955d4	-0.030436434
4	0x3e15fd54	0.14647418
5	0x3e48471e	0.19558379
6	0xbd5895ef	-0.052877363
7	0x3dcccc09	0.09999854
8	0x3d02b7cb	0.03191356
9	0xbd912694	-0.07087436
10	0x3e18fc8c	0.14940089
11	0x3e45a4c6	0.19301137
12	0xbe4ec963	-0.2019401
13	0x3e50b7e0	0.20382643
14	0x3e50870f	0.20364021
15	0xbe13a84b	-0.14419667
16	0xbd26dc66	-0.040737532
17	0x3e837b2a	0.25679904
18	0x3e0551c7	0.13019477
19	0xbdb1c6e0	-0.086805105
20	0x3e91c0fb	0.28467545
21	0x3e4a17c7	0.19735633
22	0xbe25263c	-0.16127867
23	0xbe8880c8	-0.26660752
24	0xbe4502e2	-0.19239381
25	0xbeb2361f	-0.34806916
26	0xbd54c141	-0.051942114
27	0xbe41474d	-0.18874855
28	0xbe8057ee	-0.25067085
29	0x3e1ed7b6	0.15511975
30	0x3dcb0acc	0.09914169
31	0x3da9981f	0.08280968

model.bigrill.fwd_rnn.spatial_decoder.lin_out.weight f4 [32, 64, 1]
0	0x3c599421	0.013279946
1	0x3ceaef38	0.028678522
2	0x3e3ae09e	0.18249747
3	0xbdf39884	-0.118943244
4	0xbd21d5d8	-0.039510578
5	0xbd2374e4	-0.039906397
6	0x3cddfa60	0.027096927
7	0xbd2db9db	-0.042413574
8	0x3b3652d2	0.002782036
9	0x3ce7fa3b	0.028317561
10	0x3de6a39c	0.11261675
11	0x3c6b6ef6	0.014369717
12	0xbe26a12c	-0.1627242
13	0x3d4dab6c	0.05021231
14	0x3de69340	0.112585545
15	0xbe1f910a	-0.15582672
16	0xbe37311f	-0.17889832
17	0x3d7eab6e	0.062175207
18	0xbd35dda5	-0.04440083
19	0xbca5e426	-0.020250391
20	0xbdac15b8	-0.0840258
21	0xbdb07497	-0.08615988
22	0x3dcf2b8c	0.10115728
23	0xbcd3eb2f	-0.02586898
24	0xbcc497a7	-0.023998095
25	0xbe0d0314	-0.13770705
26	0xbc2ebdf9	-0.01066541
27	0x3d6f6b4e	0.058451943
28	0xbdbb6cc6	-0.09151606
29	0xbd7adbed	-0.061244894
30	0x3dffb594	0.12485805
31	0x3dde4e20	0.10854745
32	0x3e9377b0	0.28802252
33	0xbe35795c	-0.17722076
34	0xbe95dc2d	-0.29269543
35	0xbda5bb57	-0.08092373
36	0x3d406612	0.04697234
37	0x3eb8c593	0.36088237
38	0xbeefb632	-0.46818691
39	0x3df0912f	0.117464416
40	0x3dd60d27	0.10451727
41	0x3ee44cd8	0.44589877
42	0x3ccf0d3c	0.025274865
43	0xbbc4f6b6	-0.0060108555
44	0x3df0de65	0.117611684
45	0x3daa9c5c	0.083306044
46	0xbd47ff2d	-0.04882734
47	0x3ecd08e6	0.4004585
48	0xbeb2069f	-0.34770676
49	0xbc7ccdf3	-0.0154299615
50	0x3e06c39a	0.13160554
51	0xbd4a668e	-0.04941421
52	0xbf23570b	-0.6380469
53	0xbd8487e8	-0.064712346
54	0xbc8968f1	-0.016773673
55	0x3d034af2	0.032053895
56	0x3ecce07d	0.4001502
57	0x3d181bf0	0.03713602
58	0x3e1d23b6	0.15345654
59	0xbe2a1814	-0.16610748
60	0xbdcf267d	-0.10114763
61	0xbf27582f	-0.6536893
62	0xbcf7e39f	-0.030259905
63	0x3deef082	0.11666967
64	0x3d98f4d2	0.07468571
65	0xbcc1e176	-0.023667078
66	0xbdd707b6	-0.104995176
67	0x3d92a87b	0.07161041
68	0x3ccddb55	0.025129
69	0x3d9ef7f2	0.077621356
70	0xbdca8fd0	-0.09890711
71	0x3e079245	0.13239391
72	0x3c366a20	0.011133701
73	0xbdb2bf9b	-0.08727952
74	0x3c19dd22	0.009391101
75	0xbd8a114b	-0.067415796
76	0x3d2e0cee	0.0424928
77	0x3e0a8a83	0.135294
78	0xbda6da11	-0.081470616
79	0x3deec978	0.11659521
80	0xbda13227	-0.07870894
81	0xbd4af523	-0.049550187
82	0xbd06e89c	-0.032936677
83	0x3c710529	0.014710703
84	0x3dc533d8	0.09629029
85	0x3b389cce	0.0028169635
86	0xbc91accf	-0.017782597
87	0xbde76c3b	-0.1129994
88	0x3cad7688	0.021174684
89	0xbd69ed9f	-0.05711138
90	0xbdb016c2	-0.08598091
91	0xbda327c3	-0.07966568
92	0xbd2cf616	-0.042226873
93	0x3da65cf3	0.081231974
94	0xbc6cfe99	-0.014464998
95	0x3d661d26	0.056180142
96	0x3e4d64ed	0.20058031
97	0x3c5f15bc	0.013616022
98	0xbd8c6cdf	-0.06856703
99	0x3d2b45e8	0.041814715
100	0x3d3b8f9f	0.045791265
101	0x3d58e95f	0.052956935
102	0x3e949980	0.2902336
103	0x3dc72742	0.09724285
104	0x3da53adc	0.08067867
105	0x3e89099a	0.26765138
106	0x3e3d2ce5	0.18474157
107	0x3d9b2960	0.07576251
108	0x3d2db276	0.04240652
109	0x3e31b9b6	0.17356
110	0xbdac98b7	-0.084275655
111	0xbe827c0c	-0.25485265
112	0xbdc4e42a	-0.09613831
113	0xbe875e03	-0.26438913
114	0x3db6faf7	0.089345865
115	0x3b7e8e5a	0.0038842172
116	0x3e85374d	0.26018754
117	0xbd890252	-0.06689896
118	0x3d9a51cb	0.07535132
119	0x3db70991	0.089373715
120	0x3ea6a28d	0.3254589
121	0x3e0ddf12	0.13854626
122	0x3d5634bd	0.05229639
123	0xbd8a4162	-0.06750752
124	0xbebaa206	-0.3645174
125	0xbf00cc3b	-0.5031163
126	0x3c3d0dbd	0.01153892
127	0x3e006c1c	0.1254124
128	0x3d740af6	0.059580766
129	0x3da0924d	0.07840405
130	0xbdb5c432	-0.08875312
131	0xbddc16a4	-0.10746506
132	0xbc937ac2	-0.018002871
133	0x3db56f4b	0.08859118
134	0x3bf74768	0.007546354
135	0x3cf5dfd9	0.030013965
136	0xbda15482	-0.07877447
137	0xbe00abc0	-0.12565517
138	0x3d8c7637	0.06858485
139	0x3df1f133	0.11813583
140	0xbd2a8283	-0.041628372
141	0x3e300709	0.17190184
142	0xbd6cad4b	-0.057782453
143	0x3e0b1f62	0.1358619
144	0xbe0682c8	-0.13135827
145	0xbda16f64	-0.07882574
146	0x3d8dd22f	0.06924855
147	0x3d6e90c8	0.058243543
148	0x3bf97326	0.0076126037
149	0x3e5239a3	0.20529799
150	0xbd3f930a	-0.046771087
151	0xbc6df76d	-0.014524323
152	0xba4035a3	-0.0007332211
153	0xbd8da179	-0.06915564
154	0xbd3bb593	-0.04582746
155	0x3d0cdbbb	0.03438924
156	0x3d66ffdd	0.056396354
157	0xbd27f8a8	-0.04100862
158	0x3d4b8b80	0.049693584
159	0x3de93226	0.11386518
160	0xbd18b5fb	-0.037282925
161	0x3d029b24	0.031886235
162	0xbd71f02b	-0.059066933
163	0x3d4bec6c	0.049786016
164	0x3d04a6be	0.03238558
165	0x3dcba8e9	0.099443264
166	0x3f2f482f	0.6846952
167	0x3d7317e9	0.059348974
168	0x3e40ddcc	0.18834609
169	0x3e971cb8	0.29514098
170	0x3de95acc	0.11394271
171	0xbdaedb3f	-0.085379116
172	0x3d9f6083	0.0778208
173	0x3e8577e0	0.2606802
174	0xbdff710e	-0.12472735
175	0xbf016c1c	-0.50555587
176	0xbc6726c2	-0.014108362
177	0xbe5b33d6	-0.21406493
178	0x3e15acaa	0.14616647
179	0x3d946014	0.07244888
180	0x3f0a594c	0.54042506
181	0x3c9235f4	0.017847992
182	0xbd5fcc14	-0.054637983
183	0x3bdf85cc	0.0068213698
184	0x3ee061bc	0.43824565
185	0x3ea790ff	0.3272781
186	0x3e01f0a1	0.12689449
187	0xbd624d65	-0.05524959
188	0xbe915ab1	-0.28389505
189	0xbe33b227	-0.17548428
190	0xbe00463e	-0.12526795
191	0x3e3ae1e6	0.18250236
192	0xbd056cbe	-0.032574408
193	0x3d0daf13	0.034590792
194	0x3d42f39b	0.0475956
195	0xbd534f83	-0.0515895
196	0xbd9257f8	-0.07145685
197	0xbe24f132	-0.16107634
198	0xbc9b82d5	-0.018983284
199	0xbddf602e	-0.10907017
200	0x3c3c63c2	0.0114983935
201	0x3d7f72d5	0.06236537
202	0xbe5c3bad	-0.2150714
203	0xbe38baa9	-0.18039955
204	0x3e3da2ce	0.18519136
205	0xbe575a88	-0.21030629
206	0x3c0d8bc5	0.008639281
207	0x3dcd606d	0.100281574
208	0x3d6e9f7d	0.05825757
209	0xbd24c53f	-0.04022717
210	0xbdc3355a	-0.095316604
211	0xbd599e86	-0.053129695
212	0xbe05f807	-0.13082896
213	0xbd175740	-0.036948442
214	0x3d80d0bb	0.06289812
215	0x3e53c86d	0.20681925
216	0x3e0a5a9f	0.13511132
217	0x3ddb17ed	0.10697923
218	0x3e077e77	0.13231836
219	0x3dfa0831	0.12208594
220	0xbc3f9882	-0.011694076
221	0xbe0674b1	-0.13130452
222	0xbe20f32e	-0.15717766
223	0xbdad0190	-0.08447564
224	0xbe698124	-0.2280317
225	0xbd43eb95	-0.04783209
226	0x3ed3a318	0.41335368
227	0x3e193455	0.1496137
228	0xbe5febe7	-0.21867333
229	0xbec831ea	-0.3910058
230	0xbeb6b65c	-0.35686004
231	0xbe8b48e5	-0.27204052
232	0xbdbbb90a	-0.09166153
233	0xbf1905b3	-0.5977432
234	0xbeb928cc	-0.36163938
235	0xbaa0f1d1	-0.0012279098
236	0xbeb02752	-0.34405
237	0xbecb1ffb	-0.39672837
238	0x3e2e6ca8	0.17033637
239	0x3e851e92	0.25999886
240	0x3eb94ef2	0.36193043
241	0x3ebdda63	0.37080678
242	0xbe7688ab	-0.24075572
243	0x3d28560c	0.041097686
244	0x3c4b5e1d	0.012412575
245	0xbdf418f6	-0.119188234
246	0xbe78ae22	-0.24285176
247	0xbe764ef7	-0.2405356
248	0xbf2206d3	-0.6329166
249	0xbebcb5c1	-0.36857417
250	0xbe5e44c9	-0.21705927
251	0x3e470726	0.1943632
252	0x3ec10a08	0.37702966
253	0x3f5653a9	0.83721405
254	0x3e326cd9	0.17424335
255	0xbeae4b55	-0.3404185
