logs/discharge_point/grin/2023-10-05_13-07-07_993014666/epoch=46-step=4089.ckpt (torch, 707635 bytes, 102 tensors)

model.bigrill.emb f4 [8, 20]
000000 8f c8 13 3e 90 a9 d8 be 2e 42 a1 be 2a 58 0e be
       0.14431976 -0.42316866 -0.31495804 -0.1390082
000010 71 db a0 be b5 ec ac 3e e7 35 9e 3e 19 94 4b 3f
       -0.3141742 0.33774343 0.309005 0.79522854
000020 c4 73 f4 bd ec 65 de bd f8 17 19 3e 4b de 28 bd
       -0.11936143 -0.10859284 0.1495055 -0.04122762
000030 09 2b bf 3e cf fb c7 be 4d 0f 1e bf 72 25 5d bf
       0.3733752 -0.39059302 -0.617421 -0.8638526
000040 98 f4 95 3e c8 10 75 3e b9 65 3d 3e 34 1c 15 3f
       0.29288173 0.23932183 0.18495835 0.5824616
000050 21 5b 21 bf 9b 7f d3 3d 17 99 55 3e e4 4e 0f 3f
       -0.63029677 0.10327073 0.2085918 0.5597975
000060 29 06 a5 3c 1c 2d b2 3e 8a 35 44 3f f0 55 bb 3d
       0.020144539 0.3480004 0.76644194 0.09147251
000070 6f 7d 8d 3e 95 11 b5 3e da 09 b0 3e ff 83 60 3e
       0.2763476 0.35364977 0.34382516 0.21925353
000080 64 7e 62 3e 51 62 97 3e da a3 ba 3e 46 e3 98 bc
       0.22118527 0.29567197 0.36453134 -0.01866306
000090 5e 1d 27 3e 94 f9 ee 3e a7 fb 36 bd c0 f9 54 bf
       0.16319796 0.46674788 -0.044673588 -0.8319359
0000a0 0a 55 3d bf 50 81 5c 3e 0b 96 4a 3c 69 7b b2 be
       -0.73957884 0.21533704 0.012364875 -0.3485978
0000b0 97 94 f4 3e 91 71 d0 be f5 4e d4 3d 8a 7b 56 3f
       0.47769615 -0.40711644 0.10366622 0.83782256
0000c0 74 fa 57 be 28 7d ed 3e 0d b3 db be 14 eb 48 3e
       -0.21091634 0.4638455 -0.42910042 0.19620925
0000d0 22 5e 20 bf f1 60 0b be 9d 1d 2f bf d8 21 e8 3e
       -0.62643635 -0.13611199 -0.6840456 0.4533832
0000e0 d8 9c 75 bf bf af cb bc b8 e7 03 3f d5 de 94 3e
       -0.9594245 -0.024864076 0.5152545 0.29076257
0000f0 eb 4c 5b 3d bf 91 51 3e 6c 8c 2c 3d 88 92 0f 3e
       0.05354015 0.20465754 0.042126104 0.14020741
000100 0c ca 68 be bf a1 a9 bd b7 f9 39 be e1 26 5a 3f
       -0.22733325 -0.08282804 -0.18161665 0.85215575
000110 13 28 14 bf 04 93 f5 3c 20 a5 a6 be 00 36 2a 3f
       -0.5787365 0.02997733 -0.32547855 0.6648865
000120 de 00 7c 3f 2b 61 7e be f1 1d bf bd 72 85 07 3e
       0.98438823 -0.24841754 -0.09331883 0.13234499
000130 6a 2d eb be 91 b2 c2 3e 39 1a d0 3e e0 0f 60 3f
       -0.45933086 0.3802686 0.40645006 0.87524223
000140 f4 e8 22 bf 74 f6 6b 3e c6 3e be 3d 32 15 16 3f
       -0.6363671 0.23043233 0.09289317 0.5862609
000150 bd 47 30 bf 92 b3 6c be 0d 8d 67 bf cb 2d 5a bf
       -0.68859464 -0.23115376 -0.904496 -0.85226125
000160 de e4 dc bd d0 02 69 3c 06 3a 92 bf ee dc 81 bf
       -0.107858405 0.014221862 -1.1423957 -1.0145547
000170 df f2 88 bf fd 86 93 be 83 6d cd 3e e8 fd 99 bc
       -1.0699118 -0.28813925 0.40122613 -0.01879783
000180 a3 bd f4 3c a1 e6 7f bf f1 b3 90 bf 66 8b 8c bf
       0.029875582 -0.99961287 -1.1304914 -1.0980041
000190 35 c0 32 3d bc f4 50 bf 80 9e 7e bf 7e 90 bf be
       0.043640334 -0.81623435 -0.994606 -0.37414926
0001a0 a2 4e 3b bf cc 02 99 3e 08 c9 b1 be e1 b3 a6 be
       -0.7316686 0.29884946 -0.34723687 -0.32559112
0001b0 96 33 b5 be c9 16 b3 be ff 26 a6 bd 0f d8 8e 3e
       -0.3539092 -0.3497832 -0.08112907 0.27899215
0001c0 88 73 ed be c1 b7 d0 be 5e d7 e5 be 36 5a d6 3e
       -0.46377206 -0.40765193 -0.44890875 0.418657
0001d0 90 62 0e bd 2d 47 c0 3d 5e ec 31 3e 67 1f f4 3e
       -0.034761965 0.09388576 0.17375323 0.47680208
0001e0 d6 42 fd 3c 59 3c e8 3d a1 7b 0e bf 76 25 bf be
       0.030915659 0.113396354 -0.5565739 -0.37333268
0001f0 ba 74 a3 be 91 d2 9c bd 99 d2 08 bf 7d fd e9 3e
       -0.31924993 -0.0765735 -0.53446347 0.4570121
000200 97 3d 1d bd b6 af f7 bc 9d 13 85 3d 42 bc c7 3e
       -0.038388815 -0.030235153 0.064978816 0.39010817
000210 47 74 9d 3e a6 53 ff bd 22 b9 a5 3c 64 ba a9 be
       0.30752775 -0.124671265 0.02022988 -0.33150017
000220 89 b6 69 3c 0c ef b8 3d 3d b1 3d 3f f1 ab df 3e
       0.014264711 0.090299696 0.7409857 0.43685868
000230 b5 6a 05 bc 32 75 84 3e 3b ac 96 3e 72 bb bc 3c
       -0.008143117 0.25870663 0.29428276 0.0230386
000240 59 d7 87 bd 4c 18 86 3e b1 5d b2 3b 22 aa 22 bf
       -0.06632871 0.26190412 0.005443298 -0.6354085
000250 d4 7c 9b 3e cd 2c ed 3e 50 d9 e9 3d 06 69 2a be
       0.30368674 0.46323243 0.11418402 -0.16641626
000260 cd 0f ee bc 64 1d b7 bd 8a fe 55 3e 78 3d 3c 3e
       -0.029060269 -0.08941153 0.2089788 0.18382823
000270 95 74 5a 3f 0c b4 d3 3d 22 5e 80 be ff 8d fd 3c
       0.8533414 0.103370756 -0.25071818 0.030951498

model.bigrill.fwd_rnn.cells.0.forget_gate.mlp.weight f4 [32, 170, 1, 1]
000000 eb 34 9a bc d7 54 c2 bd 13 fc f5 3d 08 2e da 3d
       -0.018824061 -0.09488838 0.1201097 0.10653311
000010 2b 16 31 bd 97 66 6e 3d 14 b9 e1 3d 2e 49 79 be
       -0.04323403 0.058203306 0.11021629 -0.24344322
000020 b2 aa 6b 3d c5 83 40 3c 71 a6 01 be 26 02 91 3d
       0.057535835 0.011750166 -0.12661149 0.07080488
000030 75 5c 0c 3e ee 3f 32 3d a1 34 df 3c 30 ea 3a be
       0.13707145 0.043518 0.027246775 -0.18253398
000040 b5 39 52 3d 80 79 59 3e 81 00 f4 3d 83 99 c4 be
       0.051324565 0.21237755 0.119141586 -0.3839837
000050 c2 50 29 be c0 17 eb bd 95 52 32 be af b5 91 be
       -0.16534713 -0.11479139 -0.17414315 -0.28458926
000060 de 31 e7 bd 0d c4 05 3e b1 db cb 3c 0a 9f 0c 3e
       -0.11288808 0.13063069 0.02488503 0.13732544
000070 eb 68 1a 3e 7c 2d 09 3d 81 bc 57 3e 4a 3c 10 be
       0.15079086 0.033490643 0.21068002 -0.14085498
000080 80 7d 00 be 79 ad cc be 2f 2a 8c 3c a3 c2 3f bd
       -0.12547874 -0.399761 0.017109958 -0.04681648
000090 5a d0 29 3d 73 fb 5e 3d 53 da ea 3c 34 5f 5d bc
       0.041458465 0.05443902 0.028668558 -0.013511468
0000a0 ea d5 02 bd aa 6b 82 bd cd ec 96 3d f2 a3 99 3b
       -0.031942286 -0.063681915 0.07369385 0.0046887333
0000b0 be a7 94 bd 84 d6 84 3b ab c5 c2 bc 73 18 b7 bd
       -0.07258557 0.0040538926 -0.023775896 -0.0894021
0000c0 72 30 a6 bd 5a 3c 40 3c c9 6a 24 bd e4 d7 62 3b
       -0.08114709 0.011733139 -0.0401409 0.0034613544
0000d0 a2 5b 5a bc 6f 0a 3f 3b b3 2b 07 3e 23 f7 99 bc
       -0.013327511 0.0029150506 0.13200264 -0.018794602
0000e0 14 84 05 be 70 b4 87 bd 6f de c2 bd 9c 68 9f 3d
       -0.13038665 -0.066262126 -0.09515082 0.077836245
0000f0 fb b3 a5 bc 3d 64 8f bd 59 1d cb bc 6e 2f c4 ba
       -0.020227423 -0.07001541 -0.024794267 -0.0014967748
000100 51 fc 47 3c c9 0f aa bd 1f e8 0d 3d 95 24 92 bd
       0.012206153 -0.08303792 0.034645196 -0.07135884
000110 10 4e 0e bd c7 ab 3a 3d 74 fb b4 bd 3e f7 27 3e
       -0.034742415 0.045573976 -0.088370234 0.16402909
000120 dd 20 b5 3b 5a a7 c8 bd 0a 58 b5 bd b2 6a 0d be
       0.0055275992 -0.09797545 -0.08854683 -0.13810232
000130 39 7f 10 3e a0 f7 a8 3d 40 5f e9 3d 58 68 bb bd
       0.14111032 0.08250356 0.113951206 -0.09150761
000140 12 b5 fc bb af d9 82 be 67 54 4d be 11 66 10 be
       -0.007712015 -0.25556704 -0.20051728 -0.14101435
000150 76 0d 5b bd a6 dc e8 3d 61 83 01 bd b5 4f 4b 3b
       -0.053479634 0.1137021 -0.031619433 0.003102285
000160 81 b1 89 3d d6 76 ab 3d a7 c0 7d bd 6b 0e 88 be
       0.06723309 0.083722755 -0.061951306 -0.265735
000170 37 48 73 bc c7 ef f8 bd c5 32 2d be 79 d8 f7 bd
       -0.01484876 -0.12155109 -0.16913898 -0.12101836
000180 a4 08 a1 bd 23 da 43 be 23 c3 b9 3e 5e 3e 68 3d
       -0.07862976 -0.19126181 0.3628169 0.056700103
000190 84 56 e3 3d 45 70 09 bc 48 5a 6f 3c 57 d6 66 3d
       0.11100486 -0.008388584 0.014608927 0.056356754
0001a0 d1 0d 28 3e bf 75 70 3e 8e 24 ac be 7f 1f 1e 3e
       0.1641152 0.23482417 -0.3362164 0.15441702
0001b0 be 9f 9d 3c a5 c1 56 be 80 a1 b3 3d 9f 2b 03 be
       0.01924121 -0.20972307 0.08771038 -0.12809609
0001c0 e7 ec 35 be e3 00 91 3e 7e f5 a6 3d ed 61 e3 be
       -0.17766152 0.2832099 0.08152293 -0.4441065
0001d0 03 5b db 3d 7b d4 46 bc fe f3 31 3e 4e 49 a4 be
       0.107107185 -0.01213562 0.17378232 -0.32087177
0001e0 3e b8 04 3e ad ee f5 3e a2 39 34 be 06 98 dd bd
       0.12960908 0.48033658 -0.1760011 -0.10820012
0001f0 f0 26 4b be 70 5d 48 bd 7a 2b cd be e5 b1 3e 3d
       -0.19839072 -0.048917234 -0.40072232 0.046556372
000200 53 41 0e 3d bc 7f a0 3d 56 e8 08 3e 0b 53 e6 3d
       0.034730267 0.078368634 0.13369879 0.11246308
000210 e9 bb c1 3e 87 75 da bd ba af 98 bd 90 b7 68 be
       0.37838677 -0.10666948 -0.07455392 -0.22726274
000220 8d 14 8b bd 3f 74 d9 3d ee b5 05 bc 84 ef b2 3d
       -0.06791029 0.10617875 -0.008161051 0.0873709
000230 cd 63 8a be a3 fa 00 3e 4d 9a d7 3c 60 e6 b2 bd
       -0.27029267 0.1259561 0.026318694 -0.08735347
000240 1a cb f8 3d 77 79 d5 3b 53 f1 2e bd d8 cb 06 be
       0.121481135 0.006514724 -0.042710613 -0.13163698
000250 10 fc d9 3d a1 1c 4b be 58 df a4 bc 94 11 bb bd
       0.1064378 -0.1983514 -0.02012603 -0.09134212
000260 e3 22 9c bb 60 8f 84 3c 24 3d 7b 3e 11 97 e7 3c
       -0.004764901 0.016181648 0.24535042 0.028270276
000270 af f7 26 be 79 75 49 bd ea ba ca bd 59 93 89 be
       -0.16305421 -0.049184296 -0.09898932 -0.2687023
000280 97 4b 3a be c2 51 4c 3c de 74 bd bd 3a 70 0b 3e
       -0.18192898 0.012470664 -0.09250806 0.1361703
000290 f9 ad b8 3d 1b a7 4a 3c f7 ce 5d 3e 74 7e 34 be
       0.09017558 0.012368943 0.21660982 -0.17626363
0002a0 34 53 c5 bd 65 95 05 bf 3a f9 a2 3d 70 e9 7b be
       -0.0963501 -0.5218108 0.079576924 -0.24600768
0002b0 12 b2 15 3e a4 d0 c1 3d 60 a4 8f be ef ce 0d 3e
       0.1461871 0.09463623 -0.28055096 0.1384847
0002c0 a4 47 40 3d a4 d5 7e be e6 b2 58 3e 57 9b 9c bd
       0.04694332 -0.24886185 0.21161994 -0.07646816
0002d0 12 94 7e bc 38 21 6d 3e 20 77 8b 3d 85 f7 b4 be
       -0.015538232 0.23157203 0.06809831 -0.35345092
0002e0 b9 51 54 3c 08 4c 95 bd f3 31 0a 3c 84 2d 79 bd
       0.012958937 -0.072898924 0.00843476 -0.060834423
0002f0 45 a6 19 3e b7 2b b0 3e 18 76 8a be 59 13 9d be
       0.15004833 0.34408352 -0.27043223 -0.30678824
000300 88 1f 28 be 82 1c b1 bd 30 16 2f be ed a7 d5 3d
       -0.16418278 -0.086480156 -0.17098308 0.1043242
000310 f1 7c 7a 3e d5 d6 39 bd 46 66 3d 3c c4 01 20 3e
       0.24461724 -0.045370895 0.011560028 0.15625674
000320 72 4c 5f 3e 74 5e a2 bd 34 c5 25 be 7c 8e 74 bd
       0.21806505 -0.07928172 -0.16188508 -0.059706196
000330 04 fc 2b 3e 1e 07 30 be 8d ef 86 3b 5b 89 d9 3d
       0.16795355 -0.17190215 0.004117912 0.106219016
000340 d7 52 a7 bd 28 a7 11 bd 6c 7d 05 bd 21 5f 41 be
       -0.08170097 -0.035559803 -0.032590315 -0.18883945
000350 ef 53 35 3e a3 53 d7 3c 43 52 dd 3c 9b d4 8e bd
       0.177078 0.026284998 0.027016765 -0.06974145
000360 04 de ea bb 71 a7 3d bd 8b 95 46 be 1f d0 4b be
       -0.0071675796 -0.046302263 -0.19392984 -0.1990361
000370 70 b7 48 3a 7e ca 7c 3e e2 b3 01 3e 38 33 37 bc
       0.0007656729 0.2468662 0.12666276 -0.011181645
000380 ac bf 2c be 0e 2b 45 bd db 24 3a be 06 f2 61 be
       -0.16869992 -0.048136763 -0.18178122 -0.22064981
000390 58 fa f8 bd 4f 6b 88 bd a0 73 83 3d b4 a2 33 bd
       -0.12157124 -0.066610925 0.06418538 -0.043856338
0003a0 fd 03 1c bd 56 d0 2b 3c 5f 45 09 3e 65 f0 d7 bd
       -0.03808974 0.010486683 0.13405369 -0.105438985
0003b0 b0 31 25 bd e4 e2 40 be cd da ae 3d c5 68 7a 3c
       -0.04033059 -0.18836552 0.08537827 0.015283768
0003c0 d2 32 85 bd 45 86 3a 3d 4b 70 bc 3c 47 19 a2 3d
       -0.06503834 0.045538206 0.023002764 0.079149775
0003d0 40 43 b5 bc 32 0e 84 bd 0e 0f 09 3d 53 5a 6c 3b
       -0.022126794 -0.0644802 0.033461623 0.003606458
0003e0 80 4d 28 3c 7b d2 d3 ba e9 d4 5f 3c 66 e1 cb bd
       0.010272384 -0.001616075 0.013661602 -0.09955101
0003f0 99 65 10 bd b9 74 ac bd ba 24 eb 3c f2 ed 38 3d
       -0.03525314 -0.084207006 0.028704036 0.045148797

model.bigrill.fwd_rnn.cells.0.forget_gate.mlp.bias f4 [32]
000000 df f7 17 3d 99 86 3a bd 7c 43 40 bd 0d 99 2f be
       0.037101623 -0.04553852 -0.046939358 -0.17148228
000010 de 3b 67 3d dc 2a 5e 3e 85 25 46 3d dd 78 8a 3d
       0.05645358 0.21696037 0.048375625 0.06761334
000020 4f 03 3b 3e 20 dc 1c be 7a 02 96 3d 40 f5 a8 bc
       0.18262981 -0.15318346 0.07324691 -0.020624757
000030 27 f9 3d 3d 42 ae 86 bc 53 c1 b9 3c 89 65 be 3d
       0.04638019 -0.016440514 0.022675192 0.0929671
000040 ab 9c 16 3d ef 57 80 3b 9c bc cc 3d ec 5a 92 bc
       0.036770504 0.0039167325 0.09996912 -0.01786562
000050 5a f4 31 bd 81 d7 0c 3d 9e 2f 20 be e0 d3 3e bd
       -0.043445922 0.034385208 -0.15643165 -0.04658878
000060 3b b6 8c 3c 6e 84 1e be ea 41 af bc 47 0f a0 3d
       0.017176738 -0.15480205 -0.021393735 0.07815414
000070 7c c2 eb bd 1c f1 ea bc 95 f1 99 3b e9 db 0a 3e
       -0.11511704 -0.028679423 0.0046979883 0.13560452

model.bigrill.fwd_rnn.cells.0.update_gate.mlp.weight f4 [32, 170, 1, 1]
000000 4a 15 06 be da d2 86 3e ef d5 9b bd 0e e9 c0 bc
       -0.13094059 0.26332742 -0.07609164 -0.02354863
000010 b9 e5 93 3e 30 43 01 3d 20 b4 81 3d 5b 13 80 bd
       0.28886202 0.031558216 0.06333184 -0.06253692
000020 84 67 2f be 1f 20 c4 3d 43 22 d5 bd d0 ec 99 bb
       -0.17129332 0.09576439 -0.104069255 -0.0046974197
000030 8a da 9c bd fb c3 25 3c 0d f0 5e bd 98 4a 0f 3d
       -0.076588705 0.010117526 -0.05442815 0.034983248
000040 e1 29 2a 3d 7a 05 86 bd ec 41 8c 3c f0 ed b4 bd
       0.041543845 -0.06544013 0.017121278 -0.088344455
000050 7a 61 28 3e db f2 4d 3d c9 f6 31 3e 6c 25 31 3e
       0.16443434 0.050280433 0.17379297 0.17299432
000060 2d d3 0f 3d cf 46 67 bd 79 92 f9 bd 8f b2 08 3e
       0.035113502 -0.056464013 -0.121861406 0.13349365
000070 d6 55 32 bd 3d 8a 76 3d 03 a9 c2 bd 28 42 bb 3d
       -0.04353889 0.060190428 -0.09504893 0.09143478
000080 47 69 0f be b5 47 14 be 96 3d 44 bb 5b 66 83 3e
       -0.14005004 -0.14480479 -0.0029943935 0.2566403
000090 8a bb 17 bd 74 a9 c2 bc 25 d3 8f bb 3a 70 25 3d
       -0.037044086 -0.023762442 -0.004389184 0.04039023
0000a0 5e bd 1d 3e b4 ba 31 3d 90 06 27 bd 64 fe b0 bd
       0.15404269 0.043390945 -0.040777743 -0.08642271
0000b0 af ac 0b be 89 7b 48 3e fe e2 2e 3e ed 72 10 bd
       -0.13640092 0.19578375 0.17078778 -0.03526585
0000c0 7c e6 bb bc 49 9c 9d 3d 5f 98 ec 3d 68 7c ae bd
       -0.022937052 0.07695825 0.115525 -0.08519822
0000d0 82 55 90 3d 89 9d ee bb 8d 11 15 be f0 46 05 bd
       0.07047559 -0.0072819632 -0.14557476 -0.032538354
0000e0 f1 9c d8 3c f3 bc a4 bd b4 3a 66 be 14 17 1e 3e
       0.026442023 -0.08043852 -0.22483331 0.15438491
0000f0 4b 1c 03 bc e1 b6 7c bd 31 5e 87 3c 0f a2 24 bd
       -0.008002351 -0.061697844 0.016524406 -0.040193614
000100 cd 2d e3 3b 00 88 e0 bd b2 dc b8 bd 17 9a 26 bd
       0.00693295 -0.1096344 -0.09026469 -0.040674295
000110 0b 95 0c ba f9 78 64 3d 93 f1 2f 3e ea 2a 82 bd
       -0.00053627853 0.05577943 0.17181997 -0.063558415
000120 d0 a6 cc bd 45 d9 dd 3d e8 27 b3 bc b4 c2 d6 3c
       -0.099927545 0.108324565 -0.021869615 0.026215889
000130 e8 1d 33 bd d6 66 85 bd 2f 2b 64 bd b9 30 41 3d
       -0.043729693 -0.06513755 -0.055705246 0.047165606
000140 03 45 90 3d f5 d3 08 bc 68 ff e4 3d 7a af 9a 3e
       0.07044413 -0.008351316 0.111815274 0.30212003
000150 43 ff 0a bc d2 f9 f9 bd da a2 60 3d 6b 55 10 be
       -0.008483711 -0.122058526 0.054842807 -0.14095084
000160 f2 28 3b be d6 8b cf bd 5f 09 cd 3d de fb e3 3c
       -0.18277338 -0.101340935 0.10011553 0.02783006
000170 af ac 96 bd 22 8f 76 3e b0 e5 c2 bd 27 bc 1f 3e
       -0.073571555 0.24078038 -0.09516466 0.15599118
000180 00 26 48 bc 55 27 63 3d 2f d9 fc bc 9a 75 9c bd
       -0.012216091 0.05545743 -0.03086528 -0.07639618
000190 ad 1d b2 bd 37 8c 7f 3d 8f 69 77 bd 27 cd a0 3e
       -0.086970665 0.06238958 -0.060403403 0.3140652
0001a0 47 27 a9 3d 01 8f 0c 3e a9 da 5a be 6a bb 4b 3d
       0.08259445 0.13726427 -0.21372475 0.04973928
0001b0 47 f2 a6 bd b5 5d 97 be 8a a1 35 3e 77 f2 be 3d
       -0.081516795 -0.2956368 0.17737404 0.0932359
0001c0 1e 35 05 3e 7f 5b 6b be 3d 9f 04 be e1 92 99 3d
       0.13008544 -0.22984122 -0.1295137 0.07498718
0001d0 98 d1 67 bc b9 5b 31 be c6 19 a7 bd d1 b2 dd 3d
       -0.014149092 -0.17320146 -0.08159213 0.10825122
0001e0 08 79 81 3d ae ff 0e 3a 19 76 99 3b 50 48 86 ba
       0.06321913 0.00054549694 0.004683268 -0.001024494
0001f0 71 03 ef bd 89 07 fd bd 3f 99 3f be e5 11 4d be
       -0.11670578 -0.12354953 -0.18710802 -0.20026357
000200 9c 79 fa 3c ee 07 14 bc c0 c9 25 bd ed 1b df bd
       0.030575566 -0.009035094 -0.040475607 -0.10893998
000210 b1 02 4f 3d f5 6f 28 3a da a5 d7 3d 6f 60 99 be
       0.050539676 0.00064253743 0.105296806 -0.29956385
000220 a7 ef c2 bc 6a 2b 90 3d 22 2c 87 3d 23 3f 8b 3d
       -0.023795916 0.070395306 0.066002145 0.06799152
000230 60 c9 78 bd 19 d0 76 3b 96 07 6e bd 1e b8 bf bd
       -0.06073892 0.0037660657 -0.058112703 -0.093612894
000240 0c c1 8d 3d d6 b3 c7 3c e7 f1 de ba 7e 03 18 3d
       0.069215864 0.024377745 -0.0017009348 0.037112705
000250 87 f7 b0 3d 45 6c 4b 3a 6e a0 9e bd a2 af 0b bd
       0.08640962 0.0007759969 -0.07745443 -0.034103043
000260 25 f6 13 3d 18 2f 81 bc d1 fa 3c 3d f3 b8 49 3e
       0.036123414 -0.015769526 0.046137635 0.19699459
000270 cc 4d cb bb 15 e4 5a 3d b8 d0 62 39 85 c1 7f bd
       -0.0062043425 0.053440172 0.00021630793 -0.062440414
000280 48 fc 77 bd d8 96 67 3d 38 68 86 bc 99 3e c9 3c
       -0.06054333 0.05654034 -0.016407117 0.024565982
000290 8c 7a 0d 3e 7c 3d 31 bd b6 2a 50 3e 74 8b 4f be
       0.13816279 -0.043271527 0.20328793 -0.20268041
0002a0 1c 31 b4 bd 71 1d 66 3d 22 bb c2 bd 2f 61 1b 3e
       -0.08798429 0.05618042 -0.09508349 0.15173791
0002b0 64 84 4d be 30 b7 87 be 08 aa cc 3e 63 f6 cb be
       -0.20070034 -0.26506948 0.39973474 -0.39836416
0002c0 8f 95 50 3c 0f 09 ab 3e 6e 03 28 3e af b5 c7 bc
       0.01273097 0.3340535 0.16407558 -0.024378626
0002d0 46 0c 5e 3e a1 ae aa be cb ab 6d bd 34 3a 4d 3d
       0.2168437 -0.33336356 -0.058025163 0.050104335
0002e0 ac 72 c2 bb c7 ed f4 3e 74 19 26 3d bf 4c 95 bd
       -0.00593408 0.4783766 0.040551618 -0.07290029
0002f0 c6 a3 a7 bd 61 60 19 be ca 5d b6 3d 2b ac 69 3c
       -0.08185534 -0.14978172 0.089046076 0.014262239
000300 37 79 a0 3e 21 4f 87 3e 94 e9 41 be 33 31 a5 3e
       0.3134248 0.26427558 -0.18936759 0.322641
000310 25 fc da be 3b 9b 94 3e 81 33 72 be 3f b2 23 bd
       -0.42770496 0.2902468 -0.2365246 -0.03996491
000320 bc ea f5 be 3a e1 e1 3d c3 f3 01 3e f4 f6 eb 3d
       -0.4803065 0.11029287 0.12690644 0.11521712
000330 33 2a 91 3b 15 0e 70 3d b7 54 89 bd 8e d1 6a be
       0.0044300794 0.05860718 -0.06705611 -0.22931501
000340 aa 7d b9 3d 8f d7 8b bd 1f 70 cf bd 87 85 c0 3d
       0.09057172 -0.06828224 -0.10128807 0.09400468
000350 89 3e 53 be 57 e1 df 3d 9f b0 44 3e 75 51 94 bd
       -0.20629324 0.10931652 0.19208 -0.07242099
000360 3d cb 28 bd 5f 1d 35 bd 2c fd 02 bd 9e 3d 97 3e
       -0.041209448 -0.044217464 -0.031979725 0.29539198
000370 11 6c 1f bd ea 66 06 be 3d 70 7b 3d b3 9f 0b 3e
       -0.03892142 -0.13125196 0.061386336 0.13635139
000380 45 6e c8 bd d0 1b 8c bb 98 cb a0 3d a9 51 a5 3d
       -0.09786657 -0.0042757764 0.078513324 0.08072216
000390 50 76 2f 3e db bc 90 3e c9 ff 41 be 99 be cd 3e
       0.17134976 0.28269085 -0.1894523 0.40184477
0003a0 25 76 c1 bd bc 35 19 3e 41 7a 50 be 55 b5 28 3e
       -0.094463624 0.14961904 -0.20359136 0.16475423
0003b0 ef d6 ee 3d 60 3f 62 3e 9f c9 f5 bc 45 46 ed bc
       0.11662089 0.22094488 -0.030003367 -0.028964171
0003c0 c6 f5 2d bd ff be 19 be e0 d9 9b 3d 2e 09 57 3e
       -0.042470716 -0.15014265 0.07609916 0.20999596
0003d0 5d 56 14 bc 2f cd 2b 3e 54 19 ea bd ec 2c d6 bc
       -0.009053794 0.1677749 -0.11430612 -0.026144467
0003e0 58 f7 b3 3d 5e b6 87 3c 91 74 e1 3d 11 dc 22 3d
       0.087874115 0.016566452 0.110085614 0.039760653
0003f0 1e d5 14 3c e5 98 c3 3d cb 31 4b bb 8f 00 54 bd
       0.009084014 0.09550647 -0.003100502 -0.051758345

model.bigrill.fwd_rnn.cells.0.update_gate.mlp.bias f4 [32]
000000 06 26 3e 3e cf 73 8d 3e 40 56 63 3e e4 1b d5 3c
       0.18569192 0.27627417 0.2220087 0.026014276
000010 1f 91 82 3c 40 f0 71 3d 7b 46 3b 3d bb 6a 10 be
       0.01593834 0.05906701 0.045721512 -0.14103214
000020 ad 23 4d be 62 a8 27 bd dc b7 82 bd b7 62 b7 3d
       -0.2003314 -0.040932067 -0.06382725 0.08954375
000030 f4 d7 1b be 5c 2c 7d 3e fb 98 97 3d 5c 35 07 3e
       -0.15219098 0.24723953 0.074022256 0.13203949
000040 48 90 f8 3d 1c 72 19 be b4 66 b6 3d a0 46 93 3e
       0.121368945 -0.14984936 0.08906308 0.2876482
000050 41 b5 1d 3e 23 e9 3d 3e ca 15 8c 3e 5c e8 b9 bd
       0.15401174 0.18545966 0.27360374 -0.09077522
000060 76 e5 e7 3c cd 85 ec 3c 46 95 18 bd ba 31 77 be
       0.028307658 0.028872395 -0.037251733 -0.24140063
000070 1f 9f 86 3e 4b 74 65 3d d6 db 50 3e 23 1b 2f 3e
       0.26293275 0.05601911 0.20396361 0.17100196

model.bigrill.fwd_rnn.cells.0.c_gate.mlp.weight f4 [32, 170, 1, 1]
000000 91 24 82 3d 27 b5 f2 3d c9 f7 90 bd f0 0a a3 bc
       0.06354631 0.11850958 -0.07078511 -0.019902676
000010 aa 24 b3 3c 04 d4 25 3b c6 74 b3 bd 1c 33 af 3d
       0.021868069 0.0025303373 -0.08762507 0.0855467
000020 67 f3 bb 39 fe 6e c5 bd 5d 2b 32 bd 60 23 6b bc
       0.00035848768 -0.09640311 -0.043498386 -0.014351696
000030 9a 6e dc 3c 10 c5 81 bc 25 b8 e7 bd ba 44 cc 3d
       0.026908208 -0.015841037 -0.1131442 0.09974046
000040 db 51 31 3d 07 31 31 bc bd ff 29 3b b7 20 80 bd
       0.043290954 -0.010814912 0.0025939785 -0.0625624
000050 7b 27 ad 3d b2 9b 72 3d db 93 9e 3d e9 83 27 3d
       0.08454796 0.059230514 0.07743045 0.040897284
000060 3c bc 97 3b 97 62 2f bd 3c bc 08 be 32 87 eb bb
       0.0046305936 -0.042818632 -0.13353056 -0.0071877474
000070 4b 47 ba bb 71 98 0e 3c 52 36 8b 3d cc 91 b3 bd
       -0.0056847683 0.008703337 0.0679747 -0.08768043
000080 bc ac 9b 3b 24 06 df 3c b5 72 4d 3d b4 1f 05 3e
       0.004750816 0.027224608 0.05015822 0.13000375
000090 b8 36 1a 3d 28 de 13 3c f1 e7 26 bd fb 25 79 3d
       0.03764984 0.009025134 -0.04074854 0.060827237
0000a0 8b dc cb 3c fd 05 df 3d f6 21 85 3c 0f 7a 4e 3d
       0.024885437 0.10889814 0.016251545 0.050409373
0000b0 9e 6b 82 3d 8c 3c 0c bc 95 e6 2e bc 3e 70 a8 bc
       0.063681826 -0.008559357 -0.010675092 -0.020561334
0000c0 93 ba a6 bb 36 23 ba 3d 20 5d 04 3d b2 73 18 bd
       -0.0050881593 0.09088747 0.032315373 -0.03721971
0000d0 65 0e e7 3c 0f ef f0 bd 2b b9 8d bc 06 e2 0e 3e
       0.028205106 -0.11764347 -0.017300209 0.13953409
0000e0 cf 8a 4d bc fd a2 c8 3c f0 43 4e 3d 64 0f 80 3d
       -0.012545302 0.024491781 0.05035776 0.062529355
0000f0 9f f5 a5 3c bb f1 95 3c db 58 b8 ba b9 4b 79 bb
       0.020258723 0.018303743 -0.0014064567 -0.003803952
000100 25 68 7d 3d 2a d7 31 3c 4d 57 fc 3c dc be d7 bd
       0.061866898 0.010854522 0.030803347 -0.105344504
000110 fc 0d 4a 3d 14 1e 4a bd 8c 7a 37 3d af 1b af bc
       0.049329743 -0.04934509 0.044794604 -0.021375505
000120 b7 e2 88 bd 57 03 57 bd 61 46 5c bc ec 96 cd 3c
       -0.066838674 -0.05249342 -0.013444514 0.02509638
000130 81 72 83 bd 1e ef 8b bd 65 3a a5 3c 33 d8 0e 3d
       -0.06418324 -0.06832717 0.020169446 0.034874152
000140 0b 09 c9 bd 35 8b 44 3d 7f 64 27 bd 24 c0 03 3e
       -0.09816178 0.04798432 -0.040867325 0.12866265
000150 02 58 49 bd fa 4d a8 3d 84 be 22 bd df eb 00 be
       -0.049156196 0.08217998 -0.03973247 -0.12589978
000160 07 f0 95 3b 91 2e 83 3d 27 fa a7 3d a8 f1 77 3b
       0.0045757326 0.06405366 0.0820201 0.0037833247
000170 cf af f1 3c 13 aa 72 bc 5f 29 ba 3d 20 82 d7 bd
       0.029502777 -0.014811057 0.09089922 -0.10522866
000180 d9 a9 2c bd 1c e8 cf 3c bd 08 9a bd 80 9c e6 bc
       -0.042154167 0.025379233 -0.07521198 -0.028150797
000190 46 01 ec bc c2 23 a9 bd 03 a6 8d bc e9 94 53 3e
       -0.028809201 -0.082587734 -0.017291075 0.20662273
0001a0 ff 1a 10 3c a7 84 21 bd 25 f5 9c 3c 90 b4 96 bc
       0.008795499 -0.039433148 0.019159863 -0.018396646
0001b0 f6 19 c2 bd 03 d6 1a 3e 12 67 71 bd 9b fb 18 3d
       -0.09477608 0.15120701 -0.058936186 0.037349325
0001c0 48 99 90 3d 98 fa 10 bd ef 7e 93 3c c0 be f6 bc
       0.07060486 -0.035395235 0.018004863 -0.030120254
0001d0 a1 0d e4 bd 25 c3 03 3e 12 18 bc bc f8 72 f0 3c
       -0.11135412 0.1286741 -0.022960696 0.029351696
0001e0 f1 f6 83 3d c3 96 74 bc ca d7 14 3e 51 48 3a 3c
       0.06443585 -0.0149285225 0.14535442 0.011369781
0001f0 1b 97 7d bb d7 84 2d 3b 9a ba 7b 3d f3 5a 91 3d
       -0.0038694802 0.0026476884 0.061457254 0.07097425
000200 43 bd 80 bd 22 f5 c3 bc 32 3b 85 bd b2 68 50 3a
       -0.06286099 -0.0239206 -0.06505431 0.0007950171
000210 42 10 b6 3d fd 31 8f 3b ca 2e 3e 3d 90 cd 1c bd
       0.0888982 0.0043699727 0.04643134 -0.038281977
000220 d4 82 b5 3d ca 60 d1 3c 1c 10 ce bd 88 cf cb bc
       0.08862844 0.025558848 -0.10061666 -0.024879232
000230 19 31 9a bc b1 5d 03 3e 78 52 9c bd 27 4a 84 3d
       -0.01882224 0.12828709 -0.07632917 0.06459456
000240 65 6c ad bd 86 e5 35 bd 81 81 63 bd e5 02 6b 3c
       -0.0846794 -0.044408344 -0.055543426 0.014343952
000250 14 e1 8e bc ad 5f d1 3c c9 e2 3a bd 4f 75 71 bc
       -0.01744131 0.025558317 -0.045626435 -0.014737441
000260 46 8f 40 bc 4a 98 f5 bc 4d be 75 3d 39 28 3a 3c
       -0.011752909 -0.029979844 0.059995938 0.011362129
000270 1b 5c 34 3d b7 ab d6 3c 1c be 22 3c 66 08 21 3d
       0.04403315 0.026204927 0.009933021 0.03931465
000280 5c e8 92 3d ab f1 8d bd 11 2b 72 bd 77 61 1b 3c
       0.07173225 -0.0693086 -0.059123103 0.009483687
000290 9e 5c ae 3c 9d 90 99 bd 28 e4 03 3d e5 92 ac bd
       0.021284398 -0.07498286 0.03220001 -0.084264554
0002a0 3d 03 00 bc 36 95 50 bd 2a 07 8d 3c 6d c3 57 be
       -0.007813272 -0.05092355 0.01721533 -0.21070643
0002b0 b8 63 09 be ce 99 68 3d bc c2 4c be df d0 a1 3b
       -0.13416946 0.056787305 -0.1999616 0.0049382295
0002c0 89 4e ce bd 3f 8e 5b 3e a9 28 80 bd 0e 15 36 3e
       -0.10073573 0.21440981 -0.06257755 0.17781469
0002d0 c6 51 59 bd 01 de 25 ba 4c 80 5c be 4d 25 bb bd
       -0.0530565 -0.00063273316 -0.21533316 -0.09137974
0002e0 88 e2 87 be 61 25 05 3e c7 ff 41 bd 7e b2 56 3e
       -0.26540017 0.1300254 -0.04736307 0.20966527
0002f0 87 cf f5 bd 84 77 b8 bd 54 ed b1 3e 0a bf e9 bd
       -0.12002473 -0.09007171 0.3475138 -0.11413391
000300 3e 26 66 be 21 99 58 bd 28 85 0f be 16 c6 b4 bd
       -0.22475526 -0.05288041 -0.14015639 -0.088268444
000310 8e bc 33 3d 77 07 b5 bd 33 9f 11 3d 4f ab b2 bd
       0.04388099 -0.088393144 0.035552215 -0.08724081
000320 46 05 98 3e 0f 5a ad 3d ae dc 34 3e d6 36 c6 3d
       0.29691523 0.08464443 0.17662308 0.09678428
000330 bb c5 10 bc b1 d7 b4 3c b5 9f ad bd 1c da 9b 3d
       -0.008836205 0.022075506 -0.08477727 0.076099604
000340 1e f7 76 bd 19 65 8c bd 53 4a eb bc 77 2e 8c bd
       -0.060294263 -0.0685522 -0.028721964 -0.068448
000350 6e 2d a7 bd 87 6b b4 3d ea 73 58 bd b5 54 69 be
       -0.08162962 0.08809572 -0.05284492 -0.2278622
000360 b3 9f e0 3c 2a 4f a0 ba 50 b6 c6 bd ba 91 68 3d
       0.0274199 -0.0012230624 -0.09702742 0.0567796
000370 f2 2d a9 3c 29 eb 68 3d d1 9a b9 bd d3 a7 84 bd
       0.020651791 0.05686489 -0.09062732 -0.064773224
000380 e6 6e 17 3f d8 57 dc bc 31 aa 8c be d7 96 45 3d
       0.5915359 -0.026897356 -0.27473596 0.048239555
000390 b8 cc 22 3d 77 32 d0 bd 4d 66 26 3e 5b ee f5 bc
       0.039746016 -0.101658754 0.16249962 -0.030020883
0003a0 3c 98 80 3e 4c 1f f6 bd f7 09 a6 3e 0e 7b bc 3d
       0.25116146 -0.12017688 0.32429478 0.09203158
0003b0 48 a9 ca bd 30 ac a7 bd 21 b8 30 bc 3a c6 66 bd
       -0.09895569 -0.08187139 -0.010786087 -0.056341387
0003c0 c2 ed 44 3c 66 61 80 3c ae ea cc bd 0f 6e b9 bc
       0.0120195765 0.015671443 -0.10005699 -0.022635488
0003d0 40 ab 45 bd c5 e3 2a be 83 9b 79 bd 65 0a a7 3d
       -0.04825902 -0.1668845 -0.060939323 0.081562795
0003e0 73 6c e9 3c 00 b9 fe 3d 57 6a 31 bd b5 fb 53 3d
       0.028494095 0.1243763 -0.043314304 0.05175372
0003f0 77 80 7b bd fe 47 0d 3e fc 64 d7 bc 87 3c 4a 3e
       -0.06140181 0.13796994 -0.02629327 0.19749652

model.bigrill.fwd_rnn.cells.0.c_gate.mlp.bias f4 [32]
000000 01 e8 a2 3a a5 97 91 be 16 31 8d 3d 66 e2 bb bd
       0.0012428762 -0.28436008 0.06894128 -0.091740415
000010 90 c4 84 3d 08 88 01 3e de 95 88 3b 26 0f 8f bd
       0.06482804 0.12649548 0.004168256 -0.06985311
000020 81 e0 5d 3e 73 24 b5 3d 14 87 3b bc de 1b 0a bd
       0.21667673 0.08844843 -0.011445779 -0.033717982
000030 44 cc b8 3e 56 a7 e0 3d 13 ac 8c bd de c5 ce bd
       0.36093342 0.10969417 -0.06868758 -0.10096334
000040 ee 1e e4 3d 50 f8 c8 bd e7 0e b7 3c ec 58 a2 3d
       0.11138712 -0.09812987 0.022345973 0.07927117
000050 5e b5 5d 3d a7 88 30 3e 1b f5 fc bc 7d 26 c5 bd
       0.054128043 0.17239629 -0.030878594 -0.09626482
000060 f4 e5 61 3c 53 c5 f1 bc db 35 43 be fc cd 13 be
       0.013787735 -0.029513037 -0.19063513 -0.14434046
000070 cb 86 3f be 9f 6d d4 3d 4a 4d b0 3d 1d 51 8c bc
       -0.18703763 0.10372471 0.08608492 -0.017128522

model.bigrill.fwd_rnn.first_stage.weight f4 [1, 32, 1]
000000 c6 9e 40 3f cb 01 81 bf 1a d0 36 bf 13 d0 48 3f
       0.7524227 -1.0078672 -0.7141129 0.78442496
000010 55 78 59 3f f2 94 21 3f 19 72 9b bf 0c b0 6b bf
       0.8494924 0.631179 -1.2144195 -0.920655
000020 6b df 58 bf 00 a3 4f 3f 6f 5d 58 3f ec d8 b7 be
       -0.8471591 0.81108093 0.8451757 -0.35907686
000030 98 8e 1b 3f 5c 27 63 3f 99 93 4d 3f 43 a2 97 3f
       0.60764456 0.8873193 0.8030334 1.1846393
000040 97 13 2e 3f 2f 50 94 bd 24 87 6e bf 02 d8 64 bf
       0.6799864 -0.07241856 -0.9317496 -0.893921
000050 b9 ef be 3e 81 a0 02 3f 6d 5d 32 bf e2 75 5e 3f
       0.3729227 0.5102616 -0.69673806 0.86898625
000060 88 14 7a 3f 9e 4a 60 3f f9 35 64 3f e0 64 6b 3f
       0.9768758 0.87613857 0.89144856 0.919508
000070 1f a2 fd 3d 9c e9 3f bf fb c9 40 bf 49 cb ac be
       0.12384438 -0.74965835 -0.753082 -0.33748844

model.bigrill.fwd_rnn.spatial_decoder.lin_in.weight f4 [32, 34, 1]
000000 9f 45 be 3d 5d d6 0e be 66 55 2c 3e dd d0 2a 3e
       0.09290623 -0.1394896 0.16829452 0.16681238
000010 33 3f 23 bd 2b f3 4d 3e ab b0 25 3e 8d 8b b2 be
       -0.039855193 0.20112292 0.16180675 -0.34872094
000020 b8 ca 83 3e c5 d9 0a be ff d8 6f bd 48 91 97 be
       0.257406 -0.13559635 -0.058556553 -0.29603028
000030 5e 16 84 3e 12 42 c1 bd 31 a2 60 bd 72 dc 0b be
       0.25798315 -0.0943643 -0.054842178 -0.13658312
000040 17 0e 54 3e e0 a6 64 3e a8 75 9b 3c ca fc 65 be
       0.207085 0.22329283 0.018977001 -0.22459713
000050 0c 0c b2 bd 44 b6 ab 3d 0c 10 87 bc e6 22 cc be
       -0.08693704 0.08384374 -0.016487144 -0.39870375
000060 09 c8 65 bc d2 18 be bd 90 c1 c7 3c 22 03 42 3e
       -0.014024743 -0.09282078 0.02438429 0.18946508
000070 e6 94 a8 3c 1b 29 30 bd bf 2d 16 bc c0 a2 dc bd
       0.020578813 -0.04300795 -0.00916618 -0.107732296
000080 24 62 dc bc c0 0f 85 be 9f 30 aa 3d 75 bf 07 bd
       -0.026902266 -0.2598858 0.08310055 -0.033141572
000090 28 ad 49 bb fc e9 58 3e 87 57 52 bd 08 03 1a be
       -0.0030773375 0.21183008 -0.051353004 -0.15040219
0000a0 8f 85 56 bd 44 8d fd be 18 aa 6d 3d 17 25 a1 3c
       -0.052373465 -0.4952184 0.058023542 0.019671006
0000b0 cd d4 49 3e 15 a5 2c bf f4 bd 9a be 28 16 07 3e
       0.19710083 -0.67439395 -0.30223048 0.13192046
0000c0 2b ff 16 bf b6 f2 bb bd c4 39 52 be c7 37 51 3e
       -0.58983105 -0.09177153 -0.20529848 0.20431434
0000d0 90 86 00 3e 34 05 20 3e 6d 2f 4b bc e7 01 55 3d
       0.12551332 0.15626985 -0.012401444 0.052003767
0000e0 5f a7 36 3e b6 67 8f be 5c 85 df 3d d2 b4 f2 bd
       0.17837285 -0.28008813 0.10914108 -0.11850895
0000f0 3b b1 ff bd 2f f5 32 be b4 6f 2b be 33 20 c9 3c
       -0.12484976 -0.17476343 -0.1674183 0.024551487
000100 46 34 8a be 77 4c 2c 3b 1a a6 69 3e 96 1e a9 be
       -0.26993006 0.0026290694 0.22817269 -0.33031148
000110 34 7c 44 3d 3c a2 69 bd 08 a6 49 3d 0d cf 26 3e
       0.04797001 -0.057039484 0.049230605 0.16289921
000120 f3 da b8 3c 0a 3a d0 36 b4 df c3 3d d9 68 d9 be
       0.02256534 6.2056397e-06 0.09564152 -0.42462805
000130 dd 70 40 3e 1e b2 ce bd 69 33 2b 3e 65 d1 9b be
       0.18793054 -0.10092567 0.1671883 -0.30433193
000140 89 55 29 3e a0 13 cb bb e8 7b 91 3d 9a 57 f3 be
       0.16536535 -0.006197408 0.07103711 -0.47527772
000150 2c c6 c2 3d d8 49 b3 3e f6 26 30 3e 44 0f 86 be
       0.095104545 0.35017276 0.17202362 -0.26183522
000160 d5 f1 a6 be 65 63 13 3d 56 3b 30 be 8d 5f 0b bf
       -0.32606378 0.035983462 -0.17210135 -0.54442674
000170 b5 e8 b7 bd 33 00 6d 3d 95 15 f4 3d f8 20 fe bc
       -0.08979932 0.057861518 0.11918179 -0.03102158
000180 d7 7d 16 3e dd f2 ff bd 61 b8 ee bc 42 76 48 be
       0.14696442 -0.12497494 -0.029140653 -0.19576362
000190 99 8b ea bd b7 0f 8c be ba f9 ba 3d b3 08 eb 3d
       -0.114524074 -0.2735574 0.09129663 0.114762686
0001a0 68 e2 11 be f2 b6 66 bd d8 7b 5c bd 92 32 8a bd
       -0.14246523 -0.056326814 -0.053829044 -0.06747927
0001b0 8b 58 28 be 20 dc 7d 3e 94 01 94 be 32 6a bf bd
       -0.16440026 0.24791002 -0.28907454 -0.09346427
0001c0 40 2f 0e 3e 28 d5 28 3d fa a9 9c be b4 67 23 be
       0.13885212 0.041218907 -0.30598432 -0.15957528
0001d0 6b 64 11 be 20 58 90 3e 8f dc f4 bd 00 15 ae be
       -0.14198463 0.28192234 -0.11956131 -0.34000397
0001e0 68 06 7a be 79 2f b6 3e 91 3b 6a 3e e7 b0 8a 3d
       -0.24416506 0.35583094 0.22874285 0.06772023
0001f0 fe ae d8 3e f5 93 27 3f c6 2b a6 3e 3c 93 ab bd
       0.42321008 0.6546014 0.3245527 -0.08377692
000200 c9 3a 93 bd 37 26 f8 3b ef be 40 be 45 76 51 3d
       -0.07188947 0.007572915 -0.18822835 0.05113818
000210 42 35 52 be bd 0e 9b 3c 78 ea f7 3d 6f c0 de 3e
       -0.20528129 0.018927926 0.12105268 0.4350619
000220 54 89 97 3d ce 16 a6 bd 32 c5 0f 3e 31 bb 97 3d
       0.0739924 -0.081098184 0.14040068 0.07408751
000230 88 ae ef 3c c3 81 0c 3d 73 bf 4e 3e 55 0e 04 bd
       0.029258028 0.034303438 0.2019022 -0.03224023
000240 31 d8 15 3d f4 9b 09 be 34 55 43 be 3e 9a bf 3d
       0.03658313 -0.13438398 -0.19075471 0.09355591
000250 a5 ae 3a 3e fe 26 58 3d 8f d0 d9 3d 47 89 b6 be
       0.18230684 0.05277156 0.106354825 -0.3565161
000260 ee be 9c 3d 6b 77 8e 3e 4b 44 53 3e 9a f0 b3 be
       0.076536044 0.27825484 0.2063152 -0.35144502
000270 38 26 9d be 09 36 e8 bc b2 1c 16 bd 94 58 cf be
       -0.3069322 -0.028346078 -0.03664846 -0.40497267
000280 23 03 ae bd 03 1c d7 3d 3b 68 11 be 50 ba 38 3e
       -0.08496692 0.1050339 -0.14199917 0.18039823
000290 60 cc 85 3e 3c 6a ad 3d 75 2a e6 3d b1 70 20 bd
       0.26132488 0.08467528 0.11238567 -0.03916997
0002a0 8e 4c ab be 29 7f 85 be 30 22 19 3e bd ca 3b be
       -0.33456844 -0.26073578 0.14954448 -0.18339057
0002b0 8f d8 1b 3e a4 93 87 bd b0 23 15 3e b1 1e b6 3d
       0.1521933 -0.06619957 0.14564395 0.08892573
0002c0 fc 07 84 3e 66 21 cc bd e9 3a d4 3d 49 f6 f4 bd
       0.25787342 -0.09967308 0.10362799 -0.11961038
0002d0 60 b8 54 bd c2 51 11 3d 93 f2 d2 3d bf ec 61 bd
       -0.051933646 0.03547836 0.103001736 -0.05515742
0002e0 b6 ab 4d bc 0d 0c 8c be ab a0 16 3e 91 82 3a 3e
       -0.012553146 -0.27352944 0.14709727 0.1821387
0002f0 9c b3 d4 bc 51 c9 9d be 75 98 0e be d4 59 37 3d
       -0.02596455 -0.30817655 -0.13925345 0.0447634
000300 42 f7 14 be e2 b2 a1 be aa bb 85 bd ba ca 1f 3e
       -0.14547446 -0.3158179 -0.06529935 0.15604678
000310 fe ab 31 be b7 27 85 bd 73 b9 ad bb df 78 01 bd
       -0.17350766 -0.06501716 -0.0053016483 -0.031609412
000320 33 35 90 bd da 06 a1 3c d2 94 f7 bd 0a cc 76 3d
       -0.07041397 0.019656587 -0.12088932 0.06025318
000330 ae f7 44 bd 10 e5 e1 bd e3 c4 4e be 1d 9c 31 be
       -0.04808777 -0.11030018 -0.20192294 -0.17344709
000340 42 a3 50 3e 21 f5 3b bd 70 92 02 be 12 15 f6 3d
       0.20374778 -0.04588807 -0.12751174 0.120157376
000350 39 6b bd be 6d 2e 2a bd a5 f5 1a 3d cc 86 55 3e
       -0.36995867 -0.04154818 0.03783192 0.20852202
000360 00 78 c6 3c 2a 5c 23 3d 62 38 57 be bd b8 a2 3e
       0.024227142 0.039882816 -0.21017602 0.3178157
000370 29 83 8a be b6 96 15 be e3 20 57 bd 35 89 92 3d
       -0.27053192 -0.14608273 -0.052521598 0.071550764
000380 11 11 41 3e c4 fb 60 3e af 0c 5a 3e 1f 3a 92 3e
       0.18854167 0.21971041 0.21293901 0.28559968
000390 f9 d7 7c 3e 1a a8 b0 bd 03 f6 aa 3d d0 77 67 3d
       0.24691762 -0.08625813 0.08347704 0.056510746
0003a0 78 b0 b4 bc 1e c0 29 3e 2e 68 7d be e2 54 d1 3c
       -0.022056803 0.16577193 -0.24746773 0.02555317
0003b0 e8 2b 96 3e c4 7b b5 3d 3e 1e da bd 4d c4 02 be
       0.29330373 0.08861497 -0.106502995 -0.12770195
0003c0 6b 71 33 be f6 74 b6 3d 51 44 1a 3d e2 a9 3a 3d
       -0.17523734 0.08909027 0.037662808 0.04557217
0003d0 36 69 77 bd 86 9d 72 3e e4 65 21 bd 56 a4 98 3d
       -0.06040307 0.23692903 -0.03940381 0.074532196
0003e0 01 56 5b 3e 20 3b cc 3d f1 03 a3 bd 54 7b 46 be
       0.21419527 0.09972215 -0.07959736 -0.19382983
0003f0 56 bf 33 be 29 27 e1 3d fc 3a 66 be b3 ee 47 be
       -0.17553458 0.10993797 -0.22483438 -0.1952465

model.bigrill.fwd_rnn.spatial_decoder.lin_in.bias f4 [32]
000000 7f fd 40 3e 40 e6 80 bd fc fb b1 3d d5 ff 9d be
       0.18846701 -0.06293917 0.0869064 -0.30859247
000010 ff 34 10 3e fc 50 b2 3d 32 0c b1 bc 41 d0 7e be
       0.14082716 0.08706853 -0.02161226 -0.2488413
000020 50 a5 4e 3e 6c a2 21 3e 00 cd 3f be 2e a9 cc bd
       0.20180249 0.15784615 -0.18730545 -0.09993206
000030 f5 b5 03 3e c8 c3 66 be f0 5b 30 3e 6c 15 43 be
       0.1286238 -0.22535622 0.17222571 -0.1905114
000040 dd 59 11 bd 01 12 ae bd 95 66 19 3d d5 92 a3 bd
       -0.03548609 -0.08499528 0.037451345 -0.0798699
000050 c6 28 04 bd 27 10 ea bd 8c f8 5e 3c b1 c0 4f be
       -0.032265447 -0.11428862 0.013609063 -0.2028835
000060 e9 4a 48 be 40 7f cb bd 87 14 f7 3d 2c 75 d2 3c
       -0.19559826 -0.099363804 0.12064462 0.025690638
000070 b6 44 54 3e 01 7a 1c bd 8e d1 77 3e ff 8e 33 be
       0.20729336 -0.03820229 0.24201033 -0.17535017

model.bigrill.fwd_rnn.spatial_decoder.graph_conv.mlp.weight f4 [32, 64, 1, 1]
000000 3c 20 ae 3d 3e 6c dd bd 70 3b 42 3d 5d 4e 78 be
       0.08502242 -0.10811661 0.047419965 -0.24248643
000010 b2 60 08 3e 2c 77 c7 3d c4 55 f9 bd 82 3b da bd
       0.13318136 0.09739527 -0.121745616 -0.106558815
000020 8a 94 d4 bd 99 79 ad 3c 89 eb 2f bd 2d 0b 38 3d
       -0.10379894 0.021176146 -0.042949233 0.044932533
000030 c8 d1 5a 3d 07 5f d3 bd 22 fd 49 bb b9 23 6f 3d
       0.05342272 -0.103208594 -0.0030821045 0.058383677
000040 f4 5d 5f 3d 55 86 a7 bd 8a c9 e7 bd 97 4c 48 3d
       0.05453296 -0.08179919 -0.113177374 0.048901167
000050 db 78 b4 3d 55 3a d4 bd 21 f1 02 3e ff f0 f7 bd
       0.08812114 -0.103626885 0.12787296 -0.12106513
000060 5b c0 14 3c b0 64 66 bd c9 c5 d5 3d 7c 9d 28 bd
       0.009079064 -0.056248367 0.10438115 -0.041165814
000070 15 22 da 3d 82 78 c1 3d 99 03 c1 3d 39 43 10 bd
       0.10651032 0.09446813 0.09424514 -0.03522036
000080 bc 72 fe 3d 33 da 2c 3c 9c fd 11 3e c0 fb 70 be
       0.124242276 0.01055007 0.142569 -0.23533535
000090 c0 10 92 bd f2 f1 55 3d 67 68 a1 3d 08 20 05 bd
       -0.07132101 0.05223269 0.07881241 -0.03250125
0000a0 97 93 47 bc 0a 31 57 3e 51 c3 c1 bd 42 0b b0 ba
       -0.012181184 0.210148 -0.09461082 -0.001343109
0000b0 a5 14 23 bc 4b 4e bb be a4 69 19 3e 35 ff a3 bd
       -0.0099536525 -0.3658317 0.14981705 -0.08007661
0000c0 13 5a 11 3c 38 29 59 3d 9d 04 d0 3b 6f 4a f0 3d
       0.008871573 0.053017825 0.006348206 0.11732947
0000d0 3f f4 52 be cb 55 26 be 44 9d 9a 3d 26 44 78 3d
       -0.20600985 -0.16243665 0.07549527 0.060611866
0000e0 41 d0 2a bd 31 4d d0 3d 93 c9 02 3e c9 dc 41 bd
       -0.041702513 0.10170973 0.12772207 -0.047329698
0000f0 d3 b7 ca 3d 40 4c b8 3d 03 1e 7f 3d 71 1b ef bd
       0.09898343 0.089989185 0.06228448 -0.11675156
000100 1c e8 a9 bd bc 14 8d 3c be db 65 bd da 96 7b 3e
       -0.082962245 0.017221801 -0.056117766 0.24569264
000110 fe f8 bc bd 95 ee d1 bc ad 3b d5 3b 33 bc 10 3e
       -0.09227179 -0.02562646 0.006507358 0.14134292
000120 96 68 6d 3d 10 1e 45 be e8 e4 18 3e 82 6c cf 3d
       0.05796107 -0.19249749 0.14931071 0.10128118
000130 7b d0 3d be 8b e5 0b 3e 12 4d 29 3d 06 bf f8 3d
       -0.1853656 0.13661782 0.041333266 0.1214581
000140 b3 98 ae bd c1 17 ad 3d ed c8 ae bd 05 31 b3 bc
       -0.08525219 0.08451796 -0.08534417 -0.02187396
000150 82 64 bb bd 43 e3 24 3e ae 6f cf bc ce be 04 3e
       -0.0915003 0.16102318 -0.025321808 0.12963411
000160 f2 75 5f bd b5 ec bb 3d 6f fa 8f 3c 04 b8 70 bc
       -0.05455584 0.09176008 0.01757547 -0.01469231
000170 86 c2 18 be c7 3b 01 be 6c a3 0c be ea 49 42 3e
       -0.14917955 -0.1262046 -0.13734215 0.18973508
000180 c6 05 2c bd ee f7 52 be bc ac de bd fa 81 2f 3e
       -0.041997693 -0.2060239 -0.1087279 0.17139426
000190 ce eb d5 bd fe 52 1a bd e1 8a bd 3b be 7b 67 3c
       -0.10445367 -0.037676804 0.005784378 0.0141286235
0001a0 ce b1 83 bd 4a a7 a6 be a8 56 d3 3d 9c f9 67 bd
       -0.06430398 -0.32549506 0.10319263 -0.05663453
0001b0 60 3f cb bd fb 2e a1 3e a5 b6 50 3d 8f 87 12 3d
       -0.09924197 0.31481156 0.050955433 0.03577381
0001c0 ea 71 9d bd 8b f9 ed bd 24 48 e8 3d af b4 f0 bd
       -0.07687743 -0.11619862 0.11341885 -0.11753213
0001d0 48 da 67 3e 12 2c 19 3e cc f9 88 3d d1 08 2a 3e
       0.22641861 0.14958218 0.0668827 0.16604926
0001e0 4c b2 05 3e 39 d9 89 be c8 7f 82 bd c8 8c be 3d
       0.13056296 -0.2692354 -0.063720286 0.09304196
0001f0 e0 5d 2c be 72 ff ee bd 60 80 0a be 64 a7 ca 3e
       -0.16832685 -0.11669816 -0.13525534 0.39580834
000200 c3 0d 20 3d 17 d5 45 bd b3 24 2f bc 11 90 0a 3e
       0.039075624 -0.04829892 -0.010689902 0.1353152
000210 9a 13 7f bd 29 a7 5c 3d 11 26 e8 3c 31 12 8f 3d
       -0.062274553 0.053870354 0.028338464 0.069858916
000220 ef c8 98 bd e1 11 66 bc 7b 81 06 3e de 64 07 bc
       -0.074602 -0.014042349 0.1313533 -0.008263795
000230 58 c1 13 bd 46 0a 04 3e 32 60 01 be c5 84 2f 3e
       -0.03607306 0.12894544 -0.12634352 0.17140491
000240 7a f9 25 be d9 1f dc bc f3 60 08 3e e6 00 e3 bd
       -0.16208449 -0.026870655 0.13318233 -0.11084156
000250 ff d5 ad bd e8 8e 4d 3e ab 53 1b be 82 ce f8 3d
       -0.08488082 0.20074046 -0.15168636 0.12148763
000260 c5 db 82 3d ce 8b 7c bc 09 3f 78 3d ca ec ac 3d
       0.06389574 -0.015414191 0.06060699 0.084436014
000270 f3 0a 84 3d 9a 82 d6 bd a5 76 ff bc 83 c1 2d 3e
       0.06447401 -0.10474129 -0.031184504 0.1696835
000280 65 cb c6 bd af 39 48 be 00 12 74 bc 27 35 22 3e
       -0.09706763 -0.19553255 -0.01489687 0.15840589
000290 7b 32 20 be 0a 62 b8 bd 02 5b 1c 3d af da 22 3e
       -0.15644257 -0.090030745 0.03817273 0.15903734
0002a0 8d 14 ab bd e0 d1 62 be c3 ef 50 3e 3e 1d f8 3d
       -0.08353529 -0.22150373 0.20403962 0.121149525
0002b0 af 66 3a bd 84 8f 29 3e 80 e1 7b 3d e7 d2 53 bc
       -0.045508083 0.16558653 0.06149435 -0.012928701
0002c0 e1 5e 50 bd 85 a6 4d bd ba 61 a1 3d 1c 33 aa 3c
       -0.050871734 -0.050207634 0.07879968 0.020776324
0002d0 49 62 19 3e 19 19 19 3e 43 6c 10 be fd 3a a1 3d
       0.14978899 0.1495098 -0.14103799 0.07872579
0002e0 7f 82 8e 3d 75 a5 02 be 4f 05 cd 3b 75 e2 39 bd
       0.06958484 -0.1275843 0.0062567363 -0.045381982
0002f0 bb 77 ae bd d4 ce d4 bc 58 75 21 be 1d b2 2c 3e
       -0.085189305 -0.02597753 -0.1576742 0.1686482
000300 84 3a b6 bb 0c 52 f6 bc 9a 5a 16 bd 77 0b 1d be
       -0.005561175 -0.03006842 -0.036707498 -0.15336405
000310 86 4f 2b 3e 98 6c ce 3d a3 86 ed bd c0 9e e9 bd
       0.16729555 0.10079306 -0.115979455 -0.11407232
000320 17 89 ac 3d 82 e8 3f 3d 57 42 19 3d 5f a2 99 3d
       0.08424585 0.046852596 0.037416782 0.07501673
000330 15 e3 8c bb 42 86 b6 bb e5 59 86 bc 28 dc 9b 3c
       -0.004299531 -0.005570204 -0.016400287 0.019025877
000340 d3 d8 11 3e 41 ad 70 bd c3 aa ac bd 85 87 95 3c
       0.14242868 -0.058758978 -0.08431008 0.018253097
000350 8f de e0 3c ee 1f 8a bd f5 fd 2a 3e 32 db a6 bd
       0.027449874 -0.06744371 0.1669844 -0.08147277
000360 bd a5 e7 bd 02 b3 f0 3d 41 69 67 3d 67 d1 ad bd
       -0.11310909 0.11752893 0.056496862 -0.08487206
000370 12 91 bb 3d 91 53 ec 3d ae 4b e1 3d 84 d9 99 bd
       0.09158529 0.115393765 0.11000763 -0.07512191
000380 f2 5d 1f 3e 9c 8b 2b 3e 5d b4 81 3d 3b b7 0e 3d
       0.15563181 0.16752476 0.0633323 0.03484271
000390 83 35 06 3e 2f 0a 26 3c 16 0c 20 be 38 25 da bc
       0.1310635 0.010134264 -0.1562961 -0.026629075
0003a0 06 be 15 3e ad 43 2a 3e c1 d9 24 be 94 42 5b be
       0.1462327 0.16627379 -0.16098692 -0.21412116
0003b0 f6 17 dc 3d 63 d3 20 be 51 0a 84 3d 50 50 f0 3c
       0.10746758 -0.15705638 0.0644728 0.029335171
0003c0 35 a5 0f 3d c7 ff 93 3d 10 e0 1a bc 77 1f 47 3e
       0.035069663 0.0722652 -0.009452835 0.19445597
0003d0 08 9d b2 3b 6e f3 64 3d da 3b 41 3d 6d 06 42 be
       0.0054508485 0.055896215 0.04717622 -0.18947764
0003e0 a1 bb c3 bd 63 e2 a3 3e 62 cf b5 3d cb c5 88 3c
       -0.09557272 0.32008657 0.08877446 0.016695878
0003f0 6e d8 45 3e 88 f8 cc bc 51 d7 cd 3c 38 d0 92 be
       0.19320843 -0.025020853 0.025127085 -0.28674483

model.bigrill.fwd_rnn.spatial_decoder.graph_conv.mlp.bias f4 [32]
000000 c6 4e f6 3d c6 46 94 be 3d 64 34 be 7f 20 22 3e
       0.120267436 -0.28960246 -0.17616363 0.15832709
000010 10 5e 25 3e af 4a 0e 3e ce b3 8a 3e f4 1f 8c be
       0.16149163 0.13895677 0.27090305 -0.27368128
000020 09 21 32 be a7 8e 9f 3d 57 b2 22 be e7 cd 6a be
       -0.17395414 0.07790881 -0.15888344 -0.22930108
000030 c5 28 58 3e 9c 10 a8 be 6d fe 3e be 4a 7f 74 3e
       0.21109302 -0.32825172 -0.18651743 0.23876682
000040 67 44 6b bc 16 ee 2b be a8 22 2f 3d cf e4 a1 be
       -0.01435957 -0.16790041 0.04275766 -0.3161988
000050 b0 7d 82 bd 0a be 94 3e 0f 2e b6 3e e9 78 98 3e
       -0.06371629 0.29051238 0.35582015 0.29779747
000060 f0 04 58 be 08 0e 92 3e eb b4 84 3c 47 a7 c9 bd
       -0.21095634 0.2852633 0.01619955 -0.09846359
000070 1d c4 c2 bd 7e 71 50 be c7 da fd 3d 5a 14 64 be
       -0.09510062 -0.20355794 0.12395244 -0.22273389
