logs/discharge_point/grin/2023-10-05_12-37-58_174112737/epoch=0-step=87.ckpt (torch, 707571 bytes, 102 tensors)

model.bigrill.emb f4 [8, 20]
-0.77395004 0.2628265 0.44728905 0.13031039 0.41990224 0.07096436 -0.019404756 0.5215419
-0.35848737 0.014402981 0.38697124 0.03959779 -0.110896096 -0.47981578 -0.21839808 -0.045321986
-0.5646936 0.13635561 -0.36449984 0.031841353 0.06793715 0.40331239 0.39464948 -0.11351154
0.26135683 -0.18856315 -0.46488443 -0.49092096 -0.74813294 0.15089789 0.5214965 -0.2413457
0.106463715 0.3873334 0.5742692 -0.24702114 0.42954266 -0.07128281 0.22886856 -0.16642772
-0.16234313 -0.5817008 -0.03826597 0.08322587 -0.084100656 0.07731125 0.02328077 -0.24192928
-0.33585614 -0.077668935 -0.047872525 0.4823236 0.14735292 -0.47265047 0.17036179 0.19408512
-0.047167223 0.12239575 -0.28351167 -0.37749752 -0.23122501 -0.094428755 0.020955727 0.038200837
0.5189625 -0.30516943 -0.15744977 -0.22419278 0.7625237 0.3189737 0.044509243 -0.6460055
0.41128 0.1543818 -0.40653518 0.2712965 0.21922831 -0.36533052 -0.29818282 0.07539358
0.32980862 -0.16495952 0.58199286 0.43859187 -0.3686381 0.31146592 0.22024171 0.021641484
-0.18260144 0.39387524 0.089648984 0.10810611 -0.0582959 -0.011832438 -0.3815901 0.10716695
-0.279335 0.33279544 0.40841627 0.14505073 -0.008542368 0.1581358 0.06355217 0.56439817
-0.03908029 -0.026837407 0.11348193 0.3020503 -0.22972548 0.016655356 0.38793865 -0.023742775
0.017423801 0.296553 -0.15247495 0.34801945 0.38796565 -0.08187671 -0.08528383 -0.203421
0.23767368 -0.060644187 0.21555898 -0.089012034 -0.14487915 -0.5524266 0.4075494 0.14746557
-0.59389734 -0.20332615 -0.3608571 0.14035659 0.4398833 -0.5244511 -0.346341 0.3567955
-0.21226482 0.4643577 -0.35086364 -0.24977554 -0.30150545 -0.3397768 -0.14124957 0.2692199
-0.31435296 0.25466 -0.47471517 -0.047362175 -0.021255527 0.48407432 0.07258945 0.5357636
-0.3503614 0.022363573 -0.66220546 -0.04365788 0.09027041 -0.121555686 0.35606372 -0.23754683
00000000: 9721 46bf 3291 863e 1203 e53e 1670 053e
00000010: 6dfd d63e c355 913d b9f6 9ebc c583 053f
00000020: a88b b7be 7bfa 6b3c 1821 c63e 4b31 223d
00000030: 7e1d e3bd 6aaa f5be bfa3 5fbe 8ca3 39bd
00000040: c38f 10bf cea0 0b3e b99f babe 146c 023d
00000050: a222 8b3d f67e ce3e 7f0f ca3e bd78 e8bd
00000060: 90d0 853e b316 41be 5505 eebe fe59 fbbe
00000070: a485 3fbf fa84 1a3e cb80 053f 5423 77be
00000080: a609 da3d 9050 c63e 4e03 133f 1cf3 7cbe
00000090: 04ed db3e b9fc 91bd 855c 6a3e 076c 2abe
000000a0: 473d 26be 58ea 14bf c7bc 1cbd 5372 aa3d
000000b0: f73c acbd 5c55 9e3d 50b7 be3c 4fbc 77be
000000c0: 56f5 abbe e410 9fbd fb15 44bd 1ef3 f63e
000000d0: afe3 163e 3eff f1be 5273 2e3e 40be 463e
000000e0: 6b32 41bd 9faa fa3d 7128 91be 5b47 c1be
000000f0: 40c6 6cbe dd63 c1bd 58ab ab3c 7b78 1c3d
00000100: bada 043f 2b3f 9cbe 833a 21be cb92 65be
00000110: c134 433f 8550 a33e 534f 363d 9e60 25bf
00000120: 4b93 d23e 4316 1e3e 6125 d0be 60e7 8a3e
00000130: 637d 603e 9a0c bbbe 6bab 98be f367 9a3d
00000140: addc a83e 26eb 28be 7cfd 143f 1d8f e03e
00000150: 22be bcbe 7678 9f3e 0b87 613e 7b49 b13c
00000160: dffb 3abe 04aa c93e e399 b73d bc66 dd3d
00000170: aec7 6ebd d8dc 41bc c75f c3be 597a db3d
00000180: ff04 8fbe 2a64 aa3e f01b d13e 2e88 143e
00000190: 4af5 0bbc 5aee 213e a427 823d 667c 103f
000001a0: a712 20bd 1fda dbbc 3769 e83d 56a6 9a3e
000001b0: 283d 6bbe d070 883c e59f c63e 3580 c2bc
000001c0: 5cbc 8e3c cbd5 973e 6522 1cbe 9b2f b23e
000001d0: 6fa3 c63e faae a7bd 4aa9 aebd 984d 50be
000001e0: bb60 733e 0a66 78bd 7ebb 5c3e f14b b6bd
000001f0: 335b 14be d46b 0dbf 51aa d03e 3701 173e
00000200: a809 18bf bb34 50be 43c2 b8be a3b9 0f3e
00000210: 6238 e13e 6d42 06bf 9c53 b1be e6ad b63e
00000220: f35b 59be 4bc0 ed3e 66a4 b3be 29c5 7fbe
00000230: ec5e 9abe 3af7 adbe baa3 10be 31d7 893e
00000240: dff2 a0be cc62 823e de0d f3be d7fe 41bd
00000250: 1220 aebc 97d8 f73e c7a9 943d ce27 093f
00000260: 9262 b3be d033 b73c 4c86 29bf 9bd2 32bd
00000270: b1df b83d 30f2 f8bd fc4d b63e 7a3f 73be

model.bigrill.fwd_rnn.cells.0.forget_gate.mlp.weight f4 [32, 170, 1, 1]
0.0060199196 -0.036823884 -0.08782726 0.0006265243 -0.08647929 0.0019444439 0.06624402 0.010161981
0.033274163 0.00014433467 -0.019893691 -0.03801966 -0.080983065 -0.07350867 0.078995064 0.028023252
-0.005341817 -0.010053714 0.02208045 -0.063071474 -0.10184203 0.06313726 0.076611094 -0.035343852
0.08312582 0.0125291925 0.039295092 -0.0068115513 0.063653424 0.084530175 -0.027335323 0.015345149
0.05988208 0.002497791 -0.023895225 -0.03340169 -0.021598758 0.020812344 -0.106608324 -0.042970195
-0.035005357 -0.0008343187 0.09054937 -0.059931688 -0.014568368 0.0033925192 -0.08696082 -0.07257628
-0.0025194304 -0.05322571 0.0335675 0.09757159 -0.062114906 -0.09459088 -0.067239925 -0.039760605
0.07631691 -0.021937361 0.08262775 -0.0034290876 0.07048698 -0.004320901 0.080401205 -0.026809435
0.032169905 0.004342738 0.0820487 -0.041265007 0.061961625 0.064313285 0.047854844 0.026933562
0.04755407 -0.047540948 -0.08254162 0.036391906 0.03640665 -0.029714443 -0.018029591 0.013095322
0.028876163 -0.03957984 0.09902797 -0.02033392 0.0027574415 0.01863563 0.02069729 -0.083134025
-0.09202523 0.089581445 -0.021443965 0.101851985 0.090392575 -0.049331825 0.096804015 -0.028344229
0.03727302 -0.035665672 -0.07557957 -0.08091523 0.050444156 -0.038003996 0.098617755 0.08925462
-0.09226043 0.07514637 0.015111145 0.025659893 0.010180805 -0.042614315 0.035974506 -0.027987862
-0.031048778 -0.069620915 -0.075051196 -0.101948544 -0.0030979852 -0.06460065 -0.034714572 0.09929878
-0.015619332 0.02169099 -0.071344554 0.051845595 0.0530889 -0.028670367 -0.015043935 -0.02995752
0.031571507 -0.047982845 0.069218285 0.09342283 -0.019492099 0.01775747 0.038463753 0.043665223
0.01369501 0.0036935913 -0.10682853 -0.01684831 -0.07639787 0.071694925 -0.008174521 0.050529953
0.023650302 -0.075552694 0.046818703 0.027374161 -0.029366102 -0.0048641386 -0.01086171 -0.07832037
0.048133902 -0.0023463126 -0.0014060932 -0.096317 0.008229056 -0.011058056 -0.025874319 -0.021574562
0.03405451 0.024847062 0.037897162 0.03909923 -0.002400168 0.01653456 -0.028397297 0.10662023
-0.0069941366 0.11350861 0.014586269 0.058751192 -0.034888167 -0.019820929 -0.0691531 0.08078609
0.10614565 0.030097954 0.00018982575 0.018851208 0.081905276 -0.0716337 0.03226804 -0.058503572
0.083123036 0.0037253199 -0.015015955 0.100211725 -0.071862906 -0.0011856782 -0.021652605 0.0742404
-0.007824876 -0.022402374 0.072872736 0.059854332 -0.027651453 -0.06960501 -0.031918388 -0.02628161
-0.05064007 0.0071420637 0.022603096 0.05248427 -0.026735615 0.05342255 -0.10004887 0.0008281231
-0.033499807 0.0033749926 0.050209746 0.028935317 -0.07154055 -0.09277137 -0.016795242 0.028880848
-0.08045611 -0.07448722 0.112437405 -0.014451153 0.11218877 0.108707316 -0.08522408 -0.04254239
0.009392906 0.110518925 0.022210747 -0.022201752 0.0043781362 0.08950442 0.012023253 -0.018309431
0.011107206 0.043903016 -0.031973284 0.05286014 0.06843127 0.067380324 0.099369675 0.06944485
-0.0226041 0.048047543 -0.024476755 -0.03718924 -0.0630194 0.08642011 -0.03396278 0.034052633
0.09901389 -0.014185506 0.017538667 0.034924783 0.008257457 0.006358787 -0.033763003 -0.00039823487
00000000: bf42 c53b a4d4 16bd c7de b3bd 563d 243a
00000010: 0e1c b1bd b6dc fe3a f2aa 873d 707e 263c
00000020: 7d4a 083d 8b58 1739 18f8 a2bc 81ba 1bbd
00000030: 73da a5bd b78b 96bd 2ac8 a13d 0591 e53c
00000040: 690a afbb 55b8 24bc 0fe2 b43c 9e2b 81bd
00000050: 8e92 d0bd 1c4e 813d 47e6 9c3d b7c4 10bd
00000060: df3d aa3d 3e47 4d3c e4f3 203d 6f33 dfbb
00000070: ba5c 823d 281e ad3d 54ee dfbc 386a 7b3c
00000080: e946 753d fbb1 233b ebbf c3bc 36d0 08bd
00000090: e1ef b0bc a67e aa3c 7755 dabd 8401 30bd
000000a0: c761 0fbd 2eb6 5aba f371 b93d ee7a 75bd
000000b0: 2ab0 6ebc 0755 5e3b 8418 b2bd dfa2 94bd
000000c0: 071d 25bb 3403 5abd 137e 093d 9dd3 c73d
000000d0: 336c 7ebd ddb8 c1bd 16b5 89bd 04dc 22bd
000000e0: 0a4c 9c3d fbb5 b3bc bd38 a93d 8bba 60bb
000000f0: 7a5b 903d 5896 8dbb 63a9 a43d 769f dbbc
00000100: 97c4 033d 874d 8e3b 2609 a83d 7f05 29bd
00000110: 79cb 7d3d afb6 833d 7103 443d c6a3 dc3c
00000120: 0ec8 423d 4cba 42bd 950b a9bd ae0f 153d
00000130: 241f 153d b46b f3bc cbb2 93bc c38d 563c
00000140: b48d ec3c 781e 22bd 2dcf ca3d 5293 a6bc
00000150: 31b6 343b c0a9 983c 5d8d a93c 2c42 aabd
00000160: b977 bcbd 7a76 b73d 41ab afbc c697 d03d
00000170: be1f b93d 2b10 4abd 2f41 c63d 2832 e8bc
00000180: 98ab 183d 2b16 12bd 76c9 9abd e2b6 a5bd
00000190: 889e 4e3d 14aa 1bbd 1bf8 c93d 20cb b63d
000001a0: 09f3 bcbd 57e6 993d bc94 773c b234 d23c
000001b0: 64cd 263c 598c 2ebd 015a 133d cd46 e5bc
000001c0: 025a febc 6995 8ebd 71b4 99bd 66ca d0bd
000001d0: 9107 4bbb 584d 84bd de30 0ebd 295d cb3d
000001e0: 3ae8 7fbc 4eb1 b13c 181d 92bd 0c5c 543d
000001f0: bf73 593d 1ede eabc d67a 76bc 7969 f5bc
00000200: 2051 013d a989 44bd 51c2 8d3d 7854 bf3d
00000210: e5ad 9fbc 1d78 913c 2b8c 1d3d 4eda 323d
00000220: 0961 603c 2e10 723b ebc8 dabd 7805 8abc
00000230: 7d76 9cbd cad4 923d 6dee 05bc 7ff8 4e3d
00000240: 47be c13c 5fbb 9abd f8c4 3f3d c73f e03c
00000250: 2e91 f0bc 5a63 9fbb 50f5 31bc 6e66 a0bd
00000260: 0e28 453d 98c4 19bb a94c b8ba d941 c5bd
00000270: 2ad3 063c d92c 35bc 61f6 d3bc 23bd b0bc
00000280: be7c 0b3d 118c cb3c 0e3a 1b3d 8426 203d
00000290: 234c 1dbb 7c73 873c 73a1 e8bc b55b da3d
000002a0: 122f e5bb 3477 e83d 3ffb 6e3c 17a5 703d
000002b0: e5e6 0ebd 805f a2bc 24a0 8dbd 2d73 a53d
000002c0: e462 d93d fc8f f63c f60b 4739 d96d 9a3c
000002d0: f4bd a73d b0b4 92bd 7e2b 043d 71a1 6fbd
000002e0: 693c aa3d 7f24 743b 7b05 76bc ce3b cd3d
000002f0: dc2c 93bd c268 9bba ce60 b1bc 5a0b 983d
00000300: e933 00bc 2f85 b7bc 4d3e 953d d129 753d
00000310: 4d85 e2bc 128d 8ebd dbbc 02bd 884c d7bc
00000320: f66b 4fbd f907 ea3b 212a b93c bff9 563d
00000330: a604 dbbc 9bd1 5a3d 6ce6 ccbd 6716 593a
00000340: 1837 09bd fb2e 5d3b bca8 4d3d c209 ed3c
00000350: da83 92bd ebfe bdbd 2d96 89bc 8797 ec3c
00000360: 2cc6 a4bd c18c 98bd 9545 e63d 87c4 6cbc
00000370: 3ac3 e53d f1a1 de3d f689 aebd ee40 2ebd
00000380: b4e4 193c bf57 e23d 50f3 b53c 73e0 b5bc
00000390: 7876 8f3b 184e b73d 2efd 443c a9fd 95bc
000003a0: 00fb 353c a6d3 333d 6bf6 02bd e083 583d
000003b0: b225 8c3d b2fe 893d 5482 cb3d 1a39 8e3d
000003c0: 3c2c b9bc 80cd 443d 7a83 c8bc bf53 18bd
000003d0: 5110 81bd 07fd b03d 8e1c 0bbd c67a 0b3d
000003e0: cbc7 ca3d 536a 68bc 40ad 8f3c 4a0d 0f3d
000003f0: 494a 073c 5f5d d03b 134b 0abd 2eca d0b9

model.bigrill.fwd_rnn.cells.0.forget_gate.mlp.bias f4 [32]
0.008882699 0.08132036 -0.057732128 -0.045612663 0.026835501 0.07833097 -0.022421375 -0.0116071245
0.09304512 0.0678029 0.10278607 0.09630497 -0.030408125 0.044675622 0.021269808 0.03865973
-0.053035017 -0.025166264 -0.0025767647 0.019280076 0.1014787 0.059401114 -0.023464445 0.060137924
0.034333188 0.016375778 -0.056321554 0.07157343 0.115382105 -0.021245133 0.011765188 0.062233668
00000000: bd88 113c 4a8b a63d 8678 6cbd 58d4 3abd
00000010: 20d6 db3c fd6b a03d 08ad b7bc cf2b 3ebc
00000020: 718e be3d 3fdc 8a3d 8181 d23d 8a3b c53d
00000030: 761a f9bc c9fd 363d 053e ae3c aa59 1e3d
00000040: 3f3b 59bd 7b29 cebc f0de 28bb 40f1 9d3c
00000050: 11d4 cf3d 954e 733d 8238 c0bc 2f53 763d
00000060: f5a0 0c3d 7f26 863c 6eb1 66bd 1795 923d
00000070: 744d ec3d 460a aebc c6c2 403c bbe8 7e3d

model.bigrill.fwd_rnn.cells.0.update_gate.mlp.weight f4 [32, 170, 1, 1]
-0.036533657 -0.021688877 0.047739856 -0.06312646 0.06296447 -0.060552623 -0.0075116623 -0.08735945
0.053735953 0.059510663 -0.10527154 -0.010393922 -0.007671723 0.047738433 -0.04493452 -0.02252426
0.033635717 0.05623869 0.0027321328 0.018120918 -0.03587408 -0.08473848 -0.06931822 -0.06577086
-0.001931499 -0.019491466 -0.005566825 -0.02952757 -0.03731696 0.008956414 -0.033844724 -0.05134575
-0.100791685 0.00941948 0.009244033 -0.09214601 0.06557819 -0.026061894 0.044389386 -0.051490057
-0.086961985 -0.08199418 0.010177288 -0.0013352446 -0.083377294 -0.030020127 0.05089209 0.10460569
-0.074158266 -0.026483553 -0.11410086 0.013185515 0.042213254 0.024612674 -0.06950108 0.019046087
-0.009230317 0.053917002 -0.04832998 -0.048124705 0.0034484025 0.03168424 -0.0025426287 -0.09329088
0.07075545 0.036737192 -0.023473805 0.009148128 -0.038547438 -0.038768753 -0.03948656 -0.093987554
0.0014687224 -0.07084301 -0.014757386 -0.057269417 -0.10449238 -0.01952195 -0.012434727 0.033718843
0.079954006 0.09014599 -0.06677537 -0.040614743 -0.03537267 -0.064296246 -0.0812836 -0.018707706
0.046957172 0.010725031 0.004915926 -0.10756501 0.026403353 -0.029087747 -0.052650016 -0.032712966
0.033919457 -0.015876371 0.038580175 0.010655069 -0.044426776 0.042354707 -0.09905786 -0.005718788
0.023063876 -0.049522106 -0.030769797 -0.09779169 -0.06685614 -0.08770331 -0.115514055 0.04838821
-0.033971738 -0.049222298 -0.01847686 0.07060169 0.09143594 -0.012061818 0.024731487 -0.06231424
0.08945203 -0.054515257 -0.045180738 0.034859527 -0.0783665 0.0006804064 -0.019154837 -0.061946098
-0.023959227 0.05289804 -0.029813936 -0.0099475095 -0.04743818 -0.09818111 -0.0011468225 -0.022086814
-0.007981122 0.03373658 -0.0037201135 -0.008243808 -0.047951408 -0.029724782 0.026246792 0.054175004
0.038936872 0.06073411 0.0020833784 -0.06609132 -0.054747455 0.036608145 -0.04195439 0.0013078485
-0.06170073 0.045519937 0.053881284 0.07345349 0.054575242 -0.069616705 -0.054445192 0.012748322
0.066119485 0.04154597 -0.04383777 -0.02158414 -0.061932907 0.06400562 -0.07663674 -0.002690373
-0.019571181 0.038059164 -0.0014107611 -0.06689923 0.057594094 0.0016912557 0.109591 0.011397497
-0.06179103 -0.013071466 -0.019143872 0.106753185 -0.037322275 -0.016162515 0.0705342 0.008776494
-0.036190968 -0.028323364 -0.062461093 -0.011275092 0.07095826 -0.018904438 0.022983389 -0.048046812
-0.03245538 0.09188767 0.015687756 -0.06824735 -0.08748483 -0.03670035 -0.033366196 -0.0014909988
-0.032138098 -0.006362681 -0.04400457 -0.11807249 -0.008220073 -0.08526345 0.028754296 -0.00967073
0.02092348 -0.055407498 -0.08686335 -0.07732685 -0.08667949 0.0025814057 -0.07730316 0.010130349
-0.014660865 -0.021801215 -0.06994729 -0.0015464799 0.0029636961 0.008480608 -0.052908663 0.034177933
-0.012001149 -0.051052593 -0.044716425 0.036252726 -0.048220493 -0.1064055 -0.031001275 -0.045672245
-0.10114974 0.025109624 -0.03334594 0.013577499 -0.115371734 -0.029556759 -0.0610744 -0.03923426
0.018511709 -0.0036554313 0.11300496 0.034971 -0.091981344 -0.07543468 0.027058918 0.06323805
-0.05565805 -0.02026282 0.08186175 0.018656084 0.0059626633 0.07391769 -0.083558545 -0.06402821
00000000: 51a4 15bd dfac b1bc de8a 433d 7248 81bd
00000010: 84f3 803d 0706 78bd 6424 f6bb 83e9 b2bd
00000020: 3b1a 5c3d 74c1 733d 9b98 d7bd 454b 2abc
00000030: 1463 fbbb 6089 433d 420d 38bd cc84 b8bc
00000040: 9bc5 093d 8a5a 663d 950d 333b 5272 943c
00000050: b3f0 12bd 5e8b adbd b6f6 8dbd dfb2 86bd
00000060: 5a2a fdba 91ac 9fbc ea69 b6bb cde3 f1bc
00000070: abd9 18bd ecbd 123c c4a0 0abd ec4f 52bd
00000080: df6b cebd 2a54 1a3c 4974 173c 0cb7 bcbd
00000090: dc4d 863d c17f d5bc a5d1 353d 3de7 52bd
000000a0: 2019 b2bd 91ec a7bd a4be 263c 6003 afba
000000b0: b7c1 aabd c5ec f5bc 3974 503d 823b d63d
000000c0: 4ae0 97bd 09f4 d8bc b6ad e9bd 0f08 583c
000000d0: cee7 2c3d 85a0 c93c 9556 8ebd 8a06 9c3c
000000e0: c13a 17bc 13d8 5c3d a8f5 45bd 691e 45bd
000000f0: 98fe 613b 55c7 013d 3ba2 26bb 4a0f bfbd
00000100: 3ce8 903d bd79 163d 234c c0bc 08e2 153c
00000110: ebe3 1dbd fccb 1ebd a9bc 21bd 8c7c c0bd
00000120: 2582 c03a 2416 91bd f7c8 71bc 5693 6abd
00000130: 1a00 d6bd 7fec 9fbc 06bb 4bbc c51c 0a3d
00000140: edbe a33d 769e b83d 86c1 88bd a55b 26bd
00000150: efe2 10bd c0ad 83bd 0478 a6bd e740 99bc
00000160: 2a56 403d 0ab8 2f3c c715 a13b 0b4b dcbd
00000170: d84b d83c 6d49 eebc 8ba7 57bd 08fe 05bd
00000180: 21ef 0a3d 2a0f 82bc 3f06 1e3d 9992 2e3c
00000190: daf8 35bd 217c 2d3d d9de cabd ac64 bbbb
000001a0: 74f0 bc3c b1d7 4abd f110 fcbc 0247 c8bd
000001b0: dfeb 88bd cb9d b3bd a292 ecbd b732 463d
000001c0: f325 0bbd 529d 49bd c95c 97bc 9e97 903d
000001d0: c442 bb3d ee9e 45bc b099 ca3c 373d 7fbd
000001e0: a032 b73d 644b 5fbd 700f 39bd ddc8 0e3d
000001f0: 9e7e a0bd 4d5d 323a 9bea 9cbc 31bb 7dbd
00000200: 2446 c4bc 9dab 583d 5b3c f4bc e1fa 22bc
00000210: 894e 42bd 2e13 c9bd fa50 96ba 68ef b4bc
00000220: 40c3 02bc 5e2f 0a3d 26cd 73bb 0911 07bc
00000230: b268 44bd 6381 f3bc 8303 d73c 9ce6 5d3d
00000240: 457c 1f3d 55c4 783d 4a89 083b e35a 87bd
00000250: de3e 60bd 6cf2 153d 5ed8 2bbd 1d6c ab3a
00000260: e8b9 7cbd 1d73 3a3d 9fb2 5c3d c96e 963d
00000270: 4a8a 5f3d 3493 8ebd ec01 5fbd 57de 503c
00000280: a769 873d 1b2c 2a3d 3c8f 33bd 39d1 b0bc
00000290: 5cad 7dbd 6115 833d b9f3 9cbd f850 30bb
000002a0: be53 a0bc ede3 1b3d 4ae9 b8ba 7702 89bd
000002b0: c9e7 6b3d 20ad dd3a 3f71 e03d 91bc 3a3c
000002c0: 9718 7dbd b429 56bc 9cd3 9cbc 6aa1 da3d
000002d0: 3edf 18bd 4067 84bc 3c74 903d 49cb 0f3c
000002e0: fb3c 14bd 6606 e8bc 34d7 7fbd 2abb 38bc
000002f0: 9052 913d 7bdd 9abc a947 bc3c bccc 44bd
00000300: efef 04bd 9a2f bc3d 9c83 803c 44c5 8bbd
00000310: 3f2b b3bd 1b53 16bd feaa 08bd 9e6d c3ba
00000320: 3da3 03bd 097e d0bb 233e 34bd fdcf f1bd
00000330: 7cad 06bc 9b9e aebd 218e eb3c fb71 1ebc
00000340: b867 ab3c f9f2 62bd 69e5 b1bd 8a5d 9ebd
00000350: 0485 b1bd cd2c 293b 1f51 9ebd c3f9 253c
00000360: 2034 70bc 7698 b2bc 8640 8fbd 41b3 caba
00000370: 923a 423b 40f2 0a3c c1b6 58bd 29fe 0b3d
00000380: 78a0 44bc 861c 51bd 9228 37bd bd7d 143d
00000390: da82 45bd 20eb d9bd 63f6 fdbc d212 3bbd
000003a0: 9827 cfbd b3b2 cd3c c195 08bd 2974 5e3c
000003b0: 0448 ecbd 0421 f2bc 2629 7abd 1ab4 20bd
000003c0: dea5 973c f68f 6fbb 256f e73d c03d 0f3d
000003d0: b760 bcbd 7f7d 9abd aaaa dd3c f382 813d
000003e0: b2f9 63bd 37fe a5bc 22a7 a73d a5d4 983c
000003f0: 7262 c33b 2862 973d be20 abbd 3921 83bd

model.bigrill.fwd_rnn.cells.0.update_gate.mlp.bias f4 [32]
0.02862917 -0.043507423 0.054516133 -0.03604243 -0.012751122 0.0344998 -0.047076717 0.008895768
0.08513291 -0.00026231806 -0.00412109 0.014801494 -0.04598273 -0.043464277 -0.022095095 0.016052434
-0.03893593 0.11390453 0.008081314 0.0647309 0.057993963 -0.01710269 0.036653604 -0.057967536
-0.028213955 -0.120000675 0.008676529 -0.09137606 -0.07182827 0.030921588 -0.08039069 -0.03332111
00000000: b987 ea3c d734 32bd 4f4c 5f3d 3aa1 13bd
00000010: 15ea 50bc aa4f 0d3d 84d3 40bd 8ebf 113c
00000020: 2a5a ae3d bc87 89b9 350a 87bb f781 723c
00000030: 6358 3cbd 9907 32bd c600 b5bc 6580 833c
00000040: 487b 1fbd c746 e93d 7d67 043c a291 843d
00000050: 148b 6d3d f11a 8cbc 1722 163d 5e6f 6dbd
00000060: f420 e7bc eac2 f5bd 0028 0e3c 5f23 bbbd
00000070: b31a 93bd 454f fd3c e0a3 a4bd b77b 08bd

model.bigrill.fwd_rnn.cells.0.c_gate.mlp.weight f4 [32, 170, 1, 1]
-0.0038768898 0.032770813 -0.02132553 -0.09374544 0.08996622 0.042117953 0.039670695 0.009786781
0.08096978 0.09146966 0.03246451 -0.02758305 0.081641234 0.06752465 -0.039326187 0.021842297
-0.07022791 -0.062129375 0.014671464 -0.000167891 -0.03601659 0.03144544 -0.036420383 -0.020111209
0.03206228 -0.0698605 -0.07703886 -0.0018833356 0.035053812 -0.06654897 0.053254142 -0.010158083
-0.03417728 -0.01982612 -0.04042031 0.04725058 0.10411729 0.0026447661 -0.046584055 -0.0126120895
-0.011062207 0.028745174 0.0028003177 0.08537068 -0.0059063206 0.0024482873 0.0898461 0.058776252
-0.059869226 0.034538977 -0.0041068834 -0.09340322 -0.03989754 0.053642564 -0.0565583 0.00827136
-0.065912 -0.062112823 -0.0017054161 0.016987842 -0.051125877 0.03208416 0.015304137 0.0056909802
0.048052385 -0.036925476 -0.007327587 -0.007521702 -0.08140823 -0.04535935 0.08102172 -0.014295533
0.06763488 -0.00037980292 -0.011480689 0.040051892 -0.05483547 -0.07433777 0.01854322 0.08769336
-0.043335166 -0.017341536 -0.020733852 0.029458065 -0.04238709 0.009809957 -0.014967411 -0.0039156424
0.04842612 -0.038374107 0.02624366 -0.045212183 0.051786575 -0.041753374 -0.076260045 0.0728629
0.04912262 -0.019716024 -0.020509796 -0.009363457 0.017212816 0.05306692 -0.09148645 -0.026104428
0.033827648 -0.01405928 0.023227757 -0.019915653 -0.063319266 -0.03082742 -0.0550361 0.03191398
-0.03267931 -0.022819228 0.06418068 -0.03038371 -0.07513096 0.01198849 -0.020674825 0.0016115966
-0.039253153 -0.021010676 0.09348452 -0.021125937 -0.060605686 -0.036495898 -0.08734819 -0.028132103
-0.06776442 0.07478845 -0.050073463 -0.0990867 -0.038141932 -0.06727348 -0.04855089 0.025410699
0.01480352 0.008275922 0.099473566 -0.001242679 0.019682935 -0.023555167 0.029477952 -0.06533056
-0.038932476 0.06884018 -0.096320175 0.039545797 -0.03641013 0.061379053 -0.07653498 0.09799473
-0.09412741 0.0031613568 -0.046732448 0.066952996 -0.012001741 0.016826835 0.00085380406 0.008446549
-0.06747237 -0.014965496 -0.092181064 -0.020677058 -0.007866056 -0.06900735 0.025832662 -0.033230472
0.077431545 0.0053789853 0.071220495 -0.0044370405 0.01940537 0.04679025 -0.08412202 0.062372692
0.017153524 0.022257354 -0.045187913 -0.076099105 -0.012645533 -0.010675957 -0.087515295 -0.0077936663
0.08781571 -0.07935452 -0.038345326 -0.009795493 0.094010696 0.045845777 -0.074118294 0.07726362
0.076131605 0.0694168 0.07060593 0.07152449 0.093529195 0.04526288 0.10647502 -0.0420329
-0.0715612 0.02560532 0.0629114 0.06317291 0.07768594 0.09215731 -0.04061411 0.08720112
-0.047699 0.07010052 -0.07446118 0.06976015 0.084933124 -0.098376326 0.0061390614 0.03837925
0.05423796 -0.0675962 0.08243848 -0.014686126 0.0015611791 0.09309431 0.0863085 -0.020194078
-0.016749712 0.027865997 0.019496363 -0.014857068 0.08272163 0.02023292 0.03540152 0.054273494
0.012777669 -0.030175773 -0.0706211 -0.03835483 0.03918095 -0.05017827 0.08114617 0.08613454
0.04337023 -0.034474075 -0.060001757 0.10015322 0.04071766 -0.04219615 0.04688668 -0.02968093
0.025344511 -0.043729357 0.035012577 -0.07277569 0.03534608 0.022169614 -0.0011721414 0.082267955
00000000: 6b13 7ebb b03a 063d e1b2 aebc 9cfd bfbd
00000010: 3640 b83d e083 2c3d bd7d 223d bc58 203c
00000020: 7cd3 a53d 7254 bb3d 82f9 043d d9f5 e1bc
00000030: 8533 a73d 5d4a 8a3d 7f14 21bd 9eee b23c
00000040: a7d3 8fbd 5f7b 7ebd 9560 703c e60b 30b9
00000050: 2286 13bd efcc 003d 8a2d 15bd 43c0 a4bc
00000060: bd53 033d 0613 8fbd 8dc6 9dbd 42da f6ba
00000070: 9694 0f3d d44a 88bd 0421 5a3d 176e 26bc
00000080: 7afd 0bbd 636a a2bc c48f 25bd d389 413d
00000090: 723b d53d d053 2d3b ecce 3ebd f0a2 4ebc
000000a0: 423e 35bc 007b eb3c 8985 373b d3d6 ae3d
000000b0: cf89 c1bb 7273 203b 3b01 b83d 5ebf 703d
000000c0: 6f39 75bd be78 0d3d 0993 86bb 304a bfbd
000000d0: 9a6b 23bd 4eb8 5b3d ada9 67bd 9984 073c
000000e0: dffc 86bd 046a 7ebd 4588 dfba 162a 8b3c
000000f0: 5e69 51bd ae6a 033d 34be 7a3c 677b ba3b
00000100: 94d2 443d 2b3f 17bd 411c f0bb 9c78 f6bb
00000110: 5cb9 a6bd baca 39bd b7ee a53d d037 6abc
00000120: 2884 8a3d 4920 c7b9 8019 3cbc 740d 243d
00000130: 289b 60bd 673e 98bd f3e7 973c 9498 b33d
00000140: 3780 31bd d60f 8ebc 0ada a9bc 0a52 f13c
00000150: 169e 2dbd f1b9 203c df39 75bc ca4e 80bb
00000160: 785a 463d 2b2e 1dbd f2fc d63c 6930 39bd
00000170: 291e 543d 9605 2bbd 3a2e 9cbd 2539 953d
00000180: cd34 493d 8083 a1bc 2904 a8bc 2f69 19bc
00000190: e401 8d3c b35c 593d 3f5d bbbd f4d8 d5bc
000001a0: dc8e 0a3d e558 66bc 2348 be3c 2726 a3bc
000001b0: 88ad 81bd c989 fcbc 896d 61bd 3cb8 023d
000001c0: bdda 05bd 64ef babc 2971 833d 42e7 f8bc
000001d0: 43de 99bd 5f6b 443c 405e a9bc 353c d33a
000001e0: eac7 20bd 951e acbc d074 bf3d 4d10 adbc
000001f0: ab3d 78bd b97c 15bd 9ce3 b2bd 4c75 e6bc
00000200: 12c8 8abd b02a 993d d519 4dbd f8ed cabd
00000210: b73a 1cbd aec6 89bd 4cdd 46bd 192a d03c
00000220: 778a 723c bc97 073c ccb8 cb3d 63e1 a2ba
00000230: 1b3e a13c c4f6 c0bc bf7b f13c 07cc 85bd
00000240: a977 1fbd 15fc 8c3d 8343 c5bd c6fa 213d
00000250: ca22 15bd 9a68 7b3d 5fbe 9cbd 76b1 c83d
00000260: dfc5 c0bd c42e 4f3b 866a 3fbd a71e 893d
00000270: f3a2 44bc 6ed8 893c d2d1 5f3a 6563 0a3c
00000280: f42e 8abd d731 75bc 6dc9 bcbd ef62 a9bc
00000290: a1e0 00bc ba53 8dbd 059f d33c ad1c 08bd
000002a0: 6e94 9e3d 3342 b03b 0ddc 913d 9864 91bb
000002b0: 03f8 9e3c 22a7 3f3d 2a48 acbd 827a 7f3d
000002c0: 8c85 8c3c 0e55 b63c f616 39bd d9d9 9bbd
000002d0: 362f 4fbc 36ea 2ebc 383b b3bd 0362 ffbb
000002e0: b9d8 b33d 9f84 a2bd fd0f 1dbd 477d 20bc
000002f0: ae88 c03d c8c8 3b3d 55cb 97bd 643c 9e3d
00000300: e3ea 9b3d 652a 8e3d d899 903d 6f7b 923d
00000310: 3c8c bf3d 9265 393d 930f da3d b12a 2cbd
00000320: ae8e 92bd 40c2 d13c b1d7 803d cc60 813d
00000330: ce19 9f3d f9bc bc3d fb5a 26bd 8096 b23d
00000340: 0760 43bd dd90 8f3d 1a7f 98bd 69de 8e3d
00000350: 6bf1 ad3d 8779 c9bd 2e2a c93b 8f33 1d3d
00000360: a028 5e3d e06f 8abd 81d5 a83d 149e 70bc
00000370: 7aa0 cc3a 3ba8 be3d 83c2 b03d 0d6e a5bc
00000380: b136 89bc 3b47 e43c d6b6 9f3c 0f6b 73bc
00000390: f569 a93d 82bf a53c 2f01 113d e24d 5e3d
000003a0: 6e59 513c 2f33 f7bc cca1 90bd f419 1dbd
000003b0: 347c 203d bb87 4dbd f72f a63d 4e67 b03d
000003c0: fba4 313d b034 0dbd 67c4 75bd 221d cd3d
000003d0: 90c7 263d dfd5 2cbd 3f0c 403d 6c25 f3bc
000003e0: 4b9f cf3c 8e1d 33bd 5969 0f3d 6c0b 95bd
000003f0: 0dc7 103d 0d9d b53c 8aa2 99ba 1a7c a83d

model.bigrill.fwd_rnn.cells.0.c_gate.mlp.bias f4 [32]
0.043764886 0.0999363 0.061307937 0.043806553 -0.027900657 -0.0072380905 -0.01833517 -0.10817181
-0.03634143 -0.056255456 -0.07807655 -0.02043417 -0.034356937 0.0434608 0.06003268 0.043583754
0.08739831 -0.03462484 -0.09281294 0.031103587 0.0636618 -0.027866077 0.08575519 0.06828454
-0.10657955 0.0625881 0.022151195 0.015492842 0.013165095 0.07245859 0.034291264 -0.04088991
00000000: cf42 333d 67ab cc3d 081e 7b3d 806e 333d
00000010: eb8f e4bc 812d edbb a333 96bc 2f89 ddbd
00000020: c0da 14bd 1f6c 66bd 99e6 9fbd 8f65 a7bc
00000030: dcb9 0cbd f403 323d d4e4 753d e184 323d
00000040: e3fd b23d c7d2 0dbd b614 bebd f3cc fe3c
00000050: 1e61 823d 6647 e4bc 6ba0 af3d c4d8 8b3d
00000060: 6146 dabd 312e 803d 6c76 b53c b0d5 7d3c
00000070: 69b2 573c 2b65 943d ff74 0c3d 2e7c 27bd

model.bigrill.fwd_rnn.first_stage.weight f4 [1, 32, 1]
-0.17772031 0.14809197 -0.20477238 0.17274149 0.24895313 -0.06493993 0.21642302 -0.15052123
0.18524893 -0.14958765 -0.22337632 -0.17970186 0.24031624 -0.0072996356 0.17874596 0.25717056
0.09128333 -0.18529892 -0.20233607 -0.057102256 0.12897797 -0.22689156 0.23595057 0.2260236
-0.14565192 0.13978948 0.17993882 0.2465064 -0.1542372 0.076382555 0.115412235 0.044090003
00000000: 50fc 35be 6ca5 173e daaf 51be 25e3 303e
00000010: 92ed 7e3e 3aff 84bd ff9d 5d3e 3d22 1abe
00000020: e5b1 3d3e 812d 19be c3bc 64be c403 38be
00000030: 7615 763e c831 efbb 2e09 373e dcab 833e
00000040: c1f2 ba3d 00bf 3dbe 3031 4fbe 0ee4 69bd
00000050: cd12 043e 4356 68be 079d 713e bb72 673e
00000060: c725 15be f924 0f3e e241 383e 2c6c 7c3e
00000070: 5bf0 1dbe 756e 9c3d 405d ec3d b897 343d

model.bigrill.fwd_rnn.spatial_decoder.lin_in.weight f4 [32, 34, 1]
-0.027677985 -0.14246187 0.0606936 0.08184793 0.21614179 0.071328975 -0.14284186 -0.018903675
-0.087502964 -0.09865394 0.07953422 -0.045108013 0.18168744 0.084457636 -0.20773974 0.20575686
-0.15338084 0.07476137 0.10218556 0.06633285 0.14973027 -0.20326538 -0.14956959 -0.029967776
0.008107992 0.09863042 -0.078743204 -0.10395065 0.02459487 -0.16003789 0.2348672 -0.042219326
-0.16586694 0.03607172 -0.17783688 0.07534558 -0.117905065 0.045750476 0.029530266 -0.1659521
-0.14624786 -0.014773635 -0.0099912705 -0.035317305 -0.103727385 0.1733624 0.028447058 -0.015922038
-0.19128312 0.13368045 0.10500864 0.067723066 0.07547156 0.22003742 -0.06491373 0.031006064
0.0623952 0.16884856 -0.18669717 -0.0420693 0.02756533 0.13738805 -0.17362617 -0.15185091
-0.041104496 -0.13260895 -0.21296293 0.103054315 -0.061709944 0.12236862 0.13371739 0.08459587
0.061384544 -0.07231506 0.045000076 0.057521995 0.11245449 0.0014820971 0.14962536 0.0327477
-0.12448853 -0.07727174 -0.0073078745 0.0733353 -0.16139242 0.10144247 -0.12114973 0.06364547
0.05216352 0.109413296 -0.13639963 -0.16153106 0.13257796 0.14790133 -0.05903466 0.032603633
0.14232425 -0.116803385 0.07848812 -0.14420639 0.105994865 0.017204098 0.07930734 0.15636544
0.004674147 0.18917052 -0.11496926 0.04737262 0.11659017 0.18147776 -0.11377806 -0.14981414
0.1262526 -0.16974413 -0.20131639 0.0051726666 0.19048478 -0.10732848 0.06337809 0.00262762
-0.1421465 0.034737658 -0.1145683 0.20880787 0.027219549 -0.05866705 0.20973596 0.14551583
-0.046797898 -0.11945454 -0.09132765 0.17773952 -0.15295728 0.11862387 -0.0782842 0.09876526
0.17111035 0.10889009 -0.155837 0.15545954 -0.24980208 0.16777204 -0.02456495 0.0879843
-0.054291252 0.011058842 0.22520442 -0.09128173 -0.1367177 0.071760364 0.078881815 -0.14220881
-0.11130183 0.1295101 -0.23817301 -0.21104233 -0.13164096 0.09379482 -0.07400261 -0.021121975
-0.027294915 0.06646589 0.008775569 0.11701446 0.09104452 0.22303282 -0.05680253 0.047448806
-0.025037458 0.13457711 0.11218509 -0.13030992 -0.08290404 0.19477741 -0.12620753 -0.013452053
0.006919477 0.18782203 -0.04203688 0.05429397 0.15985088 -0.22681852 -0.029447563 0.10483676
-0.08492253 0.06052099 -0.01441951 -0.06276769 -0.22879808 0.12439565 0.054782476 -0.05721694
0.114154026 -0.02047314 -0.01623169 -0.032975152 0.09097078 -0.022900967 0.19020134 -0.060286537
0.073964305 -0.022783171 -0.046690706 0.13692008 -0.123967744 -0.10712061 0.2199682 -0.0661479
0.041869733 -0.14309716 0.052665055 0.057559207 -0.20431496 -0.030994946 -0.030317262 -0.006096202
0.15033911 0.2120471 0.014868982 -0.040700704 0.0836199 -0.07280744 0.08291897 -0.016464863
0.004561062 -0.20075633 -0.094792634 -0.0088354815 -0.023650588 -0.2073908 -0.0759599 0.053429537
-0.053191483 0.07899371 0.011108724 0.09256235 -0.060847834 -0.11419812 0.07439872 0.027887654
-0.07088593 -0.091143586 -0.25479013 -0.093574286 0.1368597 -0.0028512361 0.077942096 -0.09326152
0.17822891 -0.012404603 -0.021713572 -0.01007944 -0.028454999 -0.1375535 -0.07095136 0.031133316
00000000: f1bc e2bc 86e1 11be da99 783d e39f a73d
00000010: 4654 5d3e ed14 923d 2345 12be e1db 9abc
00000020: c134 b3bd 140b cabd d6e2 a23d 2ec3 38bd
00000030: 460c 3a3e 20f8 ac3d bab9 54be edb1 523e
00000040: de0f 1dbe 7d1c 993d aa46 d13d 84d9 873d
00000050: e452 193e cd24 50be c528 19be fb7e f5bc
00000060: 62d7 043c bffe c93d 1e44 a1bd 14e4 d4bd
00000070: 2e7b c93c f9e0 23be 0781 703e 2cee 2cbd
00000080: 06d9 29be f1bf 133d df1a 36be c94e 9a3d
00000090: 3678 f1bd da64 3b3d 75e9 f13c 59ef 29be
000000a0: 00c2 15be 1e0d 72bc 6db2 23bc e1a8 10bd
000000b0: 066f d4bd ea85 313e ce09 e93c ef6e 82bc
000000c0: b9df 43be 87e3 083e c50e d73d 64b2 8a3d
000000d0: d590 9a3d 7d51 613e 7df1 84bd 6e00 fe3c
000000e0: 1c92 7f3d a3e6 2c3e 8b2d 3fbe dc50 2cbd
000000f0: b0d0 e13c 74af 0c3e 0fcb 31be ce7e 1bbe
00000100: 305d 28bd a4ca 07be f412 5abe 240e d33d
00000110: 91c3 7cbd 669c fa3d 36ed 083e 9940 ad3d
00000120: 5c6e 7b3d eb19 94bd 0052 383d 2f9c 6b3d
00000130: 8a4e e63d ed42 c23a 6437 193e 7422 063d
00000140: d8f3 febd a540 9ebd e576 efbb d130 963d
00000150: 0e44 25be 12c1 cf3d 5a1d f8bd 8e58 823d
00000160: 6aa9 553d 1414 e03d 58ac 0bbe 6668 25be
00000170: 84c2 073e 7273 173e 54ce 71bd 638b 053d
00000180: 73bd 113e 9d36 efbd 61be a03d d7aa 13be
00000190: d613 d93d 9cef 8c3c e36b a23d 431e 203e
000001a0: 9629 993b ebb5 413e 0175 ebbd cb09 423d
000001b0: d4c6 ee3d 4ed5 393e 7904 e9bd e168 19be
000001c0: 5d48 013e 68d1 2dbe e225 4ebe 797f a93b
000001d0: 710e 433e 09cf dbbd 5fcc 813d 2634 2c3b
000001e0: da8e 11be 1349 0e3d c9a2 eabd bbd1 553e
000001f0: 88fb de3c dc4c 70bd 06c5 563e 1a02 153e
00000200: 27af 3fbd 95a4 f4bd fe09 bbbd 5901 363e
00000210: d5a0 1cbe 12f1 f23d 7753 a0bd 7145 ca3d
00000220: 8d37 2f3e c401 df3d bc93 1fbe c930 1f3e
00000230: 1ecc 7fbe 6fcc 2b3e 6f3c c9bc 1d31 b43d
00000240: 8160 5ebd 2530 353c fd9b 663e eaf1 babd
00000250: baff 0bbe 19f7 923d ca8c a13d 309f 11be
00000260: 37f2 e3bd 4c9e 043e a0e3 73be 7b1b 58be
00000270: e3cc 06be 8017 c03d ae8e 97bd fe07 adbc
00000280: 9699 dfbc 451f 883d 67c7 0f3c 47a5 ef3d
00000290: 8d75 ba3d b762 643e c5a9 68bd ae59 423d
000002a0: 5b1b cdbc 95ce 093e 4cc1 e53d f76f 05be
000002b0: 98c9 a9bd bb73 473e 8c3c 01be 0066 5cbc
000002c0: c8bc e23b 6b54 403e dd2e 2cbd 5b63 5e3d
000002d0: f3af 233e 1d43 68be 043c f1bc a8b4 d63d
000002e0: ddeb adbd dce4 773d cf3f 6cbc 598c 80bd
000002f0: 0b4a 6abe 26c3 fe3d 9763 603d 4f5c 6abd
00000300: 96c9 e93d 49b7 a7bc 52f8 84bc f410 07bd
00000310: e34e ba3d cf9a bbbc 24c4 423e 04ef 76bd
00000320: 997a 973d c6a3 babc c13e 3fbd c734 0c3e
00000330: cde2 fdbd 0d62 dbbd 583f 613e 8d78 87bd
00000340: 997f 2b3d 1088 12be 50b7 573d 34c3 6b3d
00000350: f137 51be 1de9 fdbc e85b f8bc a6c2 c7bb
00000360: 7ff2 193e e022 593e 089d 733c c8b5 26bd
00000370: e940 ab3d 111c 95bd 6cd1 a93d 52e1 86bc
00000380: f674 953b 1193 4dbe a422 c2bd b2c2 10bc
00000390: e1be c1bc 415e 54be dd90 9bbd eed8 5a3d
000003a0: 50df 59bd 74c7 a13d 5e01 363c 5491 bd3d
000003b0: 943b 79bd b4e0 e9bd 5b5e 983d a674 e43c
000003c0: a42c 91bd 7da9 babd da73 82be e0a3 bfbd
000003d0: f324 0c3e cedb 3abb 1ba0 9f3d e5ff bebd
000003e0: a481 363e ad3c 4bbc a9e0 b1bc 3c24 25bc
000003f0: 751a e9bc d3da 0cbe f24e 91bd 4c0b ff3c

model.bigrill.fwd_rnn.spatial_decoder.lin_in.bias f4 [32]
0.00067829195 -0.10314542 -0.025549628 0.17054011 0.2340519 0.15994543 -0.013990748 0.08991036
0.14109339 0.05448356 0.037266344 0.15915363 -0.0605047 0.02068444 -0.12522979 -0.023809912
-0.004047765 0.10183435 0.18315448 0.024366071 0.08992408 0.11118104 0.028684013 -0.18003936
0.15460399 -0.18851733 -0.0841489 0.0034253132 -0.14909627 0.061139047 -0.080768004 -0.072539836
00000000: 67cf 313a e83d d3bd 744d d1bc 11a2 2e3e
00000010: 4dab 6f3e bcc8 233e 7339 65bc ec22 b83d
00000020: c97a 103e 272a 5f3d 98a4 183d 2bf9 223e
00000030: c7d3 77bd 6a72 a93c 3d3c 00be 010d c3bc
00000040: 1da3 84bb 878e d03d d98c 3b3e 5b9b c73c
00000050: 1e2a b83d e3b2 e33d bcfa ea3c 3d5c 38be
00000060: 8250 1e3e b00a 41be 4256 acbd 387b 603b
00000070: b1ac 18be f06c 7a3d b269 a5bd c48f 94bd

model.bigrill.fwd_rnn.spatial_decoder.graph_conv.mlp.weight f4 [32, 64, 1, 1]
-0.011897739 -0.041823782 0.13756676 -0.03990943 -0.05912513 0.009497517 0.09183932 -5.315624e-05
-0.15138116 -0.0483053 0.016192863 0.020602351 0.02440291 0.009921715 0.1509106 -0.104516536
-0.021612352 0.06338007 0.086745135 0.029412055 0.14665651 -0.09721509 0.08252387 0.12677312
-0.022771236 0.04240583 0.06900243 -0.013532337 -0.08223822 -0.09854098 0.026369728 -0.03100796
0.12624972 0.13028587 0.12626149 0.063621454 -0.017712152 -0.044172518 0.11029214 0.035917863
-0.14608216 0.077432886 -0.083582275 -0.061246715 0.049464308 -0.122124806 0.10539106 0.05528775
-0.03573419 0.03482161 0.044041693 -0.04906068 0.069985025 -0.032655533 0.14726537 -0.026679121
0.0077159437 0.070952795 -0.06918996 0.05193169 0.16038644 0.032871578 0.08995645 0.12786937
0.028288411 -0.026825693 0.0011683274 0.14689957 -0.036767036 -0.008780001 -0.12511922 -0.03969688
0.07886259 -0.01499614 0.09778877 0.148614 -0.041453697 -0.015792135 -0.08772888 0.08715238
-0.07497907 -0.08007588 0.07004933 0.07079057 -0.01208591 0.1411979 -0.15652038 0.046422053
0.04566226 0.019948866 0.14166254 -0.12878853 -0.030957436 0.014687142 -0.08362425 0.06006511
-0.10711063 0.0680278 -0.04482296 0.15635401 0.010983213 0.10388355 -0.04841995 0.1232406
-0.02396839 -0.03777439 0.10964028 0.10348694 -0.15496212 0.14415812 0.013357861 0.029187422
-0.13144895 0.1422893 0.13922808 -0.027542317 -0.04851341 0.13653174 0.048761584 0.056599062
0.051041633 -0.08229404 0.09699623 -0.07790238 -0.010618501 0.100182176 -0.029917248 -0.048464328
-0.09441942 0.0036655352 -0.05565369 -0.038961098 -0.016057914 0.051866867 -0.08711334 0.036897186
-0.07059983 0.14879242 0.06465892 0.040321812 0.056039434 -0.10952981 0.037435237 0.08058195
-0.08907317 0.09461846 0.07682849 -0.1260091 -0.032899726 -0.12402357 -0.08069779 -0.003284159
-0.14550573 -0.022492308 0.098646216 0.042551246 -1.590336e-05 -0.12944049 -0.035655387 -0.062055163
0.089695215 0.09213422 0.029885255 -0.1479145 0.020899639 -0.0365399 0.043801542 0.08445146
0.04428882 -0.054126583 0.024721121 0.0639903 -0.068334654 -0.10248401 -0.04221738 -0.056540437
0.106183186 -0.04587699 0.011515273 -0.14371493 0.14775339 -0.079734415 -0.025386153 -0.04987652
-0.0066758613 0.13825463 0.008179309 0.0623507 -0.0821572 -0.057879917 0.04190152 -0.096968494
0.038086195 -0.14998053 -0.0862322 0.10121264 0.04296859 0.06369071 -0.06027742 0.01468647
0.06287262 -0.104038 -0.004662905 -0.09288618 -0.06450134 0.12498599 0.0054857526 0.06899593
-0.15370516 0.03514024 -0.07068377 0.105138786 0.082529396 0.0450294 -0.02155682 -0.06779013
-0.04781532 -0.13782082 0.13220873 -0.15171807 -0.026949046 0.1550161 -0.15499718 -0.1539524
0.09463207 0.026034405 0.035356145 0.070662126 -0.04354655 0.15244438 0.037376627 0.02106862
0.001343325 -0.038513456 0.049759615 0.16410445 -0.06993144 0.113962434 -0.15275477 -0.0398195
0.064697534 0.12576652 0.13220732 0.079664245 -0.11266722 -0.0135670025 0.042233072 0.07162604
0.0315597 0.07980799 0.12044953 0.08297044 -0.07252245 0.07552241 -0.04626395 -0.1413935
00000000: bcee 42bc 6a4f 2bbd 4dde 0c3e 1278 23bd
00000010: 312d 72bd 799b 1b3c 4116 bc3d 14f4 5eb8
00000020: aa03 1bbe c7db 45bd e5a6 843c 43c6 a83c
00000030: 9de8 c73c b08e 223c 4f88 1a3e c40c d6bd
00000040: 630c b1bc 69cd 813d 6fa7 b13d 8df1 f03c
00000050: 202d 163e b518 c7bd 4602 a93d d0d0 013e
00000060: be8a babc bcb1 2d3d 2551 8d3d bcb6 5dbc
00000070: 836c a8bd dacf c9bd 5405 d83c 6804 febc
00000080: 9b47 013e a969 053e b14a 013e f74b 823d
00000090: 1319 91bc 3eee 34bd d8e0 e13d 9c1e 133d
000000a0: 9096 15be 2295 9e3d 2f2d abbd d6dd 7abd
000000b0: 169b 4a3d 921c fabd 45d7 d73d 6875 623d
000000c0: 045e 12bd 1ba1 0e3d 1065 343d daf3 48bd
000000d0: 4f54 8f3d cfc1 05bd bccc 163e 2c8e dabc
000000e0: 07d6 fc3b b34f 913d 77b3 8dbd 53b6 543d
000000f0: 583c 243e 59a4 063d 163b b83d 30f0 023e
00000100: 19bd e73c 8ec1 dbbc 9022 993a d76c 163e
00000110: 0899 16bd fed9 0fbc 411f 00be 3299 22bd
00000120: b682 a13d 5fb2 75bc 7b45 c83d 452e 183e
00000130: 5acb 29bd 825e 81bc 33ab b3bd f27c b23d
00000140: a08e 99bd d3fe a3bd 0676 8f3d a5fa 903d
00000150: fb03 46bc 2f96 103e e146 20be 0d25 3e3d
00000160: 5a08 3b3d ce6b a33c fc0f 113e 24e1 03be
00000170: 739a fdbc 57a2 703c 3143 abbd d506 763d
00000180: d15c dbbd 2952 8b3d 4898 37bd 441b 203e
00000190: eff2 333c e6c0 d43d ff53 46bd 9165 fc3d
000001a0: 5b59 c4bc 52b9 1abd 158b e03d f6f0 d33d
000001b0: 64ae 1ebe 309e 133e eeda 5a3c 761a ef3c
000001c0: 8e9a 06be 49b4 113e ce91 0e3e 6da0 e1bc
000001d0: ffb5 46bd face 0b3e 3aba 473d 6bd4 673d
000001e0: 0811 513d c789 a8bd f6a5 c63d 488b 9fbd
000001f0: 39f9 2dbc 502c cd3d 0415 f5bc 8882 46bd
00000200: f85e c1bd 7a39 703b 20f5 63bd ac95 1fbd
00000210: e38b 83bc 5a72 543d 7b68 b2bd 8121 173d
00000220: a596 90bd 0a5d 183e e56b 843d 7c28 253d
00000230: 9b89 653d 2a51 e0bd b155 193d 2608 a53d
00000240: ff6b b6bd 53c7 c13d 4158 9d3d 8808 01be
00000250: ddc1 06bd 1200 febd e244 a5bd 0b3b 57bb
00000260: 74ff 14be ca41 b8bc 0707 ca3d 374a 2e3d
00000270: 3568 85b7 0c8c 04be 620b 12bd 8e2d 7ebd
00000280: 20b2 b73d deb0 bc3d ecd1 f43c e676 17be
00000290: b835 ab3c ddaa 15bd 3f69 333d e3f4 ac3d
000002a0: 3268 353d d6b3 5dbd f383 ca3c 590d 833d
000002b0: 0af3 8bbd 23e3 d1bd 22ec 2cbd f296 67bd
000002c0: 9276 d93d 83e9 3bbd 8eaa 3c3c 022a 13be
000002d0: aa4c 173e cc4b a3bd 9ff6 cfbc 524b 4cbd
000002e0: 2fc1 dabb 9f92 0d3e 8202 063c 7363 7f3d
000002f0: 0942 a8bd 7e13 6dbd eea0 2b3d 6b97 c6bd
00000300: 4500 1c3d 7f94 19be 829a b0bd 9348 cf3d
00000310: d5ff 2f3d 4670 823d 75e5 76bd 859f 703c
00000320: 5cc3 803d e011 d5bd 48cb 98bb 1c3b bebd
00000330: 4719 84bd a8f8 ff3d d4c1 b33b bd4d 8d3d
00000340: e364 1dbe 36ef 0f3d a7c2 90bd 0153 d73d
00000350: 2c05 a93d c070 383d ee97 b0bc 8dd5 8abd
00000360: ffd9 43bd e720 0dbe ba61 073e fb5b 1bbe
00000370: 3fc4 dcbc 8abc 1e3e 95b7 1ebe b3a5 1dbe
00000380: 75ce c13d 1b46 d53c 9bd1 103d 4eb7 903d
00000390: de5d 32bd 611a 1c3e 3c18 193d 1998 ac3c
000003a0: 8212 b03a 49c0 1dbd bdd0 4b3d ff0a 283e
000003b0: 3738 8fbd 2365 e93d bf6b 1cbe c619 23bd
000003c0: 2480 843d f0c8 003e 5b61 073e 0227 a33d
000003d0: 12be e6bd 2248 5ebc 96fc 2c3d acb0 923d
000003e0: be44 013d 5f72 a33d 3eae f63d 68ec a93d
000003f0: a686 94bd 7eab 9a3d 457f 3dbd 75c9 10be

model.bigrill.fwd_rnn.spatial_decoder.graph_conv.mlp.bias f4 [32]
0.013275293 0.06710228 0.04920531 0.016283993 -0.13958552 0.0236319 -0.117832914 0.1423735
0.1748493 0.05147564 0.051470224 -0.040575203 0.032380007 0.05822197 -0.023799239 -0.034218192
0.16927946 0.10867655 -0.005660252 -0.004650024 -0.13988231 0.14379223 0.061843775 -0.13282192
0.00556848 0.13639292 -0.07796592 -0.114249974 -0.011414411 0.17748277 0.11076718 0.013566287
00000000: 9d80 593c ec6c 893d 828b 493d 0266 853c
00000010: 82ef 0ebe b097 c13c 6252 f1bd 5cca 113e
00000020: b20b 333e 1fd8 523d 71d2 523d 2f32 26bd
00000030: e6a0 043d 297a 6e3d 9ff6 c2bc 6028 0cbd
00000040: 9857 2d3e d091 de3d a379 b9bb 3b5f 98bb
00000050: 4f3d 0fbe 453e 133e e64f 7d3d 7802 08be
00000060: cc77 b63b 96aa 0b3e 99ac 9fbd e4fb e9bd
00000070: 8203 3bbc 0bbe 353e e7d9 e23d 2245 5e3c

model.bigrill.fwd_rnn.spatial_decoder.lin_out.weight f4 [32, 64, 1]
-0.103270195 0.005168323 0.07915895 0.026648153 -0.08689705 0.015099498 0.027202971 -0.052373864
-0.11107321 0.036258694 0.07738512 0.06792915 0.040934008 0.0706377 0.09679478 0.08131694
-0.08885742 -0.06452509 0.088770576 0.008081122 -0.030030645 -0.034925178 0.08610048 -0.087264515
0.0033734452 -0.11601189 0.016434474 0.04868997 0.056858074 0.11134828 -0.0205033 0.02354998
0.13737133 -0.06310562 0.0054102256 -0.12821122 0.078201346 0.042709082 0.091028556 -0.009384814
-0.047466896 -0.012665808 -0.094238974 0.11067382 -0.14373471 0.025960973 -0.084585994 0.06695893
0.00647159 0.10171131 0.06881214 0.0082845995 -0.09343816 -0.084734045 0.015240481 0.015571494
-0.120740086 0.10400593 -0.05780023 -0.00011405485 -0.16036071 -0.09726646 -0.1556454 -0.090061605
0.063916326 0.05284946 -0.11177129 0.093874104 0.08809205 -0.0778844 -0.046079304 -0.14830495
-0.031080356 -0.13868749 0.027174626 0.03315377 -0.07506933 -0.07330078 -0.106668666 -0.08390479
0.10884178 -0.14925829 -0.079515494 0.07054228 0.03687197 0.0011962906 -0.08756432 0.0051763966
0.047840085 -0.041363478 0.07842057 0.055369876 0.009540429 0.0883094 -0.07296965 0.010247552
0.029286105 -0.092747204 0.07803951 -0.00082284736 -0.05156495 -0.06803836 0.027415361 -0.09171544
0.03878151 0.017956 0.08768153 0.05199792 -0.08982895 -0.0021203526 -0.08907495 0.07528718
-0.061732188 -0.04443317 -0.0161561 0.026987325 0.04870159 -0.090843715 0.06817066 -0.052374247
0.082859464 -0.094758004 0.06423211 -0.025126588 -0.009123682 0.005654422 -0.07754836 -0.023882646
-0.04049118 0.04431697 -0.072951704 0.1238236 -0.083578646 -0.07105081 -0.114522405 0.015552841
0.11649821 0.10542366 -0.119815454 0.07147282 -0.040726174 0.16088317 0.042379357 -0.07974076
-0.06678953 0.019186212 -0.048524708 -0.04749565 -0.11375898 0.066510014 -0.035446115 -0.015327844
-0.0661276 -0.017791037 -0.03391514 -0.05372096 -0.03901087 0.034121957 0.11135808 -0.058285188
0.035138834 0.044383176 -0.15875144 0.11490865 0.00066045806 -0.09973296 0.023319395 0.023324674
-0.01843618 -0.06743766 -0.052753888 -0.16126095 -0.021703111 -0.10957304 0.12523884 -0.039015163
-0.03643392 -0.14110172 -0.074521564 -0.02629313 -0.041164532 -0.03338535 0.104879975 0.022833496
0.118264936 -0.03341292 0.05509569 -0.021671053 -0.004973569 0.04035199 0.16675554 0.12468369
-0.058192924 0.008050825 0.11237549 0.12364742 0.031949088 0.124028906 0.00065343693 0.11153853
0.16111358 0.11460318 -0.12157522 0.16365445 -0.112278596 -0.054107863 -0.02701333 -0.010272647
-0.05034866 -0.06093638 -0.098367 -0.07070328 -0.03210835 -0.08534976 -0.08653763 -0.10988401
-0.087109216 0.06498941 -0.0031730752 -0.016000332 -0.12407295 0.0670411 0.1323255 0.018103631
-0.20068882 0.07614473 -0.1283996 0.040074054 0.0341383 -0.010529077 0.15208577 -0.047583796
0.07955874 -0.15103173 -0.034344412 -0.17349617 0.09584809 -0.15318766 0.10314736 0.14093983
-0.0217623 -0.035592727 -0.030077754 0.00734025 0.0030471862 -0.04008881 0.13592218 0.14763542
-0.014246143 0.07277925 -0.019002702 0.13788214 -0.0003885316 0.12860778 0.17850125 0.08485513
00000000: 537f d3bd 095b a93b 161e a23d 3a4d da3c
00000010: 15f7 b1bd e363 773c c4d8 de3c fa85 56bd
00000020: 5a7a e3bd ff83 143d 177c 9e3d 701e 8b3d
00000030: 6baa 273d 80aa 903d 573c c63d 7f89 a63d
00000040: e1fa b5bd bb25 84bd 59cd b53d af66 043c
00000050: d402 f6bc b40d 0fbd 7355 b03d bdb7 b2bd
00000060: 0515 5d3b a497 edbd 97a1 863c 226f 473d
00000070: 03e4 683d 910a e43d 89f6 a7bc e3eb c03c
00000080: 12ab 0c3e 853d 81bd 4348 b13b cd49 03be
00000090: 0728 a03d b8ef 2e3d 2e6d ba3d c3c2 19bc
000000a0: a66c 42bd 4084 4fbc 5d00 c1bd f5a8 e23d
000000b0: 312f 13be 1bac d43c 6c3b adbd c321 893d
000000c0: a20f d43b 054e d03d 61ed 8c3d 21bc 073c
000000d0: 825c bfbd 0b89 adbd 36b3 793c 941f 7f3c
000000e0: 9446 f7bd 1001 d53d efbf 6cbd bb30 efb8
000000f0: 9935 24be a333 c7bd 8261 1fbe 3872 b8bd
00000100: 90e6 823d ad78 583d 59e8 e4bd 1141 c03d
00000110: 9b69 b43d db81 9fbd a7bd 3cbd 41dd 17be
00000120: 3b9c febc 1804 0ebe 529d de3c 3fcc 073d
00000130: f3bd 99bd b81e 96bd 1a75 dabd 46d6 abbd
00000140: 70e8 de3d 2ad7 18be 05d9 a2bd 7978 903d
00000150: 1007 173d dacc 9c3a ec54 b3bd c39e a93b
00000160: f7f3 433d c06c 29bd f79a a03d 86cb 623d
00000170: 764f 1c3c 8fdb b43d 1d71 95bd 59e5 273c
00000180: 6ae9 ef3c 3ff2 bdbd 2ed3 9f3d 5ab4 57ba
00000190: c535 53bd b257 8bbd 2e96 e03c 4ed5 bbbd
000001a0: 5cd9 1e3d 7618 933c 6092 b33d c5fb 543d
000001b0: 3ef8 b7bd 9df5 0abb ed6c b6bd 2a30 9a3d
000001c0: e4da 7cbd 8eff 35bd cc59 84bc 8614 dd3c
000001d0: 527b 473d 450c babd 0f9d 8b3d 6186 56bd
000001e0: 39b2 a93d 7c10 c2bd 208c 833d 46d6 cdbc
000001f0: 7f7b 15bc bb48 b93b add1 9ebd 8aa5 c3bc
00000200: 14da 25bd b685 353d b467 95bd 3a97 fd3d
00000210: 482b abbd 1683 91bd b98a eabd 58d1 7e3c
00000220: 9d96 ee3d 5ce8 d73d ce61 f5bd 5860 923d
00000230: 7dd0 26bd 8fbe 243e fa95 2d3d 204f a3bd
00000240: f3c8 88bd 672c 9d3c d8c1 46bd cc8a 42bd
00000250: 78fa e8bd 6736 883d f22f 11bd a321 7bbc
00000260: e86d 87bd 82be 91bc 9aea 0abd 820a 5cbd
00000270: ddc9 1fbd 77c3 0b3d b40f e43d 73bc 6ebd
00000280: bded 0f3d 22cb 353d bd8f 22be 3a55 eb3d
00000290: 9722 2d3a cb40 ccbd 5108 bf3c 6313 bf3c
000002a0: 7907 97bc c21c 8abd 7614 58bd 9721 25be
000002b0: b9ca b1bc d467 e0bd 9c3e 003e 5dce 1fbd
000002c0: bc3b 15bd f87c 10be c39e 98bd b164 d7bc
000002d0: 249c 28bd 14bf 08bd 50cb d63d 500d bb3c
000002e0: e334 f23d fcdb 08bd 05ac 613d 7e87 b1bc
000002f0: 52f9 a2bb 2148 253d f7c1 2a3e 2a5a ff3d
00000300: b45b 6ebd 9ce7 033c 1f25 e63d dc3a fd3d
00000310: 0cdd 023d de02 fe3d 694b 2b3a 506e e43d
00000320: f5fa 243e 12b5 ea3d 6efc f8bd 0895 273e
00000330: 52f2 e5bd 35a0 5dbd 0f4b ddbc 9b4e 28bc
00000340: 663a 4ebd 6d98 79bd a374 c9bd e2cc 90bd
00000350: 0c84 03bd dbcb aebd a43a b1bd de0a e1bd
00000360: 5166 b2bd 2b19 853d 5ef3 4fbb 2113 83bc
00000370: f519 febd d84c 893d 5680 073e 114e 943c
00000380: 5f81 4dbe c5f1 9b3d 2f7b 03be b124 243d
00000390: 9ad4 0b3d 2682 2cbc 5fbc 1b3e 3ae7 42bd
000003a0: b1ef a23d 10a8 1abe baac 0cbd fba8 31be
000003b0: 014c c43d 3add 1cbe ec3e d33d 8852 103e
000003c0: da46 b2bc aec9 11bd 9f65 f6bc 7b86 f03b
000003d0: 4db3 473b 2a34 24bd 2f2f 0b3e bd2d 173e
000003e0: a868 69bc 4a0d 953d 8eab 9bbc fa30 0d3e
000003f0: d4b3 cbb9 c2b1 033e 08c9 363e 87c8 ad3d

model.bigrill.fwd_rnn.spatial_decoder.lin_out.bias f4 [32]
-0.11087783 -0.030499283 0.10088842 0.06576578 -0.15340415 -0.15551111 0.012684786 -0.09271973
0.026944598 0.0077050608 -0.034889642 0.036073055 0.08667436 -0.06842606 0.1498421 0.017972771
0.06726616 0.114842035 0.14212294 -0.12621279 0.11004427 -0.12948099 -0.009209709 0.14080971
-0.060109217 0.0989805 0.09566558 -0.089418024 0.024121357 0.00834355 0.17770277 -0.01685012
00000000: ea13 e3bd a2d9 f9bc 979e ce3d 36b0 863d
00000010: fa15 1dbe 4e3e 1fbe d9d3 4f3c d8e3 bdbd
00000020: ebba dc3c bc7a fc3b 71e8 0ebd 57c1 133d
00000030: 5482 b13d f622 8cbd 3570 193e a23b 933c
00000040: d7c2 893d 4d32 eb3d ad88 113e ed3d 01be
00000050: e45e e13d aa96 04be 52e4 16bc 6c30 103e
00000060: 1535 76bd 4ab6 ca3d 51ec c33d cc20 b7bd
00000070: 279a c53c 63b3 083c b7f7 353e 4309 8abc

model.bigrill.fwd_rnn.spatial_decoder.read_out.weight f4 [1, 64, 1]
-0.0061730347 -0.021893775 0.15883286 0.10870912 -0.1771291 -0.14556523 0.0965607 -0.0920403
0.14428447 -0.113620676 -0.12580234 0.11960635 0.03753668 -0.16419238 0.0736661 0.09627423
-0.052658346 0.032659154 0.11885205 -0.14548314 0.17019182 -0.013186533 0.18453209 0.13750395
0.16430312 0.02758685 0.061526533 -0.04834624 0.06745078 -0.13672641 0.11324546 0.14472462
-0.07545072 -0.030816548 -0.075471014 0.0022673155 0.1267788 0.047989305 0.018683752 -0.07690616
-0.054267984 -0.18182424 -0.00356627 -0.112483494 0.012316859 -0.07498049 -0.043012016 -0.06084758
0.017755426 -0.1527013 -0.054670326 0.13792837 0.13203736 -0.09844783 -0.035081584 0.08471124
0.103679396 0.046014305 0.08480945 0.15938471 0.044918213 0.14748658 0.12873614 0.14770932
00000000: 2b47 cabb 935a b3bc 15a5 223e e3a2 de3d
00000010: 5561 35be 0d0f 15be 9ec1 c53d a07f bcbd
00000020: 4fbf 133e f5b1 e8bd 54d2 00be 2df4 f43d
00000030: 10c0 193d 0c22 28be 41de 963d 6c2b c53d
00000040: 47b0 57bd 9bc5 053d b468 f33d 88f9 14be
00000050: c446 2e3e 540c 58bc fbf5 3c3e d6cd 0c3e
00000060: 143f 283e d1fd e13c 3f03 7c3d b506 46bd
00000070: a223 8a3d 0202 0cbe 3ced e73d b132 143e
00000080: e885 9abd fc72 fcbc 8c90 9abd 3e97 143b
00000090: 4dd2 013e 6f90 443d ab0e 993c fa80 9dbd
000000a0: 1b48 5ebd 2230 3abe 15b8 69bb bf5d e6bd
000000b0: a7cc 493c 5f8f 99bd 5e2d 30bd 503b 79bd
000000c0: d473 913c bb5d 1cbe feed 5fbd 183d 0d3e
000000d0: cd34 073e 049f c9bd b5b1 0fbd 167d ad3d
000000e0: dd55 d43d 7f79 3c3d 94b0 ad3d bf35 233e
000000f0: 29fc 373d b906 173e 68d3 033e 1d41 173e
