logs/discharge_point/grin/2023-10-15_21-19-23_108020093/epoch=49-step=4350.ckpt (torch, 707635 bytes, 102 tensors)

model.bigrill.emb f4 [8, 20]
00000000: e59a 86be cf00 7e3d 5db4 c3bd f3f9 85be
00000010: 4eba 053f cfd1 34bd a568 a13e a0b0 6ebe
00000020: 3534 4abf 779e f8be ffc0 9a3e 4489 9cbe
00000030: 179c 883e 16bc e3be 4f48 c6be 8b13 be3e
00000040: f654 e6bd 464d b6be a883 b7be 65b9 853f
00000050: 9185 12bc 5745 c9bd 0f49 8bbf b1bf 82be
00000060: 824b e0be 424e d33e b123 47bf 4507 133e
00000070: ef2c 87be b9b1 57bd 14b6 3bbd 444e 6dbe
00000080: 3706 733e a26e ce3e 3d07 3e3d 119a b2be
00000090: adef 8dbe 85c5 cf3d a8ee 2a3f 76f2 86be
000000a0: 1d84 b33d cb04 59bd 2bd5 633f 7c3d e83d
000000b0: c4f6 9a3e 9a80 ba3e 99f7 be3e f7f8 7cbe
000000c0: 0ecc bf3e 92c5 073e 38a2 673f d7fa 113d
000000d0: 9a18 d33c fd94 4d3e 060e 1f3f f9b4 113f
000000e0: 1634 ab3d 4ab1 c7be d99a 95be 6fbc f73d
000000f0: 2711 6fbe 3477 283f 58c8 de3e 18bf 1f3f
00000100: 0d28 fd3e 434d 7e3e a219 0dbe 1fe1 49bd
00000110: b639 61bc 81a2 b7bc 4a04 df3d 5535 97bf
00000120: e4d7 f63e a531 1ebe ef32 1d3f 9b75 923e
00000130: 3dd3 923d d226 c0be 369f 80be f4b7 c13e
00000140: af56 193f 4bbd 7abe a34d a7bb 62ec c53d
00000150: 8e1b 4f3d c5b1 183f 5182 e73d 1f90 d53e
00000160: 1339 393f e6c7 fb3e d33d 5c3d 765a d43e
00000170: c3bd dd3e c474 533e bcdc f43e 9927 8b3e
00000180: 6939 cd3d 5dd4 be3e 5c7f 053f cfc3 58be
00000190: a051 b23e bea6 13bf 845a 433e 3317 acbe
000001a0: c067 b93d b048 543e 5b8d 44be 8c42 c33e
000001b0: ef97 f4be 1840 893e b863 423d c79e 6c3e
000001c0: 2e74 9c3d 178b 203f 3feb 3c3e e9f3 cf3e
000001d0: a23e 2c3e 5359 f73e 6bcd ccbe 05e5 91be
000001e0: eb26 42be 6b0d d83c fa71 d83e 7816 cdbe
000001f0: 893f 033f 709d 4d3e 4257 1c3f c3b8 5ebf
00000200: 6488 f6be f07c b63d 8ba9 a1be 26e5 f33c
00000210: 50f6 f13d 4ccb 43be 3379 993e 3dc7 013f
00000220: fa22 abba 1894 3fbf 0117 febd 4219 7e3d
00000230: c881 10be 58ed 25be e98b a33e 6676 033f
00000240: 72bb b73e 4798 253f d977 9a3d 400b ff3e
00000250: 196c d33d c788 c1be 0980 0a3f 2f25 553f
00000260: 7fe0 393e 9207 613f 090d 323f c29f 093f
00000270: 5699 4f3f 27d1 353f 0cbe d0bd 8754 963e
-0.2629005 0.06201249 -0.09555886 -0.2616726 0.52237403 -0.0441454 0.3152515 -0.23309565
-0.7898591 -0.485584 0.3022537 -0.30573475 0.26681587 -0.44479436 -0.38727042 0.37124285
-0.11246674 -0.3560583 -0.35842633 1.0447203 -0.0089429775 -0.09827679 -1.0881671 -0.25536874
-0.43807608 0.41270643 -0.77788836 0.14358242 -0.2640147 -0.052659724 -0.04582794 -0.23174387
0.2373284 0.4031878 0.04639362 -0.34883168 -0.2772192 0.10145096 0.6677041 -0.26356858
0.08765433 -0.052983087 0.88997144 0.11339852 0.30266392 0.3642624 0.37298277 -0.24704348
0.3746037 0.13258961 0.904819 0.03563961 0.025768567 0.20076366 0.62130773 0.5691677
0.08359544 -0.39002448 -0.29219702 0.12096488 -0.23346387 0.6580689 0.43512225 0.6240096
0.4944462 0.2483416 -0.1377931 -0.049286958 -0.0137466695 -0.022416355 0.1088949 -1.1813151
0.48211586 -0.15448625 0.61405843 0.2860535 0.07169197 -0.37529618 -0.25121468 0.37835658
0.59897894 -0.24486272 -0.0051056906 0.09664227 0.050563388 0.59646255 0.11304153 0.41711518
0.72352713 0.49175948 0.053769898 0.41475266 0.4330884 0.20650011 0.47824657 0.27178648
0.10020716 0.37271395 0.5214746 -0.21168445 0.348279 -0.57676303 0.19077498 -0.3361145
0.09052992 0.20730853 -0.19194548 0.3813671 -0.47772166 0.26806712 0.04745838 0.23107444
0.07639347 0.62712234 0.18449114 0.40615776 0.16820768 0.48310336 -0.4000047 -0.2849504
-0.18960159 0.026373586 0.42274457 -0.40056205 0.5126882 0.20079589 0.61070645 -0.87000674
-0.48150933 0.08910549 -0.31574664 0.029772352 0.118145585 -0.1912052 0.2997528 0.5069464
-0.0013056688 -0.7483535 -0.124067314 0.062035806 -0.14112008 -0.1620382 0.3194268 0.51352537
0.35885197 0.6468548 0.075423904 0.4981327 0.10323352 -0.37799665 0.54101616 0.8325986
0.18152045 0.87902176 0.6955114 0.53759396 0.8109335 0.71022266 -0.101924986 0.29361364

model.bigrill.fwd_rnn.cells.0.forget_gate.mlp.weight f4 [32, 170, 1, 1]
00000000: 4a16 f93d 3f89 6ebe 5171 da3b cac2 8d3d
00000010: 25bb 6cbb 4301 ae3d 36be ef3d 6f7c a9bd
00000020: ab5e c83d f679 ef3d c9bf 05be aa6a 3fbd
00000030: de82 b73d 9df2 42bd 86fb d5bc 3d12 9bbd
00000040: c02e 903c da98 05be 3f5b a13d f4b0 3c3b
00000050: 1f5a e83c 3fc5 c83d c8b8 f0bb 2a38 32be
00000060: d286 563b b820 e23d 1591 d23c 00c0 093e
00000070: f93e bcbd a2f7 02be f31c 50bc 39b1 173d
00000080: 56eb 58bd 5f92 5c3c 353c cf3d 6e67 8cbe
00000090: dbf2 033d d77b 873d 583c d6bc c3ff e43d
000000a0: 3407 cc3d 90d7 883c e4fb 423e 6234 f13d
000000b0: 700c a4bd ecae 91bd a6eb a53d d71b bdbc
000000c0: b0cb 07bc 788b 1cbe 582b e43c 6f4b b6bc
000000d0: c09a df3d e7cd 1a3e 5202 a13c b944 283d
000000e0: 3a57 08bd 8164 8cbd 4ad1 e4b9 d7d9 143d
000000f0: 810b 8f3d 1a92 6d3d 08bd 00be 51a0 54bc
00000100: 06c3 7abb 8256 d03d 0431 923c 0aaa 0cbe
00000110: 0acd b03c bc77 b8bd 3876 5bbc 043c 593b
00000120: 1eb7 6b3b 9c2a 393d 767e cd3d b62a 02ba
00000130: ab45 9d3c dc81 143e e88e e6bd d22e a53d
00000140: 53ad ec3c 73de 9cbd cf71 d1bc 3fdf 30be
00000150: dfa1 2f3d 9801 6cbc 8d3e 1a3e 0f8e b03d
00000160: 8131 59bd 90e2 193e 73d1 2abd 2660 72bd
00000170: 997a 2c3c 875f 033e 5671 893d fd11 0e3e
00000180: c6ed d7bc edf0 173b cb2a d7bc eeb3 2bbc
00000190: c4b5 dabd 54f0 b6bd 89e9 9c3d 64df 51be
000001a0: 0d14 403d dbd5 e63d 5fd2 a83d a168 ef3d
000001b0: d80e d03d c3a7 aabb e354 843d b23f 1c3e
000001c0: 1927 a5bc 986d 903d 384a 003e 468a be3b
000001d0: b912 00be 9104 bd3b 38b6 003e 6b7b 67bb
000001e0: 871c 3b3d 4eac e63c 8b94 263d 77be 4d3e
000001f0: a2df 5fbc 4338 bd3b 3b4f 9bbc b3b4 00bc
00000200: 4d3d 88ba b834 ee3d 59ad 2ebc 65b7 ccbd
00000210: f604 23bc 5078 d13c d192 42bd ba68 1d3a
00000220: d1ba 143d 7a1a 05be 99c8 203d da76 403d
00000230: 35be 283d 48a2 dd3d 60bf 5b3c 6306 e6bd
00000240: 9c69 9d3d b986 5e3d 18be c0bd 8cc0 333d
00000250: ef9f e63c 2f83 bb3c caed dfbd 99af 79bd
00000260: 0d1b 633d 139e ba3c e065 f53d 9d1f db3a
00000270: 9ce4 2e3b 6d32 223e 9968 eebd e667 8f3c
00000280: fe76 283d e0dc 8a3c 1151 79bd 2038 913c
00000290: d171 b3bd 175a f1bd 153f c2bd e462 583d
000002a0: bec2 3dbd 6f75 08bd ee4c e13d c3b3 50bd
000002b0: d5cf fabd eeb2 873c 3fea 733d c6ca bd3c
000002c0: cbb6 753c 4ed0 aabd 49f5 08be bda7 27bd
000002d0: b043 443d b201 043e e5e3 87bd 6477 2cbe
000002e0: 6f53 d5bd 17b3 93bc cecc ad3d 09b4 b3bd
000002f0: 1a1f d23d 0f97 e13c ab1d 5ebd 27c0 a13d
00000300: 4f58 76bd f5d0 9abd df6b 953c 65a9 c83d
00000310: 92c4 ec3d d6b2 a1bd 3964 7bbd bbd1 163d
00000320: 4299 ea3d 8794 923c d059 28bc 91a2 30be
00000330: ffa6 c23d c42e da3d 2cc6 7d3c d620 74bb
00000340: 8e94 c03d 343f 88bd 1f04 5a3a 68e0 fbbc
00000350: 4a58 d93d d335 37bc 6551 45bc 6f63 cebc
00000360: 2dbc 093d c16b be3c b627 89bd 85a3 93bd
00000370: 456a 933c 9bb0 163d 9037 a23d db47 983d
00000380: 8d86 02be 6773 203e 644c febc 9de1 5dbd
00000390: d740 a83d f91a 163d 02a2 813c c937 4bbd
000003a0: eb96 8cbd 8d72 a1bd 6ca8 f0bc 69d5 653c
000003b0: ee90 073d 8b34 d8bd 9b9e ec3c 5c42 e0bb
000003c0: 553b cabd bf47 103d 0b24 d2bc 5cf9 343d
000003d0: f6a7 c43d 5123 1f3c 3a26 3f3d 83de bd3c
000003e0: 9f94 3ebd 8814 86bc 97fb 223d 0add 57bc
000003f0: 83fc 7c3c 924a 373d a887 9e3c 8b85 b93d
0.121624544 -0.23294543 0.0066663404 0.06921919 -0.003612229 0.084963344 0.11706202 -0.08275687
0.097836815 0.11693184 -0.13061441 -0.046732582 0.08960508 -0.047594655 -0.026120912 -0.07571838
0.017600417 -0.1304659 0.07878732 0.0028791996 0.028363286 0.09803247 -0.0073462464 -0.17404237
0.0032734168 0.11041397 0.025703946 0.13452148 -0.091916986 -0.12789777 -0.0127022145 0.037034247
-0.05295881 0.013462632 0.101189055 -0.2742266 0.032214027 0.066154175 -0.026151821 0.11181595
0.099623114 0.01670435 0.19041401 0.11777569 -0.08010185 -0.07113442 0.08101587 -0.023084564
-0.008288309 -0.15287578 0.0278527 -0.022252766 0.10918188 0.15117608 0.019654427 0.041081164
-0.03328631 -0.06855107 -0.0004364348 0.03634056 0.06984616 0.05800066 -0.1257211 -0.012977676
-0.0038263216 0.1017275 0.017845638 -0.1373674 0.021582145 -0.090072125 -0.013394885 0.0033147344
0.00359673 0.04520665 0.10033886 -0.0004965471 0.01919826 0.14502662 -0.11257726 0.08065571
0.028891241 -0.07659616 -0.025566963 -0.17272662 0.04287898 -0.014404677 0.15062924 0.086208455
-0.053025726 0.15027833 -0.041703653 -0.059173726 0.010527276 0.1282941 0.0671107 0.1387405
-0.026358496 0.0023184374 -0.026265522 -0.01047991 -0.106792 -0.08932558 0.07661731 -0.20495373
0.046894122 0.112712584 0.0824325 0.11689878 0.10159081 -0.005207987 0.06461503 0.15258673
-0.020160245 0.07052153 0.12528312 0.0058148233 -0.12507142 0.0057683666 0.12569511 -0.0035321366
0.045681503 0.028158333 0.040669005 0.20092188 -0.013664158 0.005774529 -0.018958678 -0.007855582
-0.0010394246 0.11631149 -0.0106614465 -0.09995917 -0.009949913 0.025570065 -0.047503296 0.000600468
0.036310975 -0.12998381 0.039253805 0.046988346 0.04119702 0.10821968 0.013412327 -0.11231687
0.07686159 0.0543277 -0.094112575 0.0438848 0.028152434 0.022889702 -0.109340265 -0.06095848
0.05544572 0.022780454 0.11982322 0.0016717796 0.0026686555 0.15839548 -0.11641044 0.017505597
0.041129105 0.016951025 -0.060868327 0.017726958 -0.08761943 -0.117847614 -0.09484688 0.052828684
-0.0463283 -0.03331512 0.11001001 -0.050952684 -0.12246672 0.016564813 0.059549566 0.023167979
0.0149971945 -0.08340512 -0.13374819 -0.040931452 0.047916114 0.12891272 -0.06635264 -0.16842419
-0.10416304 -0.018029733 0.08486329 -0.08774573 0.102598384 0.02753785 -0.054227512 0.07897978
-0.06014281 -0.07559387 0.018239914 0.097979344 0.1156093 -0.078954384 -0.061374877 0.03682111
0.11455013 0.017893089 -0.010275319 -0.17249514 0.09504508 0.10653451 0.015489142 -0.0037251017
0.094033346 -0.0665268 0.0008316654 -0.030746654 0.10612543 -0.011182266 -0.012043332 -0.025193898
0.033626724 0.02324474 -0.066970274 -0.07208923 0.01799501 0.036789518 0.07920754 0.0743558
-0.1274664 0.15669023 -0.031042285 -0.05417024 0.08215492 0.036646817 0.015824322 -0.049613748
-0.06864723 -0.07883177 -0.029377185 0.014027932 0.0330972 -0.10556897 0.028884223 -0.006843848
-0.09874598 0.035224672 -0.025651952 0.04418312 0.096023485 0.00971301 0.046667315 0.02317739
-0.046528455 -0.016367212 0.039790716 -0.013175258 0.015441063 0.04474885 0.019351795 0.090586744

model.bigrill.fwd_rnn.cells.0.forget_gate.mlp.bias f4 [32]
00000000: e9a8 00bd 4c72 bebc f631 0b3d ffb7 13be
00000010: e446 73bc 6e1f 0d3d a066 703d 9a60 03bd
00000020: 8de5 a73d 798a 4e3d f6ef 513d 50a3 14be
00000030: a387 e9bc 54e7 9dbd caa1 11bd f2c4 e0bd
00000040: d3f0 423d 47fd d5bd f6e3 e7bc 3f95 503d
00000050: c945 4b3e 44ca 28be 3b28 303d 8a4a 2bbc
00000060: 1435 3d3c d9e4 013d a9ef 12bd f213 2cbd
00000070: f7d3 d23c 8d6e 43bd 2c8e b53c 6031 75bd
-0.031411085 -0.02324786 0.033983193 -0.14425658 -0.014848445 0.0344538 0.05869162 -0.03207455
0.0819808 0.050425027 0.051254235 -0.14515424 -0.02850706 -0.07710138 -0.035554685 -0.10975064
0.04759295 -0.104486994 -0.028306942 0.050923582 0.1985084 -0.16483408 0.043007117 -0.010454783
0.011548299 0.031712387 -0.03587309 -0.04201121 0.025735838 -0.04771285 0.02216252 -0.05986154

model.bigrill.fwd_rnn.cells.0.update_gate.mlp.weight f4 [32, 170, 1, 1]
00000000: bbaf a3bd bfa5 7bbd 30a7 0b3d cf01 1a3b
00000010: 3477 f83d 25db 6dbe c7c7 13be e37e 773d
00000020: a9f3 2fbe 674a 45be 5461 263e 3d1d 7abe
00000030: a085 e8bd 67d6 133e c6c7 96bc 82e5 703e
00000040: 0ac9 dabd 5e06 0c3e 125d c7bd 0ab7 cebd
00000050: 03c6 cfbd 44b7 8cbd aca0 863e d47d 133e
00000060: f645 8dbd dca2 14bd f07a e7bd e817 87be
00000070: cc1a 8b3d 4aca 283e a9a5 f83c e4da bebc
00000080: 8c88 203d 60e3 063d bfcd b6bd b901 743e
00000090: 85b7 25bd bd0e d2bc f180 513d 0a96 34bd
000000a0: f552 a7bd 2786 7a3d 8c3d 11be f74b 16be
000000b0: cbc2 053e 521e 05be f87e 9cbe 4e13 b83d
000000c0: 8ec0 8e3d c414 203e 6b6a 1e3d 110b 3a3b
000000d0: da1f 2dbe e718 e53c ccde c8bd c564 b7bd
000000e0: 7eff 8e3e e711 803c 0893 e8bd 9bcb b1bd
000000f0: a903 3a3c a612 81be 6ea4 233e e35e 003d
00000100: b7c5 cb3c ae00 2dbd 0461 9abd e369 8d3d
00000110: 8fc7 dabd 46bc 223e 7550 2b3d 2456 a0bd
00000120: 8f54 4ebc 1245 cdbd 59e3 9dbd db20 8c3d
00000130: 4408 74be 9614 dcbd 9780 da3d 0cb3 8d3c
00000140: d673 71be d6ef c73d 7ecf ffb9 0d80 1b3e
00000150: 7399 aebd 83c0 4f3d a641 adbd b3f2 1bbe
00000160: 35e5 263d 24ec 3abe 5731 ac3d 75b7 e73d
00000170: b408 75bd 11fe 41bd 7e46 e4bd 22b3 27be
00000180: 4111 db3d fc00 ef3d e7d3 c43d e5d4 393d
00000190: 1e79 9fbd d996 c93c a814 0cbe df17 0c3e
000001a0: 8318 bbbc c999 c6bd 6ea0 9c3c e610 b9bd
000001b0: 9597 87bd c459 cabd 731d a4be 908b 43be
000001c0: ba7b 673e 3fc1 38bd 8957 55be b497 553d
000001d0: fc24 5bbc 3ba0 113e a38f 6ebc 7d61 0b3e
000001e0: e87b 0fbe a913 35be d1b9 313b c64d 09be
000001f0: 9176 c43e e5ec 2e3e e453 97bc 476e a33d
00000200: 0f41 cf3d faea b3be 2782 bf3d b91e 193e
00000210: ebc4 173e 00ce 14bd 9b7f 58bd 0c7c cd3d
00000220: bd3b 32be 15dd 933d 5885 5e3d fa6c f5bc
00000230: f9af f73d 7ecb 92be 1e52 57bd a8ea 933d
00000240: de94 d7bd 3e9b 85be 6b5c 8b3e ec1d 3dbe
00000250: 61dc 38be 17d6 563e 2240 523c 96a0 693e
00000260: 1db6 fc3a 7287 933d a7b3 51bc 8314 e33c
00000270: 99a0 86bd 4dbd 4ebd 6ffc 263e a6ea d23d
00000280: 8bb9 e5bd 249a f93c 4451 773c 9b06 4bbd
00000290: 23da a63d fe97 133e 67d8 153e 2a77 dc3c
000002a0: 0022 00be f7e5 83bc 960f bcbd 9757 d2bd
000002b0: 7123 be3c 60b2 9d3b f658 a63d 6826 c3be
000002c0: 4c24 32be cb12 fdbb 27c3 353d f281 d1bb
000002d0: 1260 183e 6623 f5bc d688 993d 065b 3a3e
000002e0: c500 d93d 198c 1a3e 2748 61be 9b7f b13c
000002f0: 681f ddbd c691 11be 6ad0 203e c2a2 84bd
00000300: 4e52 043e 3509 743c 75a4 5ebe bfa9 e4bd
00000310: 56ca debc deb9 aabd 39d3 523d 1f04 da3d
00000320: 03e0 d6bd 896a 31be 4e44 ff3d 2612 b53d
00000330: 8b79 a6bd adea ad3e 66c0 c93c a394 1cbe
00000340: dd96 0d3d dcd0 8b3c 5fdb 0ebb 5aab b53c
00000350: 84bb 43be 30f9 a0bc 22c6 cc3d 112d fb3d
00000360: 77e7 8dbe 1458 a2bc c2a0 e43d 82c6 d03c
00000370: 0246 ad3c e9d5 873d 5f8d 61bd 0606 84bd
00000380: a527 b9bb bd76 3cbd ad7f 0dbd 08c7 083d
00000390: bc3c b9bd b479 16be 9cd2 fe3d 6022 f2bd
000003a0: bc2e 993d 1c7c 523d 2543 363c 2b4c c5bd
000003b0: f879 e0bd e213 813c 8852 e4bd 1b42 683e
000003c0: 3b3a 1a3d be9d 09bd 6f0e 5f3d ec8d 51bd
000003d0: a74e 44bd 8cc4 de3d ee6e f8bd 65d6 c3bd
000003e0: f8ce 673e 73e6 913a c6c9 32be 3610 eb3b
000003f0: d582 743a f073 923d 5a9f 97bd 176a 763d
-0.07992502 -0.061437365 0.03409499 0.0023499613 0.12132111 -0.23228128 -0.14431678 0.060423743
-0.17182793 -0.19266663 0.16248065 -0.24425216 -0.11353612 0.14437257 -0.018405806 0.2352505
-0.106828764 0.13674304 -0.09734549 -0.10093506 -0.101451896 -0.06870893 0.26294458 0.14403468
-0.068981096 -0.036288127 -0.11302745 -0.26385427 0.067922205 0.16483417 0.03035243 -0.023297735
0.03919272 0.032931685 -0.08925962 0.23828782 -0.04045822 -0.025641793 0.05114836 -0.0440884
-0.0817012 0.061163094 -0.14183635 -0.14677416 0.13062589 -0.12999848 -0.3056562 0.08988057
0.06970321 0.15632921 0.038675707 0.0028387944 -0.16906682 0.027965976 -0.0980812 -0.08954767
0.279293 0.015633537 -0.11356169 -0.08681413 0.011353412 -0.2520954 0.15980694 0.03134049
0.024874551 -0.042236976 -0.075380355 0.06904962 -0.10682594 0.15892133 0.041824777 -0.0782893
-0.0125934025 -0.1002294 -0.07709379 0.06842204 -0.23831278 -0.10746114 0.10669058 0.01729729
-0.23579344 0.09762542 -0.00048791984 0.15185566 -0.08525362 0.050720703 -0.08459787 -0.15229301
0.040745933 -0.18254143 0.08407848 0.113142885 -0.059822753 -0.047361437 -0.11146258 -0.16376927
0.1069665 0.1167011 0.0961073 0.045369048 -0.07786773 0.024608063 -0.13679755 0.13680981
-0.022838837 -0.09697301 0.019119468 -0.09036426 -0.06620709 -0.09880403 -0.32053718 -0.19096208
0.22605792 -0.04510617 -0.20834173 0.05214663 -0.013375517 0.1422128 -0.014560613 0.13611408
-0.1401211 -0.17683281 0.0027118812 -0.13408574 0.3837171 0.17082556 -0.01847262 0.07980018
0.10119831 -0.3514021 0.093509965 0.14953126 0.14821212 -0.03632927 -0.05285607 0.10033426
-0.17405601 0.072199024 0.054326385 -0.02995919 0.12094111 -0.28670877 -0.052568547 0.072224915
-0.10526441 -0.26095003 0.27218947 -0.18468446 -0.18052818 0.20980106 0.012832673 0.22815165
0.0019280348 0.072035685 -0.01279918 0.027719742 -0.065736 -0.0504735 0.16307233 0.10298662
-0.1121703 0.030469008 0.015095059 -0.049566846 0.08147075 0.14413449 0.14633332 0.02691229
-0.1251297 -0.016100867 -0.0918266 -0.10270613 0.02321026 0.0048125237 0.08122437 -0.3811524
-0.17396659 -0.0077231876 0.044375565 -0.0063936645 0.14880398 -0.029924106 0.074968025 0.18198785
0.1059585 0.15092506 -0.2200018 0.021667292 -0.10797006 -0.14215764 0.15704504 -0.06476356
0.12922022 0.014894773 -0.21742423 -0.11165189 -0.02719609 -0.083362326 0.05147097 0.10645317
-0.104919456 -0.17325796 0.124642 0.08841352 -0.08128651 0.33968106 0.024627876 -0.15291075
0.034567703 0.017067365 -0.0021798236 0.022176433 -0.191145 -0.019650072 0.09998728 0.12264455
-0.27715656 -0.01981739 0.111634746 0.02548528 0.021151546 0.06632597 -0.055066463 -0.064464614
-0.005650478 -0.046011675 -0.03454559 0.033392936 -0.09044787 -0.14694864 0.12442514 -0.11822963
0.07479617 0.05138789 0.011124407 -0.096336685 -0.10960764 0.015756551 -0.11148554 0.22681467
0.03765319 -0.0335977 0.054457124 -0.051160738 -0.04792657 0.10877332 -0.12130533 -0.09562377
0.22637546 0.0011131301 -0.17459783 0.0071735634 0.0009327357 0.071510196 -0.07403441 0.06015977

model.bigrill.fwd_rnn.cells.0.update_gate.mlp.bias f4 [32]
00000000: 6071 c9bd 7143 f03d 396e 05bd ff6c 603d
00000010: 4647 2fbe adbf 103c 8840 afbd 2bd8 9ebd
00000020: 6325 413e 1ccd b1be 0a6d 65bd cda0 d5bd
00000030: 5230 52bd ecd8 103c f86b 863d d901 0a3d
00000040: a59d 36be 4eb8 083d f54f 85bb 1fcd d5bd
00000050: e4e4 edbe 22e0 9cbd 5782 1ebe 32f1 b13d
00000060: ac66 ffbc 1505 533d b2c5 6cbc 92b3 6e3d
00000070: de4e 31be ffb9 db3b ba02 7bbc 051d 9fbd
-0.09836078 0.117316134 -0.03257582 0.054791447 -0.17117032 0.008834762 -0.0855723 -0.077560745
0.18861918 -0.347268 -0.05601219 -0.10431061 -0.051315613 0.008840781 0.06563562 0.03369317
-0.17833574 0.03337889 -0.0040683695 -0.10439514 -0.46463692 -0.076599374 -0.15479408 0.086885825
-0.031176887 0.05151852 -0.014451431 0.05827672 -0.17315242 0.006705522 -0.015320474 -0.07769207

model.bigrill.fwd_rnn.cells.0.c_gate.mlp.weight f4 [32, 170, 1, 1]
00000000: 84bf abba e249 45be b8f2 37bd 7525 1e3c
00000010: 7762 a43c ce3a 513d 722d 0fbd 9b85 c63d
00000020: 17fb 99bd f6eb 43bc 10cd 583d 9f88 3a3e
00000030: b0eb c4bd 6b61 4f3d 47ad a5bc 27aa 9b3d
00000040: 6831 da3b 6728 f73c 5246 b13d 5fa8 89bd
00000050: 459e 5abd 276e 913d 7553 89be 63be 843c
00000060: 4afb 07bd 90d2 ddbb a9d5 d43d d23a dfbd
00000070: e100 51bd b704 6d3d 4e12 c83d fa8a bd3c
00000080: 11c2 35bd ac01 1bbd b189 f9bc ec89 8fbd
00000090: 246a da3d cb12 38bd ed78 f6bc 26c3 46bd
000000a0: 1ed7 0abe e497 373c 9eaf b93c 6083 8c3d
000000b0: 16f3 fb3c 1d46 463e 9200 3fbc c9d4 d23c
000000c0: 0b9e dd3c b0d0 e23d c91a 43ba 63de eb3d
000000d0: 761d 13bd 19d0 fcbc 3ada a03c 8aad ef3d
000000e0: fa0e 59be 1325 943d 3486 8eba f6c1 fcbc
000000f0: 4729 0c3d 87a5 43bb 5588 bc3c 551e a63a
00000100: d4ad 6f3d a757 1dbb f8e3 ae3c 7ddf cf3d
00000110: 7de9 b8bd deaa c3bc 8b27 4d3d 9ae2 7ebd
00000120: d2b4 da3d a0dc 0dbe e412 b9bd fd12 913d
00000130: 9bae a6bd d675 c9bd 8bcc 9d3d 803c 653e
00000140: 3196 39bd 16de 323e 736e 013e 4486 3bbc
00000150: d60a 023b 0cc6 d93c c4aa 0abe 4dcb 25be
00000160: ebed b53d 6e13 2d3d 6cb4 a8bd d7ee 383e
00000170: 8227 abbb d15a 68bd a82c bb3d 3d3e 9d3d
00000180: 192d 3abd 7664 94bd ba58 d03d 96c1 083d
00000190: 7e6a d53d e5c9 1f3e 733c 1cbd 7eb1 52be
000001a0: c3d7 9dbd bc75 103d 897f b23d cb35 1fbd
000001b0: 949b 0cbd 92f1 2a3d 4292 d9bd 288d 89bc
000001c0: af0c 65bd 9370 1c3e 9937 26bd 6b5f 1abd
000001d0: 7484 edbc a29c f4bc 7508 f8bc c9a2 753c
000001e0: 11b1 acb9 0ab0 38bd 54ef bdbd a480 0e3d
000001f0: 85ea d3bd e366 0c3d 6d20 adbc ff28 bbbc
00000200: 9744 e33c d9a1 83bc fc6e 163c ed07 f73c
00000210: 8558 cf3d 6dac b1bc 9d1a 0b3c 4b6c 3e3d
00000220: 6cbe e5bd 5e07 4abe 800f 66bd e6e7 883d
00000230: 1dd6 babc f2bc 47bd 93df 32bd 64f5 9ebd
00000240: c588 12be 29ba 80bd eff7 093d 4cce b93d
00000250: 4fb7 67bd 1cf4 893c 4959 98bd cb55 f03c
00000260: d5e1 3dbd 7309 d03d 5895 273d 5d76 093e
00000270: 4eea acbd 5eb4 bd3d e9ae 10be 50e6 b1bb
00000280: e0de e3bd 51ee d6bc 042c 653d 7a05 03be
00000290: c88b 8fbc 124d 8d3d 6be8 0a3e 9bbc 173d
000002a0: 625d f5bd f0bb 593d e465 c63d f3a6 eebd
000002b0: fa17 623d 19a0 033e 665a 083c be30 803e
000002c0: 510e b9bc 24db 8f3c 31bb cc3d 9375 233e
000002d0: c073 82bd 6f6b 8cbd 55b9 b03d 1168 5fbd
000002e0: 4030 b93d c977 07be e2a3 0e3e d61a 573d
000002f0: fddd 923d 3384 cebb 9aa4 e63d fd1a 8a3d
00000300: c645 603d 468e 2fbb ba97 79bd d015 4dbc
00000310: 47d4 dcbd 6574 403e d842 03be 9184 98bd
00000320: f513 f7bd 3180 d2bc 5221 b4bc 14c4 403d
00000330: 1b4c a83b 5f98 f03c e495 a63d af17 e3bb
00000340: 9106 43be 3868 c83d 5339 39bd 9adf d83d
00000350: 4c5a 373e 41ab 353c af5a adbd 3f12 7ebd
00000360: a92e a33d b914 d3bc 8496 b13c f352 8cbd
00000370: d6c2 efbc ff15 e13c 687e 05be af3e 99bd
00000380: df2e e43c c388 dfbd d10b 283e cbf8 99bd
00000390: db25 18bc d9d4 3e3c 5f79 10be 170f fe3d
000003a0: b87d eabd 067e c4bd eca0 f9bd 0e07 fe3b
000003b0: 70d7 323d 2d62 903d 4169 4e3c a8c2 8ebd
000003c0: c7ce d73c 7ae1 d1bb 1665 5dbe d88b ce3d
000003d0: ef79 c2bc 2684 fa3d 33a5 943c 6234 003e
000003e0: e538 a2bd 1542 d0bd 1365 663e 633b 52bd
000003f0: 69ac 1bbc f672 eabd 87ac 98bb 0533 3c3d
-0.0013103341 -0.19266465 -0.04490921 0.009652485 0.020066483 0.05108147 -0.03495545 0.09693452
-0.07518595 -0.011958113 0.052929938 0.1821618 -0.09615266 0.050630014 -0.020224227 0.07600813
0.0066587217 0.030170633 0.08655991 -0.06721567 -0.053373594 0.07101088 -0.26821485 0.016204065
-0.033198632 -0.006769486 0.10392315 -0.10899891 -0.05102623 0.057865825 0.09769116 0.023137558
-0.04437453 -0.03784339 -0.030461164 -0.070087284 0.10664776 -0.044939797 -0.030086959 -0.04852595
-0.13558623 0.011205647 0.022666749 0.06860995 0.03075556 0.19362684 -0.011657851 0.02573623
0.0270529 0.1107496 -0.0007442651 0.11517026 -0.035916768 -0.030860947 0.019635309 0.11703022
-0.2119712 0.07233634 -0.0010873736 -0.030854207 0.034219053 -0.00298533 0.023014227 0.0012673835
0.058515385 -0.0024008544 0.021348938 0.10150049 -0.09028909 -0.023885187 0.05008654 -0.062227823
0.1067902 -0.13853693 -0.09036806 0.070837 -0.08138772 -0.098369285 0.07705029 0.2238636
-0.04530925 0.17467532 0.1263979 -0.011445586 0.0019842885 0.026583694 -0.13541704 -0.16190834
0.0888327 0.042254858 -0.08237538 0.1805986 -0.0052232156 -0.056727234 0.09139377 0.07677887
-0.045453165 -0.07245724 0.10173173 0.033387743 0.104207024 0.1560436 -0.038143586 -0.2057552
-0.07707169 0.03526853 0.08715732 -0.03886966 -0.03432806 0.041734286 -0.106235996 -0.016790941
-0.0559203 0.15277319 -0.040580366 -0.037688654 -0.028993823 -0.029859845 -0.03027747 0.014992424
-0.0003293832 -0.04508976 -0.09274164 0.03479065 -0.103474654 0.034277808 -0.021133626 -0.022846697
0.027742667 -0.016068386 0.009181734 0.030155146 0.10124306 -0.021688664 0.008490232 0.046489995
-0.11217961 -0.19729373 -0.056167126 0.06684856 -0.022807175 -0.048764177 -0.04367025 -0.07761648
-0.14309986 -0.06285507 0.033683714 0.09072551 -0.0565713 0.016840033 -0.07438905 0.029337784
-0.04635795 0.10158052 0.04091391 0.13424058 -0.084431276 0.09262918 -0.14129223 -0.0054290667
-0.111264944 -0.026236685 0.05595018 -0.12795058 -0.017522708 0.068994656 0.13565223 0.037045103
-0.11980702 0.053157747 0.09687403 -0.11652937 0.055198647 0.12854041 0.008322334 0.25037187
-0.022589834 0.01756055 0.099966414 0.1596282 -0.06369734 -0.06856429 0.08629099 -0.054542605
0.09042406 -0.13229288 0.13929704 0.052515827 0.07171247 -0.0063023805 0.11261864 0.06743429
0.05475404 -0.0026787682 -0.060935713 -0.012517408 -0.10782676 0.18794401 -0.12818468 -0.0744716
-0.120643534 -0.025695892 -0.021988545 0.047061995 0.0051360256 0.029369531 0.08134058 -0.0069303135
-0.19045474 0.09785503 -0.045220684 0.105895236 0.1790554 0.011088193 -0.08464562 -0.06202912
0.07967884 -0.025766717 0.021678217 -0.06851759 -0.02926771 0.027476309 -0.13036501 -0.07482659
0.027854381 -0.10914757 0.16410758 -0.075181566 -0.009286369 0.0116474265 -0.141088 0.12405222
-0.1144976 -0.095943496 -0.121888965 0.007752306 0.04366249 0.070499755 0.012598337 -0.069707215
0.026343716 -0.0064050527 -0.21620592 0.10085267 -0.023739783 0.122322366 0.01814518 0.12519982
-0.07921008 -0.10168854 0.22499494 -0.051326167 -0.009501555 -0.11447708 -0.0046592387 0.045947094

model.bigrill.fwd_rnn.cells.0.c_gate.mlp.bias f4 [32]
00000000: bc9a b1bc 6f73 b9bd 06df 923d 7a8d 71bd
00000010: 9f32 793d cf86 5a3d 92c1 e7bd 6572 8fbd
00000020: dddb a73d c7ff 7cbd 416f e0bd 1d10 043e
00000030: f142 173d f96e d63d fc74 993d f14d df3d
00000040: ac9b da3a 3cf8 35bd d3e6 3cbc 4650 963d
00000050: e4bf a93d 38c6 103e b68d 11be 529a 79bd
00000060: 6441 adbd 1f1a 20be 59d6 d03d 8795 c23c
00000070: de8d 5b3d 4977 05bd c038 89bd 8f7f 763d
-0.021680228 -0.0905522 0.071714446 -0.058972813 0.06083929 0.05335122 -0.113162175 -0.07004241
0.081962325 -0.061767366 -0.1095872 0.12896772 0.036929075 0.10470385 0.07493016 0.10903538
0.0016678474 -0.044426188 -0.011529642 0.0733953 0.08288553 0.14138114 -0.14214215 -0.060938187
-0.08459738 -0.15634964 0.101971336 0.02375294 0.053602092 -0.032584462 -0.06700277 0.060180243

model.bigrill.fwd_rnn.first_stage.weight f4 [1, 32, 1]
00000000: a8fc 41bf b36f 783f 8f81 643f f9b0 353f
00000010: e013 203f a4d6 4bbf f732 6fbf 3571 023f
00000020: f2df e2bd b6c3 7b3f e90a 71bf 2c16 51bf
00000030: 38fa 60bf 97f3 c53e dd77 453f 96cf 4fbf
00000040: ffae 593f 4799 6c3f 3884 60bf cd47 4f3f
00000050: bba2 5fbf 46d2 73bf 815e 513f 69d6 6a3f
00000060: f0e5 553f bb5d 50bd 777f 2bbf 0a9c a9be
00000070: 3542 613f 3487 623f 0068 66bf 5e4d 54bf
-0.7577615 0.9704544 0.8926019 0.70973164 0.62530327 -0.7962439 -0.9343714 0.5095399
-0.110778704 0.98345506 -0.9415727 -0.81674457 -0.87881804 0.38662407 0.7713602 -0.81176126
0.8503265 0.9242138 -0.8770175 0.80968934 -0.8735768 -0.95242727 0.81784827 0.91733414
0.8355398 -0.05087064 -0.6699137 -0.3312686 0.8799165 0.88487554 -0.9000244 -0.8293055

model.bigrill.fwd_rnn.spatial_decoder.lin_in.weight f4 [32, 34, 1]
00000000: 37a9 623d 4e0c 083b 8013 403e cf03 743d
00000010: a736 14bb ab65 91bd 4ad6 e03a da12 1b3e
00000020: 147f 5ebe 05ed b5bb fc33 31bc fe5c bebc
00000030: a498 6abe 871e 113d 48a4 aa3c 127b 7d3e
00000040: b94a 853d 6ad1 493e bd36 fb3d f019 03be
00000050: 3973 1d3e 3cf7 623c 21fe 033e 2458 ecbc
00000060: 15f5 3dbd dd0d f5bd 5539 49bd a6b3 dcbd
00000070: 485f af3d 3b12 5b3e f443 843d 0b8c 0bbe
00000080: c8c0 3b3e cce3 173e 357c 1ebd 36e0 913d
00000090: 325a 263e f576 9bbd d9bc 43be 6900 bb3c
000000a0: 77e7 4fbe f357 12bd 2247 e0bd f901 b8bc
000000b0: 1d92 b33d 6a26 123e 24d7 32be 6b10 2dbd
000000c0: 9b83 d33d a843 8c3d 6818 2c3b a748 cb3d
000000d0: 290b 9cbd b607 95bd e42b 71bc d8e6 6f3d
000000e0: b849 eebd 0628 3e3b 4e8d 623e 95fa c33c
000000f0: 74e1 b7bd a1a2 9f3d 38d6 963d 9094 853e
00000100: 15c0 19bd 90a7 ac3c f59a e43d 6080 083e
00000110: 4d7f 34bc 254b 37bd c794 2abe b718 853c
00000120: 541f 2a3e 8f7c 443e 49e7 783c 7bde ce3c
00000130: 937b 3e3e 3d70 edba 2d7d b1bc d552 3abe
00000140: 864c 1e3e 9964 803d 5814 85bd 3d90 87be
00000150: dfea 073e c87d 2ebe 132d c5bd aca6 bebd
00000160: ad10 cdbd 4a9a 5cbd 76ca dcbd f3d5 a7bd
00000170: 8ccc 1b3d d94f 253e f897 8fbc 3ffb 293e
00000180: cdeb 61be 7f27 18be b52b 9bbd cd51 1f3e
00000190: c42b e6bd dc9d aebd 4bec 4a3d edbe a2bd
000001a0: 70e7 9dbc 1a59 0cbd cd3b f8bd 620e 20be
000001b0: 981b e63d 1eaa 2c3e 368a 7fbe 4186 19bd
000001c0: 4e5e 4d3d a737 023e 1d2b 31bd 47db fa3d
000001d0: 234e d53d afc9 2e3e a5d8 e4bd e119 0d3c
000001e0: 8f4f a5bd f812 933d 45ec 78bc b752 f3bd
000001f0: bb58 cf3d b0b7 57bd 8635 b03d 0333 393d
00000200: 6b8c f4bd 8b61 bfbd 3fe8 4c3d a6f9 573e
00000210: aacb 383d 63a7 11be a42e c43d c86b a6bd
00000220: ed15 29bc 7579 4ebe e818 503d 40a7 0b3e
00000230: 81ea 1b3e 515a 9cbd 71a8 ba3d acce 8ebc
00000240: e159 c23c 2fe9 343e a711 023e 57b7 25be
00000250: 4003 7f3e 1244 c2bc 43ff 91b9 966d 1b3d
00000260: 2da9 48bd 1539 2f3d 8459 7fbd e778 ebbd
00000270: f60d ebbd f13b 28bd 6637 e9bc 7216 a4bd
00000280: 0783 82bd 4889 8fbd 2a66 e83d fc41 63bd
00000290: e0c5 1abe 8248 8cbe 76e4 4cbd fa39 113e
000002a0: f080 4bbe 0e17 e5bd 76f9 81bd 8cf9 20be
000002b0: ea55 c83d bc08 11be c274 e33d 0a55 913c
000002c0: a7e5 b7bb 6291 d03d 2408 3cbe 3baa 03bd
000002d0: 7271 9abd 24ba 6ebd 4f07 a4bd b34d a1bc
000002e0: c0d6 0a3e 701b 163d 0577 c5bd 4b57 03be
000002f0: 131a c5bd fa34 0dbe cb61 413e 5134 903d
00000300: 3cd8 c43d e183 183e 15ea dd3c d48c dc3d
00000310: 97dd 2bbe 7231 9ebd d5e8 06bd 3402 413e
00000320: c0e7 bd3d f84a c0bd e153 243e b83a 1d3d
00000330: e063 cdbd 9be8 993c 3443 b03d 4df5 953d
00000340: b3d7 11be 218d 18be 4b3e 8f3d 1c2b 3cbe
00000350: 247d ecbb d483 3fbe 707a 41bd ef53 853e
00000360: c517 82be 52de c8bd 7937 8dba e12c 02bd
00000370: 7d52 733d d083 163e ca93 57bd 4538 943d
00000380: b6ad 6d3d 1d1b 91bc 6e8c 113d 385b 00be
00000390: c7aa 0f3e d870 473d ac58 733c 94d8 29be
000003a0: e6ce 7fbd 04e7 20bd 231e dc3d f543 4abe
000003b0: c205 1c3e 004f 2a3e 9fec 283d c43f 7e3d
000003c0: c9aa 023e 4a43 01bc 9999 2b3e 0434 1d3e
000003d0: edad aabc 6506 b7bd c34e a03e 16ad efbd
000003e0: 64d7 d9bd f585 d1ba b9f8 5d3c 4c38 423d
000003f0: 99b2 68bd ae68 17be f308 92bd d7f2 21be
0.055337157 0.0020759287 0.18757439 0.059573945 -0.0022615583 -0.0709947 0.0017153707 0.1514391
-0.21728164 -0.0055519366 -0.010815617 -0.023237702 -0.2290979 0.035429504 0.020830289 0.24753979
0.06508393 0.19708791 0.122663 -0.12802863 0.15375985 0.013852891 0.12889911 -0.028850622
-0.046376307 -0.11965535 -0.04912694 -0.10776453 0.08563095 0.21393673 0.064582735 -0.13627641
0.18335259 0.14832991 -0.03869267 0.07122843 0.16245344 -0.07591049 -0.19115008 0.022827344
-0.2030314 -0.035728406 -0.109510675 -0.022461878 0.08768103 0.14272466 -0.17464882 -0.042251986
0.10327836 0.06848842 0.0026259664 0.09925967 -0.07619316 -0.07276861 -0.014719937 0.05856976
-0.116351545 0.0029015555 0.22124216 0.023923198 -0.08978549 0.07794691 0.07365078 0.26089907
-0.0375367 0.021075994 0.11162368 0.13330221 -0.011016679 -0.044749398 -0.16658317 0.016247137
0.16613513 0.1918814 0.015191861 0.025252571 0.18601827 -0.0018115115 -0.021666134 -0.1819566
0.15458879 0.062691875 -0.06498021 -0.26477233 0.1327319 -0.17040169 -0.09627738 -0.09309134
-0.10012946 -0.05385808 -0.10780804 -0.081951044 0.038036868 0.1614374 -0.017528519 0.16599749
-0.22062607 -0.14858817 -0.07576696 0.15558548 -0.112388164 -0.08526203 0.049541753 -0.079465725
-0.019275397 -0.03426466 -0.12120781 -0.15630487 0.11235732 0.1686177 -0.24955067 -0.03748155
0.050138764 0.12716542 -0.043254007 0.12248855 0.10415294 0.17069124 -0.11174134 0.008612127
-0.08071815 0.071813524 -0.01519305 -0.11881011 0.10124346 -0.052665412 0.08603959 0.045214664
-0.11940845 -0.09344777 0.050026175 0.21091327 0.045116104 -0.14224009 0.095792085 -0.081260264
-0.010320169 -0.2016352 0.050805002 0.1363802 0.15226175 -0.07634414 0.09114159 -0.017432533
0.023724498 0.17667077 0.12702046 -0.1618322 0.24903584 -0.0237141 -0.0002784674 0.037946306
-0.048989464 0.042779047 -0.062341228 -0.1149767 -0.11477272 -0.04107279 -0.028468799 -0.080120936
-0.06372648 -0.07008606 0.11347611 -0.05548285 -0.15114546 -0.2739907 -0.050022565 0.14182273
-0.19873405 -0.11186038 -0.06346409 -0.15720195 0.09782012 -0.14163488 0.11106254 0.017740745
-0.0056120935 0.101839796 -0.1836248 -0.032144766 -0.07541169 -0.058282986 -0.080092065 -0.01969037
0.13558483 0.03664726 -0.09641842 -0.12826268 -0.09624114 -0.1378974 0.18884961 0.070412286
0.09611556 0.14894058 0.027089158 0.10769048 -0.16783749 -0.07724275 -0.03293689 0.18848497
0.092727184 -0.09389299 0.16047622 0.038386077 -0.10028815 0.018787673 0.08606568 0.07322178
-0.14242439 -0.14897586 0.06994303 -0.1837582 -0.0072170664 -0.18702632 -0.047235906 0.260406
-0.2540876 -0.09808029 -0.0010773978 -0.03178108 0.05940484 0.1469872 -0.052631177 0.07237295
0.05802699 -0.017713124 0.035534315 -0.12534797 0.1402999 0.0486916 0.014852684 -0.16586524
-0.062453173 -0.039282814 0.107479356 -0.19752486 0.15236571 0.16631699 0.041241284 0.06207253
0.12760462 -0.007889578 0.16757812 0.15351874 -0.020834887 -0.089367665 0.3131009 -0.117029354
-0.106367856 -0.0015985357 0.01354807 0.04741697 -0.05681095 -0.14786026 -0.07130613 -0.15815292

model.bigrill.fwd_rnn.spatial_decoder.lin_in.bias f4 [32]
00000000: 59cb 04be 21b3 18be 3cf0 053e 9664 f2bd
00000010: eeb8 823c 69ea 9fbd c192 c43d 1a3b 2cbb
00000020: ff0d 8ebd 9341 86bc a0cf d9bd 0ac3 bdbb
00000030: fadf 14be c8eb be3c d0ec b3bd c353 a1bc
00000040: 0cd6 4a3c 47e4 ec3c ff93 32be 26c0 943d
00000050: 1aba 16be 38ac 163e 92c9 253e 5c66 18bd
00000060: 9651 54be 35a6 8ebd 90cd 02bd 8c14 9039
00000070: 11a0 5f3e b45f 0ebd f321 da3c 91df 2bbd
-0.12968196 -0.14912082 0.13079923 -0.118355915 0.015957322 -0.07808382 0.095983036 -0.0026280344
-0.06936263 -0.01638869 -0.106353045 -0.0057910727 -0.14538565 0.023305789 -0.08785403 -0.019693261
0.012380134 0.028917445 -0.17439269 0.07263212 -0.1471943 0.14714134 0.16190174 -0.037206993
-0.20734248 -0.06965295 -0.03193432 0.0002748113 0.21838404 -0.03475924 0.026627516 -0.041961256

model.bigrill.fwd_rnn.spatial_decoder.graph_conv.mlp.weight f4 [32, 64, 1, 1]
00000000: a3ed e73c b596 cfbd 0457 1a3e 0c1f b9bd
00000010: 213e 7fbd 61db a33c f4b4 c93d 2c22 8ebd
00000020: 0f59 09be 65eb 0cbe 8e6b 22bd cdba aebd
00000030: e07d b2bc 82f1 0d3e 9432 7ebd 9b33 a2bd
00000040: cc69 01be baba 3a3a 5203 bbbd dbb9 003e
00000050: b9d1 08bd 7036 783d 9342 153e 876a c7bd
00000060: 4520 c8be ff52 b03d 017b 9cbd 24d4 85bd
00000070: 9d51 ab3d 66f0 94bd a6f4 a73d 839d b6bd
00000080: 34da 8cbe 44c8 09be 1283 893e 51a9 39be
00000090: b2f7 0b3d 6aa1 603d f80c 193e a5cf 26be
000000a0: 7820 d8bd 4aec bebd 5345 92bd c053 093e
000000b0: 5bca 7fbe 7846 023d b51e 2ebe dd3f 6fbd
000000c0: b255 483d 2a1e 953c 623a b7bd 6450 31bd
000000d0: 34db d6bd 6dc3 303d 3c5c 393e 370c 39bd
000000e0: 6621 b4be 2b4f cf3d f7a2 e5bd 2dd9 fdbd
000000f0: f535 5f3d acda 683c c3aa ec3c 8625 7fbc
00000100: da03 033e 1df2 d43d d6e8 10be ea7c fdbb
00000110: bb3c 1cbe e553 f23c 7248 9dbd 58c9 08be
00000120: 928a 93bd d8fb e63c 5d37 8bbc d770 1d3d
00000130: f8c2 06bb 689a ae3c 7c42 ee3d 3fca aebd
00000140: 0563 c4bd ee8e dd3d 8f66 b73d d061 ba3d
00000150: 784a 903c eaf0 bdbd ccc6 5bbe 6b56 e03d
00000160: fb1f d3bc 8a77 883c 3e22 4f3d b90a 16bd
00000170: 77c2 bcbc 5196 683d 9e4a b33c 628b c4bd
00000180: d2ab 93bd 2de0 d5bd 309f fcbd d80c 09bd
00000190: 3b92 0d3d bc6b d4bd 5b34 d03d 35d4 623c
000001a0: 2f8f 823d c5fd dabd 96ee 013c b5fa d33d
000001b0: 6bbc 873c d4fa b73d bd83 543d 6302 30bc
000001c0: 0f15 c93d 81bb 9d3c 4b10 b13c 52bb 06be
000001d0: 7ed8 44bd d55c 17bd 09cd 62bd dedc acbd
000001e0: 3ec3 e2ba 4003 81bd b991 b0bd 8dce cd3d
000001f0: b38d 053c c23a 1e3c 5e06 193d ca35 abbd
00000200: c473 453d 6e02 8abd fb3f 8ebd cd75 bfbc
00000210: 7692 a73d a161 c63d 713d fe3d 1eab e6bd
00000220: c93c 14be 49fe 18bd 5482 3abd 18e7 6a3d
00000230: 503b 0ebe 75f2 83bd 4df6 a33d b660 fcbd
00000240: a47a 093d 62bd 803d 7aad 92bd 7a8b 993d
00000250: 2a6d 733d d8c0 8c3d 84db c23d 8bdf 873d
00000260: b1ba 91bd ee47 313d fda8 7d3d eeca 5b3d
00000270: e354 163e 6ae8 d6bd 3f61 333d ab0d 7dbd
00000280: 296a d13c 1d04 1b3d 52d2 393e 45fc a13c
00000290: e667 d2bc f145 0cbd f7a0 c03d b476 e83c
000002a0: 3341 8a3d 0232 7dbd 3bf4 9fbd 614d e33d
000002b0: cef1 afbd 3faf 223e 0d41 a8bd 34e7 bb3b
000002c0: 7489 9dbd 91a1 a73d a153 9f3d dd52 fe3d
000002d0: de10 5c3d 2e11 bd3d 2c8b 0f3e a337 953d
000002e0: 99d6 57bd ff96 c2bc 9e5b 81bd 2d1a c2bd
000002f0: 791a 643d 0f01 d8bc 1bcb 173e 80ed 00be
00000300: 6a10 b3bd 529a 4f3d 152e b93d 8fee 283c
00000310: 7961 203e 6f3c 4abd 16bb e53d 7d14 d93d
00000320: bf87 ac3d 2018 463d be9f 913c 2f45 ea3b
00000330: 7f36 413e a28c 183d 22a9 88bd 7d69 b03d
00000340: 2adb d93d 0591 14be b5d1 63bd fa1a a2bd
00000350: e5b0 5abd 7a2f ac3d 4e62 583e b787 b73d
00000360: db52 c53d f511 033c d7ab c43c 88ca ad3d
00000370: db4a f4bc 86cc bcbc 3f1c 1d3d b10b da3d
00000380: b677 203d 0f9a d4bd 64b8 f3bd 8c0e 5e3a
00000390: de4b 11bd 5f34 dbbd 30ec 7c3b 4fcb 58bc
000003a0: 213c 863d d03a 323e 228c ccbd 910c fe3c
000003b0: a3af 14bc cca0 f7bd 7b54 863d 0609 283e
000003c0: 8609 e53d e1a0 b6bc 92ba f8bd 2568 033d
000003d0: 09d3 8d3d 759e 69bc c36d 7cbd dfdc 51bd
000003e0: 1175 37bc 0c57 cebc 6506 833b eaa9 f33d
000003f0: f427 b3bd f243 cabd 6564 c13d e6a1 b9ba
0.028311556 -0.10136167 0.15072256 -0.09039125 -0.06231511 0.020002069 0.09848967 -0.069401115
-0.1341288 -0.13761671 -0.039653353 -0.08531723 -0.021788538 0.13861659 -0.062059954 -0.07919999
-0.12638015 0.00071231613 -0.09131493 0.12570898 -0.033403132 0.06059879 0.14576177 -0.09737115
-0.3908712 0.0860958 -0.07640649 -0.06534603 0.08365176 -0.07272415 0.0820096 -0.08916762
-0.27510226 -0.13455302 0.2685781 -0.18130995 0.034171768 0.054841436 0.14946353 -0.16290148
-0.10553068 -0.09322412 -0.07142129 0.13410854 -0.24979536 0.031805485 -0.17003901 -0.058410514
0.04890985 0.01820286 -0.089466825 -0.043289557 -0.104910284 0.043155123 0.18101591 -0.045177665
-0.3518173 0.10122522 -0.11212724 -0.123949386 0.054494817 0.014212292 0.02889002 -0.015572911
0.12794438 0.10397742 -0.1415132 -0.007735838 -0.15257542 0.02958102 -0.076798335 -0.13358057
-0.072041646 0.02819626 -0.016994173 0.03843769 -0.0020562988 0.021313861 0.11633775 -0.08534669
-0.09589199 0.10818277 0.089551084 0.091006875 0.017613634 -0.09274466 -0.21462554 0.10953983
-0.025772085 0.016658563 0.050569765 -0.03663132 -0.023041947 0.056783978 0.021886166 -0.09596898
-0.072105065 -0.10443149 -0.1233505 -0.033459514 0.034563284 -0.10372111 0.10166236 0.013844539
0.06374966 -0.10692934 0.0079304185 0.10350553 0.016569337 0.089833885 0.051883448 -0.010742757
0.0981847 0.019254448 0.021614214 -0.13157395 -0.048058026 -0.036953766 -0.055371318 -0.084405646
-0.0017300618 -0.06299448 -0.086215444 0.10049162 0.0081514595 0.009657564 0.037359588 -0.08359869
0.048206106 -0.06738745 -0.06945797 -0.023371601 0.08182232 0.0968659 0.12414063 -0.11263107
-0.14476313 -0.03735188 -0.045534447 0.057349294 -0.13889813 -0.064427294 0.080059625 -0.12323134
0.033564225 0.06286122 -0.07161994 0.07497306 0.05943028 0.068727195 0.095145255 0.06634434
-0.07115687 0.043281488 0.061928738 0.053660326 0.14680819 -0.10493548 0.043793913 -0.061780613
0.025563316 0.03784572 0.18146637 0.019773612 -0.025684308 -0.03424639 0.094057016 0.028376915
0.06750717 -0.06181527 -0.07810255 0.11098743 -0.085910425 0.15887164 -0.082155325 0.0057343487
-0.07692233 0.08185113 0.07779623 0.12418149 0.053727023 0.092317924 0.14017934 0.072860025
-0.05269489 -0.023753641 -0.06316303 -0.09477649 0.05568931 -0.026367692 0.14823572 -0.12590599
-0.08743365 0.05068428 0.090419926 0.010310783 0.15662183 -0.04937404 0.112173244 0.10599611
0.08424329 0.04836285 0.017776366 0.0071493606 0.18868445 0.037243493 -0.066728845 0.0861387
0.10637505 -0.14508446 -0.055619914 -0.079153016 -0.053391356 0.08407493 0.2113125 0.089614324
0.09634944 0.007999887 0.02400772 0.084858954 -0.02982085 -0.023046743 0.038357016 0.10646761
0.039176665 -0.10380947 -0.11900404 0.00084707956 -0.035472743 -0.10703348 0.0038592927 -0.013232066
0.065544374 0.17405248 -0.09987666 0.031011852 -0.009075078 -0.120912164 0.06559082 0.16409692
0.11183457 -0.02229351 -0.121449605 0.03208174 0.069250174 -0.0142589705 -0.061628114 -0.05123603
-0.011197344 -0.025187992 0.003998565 0.11897643 -0.08747855 -0.09876241 0.09442977 -0.0014162629

model.bigrill.fwd_rnn.spatial_decoder.graph_conv.mlp.bias f4 [32]
00000000: 50fa 9e3e 34d0 25be 4b51 95bc d57f 2e3d
00000010: 6c32 8ebc 9645 843d 055c 1cbe 6b1f 36be
00000020: 8227 ab3d 1d56 d4bd ebc4 a23d aa9c 0f3e
00000030: ec48 393e 945f f03d ad01 c5bd ce00 8cbd
00000040: b573 fa3d 93e2 52be 8aec 463e 0bc6 cdbd
00000050: faec 73bd 4f87 e63c 8aae 9abd c92d b43c
00000060: f795 4dbe fa7c 08bd 9fd4 2e3d 5a5b 913c
00000070: 58f1 cebc 544a adbc e400 193d 7ea4 10be
0.31050348 -0.16192704 -0.01822724 0.04260238 -0.017358027 0.06458585 -0.15269478 -0.17785423
0.08357145 -0.10367987 0.07947715 0.14024606 0.18094224 0.1173698 -0.0961946 -0.06836091
0.122291006 -0.20594244 0.1942617 -0.10047539 -0.05955217 0.028140692 -0.07552822 0.021994488
-0.20076738 -0.033322312 0.04268324 0.017743755 -0.025261566 -0.021153606 0.037354365 -0.14125249

model.bigrill.fwd_rnn.spatial_decoder.lin_out.weight f4 [32, 64, 1]
00000000: 7f37 48be e215 903d d380 243d 763d 3a3c
00000010: 46d6 003e b659 2dbb 4c82 213e 48d3 15bd
00000020: d9fa 2b3d f32d 2a3e 60a7 abbd 32f8 3ebe
00000030: adfb 563c b4b0 d2bd 8584 1f3e 5c46 033e
00000040: 25a2 18be cf5e 613e 129f 9d3a ded5 1a3e
00000050: 6d64 9cbc d25e 0cbd 4c2f 723d a08d 46bd
00000060: f506 89bc a9b3 ad3d b2dc 79bd ca1d ac3d
00000070: 216d e83c e942 8d3b 662e 2abe 7578 283e
00000080: 7c96 0f3e dd56 b43d e05c 50be ac74 1bbe
00000090: fa51 7fbd de10 51bb 1be3 10be 5121 10be
000000a0: 2177 c03e 4f7e 15bd 24d8 88bc d3bb f2bc
000000b0: 0d9a 0d3e efed 7b3e 2363 51be fb83 c13d
000000c0: 89a3 14be 715f ddbd 0cec 263e 1674 65be
000000d0: c261 17be 5895 cf3d ed26 8ebc 1ed9 3bbe
000000e0: 77fd 10be 8e01 26be 5a0d 313d 7153 923e
000000f0: 3d95 30bd 9829 95bd 7c2c 8b3e 090b 0d3e
00000100: 1c7b 9cbd 758d 953d 54a9 d5bd fcaf b8bd
00000110: 395c c43d 6065 fabd 7d77 d73c ed72 24bd
00000120: cb54 b53d 000f 503d 583c a23d 6bd7 41bd
00000130: b710 263c 8913 0d3d c889 f3bd 69ff 4bbc
00000140: 3f7f 003e a295 d1bd cd83 013e e745 2bbd
00000150: 2ebc fb3b be27 1a3e 4efc 59bc 3acd 75bd
00000160: c961 c0bd a272 b4bd efd3 2ebb feb3 14be
00000170: 1c0d 00bd a524 cf3c c0d2 3c3c 0b6a 0ebe
00000180: ec00 2fbd 3989 c33d 2c3b 323d 3a7f 8e3d
00000190: 9f73 aebc 8a8f b6bd 633f aa3d 22fc 3c3e
000001a0: b671 86be 8cd3 0b3e d689 583d 1948 69bd
000001b0: 9322 74bd 40e9 03be 96bb 3d3d 2362 a2bb
000001c0: 813a fd3d ae87 163e 52aa efbd d9ae 263d
000001d0: 9d07 d23d 24ce 1fbe de39 bf3d 1a52 d8bb
000001e0: b6e4 293e 6c60 463e 3b1e 6cbd bb5c 75be
000001f0: f634 2abc 1b78 163d ae14 9abd b3de 85bc
00000200: 8f2d 3bbe b83f bd3d d225 e53d 6f50 8fbd
00000210: bdd2 103e ef59 d13d 9d70 b53d 74fe 683e
00000220: ead0 23be 11f2 873d 02e7 7cbd db09 02be
00000230: dc3c 18be ff3b fdbd 8267 393e 789b fd3d
00000240: 2c4c 49be 408e 0c3e 4e07 1abe 6075 b13d
00000250: d0f8 2abc 7fed c0bc d80b 023e 9759 9b3c
00000260: 7b93 473e af60 aa3d d2ff 8f3d 46eb 583d
00000270: ddff a4bd 0fb5 cdbd 55cd 90bd 0d45 4c3e
00000280: 9f22 293e 84c8 d03d 0b95 26be aecf 50bd
00000290: cf5b 66be 310a 1f3e e3e1 9bbd 896a 7bbe
000002a0: b701 cb3d 8f72 d5bc 8a3f 373e df12 823c
000002b0: d741 983c b27a ad3d 8a24 00be 0e80 a53c
000002c0: c9ad 76be a181 5cbe 58cc 873e 761d 4cbe
000002d0: 286d 90bc d2f2 0f3e e29e bdbd e42f 8fbc
000002e0: c152 3abe 9e42 d4bd 07f4 713e fec4 be3e
000002f0: 4849 b3bd e929 44be d77b c13d 7d35 153d
00000300: 349d d8bd baf3 9c3d 9d84 86bb c615 e8bd
00000310: a470 44bd 34d3 a1bc 4f0b 02be a963 59bc
00000320: 67fb c83d 53cb 01be d951 8ebd 0224 91bd
00000330: fe09 013e 1f88 28bd 9e1c 2fbd 127a eb3c
00000340: d0b7 cf3d f598 503d 32a6 8b3d 9a99 b0bd
00000350: 42b7 19bd b58c 4dbd 9984 aabd 668b 623c
00000360: 92f9 b03d 1817 88bd 792d 17bc 94be 30bd
00000370: 64e4 b13d 45c3 7c3b 3db6 2d3d 3b06 e6bc
00000380: 90f2 98bd 4103 eb3d 5cb3 a43d 2b62 263e
00000390: 2553 0a3d 46da 43bd b56e 343e 42ca 463e
000003a0: d938 98be 8806 fb3c 0887 cfbd 15c8 3cbc
000003b0: bf61 443c c687 91be 9dbd 133e 1bb3 ecbd
000003c0: 50fa 143e 6dc6 d53d f92a cc3c 61f0 383e
000003d0: c2a2 583c 92aa bcbd dfe3 93bd 0dce 0c3e
000003e0: 1f4a 173e 238c 6a3e 5fc1 20be d5bd 4dbe
000003f0: d5b8 233e 7aee 8d3d e83f e0bc b058 a13c
-0.1955242 0.07035424 0.04016192 0.0113671925 0.12581739 -0.0026451177 0.1577236 -0.036578447
0.041987274 0.1661909 -0.083815336 -0.18649366 0.013121528 -0.1028761 0.15577896 0.12819809
-0.14905603 0.22008823 0.0012025556 0.15120646 -0.019090855 -0.034270115 0.059127137 -0.048474908
-0.01672695 0.08481533 -0.061001487 0.08404119 0.02837235 0.004310955 -0.16619262 0.164522
0.14022249 0.0880563 -0.20347929 -0.15181226 -0.06233404 -0.0031900923 -0.14149134 -0.14075209
0.37590888 -0.03649741 -0.016704626 -0.029630577 0.13828297 0.24602483 -0.20447974 0.094490014
-0.14515509 -0.1080922 0.16300982 -0.22407565 -0.14783385 0.10135907 -0.017352546 -0.18344542
-0.14159189 -0.1621153 0.043225624 0.28579286 -0.043111075 -0.07283324 0.27182376 0.13773741
-0.07640669 0.073023714 -0.104326874 -0.09017941 0.095879026 -0.12226367 0.026302094 -0.040148664
0.088540636 0.050795555 0.07921666 -0.04732458 0.010135821 0.03444246 -0.11891514 -0.012451031
0.1254854 -0.10233618 0.12647934 -0.04181471 0.007682345 0.15054223 -0.013304783 -0.060010172
-0.09393651 -0.08810927 -0.0026676615 -0.14521787 -0.031262502 0.025286028 0.011524856 -0.1390764
-0.04272549 0.095476575 0.043513462 0.0695786 -0.021295367 -0.08914097 0.08312871 0.18455556
-0.2625863 0.13654917 0.052865826 -0.056953523 -0.059603285 -0.12881947 0.046321474 -0.0049555465
0.12364674 0.14700195 -0.11702408 0.04069409 0.10255358 -0.1560598 0.09337209 -0.006601584
0.16591153 0.1937272 -0.057646018 -0.23961155 -0.010388603 0.036735635 -0.075234756 -0.016341543
-0.18279098 0.09240669 0.11188854 -0.06997763 0.1414289 0.102222316 0.0885937 0.22753316
-0.15997663 0.066379674 -0.061743744 -0.12699072 -0.14866966 -0.12364959 0.18105891 0.12383169
-0.19657964 0.13726139 -0.15041849 0.08664966 -0.010435298 -0.023550747 0.1269983 0.018963618
0.19489853 0.08319222 0.07031216 0.05295875 -0.080566145 -0.100443 -0.07070414 0.19948216
0.16517113 0.10194495 -0.16267793 -0.05097931 -0.2249596 0.15531231 -0.07611444 -0.24552359
0.099124365 -0.026055602 0.17895332 0.015878139 0.018586082 0.08470668 -0.12513939 0.020202663
-0.24089731 -0.21533825 0.2652309 -0.19933113 -0.017630175 0.14057472 -0.0925882 -0.01747889
-0.1819563 -0.10364269 0.23628245 0.37259668 -0.08754212 -0.19156612 0.09447449 0.036427964
-0.10576859 0.07663675 -0.004105164 -0.11332278 -0.047958985 -0.01975403 -0.12699626 -0.01326839
0.09813576 -0.12675218 -0.06949205 -0.07086946 0.12601468 -0.04114544 -0.0427519 0.028744731
0.10142481 0.05092712 0.068188086 -0.08623047 -0.037528284 -0.050183017 -0.08326072 0.0138271805
0.08641352 -0.0664503 -0.00922715 -0.0431505 0.0868614 0.0038568538 0.042410124 -0.028079143
-0.0746814 0.1147523 0.080420226 0.16248386 0.0337707 -0.047815584 0.17620356 0.19413093
-0.2973087 0.030642763 -0.10133177 -0.011522313 0.011986195 -0.284239 0.144278 -0.11557599
0.14548612 0.10438237 0.024922835 0.18060447 0.013222398 -0.09212221 -0.07221197 0.13750477
0.14774369 0.2290502 -0.15698765 -0.20091946 0.15988477 0.069302514 -0.027374223 0.01969561

model.bigrill.fwd_rnn.spatial_decoder.lin_out.bias f4 [32]
00000000: 7714 76be 52fa b13d da3f 26be 8c68 f43b
00000010: 1c1f 0d3d bf76 373e f47a 23bd c1f4 debd
00000020: c101 20bd 18ac 55bd f79e aabc 1dcf 103e
00000030: 649e 523d 25c2 96bd 9915 6abe 2701 053e
00000040: b677 c93d fb86 1b3e 061f 54be 8f2e 673c
00000050: b323 4d3d 27b6 29be b2d5 193e fd9f 12be
00000060: 3eed 073d 4533 c33d c5d8 0cbe 6cd6 d73d
00000070: 0d4b 6a3d 39a5 503a 8c63 383d c196 ef3c
-0.24031244 0.08690323 -0.16235295 0.007458752 0.034453496 0.17916392 -0.03991218 -0.10886527
-0.039064173 -0.052166075 -0.020827753 0.14141507 0.051420584 -0.07361249 -0.22859801 0.12988721
0.09837286 0.1518821 -0.2071496 0.0141102215 0.050082874 -0.16573392 0.15022925 -0.14318843
0.033185236 0.09531263 -0.13754566 0.105389446 0.05720048 0.00079591904 0.04501681 0.02924669

model.bigrill.fwd_rnn.spatial_decoder.read_out.weight f4 [1, 64, 1]
00000000: 18ca 0cbf 873f 043f f90b 1abf 4a28 163f
00000010: 3638 fe3e 2df0 f7be 34a1 003f 2872 57bf
00000020: 84d9 013f 09f0 183f b869 fe3e 10a7 02bf
00000030: dc65 063f 9770 143f 81e9 0fbf a179 cb3e
00000040: 04fc 063f d3c7 6e3e 7581 1cbf ec7c 1f3f
00000050: ff78 ff3e a4bb 3bbf e43f 0dbf 8360 38bf
00000060: 66b4 223f 73d0 143f 65ab 27bf 9d4c f13e
00000070: 178e 093f 3db9 0b3f 8071 223f 4d11 1d3f
00000080: 1d7f 89be 0e7e c83e 2e88 bc3e ae40 d03e
00000090: 287b e93e e8d4 e2be 05be 24be 4b24 dc3e
000000a0: d989 bcbe b69b 363e c86a 5abe 6f20 59be
000000b0: 07e0 bebe 82c7 74be 0f90 af3e ea39 80be
000000c0: 891f f03e db98 d83e 1dc8 a2be cec4 143f
000000d0: 2ed5 03bf ac79 84be 19d8 463e 8606 df3e
000000e0: 1f8f 8a3e 6a41 da3d afa0 4ebe 355a fdbe
000000f0: 6f12 363e 1508 6e3e f26b c3be 4b24 6cbe
-0.5499587 0.51659435 -0.6017452 0.58655226 0.4965226 -0.48425427 0.50245976 -0.84158564
0.5072253 0.59741265 0.49690032 -0.5103617 0.52499175 0.579843 -0.56215674 0.39741233
0.52728295 0.23318414 -0.61135036 0.6229999 0.49897 -0.7333319 -0.55175614 -0.72022265
0.63556516 0.5813057 -0.654959 0.47128764 0.53732437 0.54579526 0.6345444 0.61354524
-0.26854792 0.39158672 0.36822647 0.40674347 0.45601773 -0.4430306 -0.16088112 0.4299644
-0.3682392 0.17832837 -0.21329796 -0.21203779 -0.37280294 -0.23904231 0.34289595 -0.25044185
0.4689906 0.4230412 -0.317933 0.581128 -0.5149716 -0.25874078 0.19418372 0.43559664
0.27062318 0.10657008 -0.20178483 -0.49482885 0.1778047 0.2324527 -0.38168293 -0.2306072
