logs/discharge_point/grin/2023-10-05_12-40-18_782210212/epoch=7-step=696.ckpt (torch, 707635 bytes, 102 tensors)

model.bigrill.emb f4 [8, 20]
000000 d4 e7 1a be 36 2b 0d 3f 3c 8e db bd c6 70 12 3d
       -0.15127498 0.5514406 -0.107204884 0.03575208
000010 4f 38 84 3d 6a c8 e0 3e 1c 41 61 3e 61 00 8e 3d
       0.064560525 0.43902904 0.21997494 0.06933666
000020 4a ab 6a be 05 6a 8d be 2c c1 9f 3e d9 41 9f 3e
       -0.22916904 -0.2761995 0.31202066 0.31104925
000030 27 23 f8 3d 97 c4 08 be 0b 60 e3 3e d4 92 72 3c
       0.1211608 -0.13356243 0.44409212 0.014805514
000040 b9 73 74 3e b9 8a 03 be 58 2a 91 bd a1 f1 09 3f
       0.2387227 -0.12845887 -0.070881546 0.5388432
000050 5c 39 11 be cf 6d 95 bd 1a 61 15 bf 80 40 b8 3e
       -0.14182037 -0.07296335 -0.5835129 0.3598671
000060 39 ae 94 3e 1f d1 cc be 7a c4 dd 3d 52 e4 19 3f
       0.2903917 -0.40003297 0.108284906 0.60114014
000070 a2 93 d8 bd 19 58 1e 3f 7b ba f8 be 78 99 10 bf
       -0.10575034 0.61853176 -0.48579773 -0.56484175
000080 20 8a 1a bf f0 64 96 be 9b 8f 17 bd 73 6a 8e be
       -0.6036701 -0.29373884 -0.037002187 -0.2781559
000090 e8 49 80 3d 6c 6a 57 be 72 4a f4 bb 7d 90 ba bd
       0.062640965 -0.2103669 -0.0074551636 -0.0910959
0000a0 7e 88 55 3e 16 f3 eb bd bf 4d 4e bd ec 08 dc 3e
       0.20852849 -0.11520974 -0.050367113 0.42975557
0000b0 cd 8c 52 bd 2b e4 1b 3e 11 de bc bd d9 f9 36 3f
       -0.05140381 0.15223758 -0.09222043 0.7147499
0000c0 c3 b6 9b 3d 9c 6f 61 3e f2 5b 9e be 11 f5 bc be
       0.076032184 0.22015232 -0.30929524 -0.3690572
0000d0 f6 24 17 bf 7d c3 05 bf 12 0c 0e 3c 3e 5e 9e be
       -0.5904077 -0.52251416 0.00866987 -0.30931276
0000e0 fe 06 f5 bd c7 97 1f bc c6 e5 13 3f 88 88 91 be
       -0.11964224 -0.009740776 0.5777248 -0.28424478
0000f0 0f 82 ea 3c 3d dc 0c 3f e8 93 ec 3e 51 a7 6f 3f
       0.02862647 0.55023557 0.46206594 0.9361468
000100 32 02 43 3e 82 76 38 bf 85 a2 ae 3e 06 49 32 3d
       0.19043806 -0.7205583 0.34108368 0.04352667
000110 23 b6 a5 be da c9 26 3d df e2 2a bb 9e e3 f0 3e
       -0.32365522 0.040719844 -0.0026075167 0.47048658
000120 0d 65 3e 3d a3 0a 17 3f 8c 0b a6 3e b6 57 dc be
       0.04648309 0.59000605 0.32430685 -0.43035668
000130 b7 a8 af 3d 8a 83 e1 3e ad b4 19 be ea 09 b4 bd
       0.08577102 0.4404567 -0.15010329 -0.087909535
000140 86 3c 29 3d 24 b0 f5 bd b7 06 80 be a9 ea 3c be
       0.041317485 -0.11996487 -0.25005123 -0.18448891
000150 9b 41 0f bf 51 a9 92 be cc 39 a3 b7 51 ea f6 3e
       -0.5595948 -0.28644803 -1.9458028e-05 0.48225644
000160 e3 4f 81 be e4 c3 9e 3a a1 95 ab 3e 95 40 1e be
       -0.2525626 0.0012112823 0.33512595 -0.15454324
000170 a0 6b f2 3e 9d 0f d3 be 05 5c a8 be 36 ce e8 3b
       0.47347736 -0.4122285 -0.32882705 0.0071046604
000180 bc 27 97 3e 94 d6 71 bd 39 39 5d 3e 50 6b 30 bf
       0.29522502 -0.05904253 0.2160386 -0.68913746
000190 6c 87 84 3e 93 a6 67 bd e6 9f 42 3f e4 d5 9b 3d
       0.2588457 -0.056555342 0.76025236 0.07609156
0001a0 50 a6 84 bc 3c 7b 8e 3e 70 39 e1 3d 56 b8 20 3f
       -0.016192585 0.27828395 0.109972835 0.62781274
0001b0 bc 21 7e 3e 2c 8e b3 3d e7 ed 27 3e 82 28 b7 3c
       0.24817556 0.087673515 0.16399346 0.022358183
0001c0 a2 8d ef be d2 e9 85 be 27 9e a0 be 8d 10 29 bc
       -0.46787745 -0.26154953 -0.3137066 -0.010318887
0001d0 f7 67 86 be c7 fe 83 bd 3c 6c c4 3d 0f 90 86 be
       -0.26251194 -0.06445079 0.095909566 -0.26281783
0001e0 33 b6 61 3c 71 af 94 be e5 08 cb 3d 28 6b 2b 3e
       0.01377635 -0.290401 0.09913806 0.16740096
0001f0 a1 64 53 bf f4 41 2e 3f 07 be 1e be ec 16 87 3e
       -0.8257542 0.68069386 -0.15502177 0.26384676
000200 ba db 01 bf 43 a8 74 be 00 16 2d 3a 74 9c 91 bc
       -0.507259 -0.23892312 0.00066027045 -0.017774798
000210 35 68 ad 3e 03 4c 0a be 27 e3 42 bd cd fe 46 be
       0.33868566 -0.13505559 -0.04757991 -0.19433136
000220 3d 4b ae be 07 d5 78 3e f3 a6 a0 3e 48 27 2e 3e
       -0.34041777 0.24300013 0.31377372 0.17007172
000230 03 a9 12 bd 40 ef 1b be 01 cb eb 3d 7f 34 7c bd
       -0.035805713 -0.15227985 0.11513329 -0.0615735
000240 e9 d4 04 3d d9 89 8f 3e d0 a4 e6 3d 66 33 da bd
       0.03242961 0.28034857 0.11261904 -0.10654335
000250 15 d8 a6 bd 22 6c d1 be 9f cd 29 be e3 bd 96 3d
       -0.08146683 -0.4090281 -0.16582344 0.07360437
000260 9d a1 95 be 9b c6 64 3d 0a c7 23 be 7e 91 85 3e
       -0.29224864 0.055853467 -0.15993896 0.26087564
000270 6d d5 fd be 7b d4 86 3e c2 34 8f 3e 11 0b b7 be
       -0.49576893 0.26333985 0.2796994 -0.3575063

model.bigrill.fwd_rnn.cells.0.forget_gate.mlp.weight f4 [32, 170, 1, 1]
000000 09 bb c4 3d 07 59 f5 bc 68 93 54 bd 8d fd ae 3d
       0.096059866 -0.029949678 -0.05189839 0.08544455
000010 ad fe 7a bc 86 b9 99 bd 18 7a 6c bd 7e 10 42 3c
       -0.0153195085 -0.07506089 -0.057733625 0.011844752
000020 e4 1f b2 bc 07 fc 03 3d 6c 93 15 bd 80 2c 9a bd
       -0.021743722 0.032222774 -0.036517546 -0.07528019
000030 0a d3 6b ba ae 45 5c bd e6 15 a2 3d 91 1c 4a 3d
       -0.0008995986 -0.05377739 0.07914333 0.04934365
000040 40 1b 9e bd eb 77 d2 3d c9 ee b7 3d 91 02 5c 3d
       -0.07720041 0.10276779 0.089810915 0.053713385
000050 3d fb ab bc cb de b9 bd b7 a5 37 3d 01 6d af 3c
       -0.020993823 -0.090756975 0.044835772 0.021414282
000060 9c d6 13 bc 3e f7 68 3d a2 6d 24 3d 18 79 cf bd
       -0.009023335 0.056876414 0.040143616 -0.10130519
000070 44 13 ac bc 34 1b 12 3d b0 5d 3e 3d 17 58 3b bd
       -0.02100528 0.035670474 0.046476066 -0.045738306
000080 01 4d 7b bd 73 5c bc 3d cf 6b 9f 3d 76 ab dd 3c
       -0.061352734 0.09197321 0.07784235 0.027059298
000090 3d fe 24 bd f8 88 2f bc 5f 09 7f 3d e8 63 75 3c
       -0.040281523 -0.010713808 0.062264796 0.014977433
0000a0 b2 af 29 bd f0 11 3c 3a e8 05 a2 3c 20 dc 68 3c
       -0.04142732 0.0007174304 0.019778207 0.014212638
0000b0 7a e8 2a 3d 49 52 2d bd 0a b9 1b 3c 79 c5 3b bd
       0.041725613 -0.0423148 0.009504566 -0.04584262
0000c0 6a 9a 10 bd 32 91 89 3d 96 0b fe bd 35 f8 7f 3d
       -0.03530351 0.06717147 -0.124045536 0.062492568
0000d0 10 cd 1e 3d 08 48 69 3d fc e5 8d bd f9 40 a6 bd
       0.03876978 0.05695346 -0.06928632 -0.08117861
0000e0 15 7a 14 bc de 92 25 3d 2f 23 de 3d 44 ef 59 3b
       -0.00906231 0.040423267 0.108465545 0.0033254186
0000f0 db 91 17 bd 38 67 c0 bd 24 59 98 bd 67 eb 65 bd
       -0.037004333 -0.093946874 -0.07438877 -0.0561327
000100 b8 8d a7 3d 32 b3 99 bc a5 8b 85 bd 7f e8 99 3d
       0.081813276 -0.018762205 -0.06520776 0.07515048
000110 5f 24 63 3b 6c 03 78 bc 90 c8 81 bd 45 6d 95 3d
       0.003465913 -0.015137535 -0.063370824 0.07296232
000120 e7 eb 33 3d 2b 50 b6 bd 34 eb 3a ba 58 5a 23 3b
       0.043926146 -0.089020096 -0.0007130385 0.0024925675
000130 be 59 0d 3b 74 72 b4 3c 17 b2 65 bd 19 87 8c bc
       0.0021568383 0.022027232 -0.056078043 -0.017154263
000140 66 7d 82 3c a6 2d 25 bd c0 95 88 3d 78 2e aa 3d
       0.015928935 -0.040326737 0.066691875 0.083096445
000150 c1 c6 85 3c 2a ce c6 3b 1e c2 26 3d 9c 23 dd bc
       0.016330125 0.006067057 0.04071247 -0.026994519
000160 f6 92 a1 bc 8e 84 d5 bd 20 ef 98 bd b5 46 a6 ba
       -0.019723397 -0.104256734 -0.074674845 -0.0012685867
000170 2b 19 e9 3d 10 45 f8 3d 33 d6 7a bd 6f 6a f1 3c
       0.113817535 0.121225476 -0.061239433 0.029469697
000180 79 4c fe bc d7 a6 16 3d df 53 88 3d 0d 8c 39 3d
       -0.031042324 0.036780205 0.06656622 0.04529958
000190 34 83 5e bd 55 f0 35 3d 9f 57 df bc 6e c9 59 bd
       -0.054324344 0.04441865 -0.02726346 -0.053170614
0001a0 2e c3 3b 3c 04 57 97 3d 98 97 62 3d 8b 15 8b bb
       0.011460109 0.07389644 0.055320352 -0.0042445115
0001b0 cf 09 5a bd 8f d6 b7 3d 37 6b 39 3c d6 3f 0a bd
       -0.05323201 0.08976471 0.011317066 -0.033752285
0001c0 e8 e0 21 3d 57 62 ba bc b2 bf df bc 77 8a 68 bd
       0.039521128 -0.02275197 -0.027313087 -0.056772675
0001d0 ba c7 ee bc 63 63 67 3d 2c 88 09 3c f7 e9 92 3b
       -0.029147971 0.056491267 0.008394282 0.004483457
0001e0 60 26 3d 3d b5 9e 82 bd 3e ab 1c bd 2e c6 60 bd
       0.046179175 -0.06377927 -0.038249247 -0.0548765
0001f0 c4 f3 3a 3d 2f b6 93 3d 6b 82 96 3c ff 26 1d bd
       0.04564263 0.07212483 0.018372735 -0.038367268
000200 06 28 91 bd f3 54 6f 3c 33 3a b4 bc dd 00 72 bd
       -0.07087712 0.014607656 -0.022000408 -0.059082855
000210 43 d4 ef 3c 15 70 b6 3d 1d 4e b9 bd 98 76 98 bc
       0.029276019 0.08908097 -0.09048102 -0.018611237
000220 b7 2e 91 bb c2 63 a2 3d ba 9c 8f bc 4a 93 43 bb
       -0.0044306177 0.079291835 -0.017530788 -0.002984243
000230 85 a8 b7 3d 95 4a 88 bd a3 80 83 bd 70 5a 93 3d
       0.089676894 -0.066548504 -0.0642102 0.07194984
000240 69 81 fc bc a4 7f 24 3c a5 42 02 3d 58 7e 20 3d
       -0.030823426 0.0100401975 0.03180184 0.03918299
000250 19 a2 73 bc c6 c5 0c bd e6 1b 99 3b 3d 58 03 bd
       -0.01487019 -0.0343683 0.004672515 -0.032066572
000260 55 dc b3 bd dd 36 28 bc de 1c 8c 3d f7 a3 92 bc
       -0.087822594 -0.010266987 0.068414435 -0.01790045
000270 79 94 7c bc 8b 2d 42 bc 0c d6 41 bc b3 db dd bc
       -0.015416258 -0.011851679 -0.011830818 -0.0270823
000280 6a 39 a9 3d 92 73 97 3d 38 7a 33 3d 40 54 3b bd
       0.08262904 0.0739509 0.04381773 -0.045734644
000290 98 58 c9 3c 56 9c d3 3c c1 f1 8b 3d f3 26 a7 bc
       0.024578378 0.025831383 0.0683322 -0.020404315
0002a0 9d 6f 88 bd a9 b5 b1 3c d3 05 2b bc 8d 6d 49 3d
       -0.066619135 0.021693068 -0.0104384 0.04917674
0002b0 da 60 ca bd 53 ec 37 bd 09 ab 40 3d 1e 52 be bd
       -0.09881754 -0.04490311 0.04703811 -0.09293006
0002c0 88 17 9f bd e7 65 2e bd f5 1e 45 3d f2 95 90 3d
       -0.0776816 -0.04257765 0.048125226 0.0705985
0002d0 44 0e ef bb 31 bf 7a 3d 04 36 78 bd 3b 14 c1 bd
       -0.0072954018 0.06121749 -0.06059839 -0.09427687
0002e0 6c 76 14 3d 7d 97 8b 3d f4 1f cc bc 97 13 85 3d
       0.03624575 0.068160035 -0.02491758 0.06497877
0002f0 e1 30 70 3d c5 3e 64 bc b6 b5 cb 3b 94 ff 30 bd
       0.058640365 -0.013930981 0.00621673 -0.04321249
000300 d1 2e 91 bd dd 8f c5 bd 21 11 40 3c 5c cd 8f 3d
       -0.07089008 -0.0964658 0.011722834 0.07021591
000310 6e b1 48 bc cf a7 73 bd b4 80 3d bd a5 20 1c 3d
       -0.012249334 -0.059486207 -0.04626532 0.03811707
000320 df 89 46 3c 9c b4 8b 3d b5 f4 99 bb 47 08 95 bc
       0.012117832 0.06821558 -0.004698361 -0.018192424
000330 59 0b da bc da 1d da 3d d9 82 2e 3d 57 30 6d bd
       -0.02661674 0.10650225 0.042605255 -0.05790743
000340 c6 e1 85 3d bb 6d 86 bd bd 4c 05 3c 26 84 bf 3d
       0.065372035 -0.06563898 0.008135972 0.09351377
000350 f3 bb b0 3d c9 c8 24 3d 50 50 f3 3c 43 5f 99 3b
       0.086295985 0.040230546 0.029701382 0.0046805455
000360 cc 7c 3f bd c4 de d6 bb 02 bb 80 bb 68 b8 93 bb
       -0.046749875 -0.0065573175 -0.003928543 -0.004508067
000370 e1 26 b1 bc 83 3f e1 3c 7b 2e 05 3d 08 8f 6f 3d
       -0.021624984 0.027496105 0.03251503 0.058486015
000380 32 fc dc bb 6a c2 7c bd fc 69 e2 bd 20 d2 ab bd
       -0.006743931 -0.061708845 -0.11055371 -0.083896875
000390 fc 03 b3 3d 35 5c e4 3c a5 eb 1a bd d6 6d 60 3c
       0.08740994 0.027875999 -0.037822384 0.013698062
0003a0 4f d1 ad 3b ca 9a 9d bd 31 25 d9 3c 3f 97 54 3b
       0.0053044925 -0.07695539 0.026506992 0.0032438783
0003b0 ea 1c c4 3c a3 96 6c 3c cd 46 02 bd 7a be 81 3d
       0.023939569 0.0144402115 -0.031805802 0.06335159
0003c0 5d 9c 06 3c 6d c2 67 bd 90 49 c3 bc 1a 0c 87 bc
       0.008215991 -0.056581903 -0.023838788 -0.016485263
0003d0 c6 e2 52 3d 72 ea 70 bd d1 a9 65 bd a7 fe a4 3d
       0.0514858 -0.058817334 -0.056070153 0.080563836
0003e0 3c cd 07 3d 84 51 8a 3a 8c c1 8e bc 39 79 1f 3b
       0.03315471 0.0010552858 -0.017426275 0.002433373
0003f0 ff ed 82 bd 80 e8 b3 bc 7a 10 d3 bd b9 76 2b 3d
       -0.063930504 -0.02196145 -0.10305877 0.04186127

model.bigrill.fwd_rnn.cells.0.forget_gate.mlp.bias f4 [32]
000000 48 e5 b4 3b 14 a8 59 bd 3d 2c 27 3d fe 92 46 3d
       0.0055204965 -0.053138807 0.040813673 0.048480026
000010 cb 01 c5 3d 63 b0 d1 3d 86 f4 a5 3d a0 c3 42 3d
       0.096194826 0.10238721 0.0810328 0.047549844
000020 67 d6 d8 bc 8b eb 11 ba fd 46 3f bc 9f b6 cf 3d
       -0.026469423 -0.00055664097 -0.01167464 0.10142254
000030 08 d2 b0 3c 97 19 47 3b e2 f5 17 bd 0b 90 cf 3d
       0.021584526 0.0030380243 -0.037099726 0.10134896
000040 c8 24 e1 bb 7b e8 a2 3d 96 1c 1c 3d 26 b0 78 bc
       -0.0068708397 0.079544984 0.0381132 -0.015178716
000050 8e 49 13 3d 45 df 93 3d 44 3a f9 3c 4d 3a ea 3c
       0.03595882 0.0722032 0.030423291 0.028592253
000060 50 b2 a0 bc 2b 34 6d 3d 0d e2 37 bd ab 51 e4 3d
       -0.019616276 0.05791108 -0.044893313 0.111483894
000070 4f d6 5f 3d 68 8b d3 bc 21 d5 69 3d 3a b2 70 3d
       0.05464774 -0.02582331 0.05708802 0.05876372

model.bigrill.fwd_rnn.cells.0.update_gate.mlp.weight f4 [32, 170, 1, 1]
000000 73 44 a0 ba 6d 79 fb 3c 63 63 86 3d 83 e7 cd bd
       -0.0012227431 0.030697549 0.06561925 -0.10053923
000010 64 8d 36 bd c7 8b 0f 3e 72 b9 b4 3d 85 d9 dd bd
       -0.044568434 0.14018165 0.088244334 -0.10832504
000020 3a 4b d0 3d e6 36 84 3c 0c ea 3f 3d 02 18 97 3b
       0.10170598 0.016139459 0.046854064 0.0046110163
000030 b9 78 68 3d 1e 72 e1 3b c0 93 bc bd ea ea 2c bd
       0.056755755 0.006880059 -0.092078686 -0.04221622
000040 74 d3 aa bc d1 c3 99 bc a5 4e e3 bd 1e 54 c9 bd
       -0.020852782 -0.01877013 -0.11098985 -0.09830497
000050 e4 61 9f bc 47 b1 9c bc af 37 0b 3b 9e 52 84 3b
       -0.019455858 -0.019127501 0.0021242907 0.004038169
000060 e8 e8 41 3c 55 74 b8 bc 0c b9 29 bb 7e c7 a8 3d
       0.011835314 -0.022516409 -0.002589765 0.08241175
000070 ff e2 a5 ba de 7f 3c 3d d7 1a 14 3d 34 f1 b4 bd
       -0.0012656151 0.04602038 0.03615841 -0.08835068
000080 cb 20 22 3c 02 d5 0c bd 85 d3 05 bd 10 46 7e bd
       0.009895514 -0.034382828 -0.032672424 -0.062078536
000090 66 2c af 3c a2 d0 e3 bd f4 7f 33 bd 5f 4c 41 3b
       0.021383476 -0.11123778 -0.043823197 0.0029494984
0000a0 97 1d 42 3d 59 08 f1 bd d8 98 c2 bc 50 fa 6e bd
       0.0473915 -0.1176917 -0.023754522 -0.058344185
0000b0 78 83 b1 3d ca 0d 53 bd f7 fd 6c 3d c6 ab b9 3c
       0.08667654 -0.051526822 0.057859387 0.022664916
0000c0 f7 12 9d 3c 12 8c 54 bd 20 03 d7 3d 67 52 fe bd
       0.019174082 -0.051891394 0.10498643 -0.12418061
0000d0 56 70 b7 bd 84 5e 8a bd f2 b0 8c bd 88 1b 20 3d
       -0.08956973 -0.06756309 -0.06869687 0.039088756
0000e0 c5 5e b4 3d 98 6f 8e bc 89 e2 cc bc e5 21 90 3c
       0.08807138 -0.017387196 -0.025010364 0.017594287
0000f0 53 69 51 bb c9 2a 96 3b 6d 68 23 3d b5 39 c6 3c
       -0.0031953647 0.004582737 0.03989451 0.024197439
000100 55 0c 62 3c 5d 3e d1 bd ae 50 f1 bc ea 54 85 bd
       0.0137968855 -0.10216973 -0.029457416 -0.06510337
000110 5a 4c 06 3c ec b2 4f 3c 95 4c ba 3b 1b 19 a0 bd
       0.008196915 0.012676936 0.005685399 -0.078172885
000120 5b cb 54 3c 6e f9 c3 3c 52 52 3e 3b 78 98 60 bd
       0.012987937 0.023922648 0.0029040766 -0.054832906
000130 ae 2e 83 3d b2 c0 88 3c 20 ac 67 3d d9 ca 98 3c
       0.06405388 0.016693447 0.056560636 0.018651413
000140 8b 83 74 bc 08 bb cb 3b 06 41 e8 bd 81 e9 c4 bd
       -0.01492394 0.006217364 -0.11340527 -0.0961485
000150 2a c3 a8 3c e6 09 99 bd 40 3b ed 3c 95 81 91 bd
       0.020600874 -0.07472591 0.028958917 -0.07104794
000160 e6 e3 ba bd 61 ec 83 3d d6 2e fb 3d 33 10 82 bd
       -0.091254994 0.0644157 0.122647926 -0.06350746
000170 44 d0 ce bc 4e 30 13 bd fb 73 db 3d 42 67 9f 3d
       -0.025245793 -0.03593474 0.10715481 0.07783367
000180 a2 37 d7 3d 6d 7b ef 3c 01 64 26 bc 42 b1 5d bd
       0.10508658 0.029233659 -0.010155679 -0.054124124
000190 89 80 0f 3b c8 75 18 bd ad e6 b4 bd 41 f3 75 bd
       0.0021896681 -0.0372217 -0.088330604 -0.060046438
0001a0 1c 96 2c bd 55 b4 11 3c 52 60 64 3c dc 9e 96 3d
       -0.042135343 0.008893092 0.01393898 0.07354519
0001b0 38 67 c0 3d 89 75 8a 3c 70 3a b2 bc 78 9e 89 bd
       0.093946874 0.016901748 -0.02175638 -0.06719679
0001c0 eb da 30 bd c4 f1 c1 ba 0a 9b 96 bd 5e 8f ef bc
       -0.043177526 -0.0014796783 -0.0735379 -0.029243167
0001d0 5c 4d 60 3c 85 3f a5 3c c0 86 80 bd 15 06 70 3d
       0.013690319 0.02017189 -0.062757015 0.05859955
0001e0 7f f8 11 3d 51 64 bc bd 21 7a 52 3d 26 c6 eb 3c
       0.035637375 -0.09198821 0.051386002 0.028781008
0001f0 1e d2 09 bd 97 8d 0c 3c 17 43 09 3d bc 94 d0 3b
       -0.03364765 0.0085786795 0.033511247 0.006365387
000200 c0 1d a8 3b bf be 87 3c 6d ba 26 3d 72 16 48 3c
       0.0051304996 0.016570447 0.040705133 0.012212383
000210 f0 47 35 bd 95 68 ac 3a 53 eb 66 3d d4 ac 9f bd
       -0.044258058 0.0013153726 0.056376766 -0.07796636
000220 5c 1d 49 bd f5 eb 13 3d 9b cc 83 bd 79 1a 6e 3b
       -0.049100265 0.036113698 -0.0643551 0.0036331697
000230 40 61 9c bd 39 d3 bf 37 a3 34 0c bd e1 e0 33 3d
       -0.076357365 2.2867333e-05 -0.034229886 0.043915633
000240 13 67 1f 3d c7 49 42 3d 5a 46 b0 3d 73 51 3d 3d
       0.03891666 0.04743364 0.086071685 0.046220254
000250 26 a1 9b 3d 53 dd 86 3d 33 60 35 bd 30 7f 57 bd
       0.07599096 0.06585183 -0.044281196 -0.05261153
000260 43 7e da 3c 46 5a ac bd db 14 9c bc 9f 48 a8 3c
       0.026671534 -0.08415656 -0.019052913 0.020542441
000270 2a b4 23 bd f1 34 a5 bd 62 0f 9b bd 06 76 d5 3d
       -0.03996674 -0.080667384 -0.075712934 0.10422902
000280 1e f1 d7 3c 8e c5 00 3b 13 02 5b 3d 8a 33 a7 3d
       0.02636009 0.0019649002 0.053468775 0.08164127
000290 c7 0b a9 3d e8 23 0d bd 79 0d b4 bd f5 26 29 3b
       0.082541995 -0.03445807 -0.08791632 0.0025810574
0002a0 82 1e a4 bd cc 4b 74 3d de 1d ac 3c 92 8f 72 bd
       -0.080136314 0.059642598 0.021010336 -0.05921895
0002b0 40 75 0d 3d bb 78 26 bd f9 71 db 3b bd 67 bc 3c
       0.034535646 -0.04064248 0.006696936 0.022998685
0002c0 9d de ab 3d f9 bb 55 3c 3b 46 ff 3c 7f 26 b7 bd
       0.083920695 0.013045304 0.031161418 -0.089428894
0002d0 f9 df 1b 3d e5 8e af 3c 5b 7d 55 bc a8 58 2a 3d
       0.038055394 0.021430442 -0.013030375 0.041588455
0002e0 a2 0b 79 bd 87 20 f4 b9 a5 aa 14 3c 3c 19 cc bd
       -0.06080211 -0.0004656354 0.009073888 -0.099657506
0002f0 a6 95 b7 bd d8 fb be bc 5b 25 26 3c 00 d5 5d 3c
       -0.0896409 -0.023313448 0.010140742 0.013539553
000300 59 16 82 3d 48 74 92 bd 6b 1a 9f 3c 69 83 db bd
       0.06351919 -0.07151085 0.019421777 -0.10718424
000310 ca 60 9c 3d 9a 11 6c 3d f8 fd f1 3c 1e e1 95 3c
       0.076356485 0.057633974 0.029540047 0.01829582
000320 35 48 3f bd 95 ac 42 bd 3e b4 f3 bc 98 54 4a 3c
       -0.04669972 -0.04752787 -0.029749032 0.01234927
000330 99 aa 96 bd 8b e0 83 bd 22 ff 9f 3d 93 de a7 bd
       -0.07356758 -0.064393125 0.078123346 -0.081967495
000340 b0 6e 88 bd ec 8c 42 bc 58 c6 80 3d c8 55 03 3c
       -0.06661737 -0.011874419 0.06287831 0.008016057
000350 f8 ee a5 3d 34 86 2a 3d 57 fe 91 3d ff 96 ad 3d
       0.0810222 0.041631892 0.071285896 0.08476066
000360 44 a6 0d bc ee 97 22 bb e5 12 4d bd 6f 07 cf 3c
       -0.008645598 -0.0024809795 -0.050066847 0.0252721
000370 f1 0c 97 bc bb 95 4a 3d 4e 24 17 3b 19 09 2a bd
       -0.018438788 0.0494592 0.002306241 -0.041512582
000380 be 24 d2 3b 73 5b 7a 3c b8 59 61 bc 60 16 a3 bd
       0.0064130714 0.015280592 -0.013754301 -0.07963252
000390 4a 0a 85 bd 5d d8 5e bc 6b be 1e bd f3 ed 7e 3d
       -0.06496103 -0.01360139 -0.038755815 0.062238645
0003a0 6e cb dc bc 02 ab d7 3d f6 28 88 bb 75 64 0f 3c
       -0.026952472 0.10530664 -0.0041552735 0.008751978
0003b0 21 19 d0 3b d4 75 a2 3c c4 ef ab bd 38 fd b2 bd
       0.006350652 0.019831575 -0.08395341 -0.08739704
0003c0 90 a5 27 3d f5 7a 9a bc 50 25 9d 3d 2c 70 47 3d
       0.040929377 -0.018857459 0.076731324 0.04869096
0003d0 66 d3 a8 3d e3 24 34 3c 97 34 c2 bc 39 21 7c bd
       0.08243446 0.010995123 -0.023706717 -0.06155512
0003e0 da 77 d3 3c e0 de c5 3d a2 de d0 bd d1 18 cf bc
       0.025813986 0.09661651 -0.10198714 -0.025280388
0003f0 0a c4 9c bc a2 a4 30 bd 2a 00 54 bc 4f 5c 83 3c
       -0.019136447 -0.043125756 -0.012939492 0.016035227

model.bigrill.fwd_rnn.cells.0.update_gate.mlp.bias f4 [32]
000000 5e b3 76 bc 87 1a a8 bd a9 f4 8a bd 7f d8 86 3c
       -0.015057413 -0.08208185 -0.067849465 0.016460655
000010 af b1 e0 3c 90 ed 9a bd f6 15 c0 bc 9a f3 11 3d
       0.027428476 -0.07564843 -0.023447972 0.035632707
000020 2a ec 00 3d 8c 99 b9 bd 63 c3 1f bd 33 5f 58 3d
       0.031475224 -0.0906249 -0.039004695 0.052825164
000030 b9 06 5d bd 14 f8 46 3a b7 32 85 3c 15 fa 5e bd
       -0.05396149 0.0007590067 0.016259534 -0.054437716
000040 52 d7 2d bc fc 68 67 bd e7 90 77 bd 7c e0 8e bd
       -0.010610418 -0.056496605 -0.060440924 -0.06976411
000050 0c 62 c7 bd f7 9a 7f 3a 8c f3 d4 3c 84 11 15 bc
       -0.09735498 0.00097505696 0.025995038 -0.009098414
000060 40 b5 4a bc 14 5e 79 bd d2 8f 65 bd b0 d8 4e bd
       -0.012372315 -0.060880736 -0.05604536 -0.050499618
000070 c6 ca 4b 3c 27 aa f0 3c b2 22 62 3c 28 4b cb 3d
       0.012438482 0.02937801 0.013802217 0.09926444

model.bigrill.fwd_rnn.cells.0.c_gate.mlp.weight f4 [32, 170, 1, 1]
000000 4c da d9 bc c9 62 90 3d 8e 7c 7a 3d c9 1c a8 3d
       -0.02659335 0.07050092 0.06115394 0.08208615
000010 75 85 b3 3d 1b 1a ac bd d0 85 8f 3c dc cb d7 bb
       0.08765689 -0.08403417 0.017519861 -0.006585581
000020 e5 1b 38 3c e7 18 0b bc 0c 13 a9 3a aa 0b 8f 3d
       0.011237119 -0.008489824 0.0012899353 0.069846466
000030 8a e8 f2 bc ff a2 49 3d 96 ba 70 bc 14 aa 30 bd
       -0.029651899 0.04922771 -0.014692923 -0.04313095
000040 eb 9d 78 3d 6b a5 00 3d 43 d5 dc 3c c3 d8 db 3b
       0.060697477 0.031407755 0.02695716 0.0067091896
000050 00 8a e2 3d 67 12 27 bd 69 3d fe 3b f7 28 27 bb
       0.11061478 -0.040789034 0.0077587855 -0.0025506595
000060 19 cd 90 bd f1 65 82 bd aa 76 a4 bd 91 f3 2c 3d
       -0.07070369 -0.063671 -0.08030446 0.04222447
000070 3c ce ba b9 d7 7f 71 bd 1a 62 a1 bd 56 c8 99 3d
       -0.0003563034 -0.05895981 -0.078800395 0.07508914
000080 3c ec 0e 3e c6 60 0f bc dc dd 6e bd cc 1c e3 3d
       0.13957304 -0.0087511 -0.05831705 0.11089477
000090 c6 29 ed 3c 87 98 d4 bc 62 d5 3e bd ac 85 87 bd
       0.028950583 -0.025951637 -0.046590216 -0.06617293
0000a0 7f af b1 bd 80 cc 76 bd 57 32 21 3d ca 13 ba 3c
       -0.08676051 -0.06025362 0.03935465 0.022714514
0000b0 29 6c 0f 3b 39 8b 03 3d 89 b1 61 ba ac 3e c8 bc
       0.0021884537 0.032115195 -0.00086095236 -0.024443947
0000c0 c6 21 c3 bb 24 fb 85 bd 27 ae d5 3b d6 30 94 bb
       -0.005954954 -0.06542042 0.0065210047 -0.0045224233
0000d0 80 13 05 3d d8 cf e2 bc 94 65 bd 3d 24 31 04 3d
       0.0324893 -0.027686998 0.0924789 0.032273427
0000e0 88 2a f3 3c 7c 3b 2d bc 2d b1 05 bd 13 18 93 bb
       0.029683366 -0.010573264 -0.03263967 -0.004488954
0000f0 ea 23 95 bd f8 df b5 bd 86 36 6f 3a 31 f4 ae 3c
       -0.07282241 -0.08880609 0.0009125251 0.021356674
000100 80 21 24 3d 60 05 53 bd 57 49 c0 bc 11 51 12 bd
       0.04007101 -0.051518798 -0.023472471 -0.035721842
000110 c6 cd 0c 3d 81 ad 78 3d 01 36 a2 3c 88 af 89 3c
       0.03437593 0.06071234 0.019801142 0.016807333
000120 1b 62 eb bc f8 b9 4b 3c a6 9a 98 bd 83 3b 9a 3c
       -0.028733304 0.012434475 -0.07451372 0.018827206
000130 25 0d 89 bd 72 86 82 bb 24 41 73 bd 6e fd ed 3d
       -0.0669196 -0.0039833123 -0.059388295 0.116206035
000140 26 a3 e7 bd 48 46 7e bc a4 03 00 3d b9 61 d6 bc
       -0.11310415 -0.015519686 0.031253472 -0.026169645
000150 77 1a 5c 3d fb b3 90 3d 13 9f 02 bc 7a 4e 54 3c
       0.053736176 0.070655786 -0.007972497 0.012958163
000160 42 86 c4 bc fc dd 8d bd 28 e5 e7 bb 60 e0 b5 bd
       -0.0239898 -0.06927106 -0.007076878 -0.08880687
000170 b1 eb a2 3d 3f 9a 85 3c 2e ac 83 3c 1f 08 14 3d
       0.07955111 0.016308902 0.016073313 0.036140557
000180 c3 bb 9b bd bf 77 39 3d d5 c9 a6 3d 19 e3 21 3d
       -0.07604172 0.045280214 0.08143965 0.039523218
000190 5b 98 3f bc f4 da 9f bd 97 09 2e bd fa f7 a0 3d
       -0.011694039 -0.07805434 -0.042489614 0.07859798
0001a0 dc e8 43 3d 81 9f 82 3d 8a d6 d6 bc 97 6a 03 3d
       0.047829494 0.06378079 -0.026225347 0.032084074
0001b0 16 2d 83 bd 1c 95 13 3d 55 1e e5 bb fb 9d c3 3d
       -0.06405084 0.036030874 -0.0069921413 0.09551617
0001c0 15 50 4c 3c 56 66 35 3c d2 8b c6 39 60 38 34 3c
       0.012470265 0.011071762 0.00037869677 0.010999769
0001d0 11 00 1c 3d 62 3c 34 3d 1f a6 10 bd 65 16 3b 3d
       0.038086 0.044002898 -0.035314675 0.045675654
0001e0 c0 f5 84 3d e7 e9 48 3c ec 53 48 bc 93 0d 8b bc
       0.064921856 0.012262798 -0.01222704 -0.016974246
0001f0 be ad c8 bc 3d 47 93 bd ad 90 9b 3d b5 54 32 bd
       -0.02449691 -0.07191322 0.07595954 -0.043537814
000200 80 76 cc 3b ea a5 97 3d 00 c6 e2 3d 81 d3 97 bd
       0.0062397122 0.074046925 0.11072922 -0.07413388
000210 20 4b 07 bd 31 cf 93 bc 53 84 aa bd a8 62 fd 3c
       -0.03303063 -0.018043132 -0.0832602 0.030930832
000220 80 a4 8f 3c fa 7b 9f bc 73 70 f8 3d 9a 92 0e bd
       0.017534494 -0.019468296 0.12130823 -0.03480778
000230 01 a0 7d 3d be 32 b4 bd 31 2f 50 3c ba f8 90 3c
       0.06192017 -0.08798741 0.012706564 0.017696727
000240 e5 41 b1 3d 18 98 18 3c c4 15 a5 bd 09 d8 b9 3c
       0.086551465 0.009313606 -0.08060792 0.022686021
000250 a1 be 3a bd 41 e3 0d 3d fe 86 9b 3d 9d 68 6b bd
       -0.045591954 0.034640554 0.07594107 -0.057472814
000260 41 22 be 3c 0c cd 95 3d 09 4a 13 bd a2 86 c6 3d
       0.023209693 0.073145 -0.035959277 0.09693648
000270 04 db 33 3d 21 03 45 bb a3 a4 e7 bd bf 7d 6c bd
       0.04391004 -0.003006168 -0.11310699 -0.05773711
000280 34 58 e6 bb 58 05 94 3d af 43 c8 3c ff 1a 83 bd
       -0.0070295576 0.07227582 0.024446337 -0.064016335
000290 0f 07 ba 3d 96 1e 9d bd ec 69 c0 3c 7c b3 01 bd
       0.090833776 -0.076718494 0.023488007 -0.03166531
0002a0 77 7d a3 3d 36 d6 fc bd 70 30 91 3d 32 03 42 bc
       0.07982915 -0.12345545 0.07089317 -0.011841582
0002b0 ad 74 4a bc 3c d1 f0 bc 1f e2 59 3b 81 f2 70 ba
       -0.012356919 -0.029396646 0.003324635 -0.00091914093
0002c0 82 98 4d bd 4a 1d 64 bd 9e 0b 3b 3c 06 4d 32 bd
       -0.05019427 -0.055691995 0.011416344 -0.043530487
0002d0 9f 28 a9 3c 0e b4 10 bd b5 ab df bc 0c 61 95 bd
       0.020649252 -0.035327964 -0.027303556 -0.07293901
0002e0 1d 45 57 3d d6 31 40 3c 90 0b 00 3d 4c ce 63 3c
       0.052556146 0.011730632 0.031261027 0.0139041655
0002f0 7e f6 6c 3b ed 0d 9f 39 2a 45 87 3d 8c f9 23 3c
       0.0036157663 0.0003033722 0.06604989 0.010008227
000300 8f 62 28 3d 64 e8 49 3d 2c c5 a4 3d 0e be e0 bb
       0.041109618 0.04929389 0.0804542 -0.006858594
000310 52 39 54 bb 29 c2 39 3d 58 9f 07 bc 20 9b bf bb
       -0.0032382798 0.04535118 -0.008277737 -0.0058473498
000320 05 4f 0c 3d 11 f8 31 bd 8d 42 82 bd 0f 06 3a bd
       0.034255046 -0.043449465 -0.0636035 -0.045415934
000330 ab 3a ac 3c 2c 40 e9 bc 9f d3 74 bd 4a bb 86 3d
       0.021024069 -0.028472982 -0.05977213 0.06578691
000340 4d 04 5a 3d bf 2a 9e 3c 04 71 8f 3c 9f cb f7 bc
       0.053226758 0.019307492 0.017509945 -0.030248461
000350 6f e2 44 3d e8 17 4d bc 38 93 44 bd 11 36 13 bd
       0.048067506 -0.012517907 -0.04799196 -0.035940234
000360 18 16 4c bd 66 b6 2a 3c c8 17 fe bc c6 4d 86 bd
       -0.049825758 0.010419464 -0.0310172 -0.06557803
000370 a1 8c 9c 3d bf 74 32 bd ba 72 23 3d 09 12 f4 3c
       0.0764401 -0.04356837 0.039904334 0.029793756
000380 7f b0 b3 bc 27 f5 e0 bb 8f 38 a2 bd d2 09 12 bd
       -0.021934746 -0.006865162 -0.07920944 -0.035653897
000390 22 9e 88 bd 64 13 bc bc e1 d2 96 bb 02 a9 0b bd
       -0.066707864 -0.022958465 -0.0046027754 -0.034096725
0003a0 36 6c 97 3c 94 2f d2 bb 70 c4 d5 3c 98 b3 54 3d
       0.018484216 -0.006414363 0.026094645 0.051929086
0003b0 ba 10 f5 bc 23 e9 82 bd ca 4a 4d 3d 76 b7 0c 3d
       -0.029915202 -0.063921236 0.050120153 0.03435465
0003c0 3b 93 eb bb 3e f1 e9 3c ac 32 69 3c a3 a3 71 bd
       -0.007189182 0.028557416 0.0142332725 -0.058993947
0003d0 28 0a 3d 3c 9c bc 43 bd 6d fd cc bc dc 97 22 39
       0.011538066 -0.047787294 -0.025023187 0.00015506096
0003e0 17 48 af bd b7 a6 86 bd d8 94 fa bc 4e ed dd bc
       -0.08558672 -0.06574767 -0.030588552 -0.027090695
0003f0 df 48 1e 3c bd 12 04 bd 3b d2 2b bc 87 ff 0f bd
       0.0096609285 -0.032244433 -0.010487135 -0.0351558

model.bigrill.fwd_rnn.cells.0.c_gate.mlp.bias f4 [32]
000000 c5 8d 36 3d 79 f2 42 3c 1e a2 09 3d 21 6a 42 bd
       0.044568796 0.01189863 0.033601873 -0.047464494
000010 dd 14 a9 3c 33 b7 f0 bb 92 62 c3 3d b5 ec 6f bd
       0.020639831 -0.007346058 0.09540285 -0.05857535
000020 4a e2 61 bd 41 bf 88 3c 88 19 cd 3a 79 6d 3c 3d
       -0.055147447 0.01669276 0.0015647868 0.04600284
000030 0e 4a 8e 3c 95 fc 38 3c 5b 06 63 3c 51 0f 19 bd
       0.017369296 0.011290689 0.013856496 -0.037368122
000040 35 34 57 3d ff b4 7f 3d cc 18 9e bc c9 3d 32 bd
       0.052540023 0.06242847 -0.019298933 -0.043515954
000050 97 29 27 bd f5 7c dd bd b5 83 9a 3c 6f 20 82 3d
       -0.040811148 -0.10814849 0.018861631 0.063538425
000060 31 0e 41 bd 04 c3 4e 3c 4a fd f7 bb 7d 19 72 3d
       -0.047132675 0.012619738 -0.007568036 0.05910634
000070 ae 7d 18 bd 1c 9b c2 bc 24 d5 0a 3d 2b f5 6b bd
       -0.037229232 -0.023755603 0.033894673 -0.057606857

model.bigrill.fwd_rnn.first_stage.weight f4 [1, 32, 1]
000000 11 d6 93 bd de cc 9e 3d e8 0c 3b 3e a2 fb f8 bd
       -0.07218564 0.07753919 0.18266642 -0.1215737
000010 dc 82 5a be 83 1c 43 3e 8f b3 f4 bd c2 53 0c 3e
       -0.21338981 0.19053845 -0.119483106 0.13703826
000020 b1 15 82 be da 7f 59 3e af 4f 43 be 60 8b 64 bd
       -0.25407174 0.21240178 -0.19073366 -0.05579698
000030 94 65 45 3e d0 b2 10 be 25 fa bb bb 71 3c 2f 3e
       0.1927703 -0.14130712 -0.0057366067 0.171129
000040 47 6e f9 3d b7 ab 61 3e f1 aa 63 3e 0c 78 88 be
       0.12179237 0.2203816 0.22233178 -0.26654088
000050 e4 88 61 be a7 10 5b 3c 76 45 f8 3b 06 cd 46 3e
       -0.22024876 0.013370669 0.0075766398 0.19414148
000060 e2 8f e1 bd 39 2a d3 bd 6b 62 a2 3d 2d 3e 36 be
       -0.110137716 -0.10310788 0.07928928 -0.17797156
000070 93 84 d5 3c 2b 99 a4 3d 5d dd 8c 3b fb 04 80 3c
       0.026064193 0.08037027 0.0042988495 0.015627375

model.bigrill.fwd_rnn.spatial_decoder.lin_in.weight f4 [32, 34, 1]
000000 a6 db 32 be 8d 97 e8 3d 79 7e 11 3e bc f6 cc 3c
       -0.17466602 0.11357031 0.14208402 0.025019996
000010 d4 03 69 bd c9 59 7c 3e 9a 6d 3b 3c 56 f2 5f 3b
       -0.056888416 0.24643625 0.011439705 0.0034171543
000020 63 88 08 3e 67 1d d8 3c 2c e4 a1 bd f6 8a 6d 3d
       0.13333277 0.026381208 -0.079048485 0.05799385
000030 4d e4 2e be 82 a8 a9 bd b1 67 85 bc 94 20 0e 3c
       -0.17079277 -0.082840934 -0.016284795 0.008674759
000040 82 81 c6 3d 44 46 e0 bd af 9d 7c be e5 23 a7 bd
       0.096926704 -0.10950902 -0.24669527 -0.08161143
000050 5e e5 3a 3e 78 58 fc 3c 77 0f 18 3e bd a1 83 be
       0.18251559 0.030803904 0.1484965 -0.25709334
000060 3e e9 9f bc ca 80 2f 3c fb 7c 3f 3e c8 b7 2f 3e
       -0.019520398 0.010711858 0.1870002 0.1715995
000070 d8 2f 46 bd 7f 7d 77 3e 4b 56 3c be 28 6a 0b be
       -0.04838547 0.24168967 -0.18392293 -0.13614714
000080 30 96 d3 bc b8 aa d7 bc c2 5e 42 be ca d7 1f 3e
       -0.02582845 -0.026326522 -0.1898146 0.1560966
000090 9c f5 a6 3d 1a 78 c5 3d 9e 79 15 be 6e 12 5b 3c
       0.08152315 0.09642048 -0.14597175 0.013371093
0000a0 92 11 cf bc 6f 7b a5 3d a5 65 0a 3e 9d e0 25 3d
       -0.025276933 0.08080184 0.13515337 0.04049741
0000b0 df 4e 87 bd 70 95 2a 3d b4 65 92 3d ec 71 db 3d
       -0.0660684 0.04164642 0.071483046 0.10715088
0000c0 af 26 83 bd 58 5d a9 bd 95 f1 9e bc 74 57 62 be
       -0.06403863 -0.08269757 -0.019402305 -0.22103673
0000d0 9b e3 67 bc 9d bb 1d be 0e 4e 34 3e 34 22 e6 3d
       -0.0141533865 -0.154036 0.176079 0.112369925
0000e0 7f cb 7a bc b9 c2 f4 bb 22 8d 8f bc 0f bb 15 be
       -0.015307306 -0.007469502 -0.017523352 -0.14622138
0000f0 9f 97 4f 3e 3f dc 0b 3d a9 11 38 3e e7 a5 cb 3d
       0.20272683 0.03414559 0.17975487 0.09943753
000100 e3 da 49 be f3 d2 5a be 16 50 cf 3d 6c 84 4a 3d
       -0.19712405 -0.21369533 0.10122697 0.049442694
000110 52 48 29 3e 53 b4 04 3e ea d9 80 be 69 d9 0b 3c
       0.16531494 0.12959413 -0.25166255 0.008535721
000120 30 47 16 3e b4 6c 75 be 28 80 b3 bc bf 7f 3c 3e
       0.14675593 -0.23967248 -0.021911696 0.18408106
000130 31 e2 9c 3d b6 44 30 3d 0e 0f 41 be 3d 9b a9 3d
       0.0766033 0.043034278 -0.18853399 0.082815625
000140 12 22 4a 3e 6f 64 cc bd ac 61 25 3e 6d f8 32 3e
       0.1973956 -0.09980094 0.1615054 0.1747758
000150 73 e6 cd bd 3b 52 aa 3c b0 87 12 3e 6c 43 54 bd
       -0.1005372 0.020791164 0.14309573 -0.05182211
000160 33 b8 48 be 88 f7 62 be 23 b8 90 bc dd 78 67 bd
       -0.19601516 -0.22164738 -0.017665928 -0.05651175
000170 4f aa 56 3b c5 d9 6a bc 32 b9 de bd 5a 29 80 3d
       0.003275532 -0.014334147 -0.10875167 0.06257887
000180 a8 5c 2f be a9 af 52 be 6e 78 d2 bc c1 72 3e 3e
       -0.1712519 -0.20574822 -0.025692191 0.18598463
000190 78 4c 15 be 04 01 65 bd 00 18 10 3d 99 1c 02 be
       -0.14579952 -0.05590917 0.03517914 -0.12706222
0001a0 62 96 91 bc 8a d4 5f 3e 3e 49 29 3e d8 32 84 3d
       -0.017771903 0.21858421 0.16531846 0.0645501
0001b0 97 79 84 bd 01 69 54 3d d9 7b 57 be 48 49 3f 3e
       -0.06468504 0.051857952 -0.21043338 0.18680298
0001c0 d9 bb ad bc 35 64 93 3d 69 9d 1b bc f0 a6 a0 3d
       -0.021207737 0.07196847 -0.009497979 0.07844341
0001d0 a4 78 62 3e f9 0c 7b 3e bc 82 58 be 0a 5c 84 3e
       0.22116333 0.24516667 -0.21143621 0.2585147
0001e0 07 a8 a7 bd 2d 0a 65 3e 1c 30 07 be 79 44 01 bc
       -0.081863455 0.22367163 -0.13201946 -0.00788986
0001f0 d1 19 26 be b2 92 6d 3e 40 08 81 3c 73 d3 41 3e
       -0.16220786 0.23200491 0.015751004 0.18928318
000200 c4 b8 90 bc e6 8d 27 bd b7 0b e9 3c 4e 98 7e 3d
       -0.017666228 -0.04090681 0.028447969 0.062156968
000210 8d 93 36 3e b6 43 eb 3c 0c 36 81 be ab ad 64 3d
       0.17829724 0.02871881 -0.25236547 0.055829685
000220 1d fc 34 3e cb dc 90 3d 39 eb 16 be fa 6b 1c bc
       0.17674299 0.07073363 -0.14738168 -0.009547228
000230 f3 d7 d8 3c 39 19 00 be 12 fb 02 bc d1 9a 5a 3e
       0.02647016 -0.12509622 -0.00799443 0.2134812
000240 9b 0e a6 bd 33 cd 33 3e 51 f2 27 bd 72 d8 56 bd
       -0.081082545 0.17558746 -0.041002575 -0.052452512
000250 e3 96 7d bc 58 32 86 3d d2 00 d8 3d aa ac 93 3d
       -0.015477869 0.06552571 0.105470315 0.072106674
000260 74 66 11 be d5 bc 06 3e 68 4f 23 3e c8 19 7e 3d
       -0.14199239 0.13157971 0.1594826 0.062036306
000270 e3 b9 3c be 25 b0 ac 3d 2d e2 26 be c3 35 19 bd
       -0.18430285 0.084320344 -0.16297217 -0.037404787
000280 92 ad 7b 3d a9 9e df 3d 03 83 49 be c8 a0 10 be
       0.061444826 0.10918934 -0.19678883 -0.14123833
000290 29 7e 0e be 2b 22 02 be c1 71 43 3d ed e0 55 3e
       -0.13915314 -0.12708347 0.047715906 0.20886584
0002a0 74 4b 89 3d a9 25 28 3e ba 78 db 3d ae f7 bf 3d
       0.06703845 0.16420616 0.10716386 0.09373413
0002b0 1c e1 04 be e1 3b c8 bd 3b 06 06 bc e0 30 05 bd
       -0.12976497 -0.09777046 -0.008180196 -0.032517314
0002c0 15 2f 30 bd 8b ee a6 bd 9e 71 2a be 7b 8e 31 3e
       -0.04301365 -0.08150967 -0.16644904 0.17339508
0002d0 e3 f5 7f 3d dd b4 48 bd 48 e8 f0 3d cd 71 3d be
       0.062490355 -0.04900061 0.11763054 -0.18500443
0002e0 de b4 91 3c 26 6b 89 bd 16 71 67 be 5d 9c 88 3d
       0.01778644 -0.0670989 -0.22601733 0.06670449
0002f0 2a e4 d6 3c 15 41 05 bd b4 21 2d be e6 bc 14 be
       0.026231844 -0.03253277 -0.16907388 -0.14525184
000300 d8 b5 4d be 9b 5d 2b 3e e4 97 11 3e 02 79 05 3e
       -0.20088899 0.16734926 0.14218098 0.13034442
000310 ff bf 63 be d4 c2 e1 bd f3 9e 9a bd 4d 9c dc bd
       -0.2224121 -0.11023489 -0.075498484 -0.107719995
000320 00 45 3e 3e c7 b2 00 3e 36 49 7c 3c 99 a7 4b 3d
       0.18581009 0.12568198 0.015398314 0.04972038
000330 a6 50 ab bd 8a a0 36 3e 50 39 7b 3e 40 38 11 bd
       -0.08364992 0.17834678 0.24533582 -0.035454035
000340 e6 7e 28 be 33 79 cf 3d 44 22 00 bd 63 9f 55 bd
       -0.16454658 0.10130539 -0.03128268 -0.052153956
000350 7d a2 43 3e 4b 63 b5 bd 92 72 ba bd b7 d5 be 3d
       0.19104953 -0.08856829 -0.09103884 0.093181066
000360 8c d5 e6 bd 57 18 f5 3d 75 2b 80 3c 9c 49 88 bd
       -0.112711996 0.11967533 0.015645722 -0.06654665
000370 db ff 56 3e b2 a6 4b 3d 0e 5c ba bd 69 82 99 3d
       0.20996039 0.04971952 -0.09099589 0.07495577
000380 b2 18 94 3c 50 16 74 3d 5c b2 2a 3e 14 97 61 be
       0.018078182 0.05959159 0.16669601 -0.22030288
000390 e7 2b 60 3d 21 e0 a5 bd 2a f3 74 3d 11 36 2d 3e
       0.05472937 -0.0809939 0.05980221 0.16915156
0003a0 7b f9 68 3e 4e fd 2e 3e 56 a9 7d be ca 6a 98 bb
       0.22751419 0.17088816 -0.24771628 -0.004651402
0003b0 b8 f7 b4 3d cb b0 60 3d ed bc d8 bd 94 4d fd bd
       0.08836311 0.054856103 -0.1058291 -0.123683125
0003c0 04 21 23 3e cd c9 06 3e f8 5e 83 bd a2 23 0a bc
       0.15930563 0.13162918 -0.06414598 -0.008431347
0003d0 ed 52 97 bc 3d 4a 06 be 33 2a 44 3d 0e ea 5f bd
       -0.01847216 -0.13114257 0.047891807 -0.05466657
0003e0 df eb 49 bd 14 73 e9 3d d1 72 2f be 88 ee 47 bd
       -0.04929721 0.113989025 -0.17133643 -0.048811466
0003f0 85 80 5d 3d e5 1f 93 bd 0d 46 db ba 91 2e 77 bd
       0.054077644 -0.07183818 -0.0016729251 -0.060347144

model.bigrill.fwd_rnn.spatial_decoder.lin_in.bias f4 [32]
000000 c8 57 5c be f8 26 86 bd 98 d4 ea 3c d8 90 7c bd
       -0.21517861 -0.065504014 0.028665826 -0.06166157
000010 b3 93 2e 3e 04 58 28 bd 5a b6 42 3b 2a a0 be 3c
       0.1704853 -0.041099563 0.002971074 0.023269732
000020 75 62 32 bb ff ee 4a bd f1 00 b3 bd 88 12 36 3e
       -0.002721933 -0.04954433 -0.08740414 0.17780507
000030 99 05 b9 3d 24 a4 98 bd fc 92 90 bb 5e ba 0a bd
       0.09034271 -0.07453182 -0.004412053 -0.03386914
000040 eb cc b6 bd c9 67 33 bd 6f c0 6d 3d 00 35 71 3e
       -0.08925804 -0.04380015 0.058044847 0.23555374
000050 5c b6 7e 3e 5b 67 c5 bc 24 59 eb bd 70 1e 22 be
       0.24874252 -0.024097135 -0.114916116 -0.15831923
000060 6d 62 1b be 24 4e c8 bd 86 d4 2b bd cc b3 8e 3b
       -0.15174265 -0.09780529 -0.041950725 0.0043549296
000070 3e 34 c3 3d 2a 50 ed 3c 2a 53 56 3e 90 b5 08 be
       0.09531449 0.02896889 0.20930162 -0.1335051

model.bigrill.fwd_rnn.spatial_decoder.graph_conv.mlp.weight f4 [32, 64, 1, 1]
000000 2b 70 91 bc f1 4d b3 3a 91 60 0b be 43 92 19 be
       -0.017753681 0.0013679845 -0.13611056 -0.149972
000010 41 88 1e bc 1c 85 8e 3d bc d2 c6 3c 51 79 c6 3d
       -0.00967604 0.06958982 0.024270408 0.09691108
000020 4c da 95 3d 6d b2 89 bd 69 76 a8 3d 2f 77 8b bd
       0.073170274 -0.06723485 0.0822571 -0.06809842
000030 21 1e 06 3e d2 40 73 3d 53 9c 95 bc 78 05 04 3e
       0.13097431 0.05938799 -0.018263018 0.12892711
000040 74 c6 e2 bc ec bf c5 3d d1 dc 09 3e d7 7b 3b bd
       -0.02768252 0.09655747 0.13463141 -0.0457724
000050 3d ec f5 bd e8 e1 02 3e e4 dc d8 3d de f2 27 3e
       -0.120079495 0.12781489 0.105890065 0.1640124
000060 e6 3d 46 3d 66 13 4b bd 78 af 0b 3e 0e 7e be bd
       0.048398875 -0.049579047 0.13641155 -0.09301387
000070 02 55 2a bd 32 fd 29 3d 8b b3 7e bd f2 a3 b0 3d
       -0.041584976 0.04150123 -0.062182944 0.0862502
000080 a1 cf 8b 3d 96 30 fb 3d ac 8c 54 3d c3 81 3a be
       0.068267114 0.122651264 0.051891968 -0.18213563
000090 5b 01 7c 3d fb eb c6 3b 5a 96 5f 3d e5 77 66 bd
       0.06152473 0.0060706115 0.054586746 -0.056266684
0000a0 e3 3a 14 bd 6d fe 19 3d 2c a4 8a bd ce cc 80 bd
       -0.03618897 0.037596155 -0.067695946 -0.062890634
0000b0 b0 14 57 3d a0 ea 6d bd b8 5a 1a be 9a ae c6 3d
       0.052509964 -0.058085084 -0.15073669 0.09701271
0000c0 0b 4c d9 3c 2f 57 ab 3c e3 99 1f bc 12 f3 8b bd
       0.026525518 0.020915596 -0.009741279 -0.06833471
0000d0 16 74 2b be d7 82 76 bd 8a d1 20 3e 72 a5 2d 3e
       -0.16743502 -0.060183372 0.15704933 0.16957644
0000e0 5f e1 9f 3d 02 c4 40 bd e8 55 bf 3d 64 09 a2 3c
       0.07806658 -0.047061928 0.09342557 0.019779868
0000f0 51 5a fe 3d 8c ff 52 bd f8 aa b4 bd 05 21 f7 3d
       0.1241957 -0.05151324 -0.08821672 0.12066845
000100 0a 15 9e bd b8 61 1a 3e b0 9b 0e be 12 94 3c 3c
       -0.07718857 0.15076339 -0.13926578 0.011509912
000110 c1 90 80 3d 96 37 f3 bd fa 7a 5a 3d 79 6a 81 bd
       0.062776096 -0.118758366 0.053339936 -0.06319136
000120 b1 dd 15 bc ef 4f 13 be 7c 90 e0 bc 98 8a 09 3d
       -0.009147094 -0.14385961 -0.027412646 0.03357944
000130 a2 b1 79 3d 1a bc 64 bd 7f a2 89 3c 3d 3c 04 3e
       0.06096042 -0.05584345 0.016801117 0.12913604
000140 5b bd 97 bd e0 b1 ac 3d 4d 02 1e bd 96 fe bd bd
       -0.074091636 0.084323645 -0.038576413 -0.09277074
000150 3e 05 e5 bd c4 d6 f1 3d f8 aa f8 3d 81 02 6e bc
       -0.111826405 0.118085414 0.12141985 -0.014526964
000160 2a 89 d2 3d 59 b3 bc 3d 84 7e bd 3a fe eb 38 be
       0.10280068 0.09213895 0.001445726 -0.18058774
000170 d9 08 22 3e f1 40 df 3d 3a c4 c4 bd 28 6a da 3d
       0.15823688 0.109010585 -0.0960774 0.10664779
000180 1b 74 05 bc 52 5d 30 bd 1c 18 03 bd ae 55 22 bd
       -0.0081453575 -0.043057747 -0.032005414 -0.03963249
000190 c6 85 1f bc f6 01 c6 bc 6d ff 54 3d 36 1e c4 3d
       -0.009736484 -0.024170857 0.052001406 0.09576075
0001a0 1d a1 33 3e 51 55 a3 bd ce 27 16 3e 97 a7 6f bd
       0.17541929 -0.07975257 0.14663622 -0.058509436
0001b0 b8 66 54 bd 53 0e 0a be 97 7f 01 be 6d 7b 1d bd
       -0.051855773 -0.13482027 -0.12646328 -0.038447786
0001c0 04 99 20 3e 79 c5 dc 3c 45 40 29 3d 52 ea 48 be
       0.15683371 0.026949631 0.041321058 -0.19620636
0001d0 73 21 45 3b 5d 6d 34 3e 36 8a 17 3e e1 c3 22 3d
       0.0030079752 0.17619844 0.14798817 0.039737586
0001e0 f6 af b8 bc bb a0 3d 3e 1c 69 ba 3c a1 9c a1 bc
       -0.022544842 0.18518345 0.022755198 -0.019728007
0001f0 8f 8d 92 3d 5c 7e c5 3d 74 da 5d 3d 7e 69 18 3e
       0.071559064 0.09643242 0.05416341 0.14883992
000200 2a 8c a8 bc f6 24 a3 3d 9f d9 86 3d 45 a2 21 bd
       -0.020574648 0.07966034 0.06584477 -0.039461393
000210 06 a3 00 3d 33 bf 8e 3d 1f a6 a8 3c d3 34 c2 bd
       0.03140547 0.06970062 0.020587025 -0.09482732
000220 d6 57 12 bd 07 a3 8c 3d 90 7d eb bd d4 ca 15 bd
       -0.035728298 0.068670325 -0.114985585 -0.036570385
000230 ff e1 a4 bd 60 73 65 bb 8c 9f 9f bd 61 69 71 bd
       -0.08050918 -0.0035011396 -0.07794103 -0.058938388
000240 f1 df ca bd de 2c 84 bd 28 a3 e7 bd 5d bb d8 3d
       -0.09905995 -0.0645387 -0.113104165 0.10582612
000250 1b 2c 85 bd 83 fe d3 bc 6b d5 81 bd b4 88 b3 bc
       -0.06502553 -0.025878197 -0.06339534 -0.021915771
000260 5b 5e 4b 3c a4 55 fe 3d 38 91 09 3c 80 30 0d bd
       0.012412633 0.124186784 0.008396439 -0.03447008
000270 f6 73 52 bd a0 55 ec bd a8 8f f2 3d 2a 95 03 3e
       -0.05138012 -0.11539769 0.118438065 0.1284987
000280 60 da 1c 3d 23 9f d0 3d f6 48 5a bd 1b b1 48 bd
       0.038294196 0.10186603 -0.053292237 -0.048997026
000290 71 ed c3 bb 6e 14 a8 bd f6 a8 45 bc 39 11 9e bd
       -0.005979233 -0.08207022 -0.012064209 -0.07718129
0002a0 bb de 05 bc 7d e7 91 3d 6c d0 c1 3d f0 95 ad bd
       -0.008170779 0.07124231 0.094635814 -0.08475864
0002b0 51 bb 42 3d c8 97 95 3c a0 f2 b6 bd c1 e1 fe bd
       0.04754192 0.018260852 -0.08932996 -0.12445403
0002c0 60 e9 cf bd d6 a3 84 bd f3 f3 95 bd 10 d4 82 bd
       -0.101519346 -0.06476562 -0.0732192 -0.06388104
0002d0 7e 4f 80 bd 65 4b c1 3c 7e 16 25 3b 5b 17 d3 3d
       -0.06265162 0.023595521 0.0025190408 0.10307189
0002e0 47 a4 0b be c9 57 66 bd 26 13 1a bc eb b6 9b 3d
       -0.13636886 -0.056236062 -0.009403979 0.07603248
0002f0 bc c3 ea 3d c3 89 d1 3d fe a7 b4 3d 4c f8 d0 bd
       0.114631146 0.10231354 0.088211045 -0.10203609
000300 56 3c 10 3d 7d b5 06 bd 57 fc 00 3e f0 fb de bc
       0.03521379 -0.032887924 0.1259626 -0.027219743
000310 69 dd 9b bd 7e 5f e7 3d ea 1a ff bd 8f 90 26 3d
       -0.0761059 0.112975106 -0.12456305 0.040665206
000320 7c c2 95 3c 25 30 ca bc 53 ed 56 bd 22 8e de 3d
       0.018281214 -0.02468116 -0.052472424 0.108669534
000330 5e 06 05 be 33 d5 10 bd 82 c0 a7 3d bd 00 b7 ba
       -0.1299071 -0.035359573 0.08191015 -0.0013962012
000340 35 fe f9 bd e7 e9 0a 3d 23 b1 6f bc 60 d6 a9 bd
       -0.12206689 0.033914473 -0.014629635 -0.08292842
000350 cf 68 fe 3d 50 ba 03 be a0 14 03 be ce 30 70 3d
       0.124223344 -0.12864041 -0.12800837 0.058640294
000360 3e 12 93 bb c3 94 97 bd e7 b3 00 be 48 60 0a 3e
       -0.0044882586 -0.07401421 -0.12568627 0.13513291
000370 e3 7b 08 be af 0b 9c bd 39 33 8f 3d 52 ee f3 bd
       -0.13328509 -0.07619416 0.06992192 -0.1191069
000380 1d 86 01 bc 30 39 28 be 8f 3c 46 3c 1e 6c 71 3c
       -0.00790551 -0.16428065 0.012099399 0.01473525
000390 09 55 f6 3d cd b3 99 3d ef a4 9c bd 9b c8 67 3d
       0.12027938 0.075049974 -0.07648646 0.056587797
0003a0 fd 93 6a bd 5e 95 9d bd 59 c7 2c 3d 05 d0 ae 3d
       -0.05727004 -0.07694505 0.0421823 0.0853577
0003b0 5c 38 c6 bc d9 d3 77 bd cb 40 1d bd 21 45 8f bd
       -0.024196796 -0.060504768 -0.03839187 -0.06995607
0003c0 ae 26 3d bd 22 23 11 be 1a cf d2 bd e2 8c f9 3d
       -0.046179466 -0.14173558 -0.10293408 0.121850744
0003d0 ab 92 d9 3d 72 53 49 bb fe 90 38 be 11 dd 1f be
       0.10623678 -0.0030719903 -0.1802406 -0.15611674
0003e0 03 8a a5 bd ee b3 bb bd 2b cc e8 bd 09 52 3a 3e
       -0.08082964 -0.09165178 -0.11367067 0.18195356
0003f0 04 59 9b bd 73 ee 85 39 36 5d 4e 3d 36 bf 81 bc
       -0.07585338 0.00025545395 0.05038186 -0.015838247

model.bigrill.fwd_rnn.spatial_decoder.graph_conv.mlp.bias f4 [32]
000000 2f ec 36 3d 49 1d 86 3c c3 a1 54 bd a0 fd ed 3c
       0.044658836 0.016371386 -0.05191208 0.029051602
000010 6c 40 a7 3d 4a e3 db 3d 99 9c 12 3e bf d0 ef 3d
       0.08166584 0.10736711 0.1431755 0.11709737
000020 69 6e 4a 3e 6e 4c 1c bc 3c b0 80 bd 10 3c 2b bd
       0.1976868 -0.009539707 -0.06283614 -0.041805327
000030 0a 85 b3 3d b7 31 27 be 44 96 0c bd 5d f5 75 3b
       0.087656096 -0.16327558 -0.034322992 0.003753028
000040 2c 6d 20 3c 62 50 bc 3b bb e3 09 3e 58 81 06 3d
       0.009791654 0.005746887 0.13465779 0.032838196
000050 34 10 1c be 34 7b fd bc 49 56 d3 bd 22 df b6 bc
       -0.15240556 -0.030942537 -0.10319192 -0.022323195
000060 81 06 a9 bc 9e 04 62 3d d8 da 2d 3d e4 f6 37 3e
       -0.020632984 0.055180185 0.042445034 0.17965275
000070 76 3b 6c bd 83 5a ce 3d 34 d8 12 3d b9 28 cd 3c
       -0.057673894 0.100758575 0.03585072 0.025043832
