logs/discharge_point/grin/2023-10-26_18-53-37_305925262/epoch=49-step=4350.ckpt (torch, 707635 bytes, 102 tensors)

model.bigrill.emb f4 [8, 20]
000000 34 bf 88 3e af f1 51 bf 17 02 49 bf 2d 3b 12 bf
       0.26708376 -0.82009405 -0.78518814 -0.57121545
000010 61 12 1d 3e 4e ad b2 bd a0 9c 55 bf 89 e5 0e 3f
       0.15339042 -0.087244615 -0.83442116 0.5581899
000020 5d f4 3d be 86 1d 0b 3e 00 9f e9 be 80 09 d0 3e
       -0.18550248 0.13585481 -0.4562912 0.40632248
000030 72 24 b6 3c cc 5f 4a 3c 9b bd ab be 2b d6 da be
       0.022234175 0.012351941 -0.33543095 -0.42741522
000040 78 8e 6c bf 12 20 3e bd a4 cc af bd 51 35 6f 3f
       -0.9240489 -0.046417303 -0.08583954 0.9344073
000050 80 4f b0 3e c6 3a 0c bf c4 32 99 3e 68 40 4b 3f
       0.34435654 -0.5477718 0.29921544 0.7939515
000060 8e c7 51 bf 43 85 41 3f c2 1e d6 3e 4e 1b ae 3e
       -0.8194512 0.75593966 0.4182034 0.34005207
000070 7d 22 82 be a5 4a 0e 3f f3 0f 17 bf e6 55 e7 3c
       -0.25416937 0.5558265 -0.5900871 0.028239202
000080 f4 e0 36 bf e9 d3 e2 be 20 e2 ba be 15 cc 98 bc
       -0.71437 -0.443023 -0.36500645 -0.018652001
000090 8f 25 99 bd 34 f5 bb 3d 1d 32 fb be a8 c3 3c bf
       -0.07477867 0.09177628 -0.4906167 -0.7373605
0000a0 29 da ce 3e 66 65 79 be 19 37 12 3e e8 97 b2 be
       0.40400818 -0.24355087 0.1427883 -0.3488152
0000b0 98 57 81 bd f7 90 87 3e 10 82 db bd 60 a6 be 3e
       -0.06315535 0.26477787 -0.10718167 0.3723631
0000c0 03 50 05 3e ef 79 1f 3f 57 70 c5 bb f3 53 d8 3e
       0.13018803 0.6229543 -0.006025355 0.42251548
0000d0 5c b9 12 be c1 bb 99 bd 5d f4 cb bc c7 86 aa bd
       -0.14328521 -0.07506514 -0.024896795 -0.08326488
0000e0 fb bb c5 be ef 85 27 3e 50 98 c9 3e 66 dd 97 bd
       -0.3861998 0.16359685 0.39374018 -0.07415275
0000f0 12 de ca be fb 97 ba 3e 83 77 cf 3e 6e d4 a8 be
       -0.3962255 0.36444077 0.40520868 -0.3297457
000100 c0 f8 8c be 51 67 03 3c e7 a7 dc be c4 e2 bb be
       -0.2753353 0.008020238 -0.4309685 -0.36696446
000110 b5 35 35 bf ba 99 2a be 9e 0f c4 be e6 b1 9a be
       -0.70785075 -0.16660205 -0.38293165 -0.3021385
000120 45 16 14 bf 0f 65 9e 3e 90 60 18 3f 7b 61 f5 3d
       -0.5784648 0.30936477 0.5952234 0.119814835
000130 a9 37 e8 be 13 b6 3a be d8 1e d6 be 34 c0 2d be
       -0.45354965 -0.18233518 -0.41820407 -0.16967851
000140 23 10 d5 be 29 d3 cb be 94 df 26 be 4f ca ed 3d
       -0.41613874 -0.3980954 -0.16296226 0.11610853
000150 d2 ee a2 be 72 60 c6 bd 5d f4 a8 be 49 0d 43 3f
       -0.3182283 -0.09686364 -0.32998934 0.76192147
000160 a2 79 e7 3e e6 69 01 3f f1 45 0a bf 83 e6 08 3f
       0.45209986 0.50552213 -0.5401297 0.5347673
000170 d3 d6 4f 3d 98 01 21 be 16 66 26 bf d2 4d 13 bf
       0.05074198 -0.15723264 -0.6499952 -0.5754062
000180 20 21 b3 be 45 fb 86 3d cc c1 17 3f 7b 36 79 3e
       -0.3498621 0.065908946 0.59280086 0.24337189
000190 df f2 2c 3f 6f 7e d7 bd e6 ff cf be b0 62 3c bf
       0.6755809 -0.10522162 -0.40624923 -0.73588085
0001a0 46 3a d9 3d 68 7b d0 3e c9 89 fd bc 0a 74 54 3f
       0.10606818 0.40719151 -0.03094949 0.8298956
0001b0 a1 e7 e9 3b e2 55 8b 3e 97 5a 1a bf 7f 6c 06 3f
       0.007138208 0.2721396 -0.6029448 0.525093
0001c0 1e 5c f9 3e 09 d0 8a 3e e7 92 12 bf 8f ce 43 3e
       0.48703092 0.27111843 -0.57255405 0.19121765
0001d0 ba da d6 be 64 d7 4d be fa 1a 2c 3e 72 2a 77 3f
       -0.4196375 -0.20101696 0.16807166 0.9654914
0001e0 eb f2 20 3f 8f 2d 67 be 63 67 30 bf 56 6d 07 bf
       0.62870663 -0.22575973 -0.68907756 -0.5290121
0001f0 11 46 c0 be 0f e7 c3 3e 6a 10 f6 bd 0e 50 e1 3e
       -0.37553456 0.3826222 -0.120148495 0.4400639
000200 7b c8 a5 be c0 17 ad 3e cb 41 90 3e f8 30 d3 3d
       -0.32379517 0.33807182 0.28175196 0.103120744
000210 a4 f6 13 bf 7d 6c 2b be f7 8e 83 be 0d 75 15 bf
       -0.5779822 -0.16740604 -0.2569501 -0.5838173
000220 99 60 32 bf f3 80 38 3f 08 47 ef 3e 4f d6 97 3e
       -0.69678646 0.7207176 0.4673388 0.29655692
000230 2c 61 17 3e 23 77 c5 be 37 1d bb be c5 e5 99 be
       0.14783162 -0.38567457 -0.36545727 -0.30058113
000240 be a1 f7 be 24 da f9 3e 86 a4 df be 56 03 bb 3e
       -0.48365587 0.4879924 -0.4368021 0.36525983
000250 89 47 b4 3e 42 e9 14 3e 9f 66 e2 be 22 63 01 3e
       0.35210827 0.14542106 -0.4421892 0.12635472
000260 2c 21 fd bd 97 8b ab be 01 d1 87 3d 45 ab 00 be
       -0.12359843 -0.33504936 0.06631661 -0.12565334
000270 e3 df d5 be a6 5b 2b bf 19 60 93 3e 8f 4c 5d 3f
       -0.41772375 -0.6693672 0.28784254 0.86444944

model.bigrill.fwd_rnn.cells.0.forget_gate.mlp.weight f4 [32, 170, 1, 1]
000000 48 b3 cd bc c8 72 8e be 7f 67 95 bc 68 d8 06 be
       -0.025109902 -0.27821946 -0.018237827 -0.1316849
000010 fc f5 12 3d 6a 9f eb bd 24 be 65 3e d5 f8 4d 3d
       0.03587912 -0.11505015 0.22435814 0.050286133
000020 33 b4 33 3d 6b 8c e7 bd de 14 df 3d 28 ef 44 3c
       0.043873023 -0.113060795 0.10892652 0.01201991
000030 bd b4 b5 3c ff c0 b7 3d b2 c3 ef 3b 21 56 3d bd
       0.02218091 0.08972358 0.00731703 -0.046224717
000040 dc d1 e7 3d c7 5e d2 3d ef 0b 9b 3e 43 9a 4e be
       0.113193244 0.102719836 0.30282542 -0.20176034
000050 8d 4c e6 3c e7 31 58 3d ba 4f 35 3d c7 12 03 bd
       0.028112674 0.052781966 0.044265486 -0.03200033
000060 6e 00 bf 3c aa 63 0c 3d 6f 54 15 bd 07 91 45 be
       0.023315635 0.034274735 -0.036457475 -0.19293605
000070 47 36 f6 3d 6f 72 03 be 79 02 20 be ff 23 9b 3d
       0.12022071 -0.12836622 -0.15625943 0.07575225
000080 dd 84 b8 3d 71 3d 9b bd 62 b8 6d 3c 36 45 ef bd
       0.09009717 -0.075800784 0.014509292 -0.11683123
000090 a3 c6 06 3e dc 4d 84 3e 39 33 0a 3d 3b 37 e9 bd
       0.13161711 0.25840652 0.033740256 -0.113874875
0000a0 84 1c 3d 3e ea 05 9f 3d 2e 60 c3 3d 44 60 dc bd
       0.18467909 0.077648 0.09539829 -0.10760549
0000b0 69 00 de 3d fa 9a 67 bc 32 de 46 3d e1 d5 b2 3d
       0.10839922 -0.01413607 0.048551746 0.087322004
0000c0 d0 a0 26 3e 41 d5 11 be 50 75 8f 3d b7 79 94 3d
       0.16272283 -0.14241506 0.070047975 0.07249778
0000d0 3b d1 05 3e 6a 9d 91 be b1 c1 28 bd 0c f3 75 3d
       0.13068096 -0.2844041 -0.041200344 0.06004624
0000e0 10 11 2a bc 96 61 e7 bd e3 21 d9 3d 7f e3 c8 3d
       -0.010380045 -0.1129791 0.106021665 0.098090164
0000f0 c2 6c fe bd ff 0c ce bd 63 9d 7e 3d d4 8f c4 bb
       -0.12423088 -0.100610726 0.062161814 -0.005998591
000100 1b a7 a0 bc 01 51 bf bc 7f 6b d2 3d 49 18 c5 bd
       -0.019610932 -0.023354055 0.102744095 -0.09623773
000110 27 e1 dd 3c ad d1 e7 bb 12 1f 35 be b3 a7 dc bd
       0.0270849 -0.007074556 -0.17687634 -0.107741736
000120 aa 52 f8 3d 0c ae a6 bd 9a 5d e3 3d fe b6 a2 3d
       0.12125142 -0.081386656 0.111018375 0.07945059
000130 66 86 21 bb d0 4e 81 be 54 ef be bd 81 96 df bd
       -0.0024646758 -0.25255442 -0.09322992 -0.10917378
000140 9d b7 3e 3c 26 8e a2 3c b7 c7 fb 3c 36 7c e0 3e
       0.0116404565 0.019843172 0.03073488 0.43844765
000150 3d 82 78 3d d5 27 e4 3d 75 3b 88 3e 36 33 a0 bb
       0.06067108 0.1114041 0.26607862 -0.0048889173
000160 f7 98 94 bc ed dc 09 bc ce 74 00 3e f4 49 4c 3d
       -0.018139346 -0.008414489 0.12544557 0.049875215
000170 2a 27 23 bc 8e 43 c9 3e 78 87 d2 bd 81 66 4e be
       -0.009958068 0.39309353 -0.10279745 -0.2015629
000180 60 a9 5e bc 2d 24 b4 bd 84 10 17 bd d1 58 9f 3c
       -0.013590187 -0.087959625 -0.036880985 0.01945153
000190 a2 3f 3c 3e 32 90 20 bd 89 8e 97 3d 38 84 3e bd
       0.18383649 -0.039200015 0.07400233 -0.046512812
0001a0 92 f4 47 bd 77 bd 83 be 8a 63 cd 3c c4 24 01 be
       -0.048817225 -0.25730488 0.025071878 -0.12611681
0001b0 7d 8f c2 3d 9c dc b7 3b d7 e4 c8 3b e4 22 44 bd
       0.095000245 0.0056110155 0.0061307955 -0.047884837
0001c0 1f 83 61 3d 1d 6b 85 be e4 0d 73 bd fe a9 bd 39
       0.055056687 -0.26058283 -0.05933942 0.00036175543
0001d0 9a 69 8c 3d 4d f2 a3 3d af 70 04 3e ab 49 29 3d
       0.068560794 0.080051996 0.1293361 0.04133002
0001e0 1b 07 78 3e 7c da 14 be b7 40 b9 3d 78 d4 41 3d
       0.2422146 -0.1453647 0.090455465 0.047321767
0001f0 13 1f 65 3c c5 d3 ae 3b 5a a9 41 3e c6 7a f6 bd
       0.013984459 0.0053353035 0.18912259 -0.12035136
000200 9b 23 01 bc 5e 4b c3 bd 0e cc cc 3d 48 14 53 3e
       -0.007882024 -0.095358595 0.09999858 0.20613205
000210 00 46 93 3d bb a5 b3 3d 90 d5 6b 3d d2 ab 89 bd
       0.07191086 0.08771845 0.057576716 -0.06722225
000220 f0 c0 e2 3d 8f 51 0f bc 58 32 d2 3d 4e 2b 5b 3c
       0.11071956 -0.008747472 0.102635086 0.013377024
000230 de 5d 9f bd 04 08 52 bd 8d ac 50 3d 71 fa 63 bd
       -0.077815756 -0.051277176 0.050945807 -0.05565876
000240 d1 13 0c 3e bd a7 78 3d 39 1c 89 3d 21 35 0e bc
       0.13679434 0.060706843 0.06694836 -0.008679659
000250 7f b5 28 3e 86 a8 ed 3d 11 0a 53 39 ce 04 dc bd
       0.16475485 0.11604409 0.00020126278 -0.10743104
000260 4b 44 89 bd 58 95 ef bd 0c fe 80 3d 75 2f 27 be
       -0.06702479 -0.11698407 0.062984556 -0.16326697
000270 a1 24 81 3c 9e ff 4f 3e d3 11 ed 3d 45 36 7e bd
       0.015764536 0.20312354 0.11575665 -0.062063474
000280 dd ae f9 3d 40 8b 3c 3b e2 96 ec 3d 47 d7 6b 3c
       0.12191556 0.0028769523 0.11552216 0.014394588
000290 32 e0 c9 3d 10 b3 23 3e 16 c4 3c 3d c9 0d a3 3d
       0.09857215 0.15986276 0.04608544 0.07961614
0002a0 a0 05 97 3d 68 13 b7 bd 67 10 44 bd 29 31 7a be
       0.0737412 -0.08939248 -0.047867205 -0.24432816
0002b0 63 ea 39 3d 19 b5 94 bd f5 8e e0 3c 3d 15 81 3d
       0.045389544 -0.07261104 0.027411917 0.06302879
0002c0 27 a7 7c bd a6 1c 11 3e 3d 0b 92 bc e9 8d d1 bd
       -0.061682846 0.14171085 -0.017827624 -0.10232145
0002d0 01 dd 4a 3e 49 dd c2 bd 1a a8 07 3d 00 c3 04 3e
       0.19810869 -0.09514863 0.0331193 0.12965012
0002e0 e8 95 ee 3d 15 a4 2c bd 1f 98 18 3e 5d ba d9 3d
       0.11649686 -0.04214867 0.1490178 0.10631249
0002f0 e1 8f bb 3c 80 89 8c bd 4f 16 61 be d2 77 90 bd
       0.022895755 -0.068621635 -0.21981166 -0.07054104
000300 28 72 76 3e 58 a5 d5 3d b5 d5 63 bc e0 80 3f 3e
       0.24066985 0.104319274 -0.013905932 0.18701506
000310 21 1d 97 bd 2b 37 32 bd 1a 07 d0 bd fd f0 33 3d
       -0.07378603 -0.043509644 -0.101576045 0.043930996
000320 b7 d9 c5 3c 84 f7 a9 3c 27 cd f2 3d 3b f6 d9 bc
       0.024151666 0.020747907 0.11855536 -0.02660667
000330 a9 0f f7 3c 75 ae 67 be 4c ac 1e bd 13 bc 22 be
       0.030158835 -0.22625144 -0.038738534 -0.15892057
000340 ea 68 6b bd 6e fc 26 be bc 8a 1a 3d a8 67 4a 3e
       -0.0574731 -0.16307232 0.037729964 0.19766104
000350 71 28 bc 3b 95 8f 2f be f8 12 d5 3d 0e 61 87 bd
       0.0057421257 -0.17144616 0.104040086 -0.066103086
000360 8e 6d f1 3c 7c 17 ba 3d 5c ba 1e 3e 7c 23 48 3c
       0.029471185 0.090865105 0.15500778 0.012215491
000370 b7 78 ae 3d 95 f8 18 bd 6d 0a 03 3e bf 86 58 be
       0.08519118 -0.03734644 0.12796946 -0.21145152
000380 a6 73 12 be 0c 82 06 be 19 f1 e5 3d 6a 6a 0a 3d
       -0.14301929 -0.13135546 0.11227626 0.03379289
000390 fa 4b 58 bc 92 e1 81 3d 39 31 45 bd b8 5a 10 be
       -0.013201708 0.06341852 -0.048142646 -0.14097106
0003a0 1a f0 05 be 6c 4c a4 bc 0c bc 06 3e de f2 97 3c
       -0.13079873 -0.020055972 0.13157672 0.018548425
0003b0 5d 9d 64 3e c4 f9 64 bd 83 3f 33 3e 0f d5 39 be
       0.22325654 -0.055902258 0.17504697 -0.18147682
0003c0 15 10 3b 3e 85 48 2f 3c de 47 68 bd 3f 38 71 3d
       0.18267854 0.010698442 -0.056709163 0.05889153
0003d0 88 84 68 bd c3 90 bc bd 51 11 ff 3d 8e 3f a6 3d
       -0.056767017 -0.092072986 0.12454475 0.08117591
0003e0 b4 f3 05 3e f4 e8 52 be 0b 55 c0 3d 83 64 99 3e
       0.13081247 -0.20596677 0.09391221 0.29959497
0003f0 36 99 66 bd 44 93 5f 3e 5d 5a b3 bd 07 3d 6f be
       -0.056298457 0.21833521 -0.0875747 -0.23363124

model.bigrill.fwd_rnn.cells.0.forget_gate.mlp.bias f4 [32]
000000 ed 4b 86 bd 8d 2b bc bd a9 44 6f bd 7d 2e 20 3e
       -0.065574504 -0.09187994 -0.05841509 0.15642734
000010 be cd 53 3c f6 1c 5c 3d 5b 3b 5d bd 1f 7e 0a 3e
       0.012927471 0.053738557 -0.054011684 0.13524674
000020 e1 4b 47 be 7a 9d 29 3d fe 62 10 bd ad 2c eb bd
       -0.1946254 0.041409947 -0.035250656 -0.114831306
000030 50 79 04 3d 45 a7 b2 bd a7 af 07 be 1d e1 f4 3d
       0.032342255 -0.087233104 -0.132506 0.119569995
000040 eb 3e 9d bb 4d 86 0b 3e 9c 5c 97 3d 4e 5c 61 3d
       -0.00479876 0.1362545 0.07390711 0.05501967
000050 8f 3d f4 bc 03 e7 f2 3d 28 96 2d 3d 37 91 0a 3d
       -0.02981451 0.11860468 0.04237953 0.033829894
000060 a7 ef ea bd aa 5d 20 3d 96 5c 95 3c 61 20 be bd
       -0.11471491 0.039151825 0.018232625 -0.092835195
000070 47 d2 5a be 2a a7 4b bc 9c 67 4a be 7f 8d 84 3c
       -0.21369277 -0.012429992 -0.19766086 0.016180752

model.bigrill.fwd_rnn.cells.0.update_gate.mlp.weight f4 [32, 170, 1, 1]
000000 77 9b 5a bc 77 a1 e2 bd 11 7a ba bd 4d 11 3a bd
       -0.01334273 -0.11065953 -0.091053136 -0.045426656
000010 27 11 1c bd ab 87 df bd 74 a5 ae 3d 52 eb 87 bd
       -0.038102295 -0.109145485 0.085276514 -0.06636681
000020 e8 01 40 be da 72 4a 3e 93 fc 64 bd e1 4b 84 3e
       -0.18750727 0.19770375 -0.055904936 0.2583914
000030 5c 31 ad bd 16 29 44 be 96 ce 17 3c 65 c8 d4 be
       -0.0845668 -0.19156298 0.0092655625 -0.4155914
000040 1d a3 08 3e 9e 4f 80 3c f0 19 dc be 22 66 bd 3e
       0.13343473 0.015662964 -0.4298854 0.36991984
000050 e9 17 9e 3e 57 4b 7b 3d 71 d6 c2 bd f5 e6 42 be
       0.30877617 0.061351147 -0.09513558 -0.19033416
000060 fe c9 4d be 5b d4 cf be b5 8e 29 3e 91 ff 68 3e
       -0.20096585 -0.40591702 0.16558345 0.22753741
000070 63 6d fc 3d ab bc 76 be 7c 60 96 be 0e eb 24 be
       0.12325551 -0.24095409 -0.29370487 -0.16105291
000080 54 96 b9 bc 51 d5 ac 3d 88 a3 80 bc 7c 7b 1b 3c
       -0.02265469 0.084391244 -0.015702978 0.00948989
000090 60 85 5c be 60 99 57 3e 2a fc ab 3b c7 5c 3d bd
       -0.21535254 0.21054602 0.005248566 -0.046231057
0000a0 d2 bd 40 3c a9 12 54 bd 85 c7 ab be 69 1d 91 bd
       0.011764007 -0.05177561 -0.3355066 -0.07085688
0000b0 26 13 04 be 89 a6 62 3e 65 46 08 3d 1d 3e 01 be
       -0.1289793 0.2213384 0.03327026 -0.1262135
0000c0 11 d6 b5 3d 4e 88 5a 3e 3a 82 25 3e 4d 5c 52 3e
       0.088787206 0.21341059 0.16162959 0.20543022
0000d0 f3 e0 1f be 5f 59 ca 3e 71 a4 cc 3e 95 c5 5f bc
       -0.15613155 0.3952131 0.3996921 -0.013657947
0000e0 a0 bd c7 bd d4 91 b4 bc 70 c3 1d be 72 a1 4a be
       -0.09752965 -0.022042193 -0.15406585 -0.19788149
0000f0 0f 52 0e be b6 c7 0d 3e 71 5a 01 3e 65 57 7f be
       -0.1389849 0.13845715 0.12632157 -0.24935682
000100 4a 44 b5 be 22 b3 b1 be 38 c8 07 be d6 19 53 3d
       -0.35403663 -0.3470698 -0.13259971 0.05153831
000110 d8 f8 cd 3a 41 f8 be bc 60 83 45 bd 29 d3 0a 3d
       0.001571442 -0.023311736 -0.048220992 0.033892784
000120 0f c1 a6 bd 66 36 35 be ee 38 11 3e 5f a7 16 bd
       -0.08142292 -0.17696533 0.14181873 -0.03678071
000130 cd 27 30 be c0 16 53 bd 94 5a a2 be 8c 2f 3d 3e
       -0.17202683 -0.051535368 -0.3170973 0.18475169
000140 59 45 af 3c d1 9a fa 3c 44 f0 b4 3d b9 70 a9 bd
       0.021395372 0.0305914 0.088348895 -0.08273453
000150 33 e8 47 3e d2 e9 34 3e 6a d6 3f be 33 2f 87 3e
       0.1952217 0.1766732 -0.18734136 0.26403198
000160 73 82 d3 3e 17 9b 28 3d a0 46 44 be 16 cc 01 3c
       0.41310462 0.04116353 -0.19167566 0.007922193
000170 d7 46 a7 bd 77 9b d1 bd 52 ac a2 bd 3f cf 84 3d
       -0.081678085 -0.10234731 -0.07943024 0.064848416
000180 cc ad 5e be 9c 1a 62 be d3 ef 4b bc 38 a5 5d be
       -0.21745986 -0.22080463 -0.012447315 -0.21645057
000190 0e 91 68 3e c3 63 76 3d c9 e1 aa 3c 4c 68 3e 3e
       0.22711584 0.060153734 0.020859616 0.18594474
0001a0 61 fd 42 be 67 1f 73 3e cc 53 a3 bd 24 9c 74 be
       -0.19041969 0.23742448 -0.07974967 -0.23887688
0001b0 52 eb 93 3e 50 b4 30 be c0 67 d4 be c6 7d d0 3c
       0.28890473 -0.17256284 -0.41485405 0.025450598
0001c0 7d d7 ef 3d c2 ae 54 3e aa 63 05 be 2f 8a 0c be
       0.11711023 0.2076979 -0.130263 -0.13724588
0001d0 d6 d7 ec bd cd 99 dd 3b a3 ff 80 3e 16 2b 9a bc
       -0.11564605 0.0067627192 0.25195035 -0.018819373
0001e0 3b b9 f2 bc 77 8f 89 3e 51 37 88 3e ec d2 16 bd
       -0.02962934 0.26867267 0.26604703 -0.036822245
0001f0 38 05 dd bd 25 cd b2 bd a2 db ee be 0f fc d4 bd
       -0.10792011 -0.087305345 -0.46651942 -0.10399639
000200 2c 78 e0 3c 86 12 84 3d 14 6e 7f bd 77 26 9e be
       0.027401052 0.064488456 -0.062360838 -0.3088872
000210 89 03 1f be 78 25 4a be 57 ff 4a bd b6 70 07 3c
       -0.15528692 -0.19740856 -0.049559917 0.0082666185
000220 f1 c7 be 3b 22 20 0d 3e c4 19 2b be 02 e6 30 bd
       0.0058221747 0.13781789 -0.16709048 -0.043188103
000230 71 b7 92 be d0 1f 6d bd 87 7a 3d 3d b5 81 ff bc
       -0.2865558 -0.057891667 0.04625943 -0.031189779
000240 a8 0e 77 be 1b d0 e8 3d b8 a5 12 3d c7 42 d3 3e
       -0.24126685 0.11367818 0.035802573 0.41261885
000250 90 20 d6 3c 5f fc c1 bd 7b 87 32 bc eb 57 98 be
       0.026138574 -0.09471964 -0.010896559 -0.29754576
000260 07 ec da 3d 67 d0 ab 3e 94 ab 8d bd 3b bd d5 3e
       0.1068955 0.33557436 -0.069174916 0.41745934
000270 34 87 c7 3e 30 e3 3a 3e 3f 05 d3 be c6 7d 88 bd
       0.3897034 0.18250728 -0.4121494 -0.066646144
000280 70 f8 65 be 2e 2c 6b be 4e 4e 15 be d4 8f 8e 3d
       -0.22458053 -0.22966072 -0.14580652 0.06961027
000290 fe 2f ae be 6d 0c 26 be 19 2c 84 be a0 31 7d bd
       -0.3402099 -0.16215678 -0.25814894 -0.061814904
0002a0 1b f7 c4 3e fd ca 10 be 01 23 83 bc 7f 88 04 bc
       0.38469777 -0.14139934 -0.016007902 -0.008089184
0002b0 7c 21 32 be 2a 43 a2 bd 4b e1 f3 3d ce 61 df bd
       -0.17395586 -0.07922967 0.119082056 -0.10907327
0002c0 7a 32 18 3d 17 af 94 bd 17 81 03 be cb e5 db 3d
       0.037157513 -0.07259958 -0.12842213 0.10737189
0002d0 5f 86 04 3d d0 e6 c1 3e 2f 37 1b bd 83 1c 74 bd
       0.03235471 0.37871408 -0.037894424 -0.059597503
0002e0 f1 1f 17 be 17 f7 6f be ed 02 28 3e 21 f1 8c 3e
       -0.14758278 -0.23434101 0.16407366 0.27527717
0002f0 2b 1a c2 3c b2 ba 8b 3e 96 69 2b 3e 9c 90 8a bd
       0.023694118 0.27290875 0.16739497 -0.06765863
000300 ce 41 c6 be 9d 6d 2f 3e 28 86 46 be e4 03 87 be
       -0.3872208 0.17131658 -0.19387114 -0.26370156
000310 6d f2 1b bc a6 94 12 3e 2c 34 96 bc 12 5a c8 be
       -0.009518248 0.14314517 -0.018335424 -0.39131218
000320 27 d0 fb bd 38 17 6d be 68 90 a1 3d 2e dc 09 bd
       -0.12295561 -0.23153389 0.078888714 -0.033657245
000330 bb d9 8e 3b 12 39 4e 3e 21 7b 96 be fe 55 0e 3e
       0.0043594516 0.20138958 -0.29390815 0.13899991
000340 3d b8 3c be e8 12 d8 3c 9a 46 ff bd 1c 63 9f 3d
       -0.18429656 0.026376203 -0.12464638 0.077825755
000350 3d 44 95 be 54 b3 10 3d 9c ad 1e bc 4e 7a c6 3e
       -0.29153624 0.03532727 -0.009684946 0.38765186
000360 7c d9 22 be 1c 1f 3c be d3 b4 92 bc ca 6a 5d bd
       -0.15903276 -0.18371242 -0.01790849 -0.05405692
000370 29 de fb 3e 3e 54 13 3e 9c e5 26 be 93 79 da 3e
       0.49192932 0.14387605 -0.16298527 0.4267088
000380 76 41 e8 3d 29 ea c8 bc 83 17 1b be bb 2a 36 3d
       0.11340611 -0.024525719 -0.15145688 0.044474345
000390 85 ee 49 be 4b 48 0e be f2 b0 38 bc a0 8e 8f 3d
       -0.19719894 -0.13894765 -0.011272656 0.070096254
0003a0 c7 fc f0 bd 4d 26 db be 42 eb 5a be 77 0b 68 be
       -0.117669635 -0.4280266 -0.21378806 -0.22660623
0003b0 06 df d3 bd 3b 1d 3f 3e 58 04 c9 3b ef b6 25 3e
       -0.10345273 0.18663494 0.006134551 0.16183065
0003c0 01 15 91 be e5 c8 5d 3e 91 eb 98 bd f2 d5 9c bd
       -0.28336337 0.21658666 -0.07466806 -0.07657994
0003d0 6b 20 fb bd 9e b4 95 3d d3 28 84 be 14 97 c4 3d
       -0.122620426 0.073098406 -0.25812396 0.09599128
0003e0 35 f3 a5 bd ac 21 d4 3e 22 2d 0e 3b 11 7f 02 be
       -0.08103029 0.4143194 0.0021694382 -0.12743784
0003f0 ac 18 ff 3d f9 c5 ac be 3c c6 a4 3c eb 18 3b 3e
       0.12455878 -0.3374479 0.020114057 0.18271224

model.bigrill.fwd_rnn.cells.0.update_gate.mlp.bias f4 [32]
000000 21 cb 72 3e 81 0b a1 3e b3 da 1c 3e dd fd 2f 3c
       0.237103 0.3145409 0.15317802 0.010741678
000010 ee 32 74 3e e2 81 3c be d6 89 1c 3d 1c f3 4e be
       0.23847553 -0.18408921 0.038217388 -0.20209926
000020 0f b1 d7 bd 8c c7 51 3e de 54 79 3d 86 5b bc bd
       -0.10531818 0.20486277 0.06087195 -0.09197144
000030 50 09 20 be 67 db 47 3e 0f bf 7f bd 47 0a ae 3b
       -0.15628552 0.19517289 -0.062438067 0.0053112837
000040 b7 4e be 3e 76 b6 22 3e 2b 39 8e be 1f 25 1a 3e
       0.3716943 0.15889916 -0.2777799 0.15053223
000050 89 e8 ec bd 1c 8d 3d bd 6d cf 2b 3e 46 1d c4 3d
       -0.1156779 -0.04627715 0.16778345 0.09575896
000060 65 68 b2 3d 61 08 a0 bb db a5 8b bd 17 8c 0e 3e
       0.08711318 -0.0048838113 -0.06818744 0.13920628
000070 b4 a0 a8 3b b8 52 11 3d 82 5b 83 3d cb 2c 10 3e
       0.0051461104 0.035479277 0.06413938 0.14079587

model.bigrill.fwd_rnn.cells.0.c_gate.mlp.weight f4 [32, 170, 1, 1]
000000 19 b9 ec bc 0f 81 21 be 65 62 0c bd 2a eb 7c 3d
       -0.028896855 -0.15771888 -0.034273524 0.061747707
000010 2f 86 bb bd 30 8b 2f 3e a5 aa d3 bd 5a 66 7e bd
       -0.09156453 0.1714294 -0.10335282 -0.06210933
000020 b5 59 0b 3d 57 bd 98 3d 9a 6c 8f bd cb e7 a5 3d
       0.0340211 0.07457989 -0.07003136 0.081008516
000030 b4 eb 2d 3d 4d 8e 29 3d 04 10 44 bc 8b 65 34 3e
       0.042461112 0.041395474 -0.011966709 0.1761686
000040 45 df b9 bd 19 0d 96 bd 7f 8f ca bc e5 f0 23 3e
       -0.090757884 -0.07326717 -0.024726627 0.16009863
000050 4e 40 06 be da 22 65 3d f1 ae c0 3b c0 17 8e bd
       -0.13110468 0.05594144 0.0058802296 -0.06938124
000060 92 9e 04 be 96 a3 13 3e 84 62 d9 3d ad 1c 8e 3d
       -0.12951115 0.14417872 0.106144935 0.06939063
000070 cb 20 94 bd 66 06 11 be b7 33 21 bc 8d 12 b5 3d
       -0.07232817 -0.14162597 -0.00983899 0.08841429
000080 a3 46 36 be b0 12 02 3c 63 d0 a9 3c ff dd c7 bc
       -0.17800383 0.007939026 0.02072925 -0.024397848
000090 7b cf 8b 3d ee 9d c8 bc 99 9e 83 bd 39 3c 05 be
       0.06826683 -0.02448937 -0.064267345 -0.13011254
0000a0 84 82 86 3d 09 9e 1e 3d c6 fa fc 3d a1 81 b4 bc
       0.06567863 0.038724933 0.12352519 -0.022034468
0000b0 2c 98 59 3c 8a af 68 bc ea 50 e9 bc b7 47 a2 b9
       0.0132809095 -0.014202008 -0.028480966 -0.0003095248
0000c0 0b a5 88 bd e5 df 93 bd 29 d1 8c bd b1 4b 69 bd
       -0.066721044 -0.07220439 -0.06875832 -0.05695695
0000d0 35 69 61 bd ae 74 1f be a7 cc 9b bd 3c 21 08 3e
       -0.055031974 -0.15571854 -0.07607394 0.13293928
0000e0 e8 90 79 be 0c 18 00 3d 7f 7c 0a 3e 5f 93 14 be
       -0.24371684 0.031272933 0.13524054 -0.14509343
0000f0 74 cc 63 3d 8c 0f 74 3c bd 42 e3 3d 7c d0 38 3d
       0.055614904 0.014896285 0.11096714 0.0451207
000100 dd 00 f0 bc 3c 71 08 3e f9 66 58 3d 45 29 d9 bd
       -0.029297287 0.13324445 0.052832577 -0.10603575
000110 4c 25 22 3b 9f 86 19 bc 55 b2 9a bd bc 1d 1a 3d
       0.002474147 -0.009370475 -0.075535454 0.037626013
000120 5a 5d 9f bc fe ae 2b 3d 33 9c 88 bd 6b ca 1e be
       -0.019453693 0.041914932 -0.06670418 -0.15506904
000130 ab b3 63 3d f4 b3 93 3d c5 05 74 3c 08 23 bb bc
       0.055591267 0.07212058 0.014893954 -0.022843853
000140 65 ae c4 bb fd 3a ef bc 26 36 88 bd ec 01 c3 3c
       -0.0060022348 -0.029202932 -0.06650953 0.023804627
000150 f9 07 d0 3d c0 aa 6c 3d 4d a0 c7 bc d5 40 cc 3c
       0.10157771 0.057780027 -0.02436843 0.024933258
000160 e6 6b 80 bd 92 7f e6 bc 5d 94 d1 3d 32 a3 e3 bb
       -0.0627058 -0.028137002 0.10233376 -0.0069469446
000170 35 71 72 bd e1 ee e0 3d 4b 52 e5 3b 8d d5 b0 3b
       -0.059189994 0.109830625 0.0069983355 0.005396551
000180 78 79 cd bc 77 60 1d bd 63 fc 69 bd 24 8d 57 bd
       -0.025082335 -0.038422074 -0.05712546 -0.052624837
000190 25 c3 3d 3d a5 ae 16 3d ef d4 d2 3c fe 41 65 bd
       0.046328682 0.036787648 0.0257363 -0.05597114
0001a0 1a 7d 7d 3b 6f c5 a0 3d 35 74 59 3d e3 cc fe bb
       0.0038679303 0.078501575 0.05308934 -0.0077758892
0001b0 49 8b b0 3d a6 86 f1 bc a8 91 1f 3d b5 bb 91 3c
       0.086203165 -0.02948315 0.038957268 0.017789701
0001c0 57 27 9f 3c 62 30 ba 3b fa 43 10 be 36 19 b6 3d
       0.019427938 0.005682037 -0.14088431 0.08891527
0001d0 8a f0 07 3d 6d c9 94 bc 61 24 4b bd 28 ad 22 bc
       0.03318838 -0.018162454 -0.04959524 -0.009928979
0001e0 46 78 3e bd 76 92 0a bd 3a 47 c0 3c 32 af 47 bd
       -0.04650142 -0.033831082 0.023471463 -0.048751064
0001f0 0f 65 4a bd 55 20 94 3d 4c f1 e8 3d e2 67 39 be
       -0.049412783 0.07232729 0.11374149 -0.18106034
000200 ad b4 f9 3c cc 65 9c bc 74 be 94 bc 8a b9 1a 3e
       0.03048166 -0.01909151 -0.018157221 0.1510984
000210 d7 6f b0 3c d7 b1 45 bd 73 47 0f bd dd 10 91 bc
       0.021537704 -0.048265304 -0.03498025 -0.017708236
000220 ef db e1 3a 54 d0 0e be 0f e0 a6 bd 71 ec 08 3e
       0.0017231683 -0.13946658 -0.081482045 0.13371445
000230 f6 ef 92 bd 31 0f 44 3e 40 a5 71 be 68 2f 57 3d
       -0.07174675 0.1914642 -0.23598194 0.052535444
000240 4d ed 12 bd 30 cf 05 bd 7c 2c 70 3d e7 f0 78 3d
       -0.03587084 -0.032668293 0.058636174 0.060776617
000250 1b 46 cb bd 9a dd 13 bd 61 54 64 3d 9e 61 2c 3e
       -0.09925481 -0.036100008 0.055744532 0.16834113
000260 8c 8c ff 3c 1e 2f e5 3d 00 42 39 3b 01 70 aa 3c
       0.031194948 0.111906275 0.0028268099 0.02080536
000270 5e 64 9a bc 14 5f dc bc f9 1f a9 3e 7e 5a ff 3d
       -0.018846687 -0.026900806 0.33032206 0.12468432
000280 ad b5 19 be e8 fd 34 3e c7 70 83 bd 34 7f ea bc
       -0.1501071 0.17674983 -0.06417995 -0.028625108
000290 70 8d 18 be c9 11 35 be 16 51 25 3d be 04 d3 bc
       -0.14897704 -0.17682566 0.040360533 -0.025759097
0002a0 f6 21 a0 bd db 3c a7 3d be ad 42 bd 2a 32 91 bd
       -0.078189775 0.08165904 -0.047528975 -0.07089646
0002b0 62 03 54 3d ae 4f 09 3d 84 14 d8 bc 35 16 f8 3c
       0.05176104 0.033523254 -0.02637697 0.030284027
0002c0 77 50 44 3c a0 02 dd bd 20 46 d9 bc fb de f0 3d
       0.011982075 -0.10791516 -0.026522696 0.1176128
0002d0 54 da 81 3d ca 9d 20 3d c2 6f f6 3c 16 14 2d 3d
       0.06340471 0.03921298 0.030082587 0.042255484
0002e0 dc 6e a2 bd 18 49 ad bd 23 70 0b be 48 46 c1 bd
       -0.07931301 -0.08461207 -0.13616996 -0.09437233
0002f0 1b d5 12 be b2 bb 11 3e 30 bf cc bd 06 6c 87 bd
       -0.14339106 0.14231756 -0.099974036 -0.06612401
000300 92 70 98 bd 0c b9 d6 bd d4 2a ae bc 8a 56 2a 3b
       -0.07443346 -0.10484514 -0.021260656 0.0025991523
000310 ff b5 fc bc 3c d2 85 3d 43 de 97 3d 74 c3 b7 bd
       -0.030848501 0.0653424 0.0741544 -0.089728266
000320 63 7a e5 bd ba e9 bd 3d 70 bb 8a 3d ef c8 fa 3b
       -0.11204984 0.092730954 0.06774032 0.0076533477
000330 4d e5 f8 3a 3d 20 9b 3c 98 8d d5 3d 26 0c 9e 3d
       0.0018989235 0.01893627 0.104273975 0.07717161
000340 cd 04 1a be c6 4b 39 be 65 12 68 bd 7d c4 0d be
       -0.15040894 -0.18095312 -0.056658167 -0.13844486
000350 9d 39 23 bb 17 68 2a 3d f0 c2 47 3d c4 41 a3 3d
       -0.0024906166 0.041603174 0.04876989 0.07971528
000360 89 c3 07 3e 7a 29 05 3d ea 87 b9 bd 3c a3 5f bd
       0.13258184 0.03251026 -0.09059127 -0.05459903
000370 41 40 cf bd 20 df df bd 4c cf 12 bc 48 d2 1e be
       -0.10119677 -0.109312296 -0.008960556 -0.15509903
000380 2c f5 9f bd ee 84 09 bd be 2c 6f be ba 6c d7 bd
       -0.07810435 -0.033574037 -0.23356912 -0.10518785
000390 ab fa be 3d cc 3a 62 be b4 e3 be 3d b8 d1 f3 3d
       0.09325155 -0.22092742 0.09320775 0.11905235
0003a0 73 63 fb 3d 71 47 90 3c 27 37 ea 3c ff 14 ff 3d
       0.12274828 0.01761219 0.028590752 0.124551766
0003b0 51 d5 b8 3c 7d 25 6e bd d3 10 32 3c 21 9d a3 bd
       0.022562655 -0.05814122 0.010868269 -0.07988954
0003c0 fb 0e d0 3d 09 19 94 bd 50 b9 9b bd a5 74 d7 bd
       0.10159107 -0.072313376 -0.07603705 -0.10520295
0003d0 30 6f f9 3d cc 36 8c 3c 76 e6 96 3d 2c 52 8b 3d
       0.121794105 0.017115973 0.07368176 0.068027824
0003e0 1c b6 bc 3d 1f 0d 82 bd 24 6d 38 3c b1 96 3d 3d
       0.09214422 -0.06350159 0.01125649 0.04628629
0003f0 29 82 d2 3c 8a 59 61 bc 29 35 ea bc 2f b0 b6 bc
       0.02569683 -0.013754258 -0.028589802 -0.022300808

model.bigrill.fwd_rnn.cells.0.c_gate.mlp.bias f4 [32]
000000 d5 9a b5 bd 14 c9 3d 3c 06 01 7b 3d 63 33 3d 3e
       -0.088674225 0.011583585 0.061280273 0.18476634
000010 47 be 00 bd 12 b8 a5 3c 75 a7 44 bd 28 b8 5c 3c
       -0.031431463 0.020229373 -0.048011262 0.013471641
000020 4b 01 c4 bd b9 93 26 3e 68 94 aa bd ff e8 25 be
       -0.09570559 0.16267289 -0.083290875 -0.16202162
000030 10 72 7c bd c0 b7 8f bd bd 04 8a bd 25 7c f3 bd
       -0.061632216 -0.070174694 -0.06739185 -0.11888913
000040 62 10 b1 bd cf 51 a5 3c 1e 5c 5d 3e 40 ad 1e 3d
       -0.08645703 0.020180611 0.21617171 0.038739443
000050 9e 5f 77 be 01 40 80 3d 8b 2a af bd 39 1c 51 be
       -0.24157569 0.06262208 -0.08553036 -0.20420922
000060 55 a7 39 bd b6 87 54 3d e4 39 2a 3e 31 02 7b 3d
       -0.045325596 0.051887237 0.16623646 0.061281387
000070 67 d7 ea bd de a7 d7 bc d5 a0 ee bd 56 4b b4 3a
       -0.11466866 -0.026325163 -0.1165177 0.0013755362

model.bigrill.fwd_rnn.first_stage.weight f4 [1, 32, 1]
000000 df 4c 1c 3f 59 6f 27 be 0d b1 58 bf 8c a1 1b 3e
       0.61054796 -0.1635107 -0.8464516 0.15198344
000010 1b c0 21 bf 0d 8f 54 bf 48 41 48 3f f4 23 5f 3f
       -0.63183755 -0.8303078 0.7822461 0.87164235
000020 b5 c1 50 3f 79 39 15 bf 4e 0a 40 3f 36 44 5a 3f
       0.81545573 -0.5829082 0.75015724 0.8526033
000030 92 2c 46 bf 66 81 13 bf 55 85 82 bf 9f cf 5d bf
       -0.7741176 -0.5761932 -1.019694 -0.8664493
000040 f2 64 26 bf 62 c9 02 3f ec ff 69 bf 74 42 3d 3f
       -0.6499778 0.51088536 -0.9140613 0.73929524
000050 83 a1 86 3f be d5 59 bf 16 0e 55 3f a3 e4 a9 be
       1.051804 -0.8509177 0.8322462 -0.33182248
000060 54 01 4a 3f 1f 8a 56 3f 63 91 b5 be 54 9b 27 3f
       0.78908277 0.83804506 -0.35462484 0.65471387
000070 d2 bc 66 3f 04 3e 3e 3f 5d b5 e3 3e 8f 7e 3b bf
       0.90131867 0.7431338 0.44474307 -0.7323999

model.bigrill.fwd_rnn.spatial_decoder.lin_in.weight f4 [32, 34, 1]
000000 66 55 28 3c df 95 cf 3c 03 a9 a7 bc a7 cd 3f bc
       0.010274267 0.025340019 -0.020466333 -0.011706746
000010 5a fa 3b be 0a 56 df 3e 74 37 4c be 83 8c c2 bd
       -0.1835722 0.4362033 -0.19943029 -0.09499457
000020 c8 6d 02 be 29 63 bd 3d cf 60 93 be df 8e e0 bd
       -0.1273719 0.09247429 -0.28784797 -0.109647505
000030 7f 9e 8b be 9d ad 89 3d ce f6 38 3e ef 7b 18 3f
       -0.2726936 0.06722567 0.18062899 0.5956411
000040 5a 5c 74 3c 88 9d a6 3e e5 7b 84 be 18 bb 97 3e
       0.014914596 0.32542062 -0.25875774 0.2963493
000050 84 c5 cb 3d e4 d4 16 be da 4f d9 3e e4 3d 54 bd
       0.099497825 -0.14729649 0.42443734 -0.051816836
000060 e3 a1 62 3d 68 3a 71 3e 9e cd 87 be 6d 85 6c be
       0.05533017 0.23557436 -0.2652406 -0.23097773
000070 08 40 ac bd bb 6f 2f be ed 0a f8 bd 55 1f 5e be
       -0.084106505 -0.17132466 -0.12111459 -0.2169164
000080 ba 84 cc be 7e 97 33 3e 0c ce b4 bc b3 23 f6 bd
       -0.39945012 0.17538258 -0.022070907 -0.12018528
000090 7c df 56 be db 5c a5 3c ad 19 31 be 58 47 85 3e
       -0.2098369 0.020185879 -0.17294951 0.26030993
0000a0 9f 89 fd be af ce e9 bd 74 5b 4c be 15 8a b0 3c
       -0.4951906 -0.11416375 -0.19956762 0.021550218
0000b0 d8 fa 53 bd 26 1e 7a 3e da 3a 97 bd 80 06 d2 3d
       -0.051752895 0.24425563 -0.07384272 0.10255146
0000c0 08 cf 2f be f4 4f 91 bd 09 dd 61 3e 02 b4 91 3e
       -0.1716882 -0.07095328 0.22056974 0.28457648
0000d0 6d 5f 87 be 64 08 a1 3d ce 17 c3 3d f1 b9 1a be
       -0.26439992 0.078629285 0.09526025 -0.15109994
0000e0 2b 34 64 3e 9a 8e 5d 3e 22 e1 17 be 2d 27 e6 3d
       0.22285526 0.2163643 -0.14831975 0.11237941
0000f0 ab 02 5f be 50 64 57 3d f2 46 2f be 29 87 e5 3c
       -0.21778361 0.0525859 -0.17116907 0.028018551
000100 23 83 a8 bd 98 c8 46 bd 6d 2e a2 bd 0b 0b e5 3d
       -0.08228137 -0.048531145 -0.07919011 0.11183747
000110 91 62 1c 3e 89 4e 39 3e 89 ea 06 3e fd 1a ad 3d
       0.15271975 0.18096365 0.13175406 0.08452413
000120 b0 89 b9 3d b0 63 f5 bd 49 dc fe 3d 63 a4 c2 bd
       0.09059465 -0.119819045 0.1244436 -0.095040105
000130 43 35 94 3d 63 5d ae 3d 12 b0 57 bd 6c 4e d7 bc
       0.07236721 0.08513906 -0.052658148 -0.026282512
000140 81 2d 8f 3e 45 f0 6e 3d 99 9b 3d be a5 55 91 3c
       0.27964404 0.058334608 -0.18516387 0.017741034
000150 4e ea 04 3d a9 8e 24 be 92 d9 01 3e 4c d6 76 be
       0.032450013 -0.16070046 0.12680653 -0.24105185
000160 5c 18 fd 3c 16 cf 6a bc 48 66 5f be 6f 2a 0c be
       0.030895405 -0.0143316 -0.21816361 -0.13688062
000170 55 30 e7 3d d7 7a 49 be 50 45 7e bd d5 8f 56 3e
       0.112885155 -0.19675766 -0.06207782 0.20953305
000180 1d 39 ba 3e 7a b8 c9 bb d0 30 0e bd 8a 9d fe 3d
       0.363717 -0.0061560245 -0.03471452 0.12432392
000190 fb 66 e5 3c b4 f0 8c bd 84 02 b0 bd 2b 09 5b bd
       0.028003206 -0.06881848 -0.0859423 -0.05347554
0001a0 84 bc 44 3e e6 f6 6e bc 37 e0 a1 3e 00 c2 02 bf
       0.19212538 -0.014585232 0.31616375 -0.5107727
0001b0 a4 19 e0 3e 60 7c be bd 96 d9 d2 ba 73 d1 55 3d
       0.43769562 -0.093010664 -0.0016086574 0.0522017
0001c0 33 10 70 bd 0c e8 a3 3c 02 ef 96 3e 03 8a ef 3d
       -0.0586092 0.02000811 0.29479223 0.116962455
0001d0 f6 2e b2 3d 5a a1 fc be 87 51 bc bd 58 22 34 be
       0.08700363 -0.4934185 -0.091952376 -0.17591226
0001e0 bd 6e fb 3e fa 19 92 be b1 e4 1b 3d 2d e9 c5 3c
       0.49107924 -0.28535444 0.038059894 0.024159038
0001f0 06 94 de be 88 b4 07 be 4b 84 82 3e ec 3f e5 bd
       -0.43472308 -0.13252461 0.25491557 -0.11193833
000200 26 75 cb 3d ca 8a c9 3a f2 1e 6d 3e 67 96 3c 3d
       0.09934454 0.0015376445 0.23156336 0.046041872
000210 d5 ed 97 3d cf a0 a2 3e de b4 01 3e c3 14 ad bd
       0.0741841 0.31763312 0.12666652 -0.084512256
000220 4f f8 20 3d b7 84 ac 3c 9d 68 d9 be 13 4a 56 bc
       0.039299306 0.021059377 -0.42462626 -0.013079184
000230 e0 2f 8d be 5f a1 aa 3e 59 1c 7a be bf 8b 84 be
       -0.27575588 0.3332624 -0.24424876 -0.25887868
000240 28 06 83 be f4 c0 b8 3d 75 2b 4a be 7d 8d 92 3d
       -0.25590634 0.09021178 -0.1974314 0.07155893
000250 a7 50 e6 3a 71 99 60 be 37 69 98 bc 6c 57 4e bd
       0.0017571644 -0.21933533 -0.018604858 -0.05037634
000260 5e 9a 65 3e a4 44 7f 3d 7d c0 8c be 30 9b 95 3e
       0.22422168 0.06232132 -0.27490607 0.2921996
000270 73 8f 37 be a3 9a 3f be 72 d2 87 3e 3e 95 81 3e
       -0.17925815 -0.18711333 0.26527745 0.25309175
000280 01 82 a3 bd d0 e3 48 3e 76 ee ef bd 18 03 c8 3b
       -0.07983781 0.19618154 -0.11715405 0.0061038844
000290 44 d3 94 be 07 76 9c be f7 55 1f 3e 7a 0a 2c bd
       -0.29067433 -0.30558798 0.15560137 -0.04200218
0002a0 94 bb 27 3e 3e 3b 9e 3e c6 49 ff bc fc c0 32 3e
       0.16380149 0.30904573 -0.031163108 0.1745643
0002b0 1f b7 91 be 13 83 0f bd 66 ce e0 be f9 7a 1d 3e
       -0.28460023 -0.03503711 -0.4390747 0.15378942
0002c0 5a d1 05 bf b0 23 e1 bc 54 b8 24 be dd 9d a0 bb
       -0.5227257 -0.027482837 -0.1608594 -0.0049016313
0002d0 6a 28 0c 3e 20 5d 4c 3e 5c e4 45 bd bc e3 39 bd
       0.13687292 0.199574 -0.048313484 -0.0453832
0002e0 2f b8 06 3e 01 1d 0c bc bf 80 4f 3e 6f c2 1d 3e
       0.13156198 -0.008551837 0.20263956 0.15406202
0002f0 7d 70 af be bf c0 01 3e d3 f4 4c bc fe ea 65 bd
       -0.3426551 0.12671183 -0.0125095425 -0.05613231
000300 1f 50 91 3e 36 59 7b 3e c4 e8 75 be ed eb ad 3e
       0.2838144 0.2454575 -0.24014574 0.3396906
000310 d8 56 f4 3c 1c fe fd ba 29 a4 fa be 67 ba 0b 3c
       0.029826567 -0.0019378099 -0.4895337 0.0085283285
000320 cc dd e6 bd 48 bd 4c bd 1e ff 2b 3e 6f 7d 66 3e
       -0.11272773 -0.0499852 0.16796538 0.22508787
000330 75 c9 40 3d ab 3f 80 bc 62 cb c5 be 1d 54 7f bd
       0.047067124 -0.01565536 -0.3863173 -0.062336076
000340 49 4e f7 be bf 7c 5f 3e fa 8e 94 be 24 67 77 bd
       -0.48301914 0.2182493 -0.29015332 -0.060401097
000350 a3 7c 24 be 9c 4b 2e bd 7c 93 7b bd c7 80 d7 bc
       -0.1606317 -0.042552575 -0.06141995 -0.026306523
000360 da aa 6a be 61 4d ed bd a3 17 07 3e 07 50 a6 3e
       -0.22916737 -0.115870245 0.1319261 0.3248293
000370 7b 63 27 3e 4b 81 d4 3d a4 ce fb bd 0e b2 5a 3e
       0.16346543 0.10376223 -0.12295273 0.21356985
000380 b1 0d 61 3d 9d a1 46 be fe 82 b0 3e e8 72 10 3e
       0.054944698 -0.19397588 0.3447494 0.14106333
000390 45 d7 4c be cb 5c 86 3e 4e 00 a1 be 3f 5d 69 be
       -0.20003994 0.2624267 -0.31445545 -0.22789477
0003a0 f1 3e e9 be f5 e5 3b be 3f ab 4a 3d 28 4b 47 be
       -0.45555833 -0.1834944 0.04947972 -0.19462264
0003b0 7e ce 03 3d 49 a4 3b bc df 83 a9 3d f0 ce eb bd
       0.03217935 -0.011452743 0.082771055 -0.115140796
0003c0 30 a7 59 3e cb f5 ac 3d 57 2b b2 3d 72 be 82 3d
       0.21255183 0.08445319 0.08699673 0.06383981
0003d0 b2 c4 9c 3e bf 33 16 bd b6 b9 b7 3d 6a 7b fb bb
       0.30618817 -0.036670443 0.089709684 -0.007674624
0003e0 f4 08 2a be 89 24 8a 3c f0 05 89 3d 48 4f c0 bb
       -0.16604978 0.016863124 0.066905856 -0.005868826
0003f0 a1 9e b4 3d 56 38 8e bd ee 0c a6 3d 07 4d 01 bd
       0.088193186 -0.06944339 0.08107935 -0.0315676

model.bigrill.fwd_rnn.spatial_decoder.lin_in.bias f4 [32]
000000 b0 28 41 be 5b 4e 8a bc d8 5d a9 3d 8d 44 99 bd
       -0.18863177 -0.016883066 0.082698524 -0.07483778
000010 17 ee 6c be 45 ee aa 3d ff 6a a9 3b 37 c4 83 bd
       -0.23137699 0.083462276 0.0051702256 -0.064339094
000020 1d 39 de bb c8 c9 56 bd 78 b7 85 3d df b9 9e 3d
       -0.006781711 -0.052438527 0.065291345 0.07750296
000030 b0 d9 c7 3c 3d 18 07 3e 24 f9 78 3e 77 92 e0 3b
       0.024395794 0.1319284 0.2431379 0.0068533975
000040 2a 09 fe 3b e1 88 1a 3e 98 00 12 be 1c e7 f5 3c
       0.0077525573 0.15091278 -0.14258039 0.030017428
000050 ee 9f a7 bd 80 06 2d 3d 7e 14 4f 3e ca 7f 1b bd
       -0.08184801 0.042242527 0.20222661 -0.037963666
000060 b2 d7 04 3e 23 75 ee 3d c6 4c 27 3c e9 1e cb bd
       0.12972906 0.11643436 0.010211175 -0.09918005
000070 f3 c1 bd bd ed 51 9e 3d 5e b0 b5 bd 56 43 e8 3c
       -0.092655085 0.0773047 -0.0887153 0.02835242

model.bigrill.fwd_rnn.spatial_decoder.graph_conv.mlp.weight f4 [32, 64, 1, 1]
000000 9e 91 bb 3d 12 29 f0 3d e8 01 57 bd 3b b7 61 bd
       0.09158634 0.117265835 -0.052492052 -0.055106383
000010 0f 3a cb 3d 6d 7b 94 bd fc 4f 4c 3e 6a 82 76 bd
       0.09923183 -0.07250104 0.19952387 -0.060182966
000020 30 c0 bb 3d ae 36 e1 3d 75 b2 c8 bb 6c d7 5a bd
       0.09167516 0.109967574 -0.0061247894 -0.0534281
000030 88 f4 ba bb 53 a5 14 bc 25 b7 82 bd d2 cc ae 3d
       -0.00570542 -0.0090726195 -0.06382588 0.0853516
000040 87 83 b3 3d b4 ad 9a bd 60 f8 97 3d 65 60 06 3e
       0.08765321 -0.075526625 0.07420421 0.13122709
000050 5a bd 5a 3d 0e 42 16 be ad de a8 bd e4 b3 57 3c
       0.053403236 -0.14673635 -0.08245597 0.013165448
000060 23 7c 30 3d 6f c2 ad 3d f0 cb d6 bd c6 be 02 3e
       0.043087136 0.08484351 -0.10488117 0.12768087
000070 97 b3 e4 3d f0 5d 57 3c ea 09 64 bd 21 7d 4a 3e
       0.111670665 0.013144955 -0.055673517 0.19774295
000080 1c 82 e2 bd d4 eb f0 3b f1 86 ca bd 60 e2 5a be
       -0.11059973 0.0073523317 -0.09889019 -0.21375418
000090 1d 25 ac 3e 19 36 85 3d 95 8e 41 3e d3 f8 8a bd
       0.33622065 0.06504459 0.18902047 -0.06785741
0000a0 eb 1f 22 bc 8a 3e 4b 3d c9 14 9f 3e c3 57 84 3a
       -0.009895305 0.04962019 0.31070545 0.0010096956
0000b0 8f 00 d6 bd e9 9b 08 bd cc 21 29 be f5 30 aa 3d
       -0.10449325 -0.033351813 -0.16516799 0.08310119
0000c0 33 75 a0 3e 7b c2 77 3d ef 6a d9 3d 15 b2 15 3e
       0.31339416 0.060488205 0.10616099 0.14618714
0000d0 b2 d4 98 be 4c 78 7e bd e2 ed 95 3d 2f 2a 52 3e
       -0.29849774 -0.062126443 0.07320763 0.20523904
0000e0 9a 3f 51 3e ae 20 06 be 27 12 5f be 15 22 21 3d
       0.20434418 -0.13098404 -0.21784268 0.039339144
0000f0 0a 03 56 bd 89 3a 47 be 1c 2b 3f 3d c0 6d a1 3e
       -0.052248992 -0.19455923 0.04667197 0.31529045
000100 24 0d 7e be 92 72 61 bc 7e da 13 3e a5 1e 2b 3e
       -0.248097 -0.013760226 0.14438817 0.16710909
000110 77 45 2a bd 79 b8 12 be 2c 2d 8a bd 61 ed 89 3d
       -0.041570153 -0.14328183 -0.06746897 0.067347296
000120 0e a5 b4 3d 09 66 c2 bd 43 39 f1 bd 6c c0 db 3c
       0.08820544 -0.09492118 -0.117785 0.026825152
000130 1f db 5d be 13 f8 a2 3d 85 7e d1 3d 82 27 6b 3d
       -0.2166562 0.07957473 0.1022921 0.057410724
000140 64 e1 37 bc 95 39 a3 3d 31 6e 2e bd d7 c5 46 be
       -0.011223171 0.07969967 -0.042585555 -0.19411407
000150 d5 6a d3 3d 8b a1 99 3d 0d 3f e7 3d 07 05 e7 3d
       0.10323111 0.07501515 0.11291323 0.11280256
000160 d2 a3 97 bd e0 c4 5c bd f8 50 0e 3e ea 16 36 be
       -0.07404293 -0.053898692 0.13898075 -0.17782179
000170 f3 82 66 3d 96 a0 01 3e 81 8c 95 bc aa 0a 71 bb
       0.056277227 0.12658915 -0.018255474 -0.0036780038
000180 3e bb c9 bd de d2 48 be be 25 2b 3c 39 50 f3 3d
       -0.09850167 -0.1961169 0.01044601 0.11880536
000190 e6 98 2e be 71 1a 66 be 82 b7 2d be 46 ce 85 3c
       -0.17050514 -0.22471024 -0.16964534 0.01633371
0001a0 95 50 56 bb 5e 8f 1d be b3 95 8e be a2 27 50 3e
       -0.003270184 -0.15386721 -0.27848586 0.20327619
0001b0 52 e5 f2 bc ad 72 e6 3d e3 2a 8e 3d 5a 4f d0 3c
       -0.029650364 0.112523414 0.06941774 0.025428463
0001c0 ac 18 54 be 2b c2 31 3e e8 49 2c bd a1 11 23 be
       -0.20712537 0.17359225 -0.04206267 -0.15924694
0001d0 a7 2d 8e 3e bd 9f 2a bd 3f 42 0f 3d da a7 a5 bd
       0.27769205 -0.041656245 0.034975287 -0.08088656
0001e0 7d 76 a5 be d6 ad fa 3d cf 80 91 3d a4 0d 31 be
       -0.32316962 0.12240188 0.071046464 -0.1729036
0001f0 34 65 5f 3e 9e 67 30 3d c9 fc 1c be fc f8 fe bd
       0.2181595 0.043067567 -0.15330805 -0.12449834
000200 1c b5 ae bd ec 01 37 3d 63 16 92 3c 91 83 8e 3e
       -0.085306376 0.044679567 0.01783294 0.27834752
000210 18 1d 28 be b4 c5 48 bc d3 e4 6c be 3e 91 93 bd
       -0.16417348 -0.012254167 -0.23134165 -0.07205437
000220 c8 20 dd bc 17 fb 26 3d 11 f5 f5 bd 7d 00 d2 3d
       -0.02699317 0.0407668 -0.12009633 0.102539994
000230 92 e1 16 bd 39 cf 97 3d c7 fa 2d bd 46 55 aa 3d
       -0.036836214 0.074125715 -0.042475488 0.08317046
000240 52 69 31 3d 3d d6 30 3e 1d 68 8a bd 2b 08 04 be
       0.043313332 0.17269225 -0.06758139 -0.12893741
000250 75 b2 c7 3b 70 9b 57 bd bf c7 0f bd 49 1d e4 3b
       0.006094272 -0.05263847 -0.035102602 0.006961499
000260 9f 63 43 be 76 fc c9 3d 75 1a 6b 3d 18 d3 91 bc
       -0.19080971 0.09862606 0.05739828 -0.017800853
000270 cf ed 79 bd eb d2 88 bb 00 1c 0d be d6 1a 1e be
       -0.061017808 -0.004175534 -0.13780212 -0.15439925
000280 c4 7d f0 3d bb 12 f8 bd 39 83 c9 3d 21 57 a6 3e
       0.11742738 -0.121129476 0.09839482 0.3248835
000290 d9 b4 3d be 7a e7 d2 bd 9e 3c a4 be 39 8a a1 bd
       -0.18526019 -0.10298057 -0.32077497 -0.07887692
0002a0 64 6d fd bd 68 9a 0d be a2 3e 6a be 47 25 92 3c
       -0.1237438 -0.13828433 -0.22875455 0.01784004
0002b0 18 74 33 bd 66 56 dd 3d b5 59 15 3d f7 a6 54 3d
       -0.043811888 0.10807495 0.036462504 0.051917043
0002c0 37 c1 75 be f5 96 87 3c 25 f4 85 bd 93 23 f2 bd
       -0.23999487 0.016551474 -0.065407075 -0.118231915
0002d0 35 3c 96 3d f0 bd 80 bd 38 f2 0d 3e db d3 1d bc
       0.07335702 -0.06286228 0.1386193 -0.00963303
0002e0 e6 70 ce be 59 fb 02 3d 3d 8a 5b bc ce f5 b8 3c
       -0.4032051 0.031977985 -0.013399658 0.022578146
0002f0 fa a0 e6 3d 03 85 f9 3d 90 e6 0c bd a6 05 1c be
       0.112611726 0.12183573 -0.03439957 -0.1523653
000300 77 ae 5e 3e c1 ed 16 3e 08 b1 cb 3d 8a 74 5c be
       0.2174624 0.14739133 0.099458754 -0.21528831
000310 b5 19 74 3d 18 3c c0 3d 1f 2e 16 3e 6c 06 84 bd
       0.05959483 0.09386462 0.14666031 -0.064465374
000320 1b d0 ee 3c 89 11 b6 3d a0 d2 d7 bd f7 ca 97 3d
       0.029151967 0.08890063 -0.105382204 0.07411759
000330 f6 e2 a0 3d 01 d8 2c bd 24 fb 03 3d 84 fc bb bd
       0.07855789 -0.042198185 0.03222193 -0.09179023
000340 13 b2 88 3d 8e 41 41 3d 44 5f 80 bd 0f 8c 69 3e
       0.0667459 0.04718166 -0.062681705 0.22807334
000350 19 b9 d3 bc 36 50 20 3d 6f 64 54 3d 82 f7 15 bd
       -0.025845097 0.039138995 0.051853593 -0.036612995
000360 63 7f 25 3e 1e 57 fa bc 64 38 be bc 0b 5b 7e 3d
       0.16161875 -0.030559119 -0.023220249 0.062098544
000370 34 52 50 3d e7 64 c9 bb 0b 90 2d 3e 0a ac 92 3e
       0.050859645 -0.0061460617 0.1694948 0.2864688
000380 2e 36 d2 bd 85 71 58 3e 68 1d c1 3d 33 2e 4e be
       -0.1026424 0.21137054 0.09429437 -0.20134811
000390 22 eb ea 3e 85 75 66 3e d0 b2 c6 3e e1 a3 ab bd
       0.45882517 0.22505768 0.38808298 -0.08380867
0003a0 42 dc 11 bd c5 83 7f 3d d7 8d 46 3e 93 32 1a 3c
       -0.035610445 0.062381525 0.19390045 0.009411472
0003b0 85 41 ec 3d 8a 89 e3 3b 8c 04 71 3d 85 e4 2e 3d
       0.11535934 0.006943886 0.058842227 0.042698402
0003c0 25 4c af 3e a0 9a c9 bd 58 fc 16 bb d0 e0 b1 3e
       0.3423778 -0.098439455 -0.0023038592 0.3474183
0003d0 4b 19 ba be 10 1b 80 bd e0 e0 19 be f9 3a 55 3e
       -0.36347422 -0.06255162 -0.15027189 0.20823278
0003e0 da 5c ab 3e 99 93 af bd 26 26 52 bd 4a 76 2f 3e
       0.33469278 -0.08573074 -0.051305912 0.17134967
0003f0 c8 1d 5d be f9 ee 2c be 24 55 40 3d de ec b6 3e
       -0.21593392 -0.16888036 0.046956196 0.3572759

model.bigrill.fwd_rnn.spatial_decoder.graph_conv.mlp.bias f4 [32]
000000 c8 7e 45 be a6 fb eb bb ae 33 39 3d 65 40 3c be
       -0.19286644 -0.0072016297 0.0452153 -0.1838394
000010 a1 e2 c6 3d 5f ac 02 bd 83 88 78 be 4a 17 18 3e
       0.09711195 -0.031902667 -0.24270825 0.14852634
000020 7e 1d a4 bd c2 10 72 be d9 cf 31 be 15 af 1a 3d
       -0.08013438 -0.23639205 -0.17364444 0.037764627
000030 93 86 7b be 86 5e 3e 3e de 50 71 bd 81 9f 0f 3e
       -0.24563055 0.18590745 -0.05891501 0.1402569
000040 62 52 55 be b9 cd 3b 3e 28 34 41 3e 73 5c 86 3d
       -0.20832208 0.18340196 0.18867552 0.06560602
000050 d6 d4 c7 3d dd 12 f7 bb c9 6f b2 3d a0 7a 78 be
       0.09757392 -0.0075400905 0.087127276 -0.24265528
000060 b7 b8 fb 3d 4c f7 0b 3d cf 57 18 3e c7 39 73 bd
       0.12291091 0.034171388 0.14877246 -0.059381273
000070 44 85 64 3e c7 ea 7b 3e a7 de 9d bd 8c 47 6f be
       0.22316462 0.24601279 -0.07708483 -0.23367137
