logs/discharge_point/grin/2023-10-05_12-18-54_979345499/epoch=44-step=3915.ckpt (torch, 707635 bytes, 102 tensors)

model.bigrill.emb f4 [8, 20]
0.15032837 -0.04283343 -0.10441312 -0.17894936 -0.45375147 -0.24010223 -0.079605184 -0.19819671
0.33856127 -0.14193001 0.048786584 -0.036906373 -0.15588728 -0.24294212 0.26444384 -0.18273672
0.3683271 -0.17198946 0.14154734 -0.21910983 -0.3212798 -0.30201367 -0.11235158 -0.19429655
0.03587617 0.19988294 -0.09775454 -0.09738102 0.13095027 0.44164342 0.69580626 0.39408717
0.22734798 -0.05640397 -0.32076803 -0.23583235 -0.18677428 0.28978357 0.23445879 0.34592044
0.56656164 -0.37440675 0.3576738 -0.38119674 -0.10514 0.08862271 -0.30783203 -0.24015492
0.5714982 -0.23265266 -0.26972 0.06435823 0.24057136 0.15594171 -0.31351563 0.36162603
0.2110987 -0.12206832 -0.37190178 0.06950274 -0.13376923 0.12690869 -0.27159926 0.2880493
0.05305509 0.25833166 0.0523782 0.031196527 -0.45814112 -0.12889525 0.10971452 -0.1301575
0.019032968 0.39504543 -0.0026651002 -0.72193515 -0.2004044 0.022403767 0.060614746 0.24090159
-0.01465117 -0.006088827 0.23173437 0.12814498 0.23002306 -0.41828927 -0.018501915 -0.070316374
0.13014153 -0.28922278 0.5184956 -0.2628826 -0.25332335 0.36327744 -0.34526977 0.05820747
0.15858476 -0.14391449 0.5273282 -0.07610707 0.49037084 -0.28748125 -0.02140032 -0.236019
0.27178 0.1180236 0.21074565 -0.09497479 -0.0011945184 -0.3503208 0.07891696 0.008372876
0.08225513 0.07652065 -0.36231706 0.29893884 -0.3160628 -0.23437251 -0.16620164 0.28859544
-0.17615053 -0.47195077 -0.052411262 -0.26231182 0.26755005 0.20233199 -0.1345925 -0.40231466
-0.059077267 0.16262844 -0.4786458 -0.13570581 0.21975972 -0.5540334 -0.04306321 0.09741213
-0.2753226 0.16202872 -0.11359205 0.043189034 0.29729387 -0.29268885 0.3524884 0.13438801
0.3131874 -0.36170584 0.082524784 -0.23068327 0.14207649 0.20941722 -0.4353002 0.060736
-0.4095731 -0.401752 -0.40931353 0.39470243 -0.4254054 -0.5741554 -0.3497872 0.11050777
00000000: aeef 193e 1b72 2fbd 8cd6 d5bd 803e 37be
00000010: 1d52 e8be 5cdd 75be 0b08 a3bd 14f4 4abe
00000020: e757 ad3e 1a56 11be 71d4 473d 232b 17bd
00000030: eaa0 1fbe d2c5 78be 2f65 873e 561f 3bbe
00000040: 5f95 bc3e 011e 30be c9f1 103e 545e 60be
00000050: c97e a4be 89a1 9abe 9618 e6bd adf5 46be
00000060: e4f2 123d 1dae 4c3e 8833 c8bd b36f c7bd
00000070: d417 063e 161f e23e 5c20 323f cbc5 c93e
00000080: e9cd 683e d907 67bd b53b a4be 097e 71be
00000090: c241 3fbe 835e 943e f715 703e 7c1c b13e
000000a0: 2f0a 113f 3eb2 bfbe 0521 b73e 382c c3be
000000b0: a453 d7bd d37f b53d 299c 9dbe 2ceb 75be
000000c0: b54d 123f 803c 6ebe bd18 8abe 3fce 833d
000000d0: 5758 763e 2faf 1f3e 1f85 a0be 0c27 b93e
000000e0: 422a 583e f5fe f9bd e969 bebe 7457 8e3d
000000f0: cdfa 08be 5af4 013e 0f0f 8bbe 337b 933e
00000100: 4b50 593d 0c44 843e 868a 563d dc8f ff3c
00000110: 7991 eabe 1efd 03be 02b2 e03d 0248 05be
00000120: 07eb 9b3c 6543 ca3e f6a8 2ebb bed0 38bf
00000130: d036 4dbe 1b88 b73c 2b47 783d e8ae 763e
00000140: 760b 70bc c884 c7bb c64b 6d3e 7038 033e
00000150: 2a8b 6b3e 032a d6be 5491 97bc 0802 90bd
00000160: d243 053e 0215 94be 21bc 043f 8c98 86be
00000170: 99b3 81be 80ff b93e 33c7 b0be f56a 6e3d
00000180: 0b64 223e 525e 13be fbfe 063f 06de 9bbd
00000190: e311 fb3e be30 93be b94f afbc f7ae 71be
000001a0: c026 8b3e 5bb6 f13d b5cd 573e 2582 c2bd
000001b0: 6391 9cba 3f5d b3be 379f a13d 632e 093c
000001c0: 6175 a83d dcb6 9c3d 9f81 b9be 830e 993e
000001d0: fcd2 a1be 59ff 6fbe c330 2abe c8c2 933e
000001e0: ce60 34be 88a3 f1be 31ad 56bd bc4d 86be
000001f0: 52fc 883e 1e30 4f3e 9ed2 09be 30fc cdbe
00000200: 01fb 71bd 1288 263e 1011 f5be 77f6 0abe
00000210: b108 613e 22d5 0dbf 0c63 30bd 0380 c73d
00000220: 15f7 8cbe dbea 253e f3a2 e8bd fce6 303d
00000230: e736 983e 50db 95be 5c79 b43e 039d 093e
00000240: 195a a03e 8231 b9be c102 a93d 3c38 6cbe
00000250: 807c 113e 7871 563e abdf debe 50c6 783d
00000260: 91b3 d1be 70b2 cdbe 8b91 d1be 7016 ca3e
00000270: bdce d9be d9fb 12bf 4f17 b3be e651 e23d

model.bigrill.fwd_rnn.cells.0.forget_gate.mlp.weight f4 [32, 170, 1, 1]
-0.18582693 -0.11656303 0.017844917 -0.061334725 0.05582681 0.039998986 0.015888354 0.050424952
0.08575907 -0.01720174 0.03190734 0.08108346 -0.053476024 -0.09521606 0.011060384 0.08815588
-0.059566364 0.078995146 -0.004334714 -0.018067613 0.023892762 -0.0672158 0.010476831 -0.021709243
0.046651047 -0.031026019 -0.005142985 0.083253406 -0.057695717 -0.03931502 -0.08502604 0.053042784
0.09638359 0.050863046 0.11155556 -0.050402388 0.008100838 -0.033193 -0.0065300926 -0.07987344
0.033909228 0.100808844 -0.00059013977 -0.04382303 -0.049428504 -0.007319443 0.02117144 0.034239203
-0.0124805635 -0.031895667 0.0044307588 -0.0015587652 0.020535218 -0.022731876 0.007905779 0.01984177
0.035046343 -0.030821072 -0.04013667 0.081079654 -0.0073510627 -0.039688427 -0.027655326 -0.015614886
-0.025183676 0.0176759 -0.036382373 -0.054856393 0.14501248 0.10453226 -0.10243538 -0.017408118
0.070874915 -0.147954 -0.071679145 0.08311352 0.031588197 0.10740052 0.024827605 0.09339092
-0.006343305 -0.027700903 -0.13819948 0.08456366 0.058770075 0.2847355 0.0007133949 -0.016464563
-0.07316476 0.03577949 -0.1682251 -0.11589582 -0.023739846 -0.0016622184 0.07166098 -0.11220628
-0.06335548 0.077800125 -0.057191778 0.0030353377 -0.2028283 -0.07433507 0.46225184 0.0641172
-0.057928625 -0.00015461184 0.017642735 -0.04744532 0.040831838 -0.0055936547 -0.02934531 -0.05031783
0.017229348 0.05768755 0.0018460314 0.009517962 -0.10778656 0.08734074 -0.10091295 0.11973313
0.07152424 -0.06835866 -0.092135094 0.058753036 0.033235405 -0.053707656 -0.05145776 0.04760754
-0.03187556 -0.07795397 -0.008910745 0.11136077 -0.090119876 -0.09773542 -0.1254169 0.03854808
0.3644247 -0.09482168 -0.114618696 0.023504319 0.097302765 -0.17712653 -0.07270939 -0.026065739
-0.040333636 0.03106702 0.020416535 0.09803908 -0.0012056243 0.04725427 -0.017039718 0.08160002
-0.059021436 0.10146727 -0.0053915936 -0.121629365 -0.05759827 0.07990104 0.031229716 0.03943828
0.03482074 0.06709605 -0.03497089 0.027776424 0.0627286 0.06222256 -0.12412013 -0.006630611
-0.015605503 0.07142477 0.65763986 0.021957383 -0.018987166 0.06890516 0.19813465 0.1633109
-0.18365665 -0.06670513 0.17758611 0.09095802 -0.0151283825 -0.2779239 -0.15767209 -0.21654972
0.22007099 -0.025271857 0.013557209 -0.25093654 -0.10128035 0.050931294 0.24184111 -0.11649727
0.045238644 0.07466328 -0.05072192 -0.19488323 0.15660883 0.25544775 -0.27529144 -0.20095511
0.26513866 0.12341759 0.30785102 0.059935782 0.13446006 -0.0031791688 -0.011078828 0.104655795
0.13221648 0.14703532 -0.12134997 -0.041535344 -0.0033986366 -0.0067051942 -0.022634843 -0.10599207
-0.10015155 -0.22974114 0.25891554 0.07886919 -0.12517005 -0.2015383 -0.20466429 0.05922473
-0.09440699 -0.046717975 0.05367522 0.019632507 -0.040861197 -0.035022832 0.20412028 0.22433475
-0.1827209 -0.08399899 0.08602938 -0.033705134 0.18798988 0.08782463 0.1592949 -0.021200761
-0.10159732 0.16111061 0.25578102 0.12559538 -0.03483241 -0.100732654 -0.0062010307 0.10888955
0.027400536 -0.12820077 -0.076279 -0.02026365 0.3394882 0.06990179 -0.17566907 -0.14381927
00000000: 6a49 3ebe 99b8 eebd 812f 923c 1f3a 7bbd
00000010: a7aa 643d fad5 233d 4b28 823c 658a 4e3d
00000020: 74a2 af3d aaea 8cbc 45b1 023d 160f a63d
00000030: ad09 5bbd a300 c3bd 9d36 353c 128b b43d
00000040: dcfb 73bd 35c8 a13d 370a 8ebb 8802 94bc
00000050: c1ba c33c 70a8 89bd 04a7 2b3c 95d7 b1bc
00000060: 2b15 3f3d 472a febc 7c86 a8bb c380 aa3d
00000070: 5852 6cbd c908 21bd 2222 aebd 6443 593d
00000080: c264 c53d c555 503d 3e77 e43d bc72 4ebd
00000090: 61b9 043c 62f5 07bd 63fa d5bb b094 a3bd
000000a0: 67e4 0a3d de74 ce3d 9cb3 1aba c77f 33bd
000000b0: 8b75 4abd f0d7 efbb ba6f ad3c 683e 0c3d
000000c0: 477b 4cbc 08a5 02bd e62f 913b 7b4f ccba
000000d0: 7939 a83c 3338 babc 3e87 013c 358b a23c
000000e0: c18c 0f3d 797c fcbc 5966 24bd 170d a63d
000000f0: 2fe1 f0bb 5590 22bd 6c8d e2bc 94d5 7fbc
00000100: ff4d cebc 0dcd 903c af05 15bd 19b1 60bd
00000110: 277e 143e 0215 d63d a4c9 d1bd 789b 8ebc
00000120: de26 913d 4181 17be 84cc 92bd 6c37 aa3d
00000130: a062 013d cef4 db3d 4363 cb3c bd43 bf3d
00000140: 80db cfbb 01ed e2bc 2a84 0dbe b62f ad3d
00000150: e4b8 703d dac8 913e 1f03 3b3a b1e0 86bc
00000160: 68d7 95bd 848d 123d 3343 2cbe ca5a edbd
00000170: 117a c2bc cbde d9ba fec2 923d 68cc e5bd
00000180: 85c0 81bd ac55 9f3d ed41 6abd 84ec 463b
00000190: 39b2 4fbe fc3c 98bd 46ac ec3e e14f 833d
000001a0: 9146 6dbd 4d1f 22b9 7f87 903c 0656 42bd
000001b0: 493f 273d fa4a b7bb 9365 f0bc 121a 4ebd
000001c0: 9024 8d3c c849 6c3d 89f6 f13a 3af1 1b3c
000001d0: 33bf dcbd b4df b23d 73ab cebd a536 f53d
000001e0: 4d7b 923d a0ff 8bbd 53b1 bcbd 06a7 703d
000001f0: d921 083d 8ffc 5bbd 5fc5 52bd 2000 433d
00000200: f28f 02bd 55a6 9fbd 60fe 11bc 1e11 e43d
00000210: c590 b8bd 8229 c8bd 4a6d 00be 97e4 1d3d
00000220: e095 ba3e de31 c2bd 35bd eabd 218c c03c
00000230: ac46 c73d a860 35be a9e8 94bd d187 d5bc
00000240: e234 25bd 4380 fe3c 9440 a73c b7c8 c83d
00000250: 0a06 9eba b28d 413d e196 8bbc e91d a73d
00000260: 76c0 71bd 12ce cf3d f7ab b0bb d118 f9bd
00000270: 2aec 6bbd 28a3 a33d 76d5 ff3c 098a 213d
00000280: 31a0 0e3d a769 893d a33d 0fbd 628b e33c
00000290: da77 803d 15dd 7e3d b232 febd 9945 d9bb
000002a0: 39ae 7fbc 2647 923d 165b 283f f8df b33c
000002b0: f98a 9bbc 261e 8d3d cfe3 4a3e f93a 273e
000002c0: 7d10 3cbe b39c 88bd 22d9 353e 3348 ba3d
000002d0: 09dd 77bc 0b4c 8ebe cb74 21be 36bf 5dbe
000002e0: 4a5a 613e ed06 cfbc 0e1f 5e3c c17a 80be
000002f0: 126c cfbd 559d 503d 32a5 773e 1f96 eebd
00000300: 284c 393d 10e9 983d cac1 4fbd 788f 47be
00000310: 115e 203e 0cca 823e 00f3 8cbe 2dc7 4dbe
00000320: 41c0 873e 5dc2 fc3d a69e 9d3e 397f 753d
00000330: e6af 093e 9a59 50bb f983 35bc c755 d63d
00000340: c263 073e 6d90 163e 5586 f8bd f720 2abd
00000350: a9bb 5ebb 3fb7 dbbb b56c b9bc 5f12 d9bd
00000360: 411c cdbd 4341 6bbe 9490 843e 2b86 a13d
00000370: 942c 00be 0e60 4ebe 8493 51be a195 723d
00000380: 7458 c1bd 595b 3fbd 8cda 5b3d 5ad4 a03c
00000390: 125e 27bd 1a74 0fbd e804 513e 02b8 653e
000003a0: 301b 3bbe aa07 acbd 2c30 b03d 650e 0abd
000003b0: 6b80 403e 66dd b33d 341e 233e 38ad adbc
000003c0: 4112 d0bd 2efa 243e bbf5 823e 139c 003e
000003d0: 6eac 0ebd ec4c cebd 0432 cbbb 7c01 df3d
000003e0: 1777 e03c 1047 03be 2a38 9cbd f4ff a5bc
000003f0: 66d1 ad3e ab28 8f3d 98e2 33be 5c45 13be

model.bigrill.fwd_rnn.cells.0.forget_gate.mlp.bias f4 [32]
-0.042108286 0.11361583 0.15834045 0.07927486 -0.060775362 -0.033392206 0.080824554 0.100670025
-0.0585653 0.058754202 -0.02402292 0.024290344 0.04681027 -0.029574461 0.06967192 0.095821425
0.02228781 0.055288505 0.018977378 -0.05729236 0.051851884 -0.00080980133 0.035497792 0.11520298
-0.0683628 0.106804095 0.085212246 0.032077402 0.1729098 -0.00016180924 0.061769526 0.044943202
00000000: bd79 2cbd 6baf e83d 0024 223e dc5a a23d
00000010: 96ef 78bd 44c6 08bd 5887 a53d 162c ce3d
00000020: 2be2 6fbd 3fa8 703d b7cb c4bc 8bfc c63c
00000030: 20bc 3f3d 2446 f2bc 27b0 8e3d 063e c43d
00000040: ed94 b63c 3376 623d 7276 9b3c 65ab 6abd
00000050: a462 543d d948 54ba 2266 113d 8aef eb3d
00000060: cc01 8cbd 1bbc da3d c283 ae3d 9863 033d
00000070: 440f 313e 56ab 29b9 0b02 7d3d 5d16 383d

model.bigrill.fwd_rnn.cells.0.update_gate.mlp.weight f4 [32, 170, 1, 1]
0.09298421 -0.24705346 -0.17826866 -0.30374214 0.10280771 -0.23469982 0.11904105 -0.17965384
-0.2636866 -0.03567342 -0.04645672 0.12979454 0.3849978 0.32928935 0.31509835 0.14558765
-0.17369078 0.32247943 0.07608429 -0.13079835 -0.18907706 0.26925862 0.21396765 -0.23334058
-0.11125361 0.21619555 0.11676538 -0.07381524 0.104143284 0.38093683 -0.25312588 0.01106224
-0.23213913 -0.18881872 0.03196736 -0.12132275 -0.19437304 -0.60238034 0.16466448 -0.30513918
0.07733306 0.10076011 0.0717806 0.22023629 -0.11934563 0.32296705 0.19364429 0.12392387
-0.18880126 -0.0057728924 -0.16146159 0.44734347 0.21554343 0.112118706 0.120428674 0.06380715
0.20809965 -0.29264578 -0.17016114 0.25852546 0.10912295 0.059540235 0.17187223 0.325944
-0.18097812 -0.075384006 -0.15135907 0.03976435 -0.0107264975 -0.04182674 -0.11639292 -0.444063
0.3961664 -0.21470276 -0.03484815 0.11268166 -0.1413223 -0.024805088 -0.21863844 0.33832866
-0.0334799 0.11857356 -0.14746554 0.041600652 -0.0954343 0.30957603 0.18217605 0.15924112
-0.5139514 -0.048052963 0.17103422 -0.25695863 -0.23227985 0.024466753 0.14650103 -0.13720137
0.09109488 0.23452258 -0.104210526 -0.22912282 -0.25894907 -0.27342096 0.055671923 -0.3009521
-0.44998735 -0.3767754 0.43623593 -0.21782896 -0.16025627 -0.08341523 -0.0056015425 -0.0036761798
0.10568868 -0.17056692 -0.039756734 0.08065315 -0.015110301 0.18557352 -0.19885509 0.01374802
0.011026959 0.33921632 0.15960853 0.34888163 0.47689766 -0.1965302 -0.17330791 -0.062515035
0.45772052 0.12806644 -0.07908511 -0.0058181514 -0.045007054 0.0045713508 0.20567968 0.11518958
0.17248532 -0.3162416 -0.09910491 0.08224963 0.3780442 0.2726362 -0.37810433 -0.45027536
0.11131378 0.18958758 0.2111725 -0.45841175 -0.19599572 -0.36576036 0.24600044 0.25330734
-0.20930843 -0.23008421 -0.2011246 0.20625526 0.12670977 0.0025563564 0.31947264 -0.109997235
-0.29364544 -0.28059292 0.53289425 0.16883695 -0.28456894 0.053652044 0.26145935 0.31607324
0.027545186 0.36631948 0.014453852 0.22001441 -0.42313114 0.07262827 0.1955907 -0.35147455
-0.029797718 -0.07126319 -0.15408328 0.50985783 0.5158906 0.20159784 0.010963048 0.39798582
0.19699162 0.03191361 -0.117140576 -0.16778867 0.2214009 -0.109321356 -0.11880314 0.29312852
-0.063104466 -0.1570948 -0.15451212 -0.0806147 0.13322163 -0.07779357 0.28930423 0.17470303
-0.08436064 -0.17444757 -0.5593548 -0.10961009 0.07477383 -0.019585462 -0.20078807 -0.054787297
0.47949958 0.02535201 -0.059399858 -0.22065388 0.09779184 0.18264504 0.37106135 -0.076573096
-0.20153084 -0.08252366 0.17882204 -0.005225296 -0.20151961 0.05311058 -0.04197226 0.061993577
0.59157616 0.037141703 0.29080054 -0.09262161 -0.11471931 0.004224533 0.20055152 0.018874232
0.24144432 0.06331695 0.083891675 0.18393841 -0.04640338 0.108943045 0.053435907 -0.011661523
-0.15259722 -0.088036805 0.015964014 0.067945026 -0.16731495 -0.07834082 0.017465979 0.0015608346
-0.0839513 0.02888614 -0.108437486 -0.11399048 0.1790903 -0.05517431 -0.03109453 -0.2808106
00000000: 816e be3d 95fb 7cbe 0f8c 36be 1784 9bbe
00000010: d98c d23d 2655 70be cbcb f33d 2df7 37be
00000020: ee01 87be 4b1e 12bd 6749 3ebd dce8 043e
00000030: 6f1e c53e 9d98 a83e 9254 a13e ee14 153e
00000040: ffdb 31be 061c a53e 15d2 9b3d 01f0 05be
00000050: 6b9d 41be 44dc 893e 561a 5b3e d5f0 6ebe
00000060: efd8 e3bd 5e62 5d3e b022 ef3d 722c 97bd
00000070: 1349 d53d 270a c33e b799 81be 663e 353c
00000080: e1b5 6dbe b259 41be 35f0 023d 1078 f8bd
00000090: ba09 47be 9935 1abf ce9d 283e 343b 9cbe
000000a0: cc60 9e3d 515b ce3d b501 933d 9f85 613e
000000b0: 7b6b f4bd f05b a53e b04a 463e cccb fd3d
000000c0: 1e55 41be 882a bdbb 3056 25be 340a e53e
000000d0: 6bb7 5c3e 7e9e e53d 4fa3 f63d 53ad 823d
000000e0: 1318 553e abd5 95be b93e 2ebe 735d 843e
000000f0: da7b df3d 76e0 733d 46ff 2f3e 22e2 a63e
00000100: 5452 39be ee62 9abd dffd 1abe f1df 223d
00000110: 31be 2fbc 8452 2bbd 695f eebd 3a5c e3be
00000120: 53d6 ca3e 0adb 5bbe efbc 0ebd a4c5 e63d
00000130: cbb6 10be 0a34 cbbc c1e2 5fbe 6a39 ad3e
00000140: 3822 09bd b2d6 f23d 3501 17be 7265 2a3d
00000150: 0f73 c3bd c080 9e3e 5c8c 3a3e 1b10 233e
00000160: 5292 03bf 2fd3 44bd 9823 2f3e 1590 83be
00000170: c5da 6dbe 806e c83c 5e04 163e 847e 0cbe
00000180: f48f ba3d b026 703e 546c d5bd 2c9f 6abe
00000190: f994 84be d5fd 8bbe 3e08 643d 6516 9abe
000001a0: be64 e6be b5e8 c0be 515a df3e 8e0e 5fbe
000001b0: 381a 24be 9bd5 aabd 258d b7bb 10ec 70bb
000001c0: 4f73 d83d 18a9 2ebe f5d7 22bd 7b2d a53d
000001d0: 3291 77bc fc06 3e3e aba0 4bbe 603f 613c
000001e0: 6baa 343c c3ad ad3e 6b70 233e 9da0 b23e
000001f0: ee2b f43e 363f 49be a177 31be e207 80bd
00000200: 585a ea3e d923 033e 60f7 a1bd 31a6 bebb
00000210: 5159 38bd 45cb 953b b29d 523e 84e8 eb3d
00000220: fe9f 303e 6bea a1be 84f7 cabd 7e72 a83d
00000230: 028f c13e f996 8b3e e496 c1be 7e8a e6be
00000240: 7bf8 e33d 3f23 423e 9b3d 583e f2b4 eabe
00000250: 1ab3 48be f144 bbbe 8ae7 7b3e 80b1 813e
00000260: f354 56be 329b 6bbe 9bf3 4dbe 9434 533e
00000270: 35c0 013e 8b88 273b eb91 a33e 3b46 e1bd
00000280: b258 96be e0a9 8fbe c26b 083f 98e3 2c3e
00000290: 05b3 91be 3fc2 5b3d 00de 853e 5ad4 a13e
000002a0: 71a6 e13c 3a8e bb3e d9cf 6c3c 754b 613e
000002b0: a5a4 d8be 21be 943d ee48 483e 79f4 b3be
000002c0: 581a f4bc 6ff2 91bd 02c8 1dbe 0b86 023f
000002d0: 6811 043f aa6f 4e3e 5b9e 333c ccc4 cb3e
000002e0: 2cb8 493e d8b7 023d 66e7 efbd cbd0 2bbe
000002f0: ebb6 623e e0e3 dfbd 104f f3bd f114 963e
00000300: ea3c 81bd 76dd 20be 6d38 1ebe 5219 a5bd
00000310: 406b 083e 3c52 9fbd af1f 943e 5ae5 323e
00000320: 45c5 acbd 62a2 32be e031 0fbf 417b e0bd
00000330: 0623 993d b171 a0bc 639b 4dbe a568 60bd
00000340: f880 f53e 05af cf3c 444d 73bd 17f3 61be
00000350: 1747 c83d 4d07 3b3e c1fb bd3e 5bd2 9cbd
00000360: 1a5e 4ebe 2a02 a9bd 201d 373e f638 abbb
00000370: 285b 4ebe 7b8a 593d 1beb 2bbd faec 7d3d
00000380: 8971 173f e621 183d cfe3 943e 66b0 bdbd
00000390: f5f1 eabd f46d 8a3b 615d 4d3e 229e 9a3c
000003a0: 2e3d 773e 51ac 813d 66cf ab3d 5a5a 3c3e
000003b0: 7811 3ebd 881d df3d 9cdf 5a3d f90f 3fbc
000003c0: 7242 1cbe a44c b4bd f7c6 823c c326 8b3d
000003d0: 9c54 2bbe 2771 a0bd d014 8f3c eb94 cc3a
000003e0: a9ee abbd a0a2 ec3c 7914 debd d773 e9bd
000003f0: 7363 373e 75fe 61bd f5b9 febc 68c6 8fbe

model.bigrill.fwd_rnn.cells.0.update_gate.mlp.bias f4 [32]
-0.101458766 -0.080236174 -0.10283613 -0.025350422 -0.12731199 -0.024702644 -0.07604948 0.012736623
-0.0017308628 -0.0032873158 0.028710047 0.084993936 -0.070674 0.013745261 -0.044035055 -0.21155037
0.24254945 -0.13753371 -0.2334444 -0.053159542 -0.056480702 -0.12109868 -0.07323939 -0.15586503
0.038436458 -0.10888946 0.018220915 -0.032859508 -0.13692628 -0.1275924 -0.23254791 0.10071102
00000000: 9dc9 cfbd dd52 a4bd c09b d2bd b0ab cfbc
00000010: 135e 02be 335d cabc d4bf 9bbd 45ad 503c
00000020: 1ede e2ba 0270 57bb 5531 eb3c 4d11 ae3d
00000030: 88bd 90bd ce33 613c 1a5e 34bd a9a0 58be
00000040: e25e 783e a3d5 0cbe 0c0c 6fbe d2bd 59bd
00000050: 4f58 67bd 9602 f8bd 89fe 95bd 159b 1fbe
00000060: 8c6f 1d3d 7001 dfbd 0744 953c b197 06bd
00000070: 6736 0cbe 95a7 02be 0a21 6ebe 9441 ce3d

model.bigrill.fwd_rnn.cells.0.c_gate.mlp.weight f4 [32, 170, 1, 1]
-0.09119767 0.18284462 0.045025982 0.29553628 0.32458755 0.39142442 -0.085810535 -0.07893799
0.15415862 -0.029106611 -0.09761481 -0.013913029 -0.12947103 -0.30901873 0.046175957 -0.057453673
0.045175537 -0.085484624 -0.16503465 0.05800542 0.15952113 -0.04187309 0.03861052 -0.011268845
0.030480133 -0.23077865 -0.058350258 -0.0076638665 -0.012850314 -0.04051908 0.30157784 0.12497722
0.06402127 0.17772856 -0.025571013 0.0413844 -0.05802365 0.0083761215 -0.008573322 0.06022397
-0.04454674 -0.054772582 0.08550308 0.030987231 0.0111337295 0.098458916 -0.029490435 -0.0441968
-0.01261255 -0.03494273 -0.0043577594 0.003276922 0.048855633 -0.1135545 0.022140073 0.09192183
-0.11319947 0.04877414 0.087781735 -0.006564722 -0.059868615 -0.06092995 0.009868372 -0.036127273
0.09134391 -0.08678934 0.006404162 -0.01780653 4.6111392e-05 -0.014285855 -0.06606696 -0.015775152
-0.011343029 -0.10770767 -0.13884518 0.061366446 0.044944275 0.058749136 0.060918342 0.0656428
0.033937536 -0.108263545 0.020670142 0.044945166 -0.09843974 0.003893948 -0.030913576 -0.005978264
0.10328896 0.073140115 0.021905348 -0.09157317 0.08932506 0.035437018 0.043576993 0.03045764
0.0421777 0.058307745 0.06524974 -0.055100456 -0.085863 0.0035428705 -0.02971194 0.067372814
-0.063078076 0.10229845 0.15126352 0.1354297 0.07526749 0.008802602 0.04362395 -0.1358351
0.11642776 -0.03059317 -0.023316396 -0.050014675 -0.11634761 0.12207023 0.018719906 0.01266452
0.006811378 -0.08242237 0.049378328 -0.049972557 -0.11870425 0.038515933 -6.107578e-05 -0.13998352
-0.06766915 0.08205216 -0.082587734 0.016191317 0.2172405 -0.23477204 -0.07980479 0.062337536
0.091387145 -0.085041866 -0.14192916 -0.102830805 0.062257964 0.0024343263 -0.049440242 0.08096413
0.114767306 -0.036210794 0.0410243 -0.028261509 -0.03202565 0.06404003 -0.008599932 -0.071509495
0.046307668 0.04146953 -0.07871407 0.05961208 0.14907789 0.014907632 -0.022032468 0.042972855
-0.047592744 0.033705138 0.01830696 0.08061341 0.037787717 -0.24274091 0.2537447 -0.39681628
-0.046006564 0.0008188194 0.2054087 -0.0619425 -0.036906037 -0.021755321 -0.16380802 -0.11517336
0.077568695 0.014023187 -0.06859526 -0.066380434 -0.13609995 -0.045423925 0.08105276 0.13126563
-0.1382049 -0.105539314 -0.061343577 0.015076503 -0.009640485 -0.104525946 -0.06066526 -0.07843906
0.0134483 0.11023451 -0.10396291 0.07852933 0.06550325 -0.13156244 0.10755316 -0.05389789
0.11627751 -0.21615988 -0.048313536 -0.09035221 0.047690213 0.05691774 0.015538159 0.01346907
-0.057178054 -0.04999516 -0.009167577 0.111386135 -0.10516596 -0.011895639 -0.0989345 -0.03676902
-0.04119424 -0.08079811 0.0016970799 0.03305812 0.012290194 0.020782255 -0.04982121 -0.0075910916
0.17234597 -0.14063099 -0.024825003 0.13098404 0.10475197 -0.090104945 0.07022972 -0.044086974
-0.083244845 0.060578402 -0.06480308 -0.034964014 0.0063884286 -0.07508695 -0.036066066 0.06533747
0.106591895 -0.08463527 -0.054338563 -0.014146839 0.14422953 -0.0130381305 -0.13072652 0.058425076
-0.004781204 -0.035065323 -0.09021136 -0.11838236 -0.07888913 0.022606311 0.09964703 0.03497168
00000000: d8c5 babd 9f3b 3b3e 2a6d 383d 8850 973e
00000010: 5730 a63e c868 c83e 6fbd afbd 3eaa a1bd
00000020: c2db 1d3e fd70 eebc 46ea c7bd 79f3 63bc
00000030: 0e94 04be b437 9ebe 0023 3d3d 8b54 6bbd
00000040: fc09 393d 9012 afbd d8fe 28be 1797 6d3d
00000050: 8259 233e 1e83 2bbd 1126 1e3d f6a0 38bc
00000060: 79b1 f93c 3d51 6cbe ae00 6fbd 2c21 fbbb
00000070: 208a 52bc 56f7 25bd 6968 9a3e 0ff4 ff3d
00000080: 951d 833d 7afe 353e 4d7a d1bc b082 293d
00000090: 35aa 6dbd 003c 093c 1e77 0cbc 69ad 763d
000000a0: a476 36bd 3759 60bd 3d1c af3d efd8 fd3c
000000b0: 3f6a 363c d4a4 c93d ed95 f1bc b407 35bd
000000c0: dea4 4ebc 1c20 0fbd 89cb 8ebb a1c1 563b
000000d0: d81c 483d 438f e8bd 195f b53c 8341 bc3d
000000e0: 20d5 e7bd 65c7 473d e9c6 b33d e11c d7bb
000000f0: cb38 75bd af91 79bd f4ae 213c 31fa 13bd
00000100: 8412 bb3d 9cbe b1bd 01da d13b 00df 91bc
00000110: bb67 4138 380f 6abc 1d4e 87bd e43a 81bc
00000120: 1dd8 39bc d795 dcbd 6e2d 0ebe 625b 7b3d
00000130: 7d17 383d efa2 703d 8385 793d bb6f 863d
00000140: 1602 0b3d 47b9 ddbd 6e54 a93c 6c18 383d
00000150: c69a c9bd 9b31 7f3b 783e fdbc 50e5 c3bb
00000160: 2a89 d33d 7cca 953d d872 b33c b78a bbbd
00000170: 0ff0 b63d 6826 113d ca7d 323d 4d82 f93c
00000180: 86c2 2c3d 1ad4 6e3d a8a1 853d 04b1 61bd
00000190: f1d8 afbd 812f 683b 7466 f3bc c2fa 893d
000001a0: 142f 81bd da81 d13d d3e4 1a3e 15ae 0a3e
000001b0: d825 9a3d ca38 103c 07af 323d 5b18 0bbe
000001c0: ad71 ee3d 879e fabc 0702 bfbc 30dc 4cbd
000001d0: a847 eebd f5ff f93d 7d5a 993c d97e 4f3c
000001e0: fb31 df3b 0fcd a8bd ee40 4a3d 06b0 4cbd
000001f0: 371b f3bd e2c2 1d3d cf15 80b8 d757 0fbe
00000200: 2096 8abd f60a a83d c223 a9bd a7a3 843c
00000210: 4b74 5e3e 1568 70be b270 a3bd a555 7f3d
00000220: 2f29 bb3d 6e2a aebd e155 11be f598 d2bd
00000230: 3502 7f3d 3889 1f3b da81 4abd 86d0 a53d
00000240: 1f0b eb3d c551 14bd 1909 283d ae84 e7bc
00000250: 542d 03bd 6b27 833d bbe6 0cbc 9273 92bd
00000260: 1cad 3d3d f4db 293d d834 a1bd cc2b 743d
00000270: e0a7 183e 243f 743c 6f7d b4bc 4e04 303d
00000280: 9cf0 42bd 660e 0a3d 7af8 953c a518 a53d
00000290: 4bc7 1a3d 1391 78be d3ea 813e 812b cbbe
000002a0: 6171 3cbd 0aa6 563a a956 523e 6bb7 7dbd
000002b0: c92a 17bd 3738 b2bc 4abd 27be 03e0 ebbd
000002c0: 56dc 9e3d 82c1 653c ac7b 8cbd 77f2 87bd
000002d0: c95d 0bbe 700e 3abd fdfe a53d 7f6a 063e
000002e0: 9685 0dbe ff24 d8bd 6743 7bbd 7003 773c
000002f0: 20f3 1dbc b311 d6bd 237c 78bd a8a4 a0bd
00000300: 4256 5c3c a1c2 e13d 82ea d4bd fcd3 a03d
00000310: 9126 863d 4eb8 06be d544 dc3d 09c4 5cbd
00000320: e722 ee3d 0459 5dbe 6ae4 45bd 940a b9bd
00000330: d056 433d 9322 693d c393 7e3c 60ad 5c3c
00000340: 8933 6abd bac7 4cbd 9b33 16bc 6a1e e43d
00000350: 4061 d7bd ede5 42bc 2c9e cabd 1d9b 16bd
00000360: 4bbb 28bd 7b79 a5bd 8d70 de3a f467 073d
00000370: cf5c 493c 8c3f aa3c 5311 4cbd b1be f8bb
00000380: 767b 303e 9201 10be ce5d cbbc ae20 063e
00000390: 3388 d63d f188 b8bd 99d4 8f3d 8b94 34bd
000003a0: 467c aabd 0f21 783d 7ab7 84bd 6d36 0fbd
000003b0: 0656 d13b 30c7 99bd 03ba 13bd a7cf 853d
000003c0: da4c da3d 4255 adbd 1d92 5ebd 25c8 67bc
000003d0: e8b0 133e e29d 55bc 2cdd 05be 224f 6f3d
000003e0: a5ab 9cbb a8a0 0fbd bcc0 b8bd 7372 f2bd
000003f0: a090 a1bd df30 b93c be13 cc3d 773e 0f3d

model.bigrill.fwd_rnn.cells.0.c_gate.mlp.bias f4 [32]
0.06524303 0.051446773 -0.029906385 0.047725685 0.058511637 0.12629122 0.092030756 -0.03932825
-0.0039351797 0.05180437 0.09585578 -0.0061907615 0.08505327 -0.13371024 0.1304215 0.0810024
0.013494481 0.0011781849 -0.015105096 0.01776902 -0.082784094 0.054481734 0.0768321 -0.0006331281
-0.016881088 -0.031163158 0.044970267 -0.057375494 0.08271134 0.03870473 -0.0058289086 -0.09081219
00000000: 239e 853d dab9 523d 3cfe f4bc 027c 433d
00000010: e6a9 6f3d 7c52 013e 9f7a bc3d a916 21bd
00000020: aef2 80bb d230 543d 0950 c43d dfdb cabb
00000030: 6930 ae3d 56eb 08be 378d 053e 96e4 a53d
00000040: f517 5d3c 536d 9a3a 5d7b 77bc 5690 913c
00000050: b58a a9bd 3d28 5f3d 265a 9d3d 82f8 25ba
00000060: 354a 8abc e149 ffbc be32 383d 9102 6bbd
00000070: 9064 a93d da88 1e3d 6e00 bfbb befb b9bd

model.bigrill.fwd_rnn.first_stage.weight f4 [1, 32, 1]
-0.14612482 0.3262876 0.2977248 0.36251605 -0.3851724 -0.11031599 0.25897166 0.18564007
0.07624164 -0.13316223 -0.38076583 -0.2935348 0.35475162 0.18315521 -0.054645956 -0.15926169
-0.0811902 0.32432207 0.22394441 -0.091525674 0.22884841 0.077100255 0.0068118293 -0.36233926
0.3472969 0.39769772 -0.3141409 -0.12365318 0.1361045 0.32147762 0.20543607 0.24529052
00000000: bfa1 15be 2b0f a73e 636f 983e b49b b93e
00000010: 5135 c5be 5aed e1bd ef97 843e 6e18 3e3e
00000020: 9424 9c3d ae5b 08be bdf3 c2be 314a 96be
00000030: 01a2 b53e 0a8d 3b3e 70d4 5fbd 7f15 23be
00000040: 0c47 a6bd 8b0d a63e af51 653e d071 bbbd
00000050: 3d57 6a3e bde6 9d3d c435 df3b 8884 b9be
00000060: e6d0 b13e 099f cb3e 13d7 a0be e13d fdbd
00000070: fa5e 0b3e b798 a43e d55d 523e 702d 7b3e

model.bigrill.fwd_rnn.spatial_decoder.lin_in.weight f4 [32, 34, 1]
-0.13075344 0.05219309 0.073030576 0.122145995 -0.035938546 0.12826382 -0.0061690737 -0.006574378
0.13965921 -0.014292181 0.1599162 0.039251223 0.021682328 -0.10177491 0.022747496 -0.043184455
-0.055359293 -0.22765067 -0.20517522 0.0037522474 -0.21859659 -0.006662748 0.0051178457 0.17794152
-0.14235152 -0.074580416 0.15593776 0.2321026 0.102248 -0.23665756 -0.023183122 -0.14998445
0.11832249 -0.17800395 -0.049121253 -0.00042851522 -0.018645786 0.12144002 -0.061919633 -0.16388498
-0.26032436 -0.014075382 0.12126705 0.1882381 -0.12881176 -0.099668674 -0.05093899 0.04599336
-0.06834715 -0.024440499 -0.002076249 -0.15610962 0.04991774 0.09316005 -0.20162584 -0.26390132
0.13859086 0.020882074 -0.018208444 0.022946507 0.09070212 0.09131502 -0.08335009 0.00455652
0.13366628 0.097600184 -0.077193044 -0.12820949 -0.12783867 -0.028139982 0.09531134 -0.11996017
0.041357864 0.10662107 0.031504776 0.16242234 0.010632855 -0.02218848 0.093039386 -0.2566924
-0.038470004 0.012901966 -0.14049041 0.14402242 0.02615521 -0.09255946 -0.12491609 0.2579085
-0.047935624 -0.06209708 0.0053162947 0.0012214809 -0.078248866 0.018843299 0.017024148 0.15962365
0.046153832 -0.17437658 0.18882851 0.05353834 0.03197909 0.18338175 0.18052487 0.11441536
-0.07645185 0.07631198 -0.13467836 0.055804163 0.04057186 -0.17664745 -0.10284359 0.099071294
0.091068186 -0.03788078 0.14031942 0.15726462 0.11158013 0.1507241 -0.052872706 0.12499005
-0.016830515 -0.051534373 -0.012177262 -0.060555752 0.07391668 -0.020979466 0.05035684 0.13606362
0.014098685 0.06536237 -0.013270727 -0.065791324 0.17700258 0.014539723 0.024039943 0.117373325
-0.13167457 -0.0017539379 0.08691915 0.0703184 0.15209226 0.16328044 -0.22965097 0.08147296
0.039530743 0.25702712 0.041249193 -0.12585759 0.12548727 -0.12272734 0.11834332 0.05540332
0.04519253 0.089990884 0.12001286 -0.050609022 0.0066303476 -0.20809053 0.13087155 0.12081089
0.06556065 -0.16962008 -0.11560044 0.12101981 0.15263054 -0.054482188 0.26119897 -0.07958435
0.22035357 -0.11997691 0.14629412 -0.10281643 -0.0052217236 0.18565226 0.1375709 -0.08630401
0.053406257 0.093369074 -0.06457756 0.054840043 0.11524842 -0.12929419 0.14634238 0.08723593
-0.030364556 -0.00088636746 0.12169465 -0.25378215 -0.11652286 -0.04666706 0.036684785 -0.06501219
-0.16728474 -0.13470878 0.10211699 0.0253446 -0.054412156 0.11626406 0.121937856 -0.1518828
0.051688496 -0.10212126 0.13546379 0.04783018 0.028251512 0.03215972 -0.115642145 -0.012281504
-0.064506404 0.012123475 0.29481405 -0.0032455658 -0.12010885 0.061377004 -0.030475106 0.055967778
0.10639885 -0.06132811 -0.03466521 -0.034089267 -0.10558094 0.08449156 0.16604656 0.11117143
0.018991143 -0.0039132237 -0.11059127 0.060369533 -0.010091107 -0.07294065 0.015870728 -0.05243779
0.2957345 0.18060078 -0.08324799 0.19254777 0.09649368 0.014372835 -0.07233489 -0.16325274
-0.10651091 -0.045333948 -0.1902557 -0.13486378 0.052176207 -0.012307808 0.022918649 0.13212495
0.19783492 0.1688936 -0.1793485 0.21472296 0.019397032 -0.09806511 -0.045520835 0.43369478
00000000: 3be4 05be 6cc8 553d 0e91 953d ae27 fa3d
00000010: 4c34 13bd 9757 033e f125 cabb e16d d7bb
00000020: d302 0f3e c029 6abc 13c1 233e e4c5 203d
00000030: 239f b13c 5d6f d0bd f558 ba3c 2fe2 30bd
00000040: 6dc0 62bd 421d 69be 7419 52be 44e8 753b
00000050: c9d7 5fbe 2e53 dabb 9ab3 a73b 4d36 363e
00000060: 99c4 11be 9ebd 98bd 26ae 1f3e 4eac 6d3e
00000070: 6667 d13d 5c56 72be 88ea bdbc 8695 19be
00000080: 1053 f23d ab46 36be 5e33 49bd 57aa e0b9
00000090: 0cbf 98bc 8cb5 f83d 719f 7dbd 77d1 27be
000000a0: 3c49 85be 6e9c 66bc dc5a f83d 7dc1 403e
000000b0: 3be7 03be 171f ccbd 67a5 50bd 8963 3c3d
000000c0: 97f9 8bbd 7137 c8bc ae11 08bb 33db 1fbe
000000d0: 8b76 4c3d b2ca be3d 0177 4ebe 131e 87be
000000e0: c3ea 0d3e e210 ab3c e029 95bc 50fa bb3c
000000f0: 08c2 b93d 5f03 bb3d 74b3 aabd dc4e 953b
00000100: d0df 083e 9be2 c73d 6317 9ebd 5949 03be
00000110: 24e8 02be d285 e6bc 9832 c33d adad f5bd
00000120: dd66 293d 265c da3d 270b 013d 0b52 263e
00000130: 6d35 2e3c 9dc4 b5bc 6f8b be3d 306d 83be
00000140: b992 1dbd c562 533c b8dc 0fbe 9d7a 133e
00000150: 7343 d63c d08f bdbd 02d4 ffbd 950c 843e
00000160: 2558 44bd 8259 7ebd 5034 ae3b 191a a03a
00000170: f140 a0bd 435d 9a3c 3a76 8b3c 6274 233e
00000180: cd0b 3d3d c68f 32be 435c 413e 054b 5b3d
00000190: 82fc 023d 6dc8 3b3e 83db 383e 9a52 ea3d
000001a0: ca92 9cbd 7549 9c3d 20e9 09be e892 643d
000001b0: ae2e 263d 12e3 34be a99f d2bd e4e5 ca3d
000001c0: f581 ba3d e028 1bbd e5af 0f3e fa09 213e
000001d0: 2084 e43d 6b57 1a3e 0d91 58bd c9fa ff3d
000001e0: 26e0 89bc b515 53bd 2483 47bc 4f09 78bd
000001f0: a161 973d 21dd abbc f942 4e3d 4354 0b3e
00000200: 2cfe 663c b5dc 853d 776d 59bc 9abd 86bd
00000210: 2a40 353e 0538 6e3c 6aef c43c 6d61 f03d
00000220: b3d5 06be 64e4 e5ba ab02 b23d 1803 903d
00000230: 13be 1b3e fd32 273e a029 6bbe 4cdb a63d
00000240: fdea 213d 0f99 833e eaf4 283d d0e0 00be
00000250: bc7f 003e 7958 fbbd fc5d f23d 97ee 623d
00000260: cd1b 393d 244d b83d 4dc9 f53d 684b 4fbd
00000270: 6343 d93b af15 55be 3103 063e b36b f73d
00000280: a944 863d e3b0 2dbe ecbf ecbd 3cd9 f73d
00000290: 2e4b 1c3e b728 5fbd dfbb 853e 1ffd a2bd
000002a0: 5ea4 613e 74b6 f5bd 20ce 153e 6c91 d2bd
000002b0: fe1a abbb a01b 3e3e 63df 0c3e 28c0 b0bd
000002c0: 85c0 5a3d 4938 bf3d 3d41 84bd f49f 603d
000002d0: 5d07 ec3d b265 04be c7da 153e c0a8 b23d
000002e0: 17bf f8bc 1d5b 68ba 0b3b f93d bcef 81be
000002f0: 8aa3 eebd f625 3fbd c942 163d 1c25 85bd
00000300: b14c 2bbe 19f1 09be b622 d13d 7b9f cf3c
00000310: 48df 5ebd da1b ee3d 8eba f93d 2a87 1bbe
00000320: 51b7 533d f324 d1bd 05b7 0a3e 94e9 433d
00000330: b76f e73c e9b9 033d cad5 ecbd 5d38 49bc
00000340: ef1b 84bd 8aa1 463c def1 963e 8fb3 54bb
00000350: a1fb f5bd 7466 7b3d eea6 f9bc 783e 653d
00000360: a4e7 d93d 2f33 7bbd 1bfd 0dbd 30a1 0bbd
00000370: d23a d8bd e909 ad3d 1c08 2a3e d9ad e33d
00000380: 5093 9b3c 803a 80bb ad7d e2bd 0b46 773d
00000390: 2c55 25bc e861 95bd 5403 823c 02c9 56bd
000003a0: 836a 973e 69ef 383e ec7d aabd 3e2b 453e
000003b0: 7a9e c53d 0a7c 6b3c 5124 94bd ba2b 27be
000003c0: 6422 dabd 17b0 39bd 64d2 42be bb19 0abe
000003d0: b8b6 553d b0a6 49bc e4bf bb3c c34b 073e
000003e0: 3d95 4a3e 72f2 2c3e 22a7 37be 56e0 5b3e
000003f0: 86e6 9e3c 5cd6 c8bd 0e74 3abd 3e0d de3e

model.bigrill.fwd_rnn.spatial_decoder.lin_in.bias f4 [32]
0.15960549 0.085107684 0.033753477 0.06747881 0.21304183 0.056042477 0.083461486 0.01835058
0.03997412 0.06446215 0.09446326 0.10366055 -0.080173306 0.15143755 -0.12679155 -0.04229138
-0.081943505 0.037928455 0.089882225 0.11036309 0.011183751 0.11243161 0.050231557 -0.08653569
0.009599108 0.15302229 -0.03330911 -0.05093131 0.012427613 0.055363785 0.08637636 0.13454886
00000000: 9f6f 233e f04c ae3d 1641 0a3d 5532 8a3d
00000010: a327 5a3e cc8c 653d dbed aa3d f553 963c
00000020: e7bb 233d bb04 843d f475 c13d fc4b d43d
00000030: e731 a4bd 7212 1b3e a5d5 01be ba39 2dbd
00000040: ffd1 a7bd de5a 1b3d 2c14 b83d 0b06 e23d
00000050: 0d3c 373c 8b42 e63d 9bbf 4d3d a039 b1bd
00000060: 9445 1d3c e0b1 1c3e 226f 08bd 599d 50bd
00000070: 309d 4b3c 23c5 623d 17e6 b03d 2dc7 093e

model.bigrill.fwd_rnn.spatial_decoder.graph_conv.mlp.weight f4 [32, 64, 1, 1]
0.0973966 0.13343863 0.08411095 -0.06796869 0.0051482986 -0.0062802644 -0.1329647 0.11505781
0.21513638 0.086153045 -0.01905767 -0.054503802 0.000560083 0.10946976 -0.103983216 -0.11124335
-0.20162116 -0.07931315 -0.13280779 -0.06626995 -0.052447055 -0.03563722 0.14599863 -0.016734006
-0.023892518 0.169226 -0.020605918 0.027595276 -0.00426408 -0.039107993 0.14217056 0.031115215
0.013131264 0.19681874 0.11176547 -0.091701806 0.0020278152 0.06570869 0.052582454 0.003376665
0.06071051 0.23301342 -0.06716305 -0.008182433 -0.082075685 -0.14618304 0.038730342 0.12253621
-0.062115695 -0.10477533 0.038967237 -0.14664505 0.0438346 0.009982867 0.13265301 0.12572329
-0.024883637 0.27263245 -0.038237914 0.105326414 0.086489044 -0.124639206 -0.07152922 0.25164914
-0.049207237 0.027116545 -0.05882777 -0.119109385 -0.12022579 0.06176402 -0.058406 0.06752166
-0.09876182 -0.016257364 0.15311767 0.05326899 0.0169223 0.08013085 -0.001953551 -0.11408933
0.08716233 -0.15619354 -0.024118401 -0.08003892 0.0012399558 -0.074118406 -0.08731141 -0.12819715
0.08912256 0.030390007 0.0521412 0.10260929 -0.13227442 0.05736479 -0.06838447 -0.1731236
-0.12469446 -0.07697013 -0.18872136 0.18309818 -0.14456134 0.15001565 -0.08279414 -0.0967087
-0.117598586 -0.07878842 0.034063954 0.06047448 0.036990132 -0.00276005 -0.113231644 -0.029722229
0.055719953 0.003289461 -0.045085073 0.038043424 -0.17949966 -0.029619092 -0.041823827 -0.0037880451
0.009504283 0.04413597 0.030332826 0.18023022 -0.17106782 0.0102620665 -0.18072937 -0.13805164
-0.060862552 -0.09582396 0.043640938 0.06677969 -0.11769358 0.007112259 -0.04632425 -0.14697094
-0.158104 -0.108907886 0.07953957 0.10248826 0.009395418 -0.017563054 0.04732393 0.10040267
-0.05544123 0.04831378 0.029792193 0.132839 -0.14574626 -0.08811746 0.051918954 -0.14986843
-0.018031592 -0.052983582 0.0069689644 0.12772438 0.024194432 -0.090247646 -0.087090544 0.010369522
-0.12011139 -0.08547897 0.042047195 -0.026565878 -0.020937674 0.13197246 0.083599225 -0.0039207484
0.07561512 -0.2793729 -0.024902971 0.037024006 -0.20463917 0.06991642 -0.17599623 -0.019270292
-0.06734484 -0.2135065 -0.08610011 0.014779359 0.038726766 -0.10241668 -0.022389675 0.0055595236
-0.0685671 0.04033628 0.031173106 0.11669716 -0.101671785 -0.004435141 -0.18462719 -0.20351988
0.08414871 0.0021395485 -0.035404634 0.088485695 -0.020906512 0.068294875 -0.122375324 0.119101055
0.18782134 -0.00786169 -0.09593943 -0.100595824 0.11745249 0.090774804 -0.08067813 0.015562304
-0.2565006 -0.046111304 -0.18790457 -0.020852415 -0.06438835 0.15492384 0.09208326 0.13744497
0.23591633 0.22370185 0.03681766 0.09511497 -0.04790559 -0.14566734 0.118759006 0.026699306
-0.057960335 -0.026444685 0.059046336 -0.053924434 -0.053062763 -0.016658427 -0.115697935 -0.10804785
-0.09921427 0.40721884 0.032951258 0.020518234 0.09911598 -0.15710862 0.10417909 -0.057328075
0.10772493 0.028254792 0.04911544 0.06955063 -0.13040224 0.13852534 0.14729115 0.035016578
-0.02700308 0.19566338 -0.043322343 0.09661563 0.11317422 0.08526065 0.006889756 0.01377415
00000000: de77 c73d 23a4 083e 5d42 ac3d 2b33 8bbd
00000010: 0fb3 a83b adca cdbb e627 08be 6ea3 eb3d
00000020: b64c 5c3e 0271 b03d d51e 9cbc 613f 5fbd
00000030: 89d2 123a ae31 e03d 27f5 d4bd 8ed3 e3bd
00000040: c775 4ebe ef6e a2bd c4fe 07be 8ab8 87bd
00000050: b9d2 56bd 55f8 11bd aa80 153e c115 89bc
00000060: 3eba c3bc 9549 2d3e becd a8bc 7d0f e23c
00000070: b2b9 8bbb b42f 20bd 2995 113e 56e5 fe3c
00000080: 8324 573c da8a 493e 4be5 e43d 28ce bbbd
00000090: 18e5 043b 4792 863d b360 573d 0a4b 5d3b
000000a0: 95ab 783d 129b 6e3e c88c 89bd 9d0f 06bc
000000b0: 4c17 a8bd 02b1 15be b5a3 1e3d 44f4 fa3d
000000c0: 076d 7ebd 7394 d6bd 1c9c 1f3d 1f2a 16be
000000d0: e98b 333d 2e8f 233c 31d6 073e 9bbd 003e
000000e0: c5d8 cbbc 7b96 8b3e 5c9f 1cbd 60b5 d73d
000000f0: 2b21 b13d d742 ffbd e97d 92bd 28d8 803e
00000100: 878d 49bd 8423 de3c 63f5 70bd 9fef f3bd
00000110: f038 f6bd 45fc 7c3d 213b 6fbd cc48 8a3d
00000120: a343 cabd 2a2e 85bc e1ca 1c3e 9630 5a3d
00000130: a3a0 8a3c a51b a43d 2607 00bb aba7 e9bd
00000140: 2a82 b23d 33f1 1fbe f493 c5bc 72eb a3bd
00000150: 0386 a23a 64cb 97bd 53d0 b2bd 1d46 03be
00000160: e485 b63d 77f4 f83c 0392 553d d224 d23d
00000170: f272 07be 58f7 6a3d 280d 8cbd 5047 31be
00000180: cf5f ffbd 84a2 9dbd 2c40 41be 177e 3b3e
00000190: e307 14be b49d 193e f98f a9bd 360f c6bd
000001a0: 87d7 f0bd d35b a1bd a586 0b3d 17b4 773d
000001b0: f782 173d f4e1 34bb fee5 e7bd 087c f3bc
000001c0: 9b3a 643d ff93 573b 20ab 38bd 6cd3 1b3d
000001d0: c2ce 37be bda3 f2bc 764f 2bbd da40 78bb
000001e0: dab7 1b3c ebc7 343d 8c7c f83c 458e 383e
000001f0: 672c 2fbe 3a22 283c 1f11 39be 695d 0dbe
00000200: 034b 79bd 5a3f c4bd d7c0 323d cac3 883d
00000210: 5509 f1bd f40d e93b 7fbe 3dbd 8d7f 16be
00000220: 04e6 21be 190b dfbd a4e5 a23d 5de5 d13d
00000230: 3def 193c 65e0 8fbc bdd6 413d ea9f cd3d
00000240: 5816 63bd ace4 453d c20e f43c f206 083e
00000250: 823e 15be ed76 b4bd f8a8 543d 1c77 19be
00000260: fdb6 93bc 5005 59bd e95b e43b 2eca 023e
00000270: 6733 c63c c2d3 b8bd 875c b2bd ede4 293c
00000280: f6fc f5bd 990f afbd ae39 2c3d afa0 d9bc
00000290: 7c85 abbc ca23 073e 1236 ab3d 9f79 80bb
000002a0: 1adc 9a3d f709 8fbe 5101 ccbc 7ca6 173d
000002b0: ee8c 51be 5730 8f3d 5b38 34be bbdc 9dbc
000002c0: 17ec 89bd 73a1 5abe 4155 b0bd 2025 723c
000002d0: f59f 1e3d d6bf d1bd 8d6a b7bc aa2c b63b
000002e0: e86c 8cbd a837 253d be5e ff3c ecfe ee3d
000002f0: 4c39 d0bd a954 91bb e90e 3dbe 8467 50be
00000300: 2956 ac3d ab37 0c3b 7304 11bd fd37 b53d
00000310: 2244 abbc 2fde 8b3d ea9f fabd 41eb f33d
00000320: 3d54 403e 51ce 00bc e47b c4bd 2f05 cebd
00000330: ee8a f03d 24e8 b93d 933a a5bd 09f9 7e3c
00000340: 0c54 83be 35df 3cbd 0e6a 40be afd2 aabc
00000350: 0ade 83bd 5ba4 1e3e 2696 bc3d 60be 0c3e
00000360: 0d94 713e 1912 653e 1dce 163d a3cb c23d
00000370: a738 44bd d229 15be ec37 f33d 81b8 da3c
00000380: d167 6dbd 86a2 d8bc 92da 713d dedf 5cbd
00000390: 5758 59bd 4177 88bc 0af3 ecbd 3148 ddbd
000003a0: da30 cbbd fd7e d03e e6f7 063d db15 a83c
000003b0: 52fd ca3d 15e1 20be d95b d53d d8d0 6abd
000003c0: e39e dc3d 9876 e73c 462d 493d 9070 8e3d
000003d0: 2a88 05be 96d9 0d3e 7ed3 163e 8b6d 0f3d
000003e0: 9035 ddbc fb5b 483e c572 31bd 6ade c53d
000003f0: e3c7 e73d 239d ae3d 76c3 e13b f9ac 613c

model.bigrill.fwd_rnn.spatial_decoder.graph_conv.mlp.bias f4 [32]
0.08104693 0.0074700783 0.05065396 0.10157093 0.046085775 -0.06882619 0.090167314 -0.02042105
0.046742205 -0.07601399 -0.14210698 -0.055294372 -0.13569158 -0.11138826 0.014384601 -0.10131706
-0.08604449 -0.022144591 -0.08157715 0.17296769 0.012954378 0.038309135 -0.12372246 -0.052216135
-0.0852755 -0.04396872 0.055464104 0.12635538 -0.10762076 0.12457313 -0.12307695 -0.082771175
00000000: effb a53d 8fc7 f43b 877a 4f3d 6b04 d03d
00000010: 70c4 3c3d bff4 8cbd a4a9 b83d 0c4a a7bc
00000020: c174 3f3d 39ad 9bbd 7e84 11be 5a7c 62bd
00000030: bcf2 0abe 871f e4bd 64ad 6b3c 527f cfbd
00000040: 1838 b0bd 9368 b5bc ec11 a7bd 711e 313e
00000050: 993e 543c 0aea 1c3d 3362 fdbd 96e0 55bd
00000060: eca4 aebd 8b18 34bd 542e 633d 4e63 013e
00000070: 4668 dcbd 3220 ff3d c50f fcbd ef83 a9bd

model.bigrill.fwd_rnn.spatial_decoder.lin_out.weight f4 [32, 64, 1]
0.10161753 -0.051280327 -0.002013647 0.20319073 -0.26110592 -0.01755793 -0.13323937 -0.0114001855
-0.0038280636 -0.06380456 -0.0029820353 0.2200353 -0.06395375 0.038872853 -0.04615673 0.13076048
0.14009677 0.1374635 0.005452374 0.039740533 0.3085369 -0.15490101 0.016325995 -0.17111565
0.1043586 -0.15546651 0.10011499 0.122150384 0.025480874 0.017717648 0.105474785 -0.0064420975
-0.17174627 0.0319454 0.17785458 0.14110643 0.04680545 -0.10879742 -0.0573737 0.10076891
-0.15433265 -0.052035913 -0.06710212 0.039252684 0.0726968 0.1849445 0.01576698 0.3923848
-0.028439468 -0.10826643 0.14027068 -0.15100442 -0.16399008 -0.07562195 -0.22483036 0.17391461
0.21564208 -0.17672303 0.06197103 -0.13903525 -0.06681938 -0.16844779 0.15707333 0.06143095
0.027065232 0.0752538 -0.0898269 0.093201526 -0.019988608 -0.069157556 0.116705894 0.12254756
0.07458734 0.04335222 0.08955595 -0.043740675 -0.06351092 0.12928519 -0.07452107 -0.10975538
0.16664533 0.038494654 0.043678407 0.02878855 0.15208995 0.07743826 -0.103019364 -0.08137276
0.06716808 0.06302171 -0.101562776 0.01271034 0.10294068 0.10930074 -0.03148262 -0.103248395
-0.39004552 0.0579341 0.113606006 -0.07268879 0.07939034 -0.011765165 0.08851717 0.33970693
-0.35567963 0.052692026 0.20638281 0.10303527 -0.056746162 0.10957821 -0.0015326882 -0.012316489
0.03788566 -0.14471868 0.22906652 0.042829316 0.033393644 -0.11022663 -0.2794893 -0.13247044
-0.035793245 -0.12229295 -0.017460132 0.09093137 -0.10947174 0.0027084511 0.12683856 0.14487755
0.08433229 0.01519641 -0.08817734 0.07963052 0.005541925 -0.04092977 -0.06900088 0.13412604
0.08753974 0.043752935 -0.04180617 -0.13866605 0.06279463 -0.009979659 0.09806232 -0.07476763
-0.079642385 0.068154514 0.08581294 0.017393434 -0.02118126 -0.075885646 0.010395843 0.039898507
-0.11234696 0.09996962 0.07647549 -0.036616877 0.062953085 -0.013507151 -0.1394884 -0.063830286
0.050480768 -0.014735719 -0.0076928996 -0.06118272 -0.1662042 -0.07880013 0.013826734 0.33042052
-0.17724107 0.013603333 -0.18622634 -0.13224223 0.12407905 -0.0013946973 -0.049229234 -0.12821218
-0.0665652 0.10513117 0.02976157 -0.023004502 -0.05090273 0.10622065 -0.060164224 -0.15178318
0.22619857 0.23960999 -0.03722211 -0.16596337 0.047647227 0.068627216 0.09062511 -0.046881415
0.037465043 -0.013842692 -0.1432806 0.08447006 -0.04501918 0.0888911 0.0560046 -0.05096277
-0.0032680677 0.04231343 0.10636012 -0.0026153238 0.07454125 0.023334146 0.080448136 0.058325555
-0.08381164 0.028143888 0.11663842 0.05180116 0.045721028 -0.006832845 -0.052019972 -0.0674958
-0.0055575483 0.11221423 0.009879455 0.12027975 -0.09235777 -0.010158004 -0.028391894 -0.07889469
0.09555689 0.11742534 0.06642249 0.026822323 0.072477795 -0.03404404 -0.16306517 -0.0024649838
-0.1274372 0.19284494 0.004518742 0.06325396 -0.20207201 -0.090336986 0.11359831 0.11423303
0.04796759 -0.1739105 -0.0011481042 0.09216557 -0.018463416 -0.096401684 0.014877869 0.19578435
-0.11022793 -0.19914089 0.15065259 0.11681938 -0.25307694 -0.098391496 -0.14926381 -0.09729338
00000000: da1c d03d 520b 52bd 64f7 03bb 3b11 503e
00000010: adaf 85be a6d5 8fbc e76f 08be d8c7 3abc
00000020: 40e0 7abb f7ab 82bd 406e 43bb ef50 613e
00000030: 2ffa 82bd 2439 1f3d d70e 3dbd 13e6 053e
00000040: 8775 0f3e 3bc3 0c3e d4a9 b23b f8c6 223d
00000050: 8cf8 9d3e 5f9e 1ebe 18be 853c f138 2fbe
00000060: f6b9 d53d 9d32 1fbe 1609 cd3d fb29 fa3d
00000070: 44bd d03c 9a24 913c 2a03 d83d 3b18 d3bb
00000080: 41de 2fbe 2ed9 023d 831f 363e 347e 103e
00000090: 12b7 3f3d 2fd1 debd af00 6bbd ee5f ce3d
000000a0: 6109 1ebe 9c23 55bd d66c 89bd 6cc7 203d
000000b0: 0fe2 943d 1762 3d3e c129 813c a9e6 c83e
000000c0: e3f9 e8bc caba ddbd 1ea3 0f3e e7a0 1abe
000000d0: 04ed 27be aedf 9abd ee39 66be ac16 323e
000000e0: 47d1 5c3e e2f6 34be 56d5 7d3d 425f 0ebe
000000f0: 99d8 88bd 947d 2cbe d5d7 203e 059f 7b3d
00000100: e8b7 dd3c aa1e 9a3d 2af7 b7bd 71e0 be3d
00000110: 26bf a3bc 7aa2 8dbd 8003 ef3d 37fa fa3d
00000120: 3fc1 983d 1992 313d 1c69 b73d 6c29 33bd
00000130: 0312 82bd 5663 043e 819e 98bd 6ec7 e0bd
00000140: 13a5 2a3e 92ac 1d3d 21e8 323d f7d5 eb3c
00000150: 78bd 1b3e f397 9e3d d1fb d2bd c3a6 a6bd
00000160: 6b8f 893d 8711 813d 2500 d0bd 083f 503c
00000170: 90d2 d23d 11d9 df3d ebf3 00bd e573 d3bd
00000180: 0cb4 c7be 4f4c 6d3d 44aa e83d dcdd 94bd
00000190: 6797 a23d aec2 40bc 7d48 b53d 11ee ad3e
000001a0: a41b b6be 98d3 573d 0456 533e 2804 d33d
000001b0: aa6e 68bd 8a6a e03d 7be4 c8ba 19cb 49bc
000001c0: fe2d 1b3d 2231 14be 6a90 6a3e cb6d 2f3d
000001d0: c6c7 083d 80be e1bd 3919 8fbe 55a6 07be
000001e0: f09b 12bd ba74 fabd 8d08 8fbc 3a3a ba3d
000001f0: b832 e0bd 4580 313b f8e1 013e c85a 143e
00000200: 68b6 ac3d 5dfa 783c 5296 b4bd 5315 a33d
00000210: 0999 b53b f9a5 27bd 5550 8dbd 5658 093e
00000220: 0948 b33d 4736 333d f23c 2bbd 79fe 0dbe
00000230: 799a 803d b981 23bc e6d4 c83d c51f 99bd
00000240: 8c1b a3bd 9894 8b3d b2be af3d ad7c 8e3c
00000250: 5284 adbc ef69 9bbd 5353 2a3c 9e6c 233d
00000260: 2a16 e6bd dfbc cc3d 2f9f 9c3d 94fb 15bd
00000270: 8ced 803d 194d 5dbc 0cd6 0ebe 74b9 82bd
00000280: ecc4 4e3d 166e 71bc b814 fcbb bb9a 7abd
00000290: 6f31 2abe f661 a1bd 8789 623c e12c a93e
000002a0: af7e 35be 84e0 5e3c 1eb2 3ebe 826a 07be
000002b0: 281d fe3d 47ce b6ba 98a4 49bd 0e4a 03be
000002c0: 5653 88bd 034f d73d 89ce f33c f073 bcbc
000002d0: 627f 50bd 368a d93d c36e 76bd 0d6d 1bbe
000002e0: 99a0 673e 525c 753e 3676 18bd 4df2 29be
000002f0: bd29 433d 6d8c 8c3d a899 b93d ba06 40bd
00000300: f274 193d 75cc 62bc 26b8 12be a4fe ac3d
00000310: 0866 38bd 890c b63d 1465 653d 56be 50bd
00000320: 142d 56bb d950 2d3d 56d3 d93d da65 2bbb
00000330: 15a9 983d 4027 bf3c fec1 a43d c7e6 6e3d
00000340: 70a5 abbd 038e e63c 20e0 ee3d 742d 543d
00000350: f945 3b3d 0fe6 dfbb e512 55bd 3d3b 8abd
00000360: 181c b6bb 93d0 e53d 70dd 213c 3b55 f63d
00000370: 1226 bdbd c26d 26bc 1e96 e8bc 8a93 a1bd
00000380: 55b3 c33d b27c f03d 8408 883d 7dba db3c
00000390: 3d6f 943d c371 0bbd 8efa 26be 918b 21bb
000003a0: e67e 02be 2579 453e f511 943b 4b8b 813d
000003b0: f7eb 4ebe 9902 b9bd 3ba6 e83d 02f3 e93d
000003c0: aa79 443d 9815 32be fc7b 96ba 4dc1 bc3d
000003d0: 9740 97bc 3f6e c5bd 4ec2 733c b17b 483e
000003e0: 2ebf e1bd 97eb 4bbe ac44 1a3e 003f ef3d
000003f0: 4d93 81be 7b81 c9bd 9dd8 18be c041 c7bd

model.bigrill.fwd_rnn.spatial_decoder.lin_out.bias f4 [32]
0.12112586 -0.16205896 0.017182713 0.014410669 -0.043303452 -0.003308118 -0.019485887 -0.11630574
-0.08127231 0.021123413 -0.17417598 -0.08050036 0.14894947 -0.06988602 -0.12570953 0.014549526
0.114965826 -0.08001397 0.08360141 -0.03742016 0.010195851 0.028087987 -0.0540682 -0.0095031345
0.025495207 0.12306868 -0.09678535 -0.08135616 -0.0042678704 -0.0819145 0.07317525 -0.029665912
00000000: d610 f83d c9f2 25be c3c2 8c3c ba1a 6c3c
00000010: f65e 31bd 03cd 58bb dea0 9fbc b431 eebd
00000020: 1972 a6bd 020b ad3c 305b 32be 5fdd a4bd
00000030: 3686 183e 6720 8fbd 00ba 00be 2361 6e3c
00000040: 3473 eb3d 5dde a3bd 3737 ab3d e245 19bd
00000050: 800c 273c c718 e63c 9e76 5dbd 09b3 1bbc
00000060: 53db d03c 6f0b fc3d 6637 c6bd 0f9e a6bd
00000070: 7ed9 8bbb cac2 a7bd e8dc 953d ed05 f3bc

model.bigrill.fwd_rnn.spatial_decoder.read_out.weight f4 [1, 64, 1]
0.4852382 0.03180318 0.35141855 -0.17976281 0.16210157 -0.12744896 0.4001053 0.23134288
0.2667168 -0.16841665 0.34633175 0.31309897 -0.21391478 0.3347943 -0.29447997 -0.13821533
-0.2238333 0.25892282 -0.12796126 0.24491145 -0.12892455 -0.023367958 0.4094736 -0.14809912
-0.40988836 0.07543747 0.26511648 -0.07122916 -0.4316619 0.21223982 -0.12983899 -0.21010436
0.07725328 0.11702712 0.1291733 0.056168616 0.011295336 -0.017744822 0.16929442 -0.0072101643
-0.07383512 -0.18598078 0.022458944 -0.06915666 0.15646477 -0.100795865 0.08872081 -0.10814098
-0.14208865 0.23435234 0.17901763 -0.20303452 0.027280612 0.026613887 -0.10903538 -0.16314946
0.18799245 -0.036884382 -0.10222251 -0.24487926 0.14758012 0.0573682 0.12260135 0.07888166
00000000: 2471 f83e 0d44 023d 22ed b33e be13 38be
00000010: f4fd 253e fb81 02be 9ada cc3e 26e5 6c3e
00000020: 1b8f 883e 6a75 2cbe 6552 b13e 824e a03e
00000030: 7a0c 5bbe 296a ab3e 14c6 96be 5288 0dbe
00000040: 8e34 65be 8891 843e 4708 03be 11ca 7a3e
00000050: cc04 04be 296e bfbc 86a6 d13e 4ca7 17be
00000060: e3dc d1be f67e 9a3d 59bd 873e 98e0 91bd
00000070: ca02 ddbe 6555 593e 83f4 04be 9925 57be
00000080: f836 9e3d eaab ef3d 0146 043e 1011 663d
00000090: 1310 393c 975d 91bc 845b 2d3e 3e43 ecbb
000000a0: de36 97bd bf71 3ebe d2fb b73c 02a2 8dbd
000000b0: 4d38 203e 106e cebd 42b3 b53d 0579 ddbd
000000c0: b07f 11be 0ffa 6f3e 6650 373e 48e8 4fbe
000000d0: 977b df3c 5e05 da3c f14d dfbd a710 27be
000000e0: 1881 403e 1414 17bd 095a d1bd a1c1 7abe
000000f0: 3e1f 173e ebfa 6a3d 6b16 fb3d b58c a13d
