logs/discharge_point/grin/2023-11-16_14-46-22_857031133/epoch=48-step=4263.ckpt (torch, 708068 bytes, 102 tensors)

model.bigrill.emb f4 [8, 20]
00000000: 2e5e 22be 66de 6ebe 7147 933e 81fa b7bc
00000010: 245f b5be 3381 d9bd cf75 a9be 1452 073f
00000020: 8175 873e d9f5 9a3e 4512 6c3e 5cba 963e
00000030: 182e 0cbf 8e89 093d 672e e8bd 5a4e 7d3d
00000040: f264 a0be 8210 823d 2ea3 5f3e 4fff 083f
00000050: d3c9 45be d843 acbe 89c5 14be 41fd 043f
00000060: ae76 4a3e 9ec4 c73e 51aa d63e 91c2 d83e
00000070: 419a 8f3e 5001 b0bd 50ec c13d 041f a1bd
00000080: 2cd7 1dbf 329a 61be d835 ae3e fbfe e4bd
00000090: 6780 bd3d 9953 283f c5b3 29be 6d94 7d3e
000000a0: 99d9 dcbe e0e8 23bf ec9b 97be b3d5 85be
000000b0: 2ae2 1cbf 3656 2ebd afa7 583c 6b34 27bf
000000c0: d4b9 25bf 5058 3dbf d1da cebe c79d a5be
000000d0: 692c 31be 82c9 16bf 8ac3 1bbf 21b4 8a3d
000000e0: 3655 35bf a724 17bf c07c d1be 7da3 3bbf
000000f0: ba45 6b3f 005f bd3e 8190 573f 77b2 273f
00000100: 6751 bf3e c157 493f 6037 3c3f 1658 be3d
00000110: cd6e dd3e 8af1 063f 1e7d b83e 01cf 303f
00000120: ffe3 623e 9637 b83d e562 46bc 4899 a43e
00000130: dbe3 b7bc 746e b83e d897 253f 22de b23e
00000140: bb57 a4bd 95ef 043f 1e63 8b3f d8f1 c13e
00000150: e3e5 013f 6a8e 513f 3fb6 3b3f 10cc 173f
00000160: 45c0 bb3d 989d 723e 0bc5 bc3e 9318 913f
00000170: 625a 2e3f 4789 013f ceff 5e3e 37dd 343f
00000180: a64d 413f d1f8 543f ea93 183f 7ceb bdbd
00000190: 8ebb 8b3e 6e15 4abe 94e7 87bc 9bac 813e
000001a0: d6f5 423e d40c f63d 1feb ac3e 33b7 823e
000001b0: 2697 9b3d 7d1e 74bc 40de 313e 4d37 e7bd
000001c0: 4207 853e 7709 fb3e 27fd 1c3f 95a4 723e
000001d0: f6fc c63e 14a5 d9bd 764c b0bd 3666 de3e
000001e0: a55f 873d a328 a13e a6a9 073f 3130 493f
000001f0: 3d89 643e fa3a 2c3f 7368 0c3f 6961 b83d
00000200: a917 db3e 5822 b83e 4383 443f a03d 4b3e
00000210: 95d1 513f 122f 9a3e 4228 0a3e e355 5d3f
00000220: e3c0 cb3e 9130 ef3e 7cd9 9a3e d03b eb3e
00000230: 312d 8c3d bd8f e2be 2975 ccbd 82db ddbe
00000240: 1898 19bf 0b3d 223e b23f 3a3e 4d26 ff3e
00000250: c103 1fbf 0d3b 24bf feb8 80be af5a 14bd
00000260: 4f41 1cbd 9eff c93e ffb0 f3be 43f8 5b3e
00000270: 07d8 c6be 5dd1 8abd 9d26 733e ca01 4abf
-0.15856239 -0.23327026 0.28765443 -0.022458317 -0.3542415 -0.10620346 -0.33097693 0.52859616
0.26456836 0.30265692 0.23053844 0.29439056 -0.54757833 0.033578448 -0.113369755 0.0618423
-0.31327015 0.06350805 0.21839592 0.5351457 -0.19315271 -0.3364551 -0.14528479 0.51948935
0.19771835 0.39017195 0.41926816 0.42335942 0.28047374 -0.08594 0.09468901 -0.07867244
-0.6165645 -0.22031477 0.34025455 -0.11181446 0.092530064 0.6575256 -0.16572483 0.24763651
-0.43134764 -0.64027214 -0.29611146 -0.26139602 -0.612826 -0.042562686 0.013223573 -0.6531436
-0.64736676 -0.7396288 -0.4040132 -0.32346937 -0.17302097 -0.58901227 -0.60845244 0.06772638
-0.70833147 -0.590403 -0.4091549 -0.7329634 0.9190327 0.36986542 0.8420487 0.6550669
0.37366793 0.78649527 0.73521996 0.09294145 0.43248597 0.5271231 0.36032957 0.6906586
0.22157286 0.08994977 -0.012108539 0.32148194 -0.022447517 0.3602177 0.6468482 0.349351
-0.08024546 0.51928073 1.0889623 0.37879825 0.50741404 0.8185793 0.7332496 0.5929575
0.09167532 0.2369293 0.36869082 1.1335624 0.68106663 0.50600094 0.21777269 0.7065005
0.7550911 0.83192164 0.596007 -0.09273431 0.2729153 -0.19734737 -0.016589917 0.25327
0.19039091 0.120141655 0.33773133 0.25530395 0.07597189 -0.014899847 0.17369938 -0.11289845
0.259821 0.4903066 0.6132378 0.23695596 0.3886487 -0.10627189 -0.08608334 0.43437356
0.066100396 0.31476316 0.5299324 0.7858916 0.22317977 0.6727749 0.54846877 0.090029545
0.4279149 0.35963702 0.7676279 0.19847727 0.8196042 0.30114037 0.1349192 0.8645918
0.39795598 0.4671674 0.30244052 0.4594407 0.06844557 -0.4425029 -0.09983284 -0.43331534
-0.599977 0.15843599 0.1818836 0.4983391 -0.62115103 -0.64152604 -0.25141138 -0.036219295
-0.03814822 0.39452833 -0.47595975 0.21481423 -0.3883669 -0.06778214 0.23745199 -0.7890898

model.bigrill.fwd_rnn.cells.0.forget_gate.mlp.weight f4 [32, 170, 1, 1]
00000000: 1438 453d 302d ea3c eed0 e5bb d443 2f3d
00000010: 8a43 32bc 4e21 f4bc 5893 6f3d 070e 0fbe
00000020: f417 293d 149c 1ebd d289 fe3d a51f 06bd
00000030: 43c4 c63d 8334 e6bd 00bf 9f3d 774d 93bb
00000040: 5923 48bd 1c3b a7bd a93c 60bd 544b c73d
00000050: 6e00 df3d c6d9 1fbe 6990 823d bbd5 a93d
00000060: 45f8 aebd 86fa 383b 5047 8cbd 11b5 4f3d
00000070: ab41 27be 8734 d83b ffc7 003e 1d39 713d
00000080: 6da1 2e3c 7a8b 20bd 42a5 bf3c 4ce4 6d3d
00000090: fa59 99bc 86ac 073e aead 603d 3e25 253d
000000a0: 18f1 0f3e 3da6 23be 4908 26bd 8bcb e2bd
000000b0: 5c28 383d 481b 08be c62e 3c3b 2bd2 d8bd
000000c0: 7e1f ce3d a143 5abd 6b5c e3bd b7f9 33bd
000000d0: a254 49be 5658 7e3e b2aa 163e bb6f c9bd
000000e0: f47a 8ebd fccc 343d 9bcf 03be ec7c a6bd
000000f0: 571d 3cbe 815d 9d3d 1209 adbd d053 0dbd
00000100: 9210 093e df28 bd3b 727b 96bc e019 a2bc
00000110: eea7 953d 2ba5 473d cdb7 f73d f783 0fba
00000120: b9ff 9bbd 16f9 bebb 9251 b63d 08d4 babd
00000130: 67d5 92bc 6bca fdbd 74d5 e43c 6bae 3fbd
00000140: d5bc 493d cb2c 88bc 30d0 a5bb f46b e5bd
00000150: e240 99bb ce40 a4bd 6a3d 0dbd db20 0d3e
00000160: ddff b4bb 09e0 39bd b1a2 653b 08db 4cbc
00000170: b27c 9c3b 475a f0bc b268 0bbd 6da0 edbc
00000180: 52cc df3b 63df 3c3d 799d 3f3d d9c7 933b
00000190: 3160 36bd 6cc3 21bd 0fc0 0e3e 6e5c 103d
000001a0: 403f 203d c571 813d 4c97 853d 7a64 0dbe
000001b0: b985 d63d 9743 fabd 8e76 4a3d fe2d 89bd
000001c0: fd13 a33d bdc7 03be 043a 843c 74dc 1dbe
000001d0: 47ea 46bd 07eb b9bc 2be4 38bd b88f 0f3c
000001e0: effa 99bd b96b 9e3d 0ee9 393e 46d4 2dbe
000001f0: 02f6 f43b 48a5 de3d 034f b1bd a805 5d3c
00000200: 5060 1cbe 4dde aabd 5684 1dbe 47cf 97bd
00000210: b4c7 8c3d db99 a8bd 5042 c33c 6fe3 07be
00000220: de94 90bc 9fed 49bd bd2a b0bd f819 863c
00000230: bf6b 173e f60e 0ebd fe9d 993d 2112 8dbd
00000240: 8426 86bd 0d9d a3bc 68f5 8e3d f100 81bd
00000250: 627d 0d3e c083 0abe 5619 71bc 0e67 0a3d
00000260: 4521 56bd e4b1 f7bd b488 3fbe d9d4 893d
00000270: 4359 583d dc3a 04be 007a 8a3d 053d d23b
00000280: b9b8 44bd 1430 adbd b28b 49be 53ac 75bd
00000290: 439b 94bb fac7 dabd 7fdd 5b3c b0d9 88bc
000002a0: 8539 00bc 3c8e 12bd 8f8b c43d fdd5 3c3d
000002b0: a184 c33d eb11 2ebd 4feb e5bc 7d1f 063e
000002c0: 893c e13d efd2 0fbd 165f 17bd 33bd fabd
000002d0: 8179 8d3c 1132 aabd e6d9 2dbe be48 ae3d
000002e0: 276d 0a3c 3148 02be 6e20 12bd ed00 aabd
000002f0: 6a61 b83d 7f28 b43d 9eb7 a43b 9488 ff38
00000300: 30a0 a9bd 7d1b c03c 6774 87bc 9eac a8bc
00000310: d129 b73d 0c78 a9bc 048a 25bd 2f3a 3f3d
00000320: 3890 ec3d 6986 203e 77a3 ce3d 7ca5 e53a
00000330: 0cb1 b33d 287c 7bbc 24c0 853d 2865 8eb9
00000340: fb11 b5bb f0d2 a73d a7b9 d6bc fa80 9b3c
00000350: 5129 16bd 9022 7cbd 0f89 b03b 5907 a13d
00000360: 637a d9bd c135 2abd 1203 973d b1d6 88bd
00000370: 82e6 ad3b e3c7 f5bc 57e4 87bd d3ec f0bc
00000380: 10a8 1f3d 2713 3b3d c3aa 48bb 70cf 183e
00000390: 81ea 2e3d 7df8 26bc a610 803d 5b77 e1bb
000003a0: e526 aabd 3d28 3abd d7b2 c73d 64bd e23d
000003b0: 4c16 db3c 183b d23d 335b 65bc cd60 273d
000003c0: db40 203c d46f 353d d0c7 6bbc bea5 213b
000003d0: cbac 763d a0c9 803d 286e 80bd fc92 89bd
000003e0: 9d3f 1fbd c0d1 313d e761 48bd 44b7 d8bd
000003f0: e70e 583a aed3 c3bc 70bc 98bd 29c4 d3bc
0.048149183 0.028586 -0.0070134318 0.042789295 -0.01088036 -0.029801037 0.058490127 -0.13970195
0.04128261 -0.038723066 0.12428631 -0.032745022 0.09705403 -0.112404846 0.07800102 -0.0044953185
-0.048861835 -0.08165571 -0.05474535 0.097311646 0.10888754 -0.15610418 0.063752 0.08292719
-0.085434474 0.0028225495 -0.06849539 0.050709788 -0.16333644 0.0065980586 0.12576292 0.058892358
0.010658604 -0.039195515 0.02339423 0.05807905 -0.018719662 0.13249406 0.054853134 0.04031872
0.14056814 -0.15981384 -0.040535245 -0.11073979 0.044960365 -0.13291657 0.0028714403 -0.10586961
0.100646004 -0.053287152 -0.11101612 -0.04393932 -0.19661191 0.24838385 0.14713553 -0.09835764
-0.06957045 0.0441408 -0.12872164 -0.08129296 -0.18370567 0.0768385 -0.08448996 -0.034503758
0.13385227 0.0057726945 -0.01836941 -0.019787729 0.07307421 0.0487415 0.12095604 -0.00054746814
-0.076171346 -0.005828033 0.08902277 -0.09122473 -0.017924024 -0.12392124 0.027933814 -0.046797197
0.04925235 -0.016622921 -0.0050602183 -0.11202231 -0.004676924 -0.08020173 -0.034482397 0.13782065
-0.0055236653 -0.045379672 0.0035039599 -0.012503393 0.004775607 -0.029339923 -0.034035392 -0.029007161
0.006829777 0.046111476 0.046781037 0.0045099077 -0.04452533 -0.03949301 0.13940452 0.035244398
0.03912282 0.06320528 0.06522998 -0.1380786 0.10474724 -0.12219923 0.04942947 -0.066982254
0.07962797 -0.12869163 0.016140945 -0.15416127 -0.048563268 -0.022695078 -0.045139473 0.008762293
-0.07518565 0.0773539 0.1815531 -0.16975507 0.0074756155 0.10871369 -0.086576484 0.013490118
-0.15271115 -0.08343182 -0.15382513 -0.07412582 0.06874028 -0.082324706 0.023835331 -0.13270353
-0.01764911 -0.04929888 -0.08601902 0.016369805 0.14787196 -0.034682237 0.07500838 -0.068882234
-0.06550315 -0.019972349 0.06980401 -0.06299008 0.13817361 -0.13526821 -0.014715513 0.033789687
-0.052277822 -0.12094477 -0.18704492 0.067300506 0.0528195 -0.12913078 0.06761551 0.0064159655
-0.048027728 -0.08456436 -0.19682196 -0.059978794 -0.00453511 -0.10682674 0.013419508 -0.016705364
-0.007826214 -0.035780177 0.09596931 0.046102513 0.09546781 -0.042497557 -0.028066305 0.1309795
0.10997874 -0.03511327 -0.036955915 -0.12243118 0.017269852 -0.08310331 -0.16977653 0.08509968
0.0084488755 -0.12722851 -0.03567546 -0.08300958 0.09002955 0.087967865 0.0050267717 0.00012184787
-0.082825065 0.023450607 -0.016534997 -0.020590123 0.08943523 -0.020687126 -0.040414825 0.046686348
0.11550945 0.15676273 0.10089772 0.0017520632 0.087740034 -0.015349425 0.065307885 -0.00027159718
-0.005525825 0.0819453 -0.026211573 0.0189824 -0.036660496 -0.0615564 0.0053874324 0.078627296
-0.106190465 -0.04155517 0.073736325 -0.06681574 0.0053070197 -0.03000254 -0.06635349 -0.029409802
0.038978636 0.045672562 -0.003061936 0.14922881 0.04270411 -0.01019108 0.062531754 -0.0068806834
-0.083082 -0.04544853 0.09750908 0.1107128 0.02674403 0.102651775 -0.013998794 0.0408638
0.009781088 0.0442961 -0.014390901 0.002466544 0.060223382 0.06288457 -0.06271011 -0.06717488
-0.038879026 0.043412924 -0.048921492 -0.1058183 0.0008241967 -0.023904648 -0.074578166 -0.025850372

model.bigrill.fwd_rnn.cells.0.forget_gate.mlp.bias f4 [32]
00000000: fc4f 2d3d bc88 263d a713 18be a177 363e
00000010: 2d49 0bbd 8a10 aabc 6d89 b03d 1465 2f3e
00000020: 09bb ddbd 2f51 233d 6240 113d 6672 3c3e
00000030: 5453 9cbd 610b 04bd b688 06bd 39df adbd
00000040: cddc a53d 5d5f 18bc 24e3 b3bd 6bd2 a4bd
00000050: 1d20 d3bd 3fc8 15be 69d0 b0bd 252d 3f3d
00000060: e51b eabd ebd0 403e 65d7 853d 38bf c23d
00000070: dacd 043c 23e7 473d ad09 bb3d f101 8ebd
0.042312607 0.040657744 -0.14851247 0.17819072 -0.034005333 -0.02075984 0.08619962 0.17128402
-0.1082669 0.039872345 0.03546179 0.18403015 -0.07633081 -0.032237414 -0.03284522 -0.08489842
0.08098755 -0.00930008 -0.08783558 -0.080479465 -0.103088595 -0.14627169 -0.08633501 0.046673913
-0.11431102 0.18829696 0.06535224 0.09509128 0.008105719 0.048804414 0.09132705 -0.06933964

model.bigrill.fwd_rnn.cells.0.update_gate.mlp.weight f4 [32, 170, 1, 1]
00000000: 8d5d 8dbe 7a64 153e bf15 323e 726d 9bbd
00000010: 05ea 82be ad96 a3be 9bd6 643d c434 283e
00000020: cf95 0bbe eba7 15be 1b3d f9bd 811c 4e3d
00000030: a377 57be 434a d2bd 7301 a1bd cdd3 e4bc
00000040: 8dc9 373e 019a 18bd 6797 793d acf6 463e
00000050: ed51 63be 2aa3 bc3d be5c 02be fec4 1e3e
00000060: c4f4 713e de7a b8bc 2d8e 883d 0c37 90bc
00000070: ae9f 823d 9526 6d3e 79b4 093e 1074 2a3d
00000080: 6997 ccbd e6ec 9b3d f726 56bd 1fee a6bd
00000090: 9e69 77bd 90b3 33be e8e9 3bbe bc98 c0bd
000000a0: 3201 713d e077 e73c e07e efbc 3e96 6d3d
000000b0: a70c fcbd 8756 77bb b037 f0bd 9993 6cbe
000000c0: 9299 ce3b 8ffc 203e 0299 303e f6b1 263e
000000d0: 552f e03d 29eb 1abe e5bc adbd e811 2fbd
000000e0: 6164 30bd 7c1f adbd fa7e 0a3e dd38 953d
000000f0: 5364 55bc d363 cbbd 0b2a 353e 1f87 d03d
00000100: 8c1a 60bd 0d2b b5bc b59a 163c 3c23 203e
00000110: 7ec1 31bd 0190 b0bc e947 37bd cd92 03be
00000120: 63cc 26be bc8d 2abd 55ae 24be 4d82 b43c
00000130: c515 bd3d bf8c 9c3d 272e cd3b 9da3 9f3d
00000140: e596 0cbe 2e81 df3d db1d 19bd 8302 51bd
00000150: f81c aa3d 4092 9e3d 4339 2b3e 8967 933d
00000160: fa52 5ebd 9329 533e 9bb2 93bd b013 833e
00000170: d436 853e 08fe 2d3e 9f3e c63d 4d60 1dbe
00000180: 2907 a23e 04ea 343e 4dd3 113e cfa7 f63b
00000190: d0a4 dabc f326 7e3d cc7e dfbd 1ed9 563e
000001a0: e0db 433d 8b0b 2cbe d077 ffbd b6ad bebc
000001b0: 7081 e1bd ff9c 89bd ecb2 a03d 8b62 55be
000001c0: 4721 243d 6ce9 78bd f01b 073e 34e8 cebc
000001d0: 8eb1 dcbd bd67 f5bd e209 3f3e c0bf 4e3d
000001e0: d459 663e c71b 55bd 8bca c53d 604b 223e
000001f0: 63a4 08bd b40f 1c3e 8715 c13e ebd9 c1bd
00000200: 37ee b4bd 42e2 893d 163f 543e e82f 3b3e
00000210: abdf f73d e279 ff3d 8683 ccbd 4f06 e7bc
00000220: 8548 23be 65c0 f9bd a7b5 083d 3dc5 3abe
00000230: 45ef b23d b4e8 4e3d 4eee 16bd 08dc d1bc
00000240: 42d9 e13b 1f90 5bbd 0b9d bdbd a636 06be
00000250: c328 fa3c 556a f0bd c45b a3be 79ab 57bc
00000260: f5eb 7f3d 3366 473d d550 9ebc a25e b53d
00000270: b8fc d2bd 5ed7 183e c390 3b3e f41e 203e
00000280: a832 aa3e 803d 8c3d b00f 133e 1711 1abd
00000290: cfdb 863e 8d25 353e 6c99 22be fe35 b13d
000002a0: b840 1bbe f24b efbc c024 13bc 8375 7c3b
000002b0: 6a02 0d3e 4893 9d3d e6c0 0ebd 6265 53bd
000002c0: 80cf 00bd 2bbb da3c c5cd e4bc 99da 11bd
000002d0: fa83 ae3d b869 d4bc 4dc6 933d 028b 02bc
000002e0: 2260 ad3c ae38 4abe 7926 30be a4e1 d03d
000002f0: b3be 95bd 41a9 493d 5098 3b3e 06e3 f6bd
00000300: de3c 3bbd ca99 913c f594 5e3e bf7c 403e
00000310: 2900 69bc 9f87 92bd 9e56 75be b45b d3bd
00000320: 81b0 ed3d a0f2 df3c 0612 943d d1ac 00bd
00000330: ddec e9bc e1d9 81bd 8dd6 883d 87bb 44bd
00000340: 0a63 71bd 71e8 2b3d 9573 8b3d 28ec 873c
00000350: b245 1d3c 1463 f3bc 60bc 043b 7cca ebbd
00000360: 379d 05be 7fc6 b6bc e6dc 48bc 26dd c5bd
00000370: 5d04 9f3d 204d 9c3a f331 9dbd 8ad5 073d
00000380: dad0 8b3d c9f6 203e e822 65bc 48b2 1b3c
00000390: 1cfe 173e d808 e73d 1352 8cbd 54ba ca3c
000003a0: f0c8 8ebe dfac 3b3d 64b5 da3d 909b 95bd
000003b0: caa9 a93d e838 fd3d 73fd f0bd 14cf 6b3d
000003c0: d7fe e73d 74cd c43c c1af 87bd 89ba ae3c
000003d0: d199 f2bd 6670 fa3d 6aa0 13be 1ac5 b33d
000003e0: 4011 d23d e455 203c 816e 4fbe 2eb0 babc
000003f0: 3cda f4bd 2c8f 8bbc ec9d 12be 9474 ef3d
-0.27610436 0.1458911 0.17391108 -0.075892344 -0.25569168 -0.31950894 0.055868726 0.16426378
-0.13631366 -0.14614837 -0.12169858 0.050320152 -0.21041732 -0.102680705 -0.078616045 -0.027933026
0.1794798 -0.037256245 0.060935404 0.19430035 -0.22199221 0.092108086 -0.12730691 0.15504834
0.23628527 -0.022519525 0.06667743 -0.017604373 0.06378113 0.23159249 0.13447751 0.041614592
-0.09989817 0.07613544 -0.052283254 -0.08150887 -0.06040346 -0.17548966 -0.18350947 -0.09404132
0.05883903 0.028255403 -0.029235303 0.05800461 -0.12307101 -0.0037740783 -0.117293715 -0.23103179
0.006304928 0.15721343 0.17245868 0.16278824 0.10946528 -0.15128769 -0.084832944 -0.042741686
-0.04306448 -0.08453271 0.13525 0.072862364 -0.013024407 -0.09931149 0.1769182 0.10182022
-0.054712817 -0.022115255 0.0091921585 0.15638441 -0.04339742 -0.021553041 -0.044746313 -0.12848969
-0.16288905 -0.041639075 -0.16082127 0.022034789 0.09232668 0.07644033 0.0062616053 0.07794879
-0.13729437 0.10913311 -0.037381988 -0.051027786 0.083063066 0.07742739 0.16721062 0.07197482
-0.05427835 0.20621328 -0.07211801 0.25600958 0.26018393 0.16991436 0.09679913 -0.15368767
0.31646088 0.17667395 0.14240761 0.0075273286 -0.026689917 0.062048864 -0.109128565 0.20981261
0.04781711 -0.16801278 -0.12474024 -0.023276191 -0.11011016 -0.06719398 0.07846627 -0.20838372
0.0400708 -0.060769483 0.13194251 -0.025257207 -0.10776053 -0.11982677 0.18656114 0.050475836
0.22495204 -0.052028444 0.09657773 0.15849066 -0.033359896 0.15240365 0.37711737 -0.09465393
-0.088344984 0.067326084 0.2072719 0.18279994 0.12103208 0.12474419 -0.099860236 -0.02820125
-0.15945633 -0.121948995 0.033376362 -0.18239303 0.08737043 0.05051489 -0.03684836 -0.025617614
0.006892354 -0.05360424 -0.09258469 -0.13106784 0.030537015 -0.11739031 -0.3190595 -0.013163441
0.062480886 0.04868145 -0.019325653 0.088559404 -0.103021085 0.14925906 0.18316941 0.15636808
0.33241773 0.06847668 0.14361453 -0.037613954 0.26339576 0.17690106 -0.15878838 0.08652876
-0.15161407 -0.029211018 -0.00898093 0.003852219 0.13770452 0.07694107 -0.03485193 -0.051610358
-0.031447887 0.026700577 -0.02793015 -0.03560886 0.08521266 -0.025929317 0.07215557 -0.007967712
0.021164004 -0.19748184 -0.17202176 0.101992875 -0.073117636 0.04923368 0.18319821 -0.1205502
-0.045712344 0.017773528 0.2173651 0.18797587 -0.01422123 -0.07154774 -0.23958823 -0.10320225
0.11605931 0.027337372 0.0723 -0.03141481 -0.028555328 -0.06340385 0.06681547 -0.048030403
-0.05893234 0.04196972 0.06809155 0.0165921 0.009599136 -0.02971033 0.0020253882 -0.1151323
-0.13048254 -0.022311447 -0.012259698 -0.09661321 0.07764504 0.001192484 -0.07675543 0.03316263
0.06826945 0.15719141 -0.013985373 0.009502955 0.14843029 0.11280984 -0.06851592 0.024747051
-0.27887678 0.04581916 0.10679129 -0.07305062 0.08284338 0.1236437 -0.117670916 0.057570532
0.11327904 0.024023749 -0.06625319 0.021329181 -0.118457444 0.122284696 -0.14416662 0.087778285
0.102571964 0.009786103 -0.20256998 -0.022789087 -0.119556874 -0.017036043 -0.14318055 0.116921574

model.bigrill.fwd_rnn.cells.0.update_gate.mlp.bias f4 [32]
00000000: d99f bfbd e11e 693e 0315 b03e 08f4 0abe
00000010: 5016 553e b644 7bbc 05c9 2e3d 6718 3e3e
00000020: 446e 913e 368e 553e 4637 8a3c 87ed 87be
00000030: 92df d93d 9e03 d0bc 11c0 263e 6c1f 9fbb
00000040: 99c7 f83c 7257 593e b051 533e 3fa1 9a3e
00000050: 93e5 863d a109 eb3c db26 e5bd a565 13be
00000060: b09d 113e be72 1bbc 5616 103e 1aa9 583e
00000070: 4e8a fc3d b4c8 14be 584c e4bd 373c 0b3f
-0.093566604 0.22765686 0.3439103 -0.13569653 0.20809293 -0.015336206 0.042672176 0.18563996
0.28404438 0.2085503 0.01687206 -0.26548406 0.10638346 -0.02539235 0.16284205 -0.0048560407
0.030368613 0.21224764 0.2063663 0.30201146 0.065867566 0.028691115 -0.11189052 -0.14394243
0.1422031 -0.009487806 0.1407102 0.21158257 0.12331067 -0.14529687 -0.11147374 0.54388756

model.bigrill.fwd_rnn.cells.0.c_gate.mlp.weight f4 [32, 170, 1, 1]
00000000: 79eb fb3b 62db b83e 55f7 bdbc cc63 ae3d
00000010: 7018 f43d 5889 29be ec4a 0ebd bf95 22bd
00000020: e38e babc 6d13 283d 7dcb 8abc e4cc ffbc
00000030: b9d9 0e3e 40df bcbd 474a d93d f56d a8bd
00000040: 14d4 533d 7d48 09bd 8960 073e 6804 6cbd
00000050: 5d00 c6bd df8a fa3c cbf1 6abe 7695 2abd
00000060: 0986 893c d936 f33b b837 3e3d 04c6 043e
00000070: 88d9 e23d 5e5b 0bbe 6261 dabd 64b9 693d
00000080: 5263 d0bc e76c 8dbd 507b a63d e92a ff3d
00000090: 1b4d a83b ea62 073e 6534 26bd 6d97 a3bc
000000a0: 510f d3bc e533 f0bd f01d f73c 8240 e33c
000000b0: 8cc1 77bd f1f6 2bbd 064c 2c3e fff4 d5bd
000000c0: 050c c93d 7b43 c7bd 1d52 8cbd 21c4 00be
000000d0: 4058 0ebd fd63 963c cf1d 963c c7ec 4b3b
000000e0: c076 2cbe c4a1 4b3e f2ad a6bd ebad 33bd
000000f0: 7710 dabd 15f0 46bd d34e ff3d efbf d83a
00000100: d963 e53d 5408 2e3e cea8 a7bc 9a71 d7bd
00000110: 5785 8a3d 52a6 083d 2e8b 85bb 51ef 113e
00000120: 6f1f e43d e703 82be 9853 1bbc c143 0c3d
00000130: b6ac 883d 861b d0bd 719e 3dbd d6af 25bd
00000140: ebf0 ed3e 072b 33bc 2125 f33d 1f88 a5bd
00000150: ad82 c8bc e5de b9bd 3f49 103c efee fb3d
00000160: d2bd 47bd b91e 17bd f10f 2cbe 77f5 533d
00000170: 0659 77bd e2a2 b0bd a7eb a1bd 1349 ab3d
00000180: 3742 163d 6d39 173c dd91 84bc 29b8 6a3d
00000190: bb54 7fbd 94f4 20be c38a 5d3d e64e fe3d
000001a0: 756f 0ebe e166 823d 44dc 93bd 8549 49be
000001b0: bee4 673c 04d2 5e3d c2d9 ed3c 74de 093d
000001c0: d5fe 08bd 0ac1 d3bc 32d2 1f3e d893 4ebd
000001d0: b26d f3bc 4fae bf3d 7149 0e3e f745 b43b
000001e0: bf63 d53d 6dc7 1a3e 78d3 9ebd fb10 0dba
000001f0: 36d9 b3bd 4cb1 813b 8577 0cbe 4d77 63bd
00000200: 824a c7bd fa4c b0bd d245 873d 7785 74bb
00000210: 1385 13bd d574 713d 2d03 c0bd aa62 95bd
00000220: a55b 9d3d 6099 183e e561 c8bd c232 2cbe
00000230: 9f17 343d 34bb 49bd 6f26 44bc f57a 9bbd
00000240: 3142 e93c 4df3 3fba 0063 61bb 437f 473d
00000250: c31a f73b 2117 4abd e625 f0bd f915 183e
00000260: 8c40 273d 51b4 c2bd ae41 753d feed 22bd
00000270: d4a0 423d 0e93 513c 9299 833c 576b 0d3e
00000280: 56cd 0ebc 58e9 84bd f82b a63b d074 afbd
00000290: 2bc5 fd3d 09ed 833d c988 1a3d 423c bc3d
000002a0: c640 50bd ae00 e6bd e4da 90bb 6c58 ab3c
000002b0: 0cda 2bbd 5eb0 1ebe c102 323e f276 f8bd
000002c0: 540d 8c3b 1a15 23bd 1daa 873d a6f2 543e
000002d0: baed 32bc 9c92 5fbd 459f 15bd 84df 7fbd
000002e0: afc0 b8bd 49a5 b63b 1508 543d 2b01 97bc
000002f0: fdbb 3fbd e7d0 0abc d4b4 1b38 fd5b 80bd
00000300: 3304 d63d 523c a83b a6b1 333d 75d9 bfbd
00000310: f904 8a3d 36be 8e3d b8be 1c3d 990f 7abb
00000320: 1911 98bd 5339 2abd 17c1 96bd 3bf2 03be
00000330: 37c9 813b d5b4 72bd a306 ae3c 7dca 22bd
00000340: d8df 7a3a 7eb6 a6bd 2828 113d 0662 9e3d
00000350: 9600 1f3d 910c be3d 9b4a da3c 3650 6dbd
00000360: 6786 cf3d 7f69 35bd 5296 20bd 1d8f 0bbc
00000370: 858b 01bd e536 453c 674a 963c 48d6 d53c
00000380: e13c 4dbd 1194 c6bc e5cc f6bc d1f1 5c3d
00000390: 41cb d6bd 1fd4 a9bd 657b ce3c 2ac9 db3d
000003a0: 8c0f b63c 48f4 f33c f1cc 47bd 2990 f43a
000003b0: 5141 30b9 a4e2 b1bd 0a38 a1ba cfa7 d4bc
000003c0: ee5a 0ebe fb74 8dbe c200 5b3e e2b9 77be
000003d0: 4126 583c 6622 fb3c 241b f53d 5a32 283e
000003e0: 8efc 81bd d2bd ca3c 8638 cc3c d443 66bd
000003f0: 2ceb 123d aed8 a43d cd26 863d a8d7 37bd
0.0076879826 0.36104876 -0.023189226 0.085151285 0.119187236 -0.16556299 -0.03473942 -0.03969359
-0.022773212 0.04103415 -0.016942734 -0.03122563 0.13950242 -0.09222269 0.106098704 -0.08224098
0.051715925 -0.033516396 0.13220419 -0.05762139 -0.09668038 0.030583797 -0.22943799 -0.041646443
0.016787546 0.00742231 0.046439856 0.12966162 0.11076647 -0.13609073 -0.106631055 0.057061568
-0.025437985 -0.06905537 0.08128989 0.12459356 0.005136145 0.13221326 -0.04057731 -0.019969666
-0.02576414 -0.11728648 0.030165642 0.02774072 -0.060487315 -0.04198355 0.16825876 -0.1044712
0.09816746 -0.09729668 -0.06851599 -0.12574817 -0.03475213 0.018358225 0.01832476 0.0031116472
-0.16842175 0.19885927 -0.08138646 -0.043867033 -0.10647672 -0.048568804 0.124662064 0.0016536693
0.11200685 0.16995364 -0.020466235 -0.10519715 0.06763714 0.03336174 -0.0040754294 0.14251448
0.11138808 -0.25393602 -0.0094803795 0.034244303 0.06673567 -0.101615 -0.04629368 -0.040450893
0.46472868 -0.0109355515 0.11872316 -0.08082604 -0.024476374 -0.09075717 0.008806526 0.12301432
-0.04876501 -0.036894534 -0.16802956 0.051747765 -0.060387634 -0.086248174 -0.07906275 0.08363547
0.03668424 0.00923 -0.016182834 0.057304535 -0.062336665 -0.15718299 0.05408741 0.124173924
-0.13909705 0.06367279 -0.07219747 -0.19656952 0.0141536575 0.054399505 0.0290345 0.033659413
-0.03344615 -0.025848884 0.15607527 -0.050433964 -0.029715393 0.093594186 0.13895203 0.0055015045
0.10419416 0.15115137 -0.07755178 -0.00053812534 -0.08781664 0.003957903 -0.13717468 -0.055533696
-0.09731008 -0.08608432 0.06605114 -0.0037310997 -0.03601558 0.05894931 -0.09375606 -0.07294209
0.076834954 0.14902258 -0.09784297 -0.16816238 0.04396784 -0.049250796 -0.011972054 -0.075918116
0.028473945 -0.00073223264 -0.0034391284 0.04870535 0.007541032 -0.049338464 -0.117259786 0.14852132
0.04083304 -0.09507049 0.05987709 -0.03977775 0.04751666 0.012791408 0.016064439 0.13810478
-0.008715948 -0.06489819 0.0050711595 -0.08567202 0.123911224 0.06441695 0.037728105 0.09191181
-0.050843023 -0.112305984 -0.004420625 0.020916186 -0.041955993 -0.15496966 0.17383863 -0.12132062
0.00427405 -0.039815046 0.066242434 0.20795688 -0.010920936 -0.054583177 -0.036528844 -0.06246902
-0.090211265 0.0055739027 0.05176552 -0.018433174 -0.04681014 -0.008472658 3.712329e-05 -0.06267545
0.1045002 0.005134144 0.04387059 -0.093676485 0.0673923 0.069698736 0.03826782 -0.003815627
-0.07425136 -0.041558575 -0.07361048 -0.12885372 0.0039607543 -0.059254486 0.021243399 -0.03974389
0.00095700985 -0.08140276 0.035438687 0.0773354 0.03881892 0.092797406 0.026646903 -0.057937823
0.10133057 -0.044290062 -0.039205857 -0.008518008 -0.031627197 0.012037014 0.018346025 0.026103154
-0.050106887 -0.024240525 -0.030126998 0.05394155 -0.10487986 -0.08292412 0.025205323 0.107317284
0.02222421 0.029779568 -0.04877943 0.0018658686 -0.00016809 -0.086858064 -0.0012300026 -0.025958924
-0.13901874 -0.27628312 0.21387008 -0.24192002 0.013192714 0.03065605 0.11968067 0.16425458
-0.06346999 0.024748717 0.024929296 -0.05621703 0.03586881 0.08049141 0.065503694 -0.0448834

model.bigrill.fwd_rnn.cells.0.c_gate.mlp.bias f4 [32]
00000000: cda3 a63d 3127 e53c 893e 22be bff4 88bc
00000010: 6807 c5bd 4f91 0f3e de07 3cbe d531 46bc
00000020: 21c1 febc 1c74 dabc b650 d33d 41ef 4bbe
00000030: f35d 16bd 472d df3d e7fc 033d b28e f33d
00000040: 4628 93be e57a 273d 286a 66be 0987 2a3d
00000050: 96f0 cf3d 9cb7 2c3c 167c dc3c ffd7 823e
00000060: c45d ae3d 8494 10be c7d6 28be 4b4f 59bc
00000070: 042c fbbd 4206 72be f0f7 9fbd 0c71 f03d
0.08136711 0.02797279 -0.15844168 -0.016718267 -0.09620553 0.14020275 -0.18362376 -0.012096842
-0.03109795 -0.026666693 0.10318129 -0.19915487 -0.03671069 0.10897308 0.03222361 0.11892451
-0.28741664 0.040888686 -0.22501433 0.041632686 0.1015331 0.010541823 0.026914638 0.25555417
0.08513978 -0.14119154 -0.16488181 -0.013263534 -0.12264255 -0.236352 -0.07810962 0.11740312

model.bigrill.fwd_rnn.first_stage.weight f4 [1, 32, 1]
00000000: ed1e 923f aeb6 03bf cf19 42bf 61ab a83f
00000010: 2958 463f aa64 83bf b9de 88bf 917b 5abf
00000020: f187 e8be e628 6fbf f32e a3bf 3448 a83f
00000030: ad49 893f 3fc7 8bbf d6bd 323f f54c 5ebf
00000040: 17f5 97be 6b44 5f3f 6b8b 2fbf 4b9a 013f
00000050: 98a3 98bf 9f6e 743f 2371 913f d876 813f
00000060: ca4e 35bf eb18 62bf 9130 abbc 9a15 353f
00000070: d0f9 903f 43ba a23f 60d5 923f f329 3dbe
1.1415688 -0.5145062 -0.7582063 1.3177301 0.7747827 -1.0265095 -1.069297 -0.853448
-0.45416215 -0.9342178 -1.2748703 1.3147035 1.0725609 -1.092018 0.69820917 -0.8683618
-0.29679176 0.8721377 -0.6857211 0.5062606 -1.1924925 0.95481294 1.1362652 1.0114393
-0.7082335 -0.8831927 -0.020897182 0.70736086 1.1326237 1.2713093 1.1471367 -0.18473034

model.bigrill.fwd_rnn.spatial_decoder.lin_in.weight f4 [32, 34, 1]
00000000: a297 dfbd 3629 edb8 76a7 e6bc 3f35 c0be
00000010: 218e 093e 7bbc 09be e38c 0b3b 57bc ed3d
00000020: 5def 683c 59af 433d 9c5a a93c 07a6 2b3e
00000030: 18cb 2abd 320b 47bc 99b1 6bbe d26e 213e
00000040: 1611 383e ce13 093d dd9a 143e b2fe 8fbe
00000050: 0ed1 03be 9494 3c3d 65f2 9a3d 340f 70be
00000060: 5f02 fbbd b815 84bd 4805 393c 808c c4bd
00000070: 0a76 d2bc 3383 763e dd5a a33d 777c de3d
00000080: 1b22 3abe d59f c53d 8c02 913c e93d 2ebe
00000090: 601a 29be 5414 673e a4fe b03e 57a0 32be
000000a0: 17cd d8be 7766 31bd 0ca3 9a3d 3873 e03e
000000b0: 653f 293f 5f18 8dbe d843 9b3d a2ca 053e
000000c0: a548 4dbd f0cf 243d 0bc7 2d3e f57d 68be
000000d0: 8a28 e2be 829f 5a3e f335 813d f9d4 d2bd
000000e0: 272c 993d a52f babd be77 92be 46f8 cc3d
000000f0: 695f fcbe 6ce3 ffbd 98bc 683e 17f7 5fbe
00000100: e547 fb3a 2821 2c3b 3f7b 0fbd a75e 873d
00000110: 1c9d ce3d 2297 5e3d 74dd 1fbe 9dc0 6d3c
00000120: f712 9f3e d36f 4abd d230 04be 6f46 cc3d
00000130: 924f b5bc 42a9 5d3e 79b3 0e3f 50e0 34be
00000140: 403d 2dbd 1acc 33be 9a5a a9bc 3e96 663e
00000150: 539a 44bd 989c 8fbe 2dce 2ebe 207f 6abc
00000160: 95c5 d73d 5f0f 94be 0042 d0bd 92a2 03be
00000170: c652 f6bd 9a11 313e fd93 d8bd e4d9 d4bd
00000180: a0a7 a83d 194d b0be f1ff 003e a99b 0abe
00000190: 3ecb af3c b684 bb3d a0bb 49bd 3076 eebd
000001a0: dadf 36be b25f efbe 049a 203d 0999 06be
000001b0: 3113 a83c f00a 2c3e 87f7 353e 341e 8c3e
000001c0: f0d7 cbbd 47f5 113e bc31 073e e463 93bc
000001d0: 6e08 7abe 3867 703e 820a a1bd 0ce6 0c3c
000001e0: f929 af3e bda9 27be a0ef 22be 3787 7c3e
000001f0: 25ba 763e 70ea 40be 361d d6bd 18c0 84bc
00000200: bfdd 533d 2296 a73d 8967 133d 58ee 963d
00000210: 5658 a9bd 8ac3 08be 2a94 a4bd 82de 383d
00000220: 952d 173e df2b 053e 9470 b2bd 21c9 c5be
00000230: c459 3cbe fb34 c53d 3767 03be d037 cbbb
00000240: 1b25 663d 117a 0c3e 7520 dbbe 71c7 c23c
00000250: 2482 ef3d 741e 0fbe 2c74 bdbd c0bf bd3d
00000260: 72c7 c5bd 3de0 633e 3114 ad3e 4600 70be
00000270: 9cd3 23be 9794 6c3e 5395 8ebc ca46 703d
00000280: 84ae f23d 5c7c 64be 2c9b 873e 3bf3 2d3e
00000290: a705 23bd 6ea3 5b3e 2728 72bd 27f0 57be
000002a0: 8b7a f7bd 5969 16bc e79f 863b 4efa 433e
000002b0: 58a1 5e3d d421 d63e 1f25 943d 88ea ffbd
000002c0: 70ca 5abd b338 2bbe 4b60 0fbe d4fb 99bd
000002d0: c370 5c3e 0379 5cbe 0d27 723d 9c4b 333e
000002e0: 66b5 f33d dc34 02be b13f 24bd 6181 53be
000002f0: 8cb5 64be ac06 563e 06c6 6b3a 08f7 82be
00000300: 35a7 83bd 1da1 a23d bdad 24be ec73 543e
00000310: 45d3 b0be d405 ca3b 80ab 23be 444b 7fbe
00000320: 3581 b6bd f2cc 11be a9a5 84bd a1c0 2e3e
00000330: be04 44bc 5b63 07bc bb6f 923d 5fb7 ad3e
00000340: 9d01 7cbd 653a 9abc 9a98 443d 2272 f1bd
00000350: 46e2 a63c 69aa 98be 1f47 893e 5ae5 80be
00000360: eea6 5cbd 7355 07be 6669 b03d 077a 82be
00000370: a858 cf3d 8eb5 d33d 8ec3 83be b47b 343e
00000380: 2c54 803e 8809 18be 1c40 cdbd a8e6 333e
00000390: 5b58 61be cb60 aabc ffff 91be 7ae3 383d
000003a0: 8e17 093e ee8b d2be 12d2 4f3d 544d 92bd
000003b0: 55cf d63d bae5 0c3d bc86 ba3c 608b 59be
000003c0: b48c 313e 034b d23e 4c43 69bd df14 403d
000003d0: fced d7bd 90a5 afba af3f 893d 9b94 bfbd
000003e0: f9a2 853e ca2e 26be 938e 523c c026 1ebe
000003f0: b66e df3d 25b2 9f3d 9b93 983d c023 93bc
-0.109175935 -0.00011308717 -0.028156023 -0.37540624 0.13433124 -0.13450806 0.0021293692 0.116081886
0.014217225 0.047774646 0.020673089 0.16762553 -0.04169759 -0.012148665 -0.23016967 0.15764931
0.17975268 0.033466153 0.145122 -0.28124005 -0.12872717 0.046040133 0.07565764 -0.234433
-0.122563116 -0.06449455 0.011292763 -0.09597111 -0.025691051 0.24073486 0.07976315 0.108635835
-0.18177073 0.09649626 0.01770141 -0.17015804 -0.16513968 0.22566348 0.34569275 -0.17443977
-0.4234397 -0.04331061 0.0755063 0.43837905 0.6611236 -0.27557656 0.075812995 0.1306558
-0.050118107 0.040237367 0.1697046 -0.22704299 -0.44171554 0.2134991 0.06309118 -0.102945276
0.074791245 -0.09091119 -0.2860698 0.10008292 -0.49291542 -0.12494549 0.22728193 -0.21871601
0.0019171207 0.002626488 -0.035029646 0.066098504 0.1008856 0.05434335 -0.15611821 0.014511255
0.31069157 -0.04942305 -0.12909248 0.09974372 -0.022132669 0.21646598 0.55742604 -0.17663693
-0.04229474 -0.17558327 -0.020673085 0.2251825 -0.047998738 -0.2804916 -0.17070837 -0.0143125355
0.10535733 -0.28917977 -0.101688385 -0.12854984 -0.120275065 0.1729187 -0.105751015 -0.10393122
0.08235097 -0.3443382 0.12597634 -0.13535942 0.021459218 0.09156172 -0.0492512 -0.11643636
-0.1785883 -0.46752697 0.03920938 -0.13144316 0.020516964 0.16801047 0.17770205 0.27366793
-0.09953296 0.14253722 0.13202566 -0.017991967 -0.24417278 0.23476875 -0.07863332 0.008599769
0.3421171 -0.16373344 -0.15911722 0.24660955 0.24094446 -0.18839431 -0.1045479 -0.016204879
0.051725145 0.081829324 0.03598741 0.07369679 -0.08268802 -0.13355842 -0.080360726 0.045134075
0.14763482 0.13005017 -0.08712879 -0.38630012 -0.18393618 0.09629246 -0.12832342 -0.0062017217
0.05618773 0.1371844 -0.427982 0.023776742 0.11694744 -0.1397646 -0.09250674 0.09265089
-0.09657182 0.22253509 0.33804467 -0.23437604 -0.15998691 0.23103558 -0.017405188 0.05866126
0.118496925 -0.22313064 0.26485574 0.16987316 -0.039800312 0.21449062 -0.059120324 -0.21087705
-0.1208392 -0.00918039 0.0041084173 0.19138452 0.05435309 0.41822684 0.07233643 -0.12495905
-0.053415716 -0.16720848 -0.14001577 -0.075187355 0.2152739 -0.21530537 0.059119273 0.17509311
0.118998334 -0.12715477 -0.040099803 -0.20654823 -0.2233488 0.20900983 0.00089940464 -0.25579095
-0.064283766 0.07940886 -0.16081901 0.20747346 -0.34536186 0.0061652455 -0.15983391 -0.24931055
-0.08911363 -0.14238337 -0.0647691 0.1706567 -0.011964021 -0.008263434 0.07150217 0.33928964
-0.061524976 -0.018826673 0.047997095 -0.11789347 0.020371567 -0.29817513 0.26812074 -0.2517498
-0.053870134 -0.1321619 0.08613853 -0.25483724 0.10124332 0.10337363 -0.25735134 0.17625314
0.25064218 -0.14847386 -0.100219935 0.17568457 -0.22006361 -0.020798108 -0.28515622 0.045138814
0.13387892 -0.41122383 0.050737448 -0.071436554 0.10488764 0.03439877 0.022769324 -0.21244574
0.1733883 0.41072854 -0.056948945 0.046894904 -0.10543439 -0.0013400782 0.067016 -0.09354516
0.261009 -0.16228786 0.012851375 -0.1544447 0.10909788 0.0779765 0.074500285 -0.017961383

model.bigrill.fwd_rnn.spatial_decoder.lin_in.bias f4 [32]
00000000: 75f6 51be 87dc 28bb 42aa 213d 67f5 28be
00000010: 2d96 8cbc eaff 3a3e 684f f33a 66a5 dc3d
00000020: 13da 583e a5e8 2bbe fff6 f1bd 258d f93d
00000030: 6c35 8abc df17 e8bc 32ae 4ebe 665b cfbd
00000040: 8506 bf3b 37e1 39be 4dba 113d 59fb 723e
00000050: 31e2 6bbe ddc1 11bd 181d 1f3e 6453 8e3e
00000060: dd1a 253c f65e 76be ba9e 66bd 4e04 643e
00000070: 539a 9abd 2ebc eb3b 8dcf 013e 5c45 3abe
-0.20504172 -0.002576621 0.03946901 -0.16499864 -0.017161453 0.18261686 0.0018563094 0.10773735
0.21176939 -0.16787966 -0.11814689 0.12185124 -0.016871177 -0.028331695 -0.20183638 -0.10124855
0.0058296346 -0.18152319 0.03557806 0.23728694 -0.23035504 -0.035585273 0.15538442 0.27797997
0.0100772055 -0.24059662 -0.056303717 0.22267267 -0.07548966 0.0071940636 0.1267683 -0.18190521

model.bigrill.fwd_rnn.spatial_decoder.graph_conv.mlp.weight f4 [32, 64, 1, 1]
00000000: 7f39 00be 3fa3 18be d4a2 043a ba01 94bc
00000010: 73c9 c33d 5f92 403e 640d 163d aab3 583d
00000020: 8412 f23d be74 003d e3d7 f2bd 732b e03c
00000030: e8ff a23d b95a 3d3e 4f8b cc3d 539f e53c
00000040: 452c 8a3c 1dae dcbd 7ca0 34be 81c5 693e
00000050: d9f0 26be 550b ebbd b009 003e 7e57 163e
00000060: 5c57 30bd e9fc 933a 6a20 89bc 7629 a1bd
00000070: 43e4 013e 5b98 313d 0049 e6bd 8097 80be
00000080: 0a44 a4bd 63e3 2e3d 8154 473c 4fff 0abe
00000090: 5147 7fbd 3a56 5f3e 62dd 823e 693b c13c
000000a0: 21bd 813d 5e18 963b 8bab 213d 3050 bc3d
000000b0: 3eba 15be 8373 7f3e a301 2bbe 146f c5bd
000000c0: aaf3 08be f12d a0bd 152f 6b3d 9037 483d
000000d0: 933b c2bd 7604 363d 1bb3 303e 5acb 803c
000000e0: 3ae9 92bd ac96 7e3d 3cfd 73bd e877 1c3d
000000f0: b693 b7bd edac 913c 50ca 2a3e de74 bfbe
00000100: ab79 783d 0e76 5c3c 8a8c 3abd f1e7 b2bd
00000110: 2a6e d5bd 9804 8dbc 2401 783d d160 1b3e
00000120: 0b57 51bd 4131 4bbd c8fd fcbc 6a34 2b3d
00000130: b903 eb3c ad0b 093e c88e d83d 5431 803d
00000140: 1496 fbbd 48f7 ff3c c1bf f2bb d80b ff3d
00000150: 1818 08be cd88 06be 60d6 1ebd 8a85 f03d
00000160: 50ea 68bd f3c3 68bd e791 1bbd 5036 c53d
00000170: 68b4 133e b825 cdbd 0358 c43d 4c2e f9bc
00000180: 89bb ad3d 6ef7 403e 8bf3 bf3d 9ac3 973b
00000190: 8a7a 84bd 1329 e33c 4133 193e e230 2b3d
000001a0: 7cd9 403e b2be 233e d535 d93d 0bd5 d2bd
000001b0: 665c d0bd 309e 213d 0408 a6bc e65e 2f3e
000001c0: 3b12 85bd 59fa 783d 415f a2bb fee0 81bd
000001d0: 4e1a 633d 2aee 83bd eea3 10bc 265d debc
000001e0: 7dc4 aabc acb2 ec3c 9245 f83c b81f 8c3d
000001f0: 1a35 03be 4c5b 9d3d ca01 7d3d 9cd9 9bbd
00000200: 26c5 cfbd c152 d1bd 3a66 503d 02ac af3d
00000210: b968 cabc 76d1 a4bd bece 453e 0dbe 443c
00000220: 63c4 a13d d323 c03d 54b4 debd c870 df3d
00000230: 35c6 b83d c1fb d73d bcbc b0bd 6147 cc3c
00000240: 3cec 823c 12d6 fabc f9ca 34be f2be a73c
00000250: 009b 5abe 5fcd 0bbe e756 013e 221c 803d
00000260: 36d6 3b3c 5fd8 7bbd b61b b9bd a2c6 563d
00000270: 723f 063e ae6c a63d 50c6 bfbc e797 33be
00000280: b390 08bd e733 a43d e42f f4bc 5ae8 89bc
00000290: 203f 07bd 3478 82bd 3fb1 343e 24b0 0b3e
000002a0: 1911 183e c9f0 b9bd a019 91bd 5eab 8abd
000002b0: a988 183d 3702 283e 1274 0abe 3073 903d
000002c0: 3184 8e3c 5b2f fabd 5f17 d8bd ade6 073e
000002d0: be4e 04be 02bf 8e3d a59c 0f3e c75e f13d
000002e0: 6f06 43bd 5e68 093c a966 5d3d 1290 68bd
000002f0: 7ef1 bebd 2ab1 6f3c fc40 fc3d 8a25 abbe
00000300: dfd7 c93c ba1c 07be b345 803c 5f7f 23bc
00000310: 635b e13b 5a5e adbd ff41 8a3e 24c6 083e
00000320: aaf7 603d 2fd9 933d e0cd 493d 1480 95bd
00000330: e4ed 28bd f966 013d 1f41 1bbd c07d 603d
00000340: 35cd afbc 98b7 31bd cc9d 43be 4b99 743e
00000350: 920f 4abe 2b73 083d 5187 f6bc 0df0 e53d
00000360: 307b 6a3d b160 843c 6a06 bf3d c613 023e
00000370: bd24 5d3e 03f1 67bd 40b1 d93d c43d 33be
00000380: 97f3 00be c13a 853e e5a7 da3d 7e7a 5fbd
00000390: 62e5 03bd b91a aebb 51ba 493e c624 983c
000003a0: 6424 f93d 4cae 073e 9265 03be 1e69 333d
000003b0: b4da f63b ce41 3d3e 4c3e 20bd d104 b9bd
000003c0: 2f88 fabc 00f6 f5bd 49dc 6fbc f07b 233e
000003d0: 9f26 30bd 08e8 8e3d 5d54 553e 1fbc fa3d
000003e0: 9640 283d e786 0cbe 9eda 85bd 9136 853d
000003f0: dfa7 3abe f606 cbbd bccf b13d 589b 50be
-0.12521933 -0.14906023 0.00050596637 -0.01806723 0.09559908 0.18805836 0.036633864 0.052905716
0.11819938 0.031361334 -0.118575834 0.027364468 0.079589665 0.18491639 0.099875085 0.028030073
0.016866812 -0.10775397 -0.17639345 0.22829248 -0.16302814 -0.11476771 0.12503695 0.14681813
-0.043052062 0.0011290583 -0.016739089 -0.07869236 0.12684731 0.043358188 -0.112443924 -0.25115585
-0.0802079 0.04269732 0.012166143 -0.13573955 -0.062323872 0.21810237 0.25559527 0.0235879
0.063349016 0.0045805415 0.039470237 0.09194982 -0.14621827 0.24946408 -0.16699843 -0.09640327
-0.133742 -0.07821263 0.057417948 0.048881114 -0.09484019 0.044437848 0.17255823 0.015721966
-0.07173391 0.06215541 -0.059567675 0.03820029 -0.089637205 0.017782653 0.16678739 -0.3739385
0.060662907 0.013455881 -0.045544185 -0.087356456 -0.10421403 -0.017214105 0.060547963 0.15173651
-0.0511084 -0.04960752 -0.030882731 0.041798033 0.028688299 0.1338336 0.10574108 0.062594086
-0.122844845 0.031245843 -0.0074081128 0.12453431 -0.13290441 -0.13138123 -0.038778663 0.117442206
-0.056864083 -0.056827497 -0.03798094 0.096295 0.14424288 -0.1001696 0.095870994 -0.030417584
0.08483035 0.18844387 0.09372624 0.004631472 -0.06468685 0.027729547 0.14960958 0.041794665
0.18832964 0.15990713 0.10605971 -0.10294541 -0.101738736 0.0394575 -0.020267494 0.17126045
-0.06497618 0.060785625 -0.004955203 -0.06341742 0.055445008 -0.064419106 -0.008828146 -0.027144026
-0.020845646 0.028893791 0.030306611 0.06841987 -0.12813225 0.07683429 0.061769284 -0.07609865
-0.10145025 -0.10220862 0.05087874 0.0857773 -0.024708139 -0.08047764 0.19317147 0.012008202
0.07898786 0.09381833 -0.108742386 0.10910183 0.0902218 0.10546065 -0.08629748 0.02493638
0.015981786 -0.030619655 -0.17655553 0.020476792 -0.2134819 -0.13652562 0.12630807 0.06255366
0.011464646 -0.061485644 -0.090384886 0.052435525 0.1311014 0.08126198 -0.023409992 -0.17538415
-0.03334112 0.08017712 -0.029807992 -0.016834427 -0.033019185 -0.06370583 0.17645739 0.13641411
0.14850272 -0.09079129 -0.07084966 -0.06770967 0.037239704 0.16407095 -0.1352084 0.0705322
0.017397018 -0.122160636 -0.10551333 0.1327159 -0.12920663 0.069700256 0.14024599 0.117856555
-0.047613557 0.0083866995 0.054052982 -0.05677802 -0.09323405 0.014629642 0.12317082 -0.33427078
0.024639068 -0.13194552 0.015658235 -0.009979098 0.006877349 -0.08465262 0.27003476 0.13356835
0.05492369 0.07219159 0.049268603 -0.072998196 -0.041242495 0.031592343 -0.0379039 0.054807425
-0.021460155 -0.04338798 -0.19103163 0.23886602 -0.19732502 0.033312958 -0.03009382 0.11227427
0.057246387 0.016159387 0.09327395 0.12702855 0.21596046 -0.05662633 0.10629511 -0.1750403
-0.12592922 0.26021388 0.106765546 -0.054560177 -0.03220118 -0.005313244 0.1969998 0.018572222
0.12165144 0.13250083 -0.12831715 0.04380142 0.0075333957 0.18482134 -0.03912191 -0.09034122
-0.030582516 -0.120098114 -0.014639922 0.15965247 -0.043005582 0.0697785 0.20832963 0.122429125
0.04107722 -0.13723336 -0.065358385 0.06504548 -0.182281 -0.09913437 0.086822 -0.20371759

model.bigrill.fwd_rnn.spatial_decoder.graph_conv.mlp.bias f4 [32]
00000000: 0609 023e 849a 07be 7b92 4b3e 9a0f 943c
00000010: fcad 40bd dd52 6d3e 7750 87b9 999d 9d3d
00000020: 526d 443e 11e7 683c d969 89bd a46c ba3c
00000030: 0a1f 443e 58c2 70bd c47a 933d e346 2bbd
00000040: 5b38 773e 490c 94bc 5af9 083e 69af 1f3e
00000050: cc35 853e 36fd 593d 0347 43bd 6864 15be
00000060: c4dc 803d 1c63 ffbd c167 103e 7fb7 1ebe
00000070: f9f5 0abe 1592 3b3e a356 03be e923 773e
0.12698755 -0.13242537 0.19880097 0.018073846 -0.047040924 0.23176141 -0.00025809158 0.07696075
0.19182327 0.014215247 -0.06709642 0.022756882 0.19152465 -0.05877909 0.0720115 -0.04181565
0.24142592 -0.018072264 0.1337637 0.15594257 0.26017606 0.053219996 -0.047675144 -0.14589083
0.06292108 -0.124700755 0.14102079 -0.15499686 -0.13570394 0.18317445 -0.12826018 0.24134792

model.bigrill.fwd_rnn.spatial_decoder.lin_out.weight f4 [32, 64, 1]
00000000: 2df2 013d 2a84 593b 7d35 5cbd 2bb0 2d3d
00000010: 8120 9cbc afec 40bd c2c0 5cbc 2cef bbbd
00000020: 9999 083d f420 1cbe 8470 9d3d 27bb 76bd
00000030: 5184 6f3d c59f 0ebe defc 32bc 5f73 7d3e
00000040: 222e 3abd fd83 9e3b 3e03 33bd 0bbb b0bd
00000050: ea9f 00bd 8356 2ebd 1cd8 e33c b37e 81bd
00000060: 573c d13d 8695 30bd 9278 efbc f493 413d
00000070: 96c3 e6bb d660 253c 0b12 3d3d 5c17 323d
00000080: 3ebb f9ba b255 133f 6d6e c8be 285d 58bd
00000090: 4966 82be aa94 0f3c 1805 6f3d a86b 9bbc
000000a0: 3db5 b3be d0a5 b1bc ad1a 463e 06d0 d63e
000000b0: 75c7 57bd 1bde ec3d 45d4 e33e 9cd4 babd
000000c0: aa44 83be 2c01 84be 4cf3 5fbf a0e5 e23e
000000d0: 12f1 0cbe b61b b93d 6768 11bd c2de 8ebd
000000e0: edb7 6a3e 14a9 28be 8d48 b3bc 12be 6f3e
000000f0: e344 0bbe c638 f73c 9b3f 01be fc52 473e
00000100: a75d 943d 2a44 07bd 7a02 d93c 7ecd 273e
00000110: 409a 1c3b 22ae ff3d 30c4 73bb 37e3 e43c
00000120: 5ef1 433d edbc c9bd c7cc b4bd 81ee 0cbd
00000130: 380b 71bd 08fb d8bd d2b6 4e3d c867 5e3d
00000140: cf9b 393d 8dfe 3d3d ee61 c4bd 6f31 b33d
00000150: be42 9fbc cf0c 6e3d 6891 ecbd 4bbb 443d
00000160: 0932 41bd 40fd bf3d db08 39bd cfa4 a0bd
00000170: c7df c1bd 4b24 963c 8701 01be fe53 44bd
00000180: 3287 013e 7cee 3cbb 09b1 e63e 86f6 793d
00000190: a71e 993e 3010 40be 7e26 90bc 4eb0 0aba
000001a0: 6511 8e3e 7f8e 86be 04b0 c7bb b6aa 593d
000001b0: 253a 393e 0cf4 fcbd d9a4 a6be 1699 8dbe
000001c0: 3a18 143d 8e03 903e e33c 753e 0442 a6be
000001d0: 2d69 acbd bb5e e03d a014 13be 12a8 c53d
000001e0: 2828 82bd 5019 62be a064 03bf 31ab 56be
000001f0: 531a b43d b913 293b 2166 473e 7edc 97be
00000200: 29af c0bd 2bd6 b33d 2c9b 85bc 9850 293e
00000210: f5da 93b9 514d 15bd e6d9 c73d 8135 c13c
00000220: 9f98 563c 38c0 083d 30fa f1bd 4ce5 b13d
00000230: 32c6 333b d97c bdbc 31cb 34bd d98b e8bd
00000240: fcbb 9b3d 987c 33bc ab9d 9cbc d0f7 e93d
00000250: 1c87 a13d 72f2 903d 1adb ffbd 3494 f63d
00000260: fd34 aa3d 90c0 85bb d1bf e03d 2d61 ebbd
00000270: 80cd cd3d 2472 80bc 486f 04be ad78 193d
00000280: c866 4b3e 19fc 413d c443 9d3e c3fb 803d
00000290: ed4c af3e 7e65 46be 817e b3bd 82e9 c3bd
000002a0: 5807 833e caf5 40be a86f dbbd fc5a babc
000002b0: 3d45 553e 13f3 a7bd cb73 c8be 556b b3be
000002c0: 52cc 013e 65bf 7f3e 4900 073f c43d acbe
000002d0: b4e9 1dbe 9380 6f3d aa11 c4bd 16f1 3c3e
000002e0: faa0 a1bd b6fc 8fbe 5c26 14bf 1089 cbbd
000002f0: 6e7a 103e 4216 1a3e 9539 873e 77c2 ebbe
00000300: f19e 1cbe 4f12 d9bd 883a 13be 00de 57bd
00000310: 8d37 1d3e fe0a 79be 5f06 a2bd 9789 2ebe
00000320: 3b55 1bbe 3067 66bd 456e be3d ef51 713d
00000330: 3a30 11be 68c0 a73d e901 9a3c 2b5d 34bd
00000340: a0c3 a8bd d8e2 babc 3466 90bd a05d 083d
00000350: e557 01bd df9c 183e b41f 0b3d 6034 2b3e
00000360: 2c0e 1abe c3dd 853d c8fe 05be 8e3e 353e
00000370: 7e2a a0bd f911 eebd c6ed 0f3e 25de df3b
00000380: 2020 5fbe 08b1 9c3c c30c 8cbe 7ffd 973d
00000390: e86a 61be 88cf a63d 773c 3a3e 860e 053e
000003a0: 28b4 d3bc 9b99 f93d a62d 0bbd 5e16 433e
000003b0: 6f12 e0bd d74a c53c 31ca eb3e 4913 323e
000003c0: 967d e6bd cf9b 5ebe 4671 c4be 7513 903e
000003d0: 331a 5b3e c5f4 27be 49b5 b73c c92e 10be
000003e0: 051b 773d 4a95 a43e 3f1a 173f 4ba8 273e
000003f0: 87b8 92be 33b9 d4bd 7a54 41be 3dfb 113f
0.031725097 0.0033190348 -0.053761948 0.042404335 -0.019058468 -0.04710072 -0.013473691 -0.09176478
0.033349607 -0.15246946 0.07687476 -0.060237076 0.058475796 -0.13928135 -0.010924546 0.24751042
-0.045454152 0.0048375116 -0.043704264 -0.086294256 -0.031402506 -0.042562973 0.02781301 -0.06322994
0.10216587 -0.043111347 -0.029232297 0.04726024 -0.0070423586 0.010093888 0.046159785 0.04347931
-0.0019052995 0.57552636 -0.39146748 -0.052823216 -0.25468662 0.008763472 0.058354467 -0.018972233
-0.3509921 -0.02168551 0.19346114 0.41955584 -0.05268045 0.11565801 0.44497886 -0.09122583
-0.25638324 -0.25782144 -0.87480617 0.44315815 -0.13763836 0.090384886 -0.035499956 -0.069760814
0.22921725 -0.16470748 -0.02188518 0.2341235 -0.13600497 0.030178439 -0.1262192 0.1946525
0.07244425 -0.03302399 0.026490439 0.16386983 0.002389565 0.12484385 -0.0037195794 0.027940376
0.047837608 -0.09850488 -0.08828121 -0.034407143 -0.05884859 -0.105947554 0.05046732 0.054298192
0.045314606 0.046385337 -0.09588991 0.08749663 -0.019441005 0.058117684 -0.115511715 0.04803018
-0.047166858 0.093744755 -0.04517446 -0.07843935 -0.0946651 0.018327853 -0.12598239 -0.047931664
0.12649229 -0.0028828671 0.45056942 0.06102612 0.29906198 -0.18756175 -0.01759648 -0.00052905537
0.27747646 -0.2628059 -0.0060939807 0.05314132 0.18088587 -0.12351236 -0.32547644 -0.27655858
0.036155917 0.28127712 0.23949008 -0.3247224 -0.08418498 0.109555684 -0.14363337 0.096511975
-0.063553154 -0.22079968 -0.51325417 -0.20963742 0.087940834 0.002579911 0.19472553 -0.2966041
-0.09408409 0.08781084 -0.016309343 0.1653465 -0.0002820116 -0.036450688 0.09758358 0.023585083
0.013097911 0.03338644 -0.118152976 0.08686313 0.0027431366 -0.023130821 -0.04413909 -0.11354799
0.076042145 -0.010954998 -0.01911815 0.114242196 0.07887098 0.07077493 -0.12492962 0.12039986
0.08310888 -0.004081793 0.10974086 -0.11493144 0.10048962 -0.015679426 -0.12933075 0.0374686
0.19863427 0.04735956 0.30715764 0.0629802 0.34238377 -0.19374654 -0.08764363 -0.095660225
0.2559154 -0.18843761 -0.10714656 -0.022748463 0.20827194 -0.082006596 -0.39150843 -0.35042825
0.12675598 0.24975355 0.5273481 -0.33640873 -0.15421182 0.058472227 -0.09573682 0.18451342
-0.07892032 -0.2812249 -0.5787103 -0.09938252 0.14109203 0.15047553 0.2641112 -0.46046802
-0.15295006 -0.10599195 -0.14377797 -0.05270195 0.15353222 -0.243206 -0.079113714 -0.17044674
-0.15169232 -0.05625075 0.09298376 0.05891603 -0.14178553 0.081909955 0.018799739 -0.044034164
-0.082404375 -0.022813246 -0.07050744 0.033292413 -0.031577963 0.14903592 0.03396578 0.16719198
-0.15044469 0.06536438 -0.13085473 0.17699644 -0.07820605 -0.11624522 0.14055547 0.0068319016
-0.21789598 0.019127384 -0.27353486 0.074213974 -0.22013438 0.08145052 0.18187128 0.12993822
-0.025842741 0.12187501 -0.03397908 0.19051501 -0.10941016 0.024083538 0.46052697 0.17390169
-0.11254422 -0.21739124 -0.3836767 0.28139845 0.21396713 -0.16401966 0.02242531 -0.14080347
0.060328502 0.3214515 0.59024423 0.16372792 -0.28656408 -0.103868864 -0.18879882 0.57023984

model.bigrill.fwd_rnn.spatial_decoder.lin_out.bias f4 [32]
00000000: 14d0 9ebe 5dee bf3d e362 ae3d 3344 73bc
00000010: a4fe 57bd 57ef f3bc 023a 83be 6688 e4bd
00000020: 99fe 8cbe 665a 363d e1ff 4dbd 74de b9bd
00000030: 6ee2 853d 18a5 27bc e391 17bd 8a19 58be
00000040: 58b4 3abe 658d eebd c2b0 403d 877c 48bd
00000050: ff3a 303d 6dd8 6ebe 2edf dc3d 3dd2 9ebc
00000060: 5b42 d73b cc60 f9bc 612e 89bc 8cb0 b83e
00000070: c468 763d e0c8 05be 9db9 6c3d cd21 65bd
-0.31018126 0.09371636 0.08514955 -0.014847803 -0.05273308 -0.029777212 -0.25630194 -0.111588284
-0.27537993 0.044519804 -0.050292853 -0.09075633 0.06537329 -0.0102322325 -0.037004363 -0.21103492
-0.18232858 -0.116480626 0.04704357 -0.048946884 0.043025013 -0.23324747 0.10784756 -0.019387359
0.0065691895 -0.030441664 -0.016745748 0.36072195 0.060158506 -0.13064909 0.057794202 -0.055940438

model.bigrill.fwd_rnn.spatial_decoder.read_out.weight f4 [1, 64, 1]
00000000: f4a0 56be fc3d f13e f8bc c33e 5519 23bf
00000010: 4241 ee3e 95e4 16bf d1ff 21bf e622 34bf
00000020: 6af6 1cbf 2b73 cc3e ab71 2cbf 4dc0 183f
00000030: f389 f43e 03e1 0d3f d410 56bf 3e19 36bf
00000040: a882 1fbf 2720 3abf 77fd 003f 20ca 76bf
00000050: f2ba e43e 20f1 25bf 6d51 d73e f3a9 1ebf
00000060: 26cf 053f c149 41bf a5dd 043f 0e92 543f
00000070: cb59 e03e 6fbe 5bbf a412 e03e 6f3a 3cbf
00000080: c35f f83d 01b6 b63d 3987 823e 7b3d dc3d
00000090: e1e0 623e 09ad 19be 4ac6 58be acb9 78bb
000000a0: 9fa0 723e ec02 22bd 35b4 c83c f6a8 423e
000000b0: fa84 d93d 81e4 2dbb bec2 cabe 9453 9dbe
000000c0: 6ceb 633c e5e8 943d 6a1f 873e 6f43 a7be
000000d0: 1609 b6bd 6dee 3e3e 6121 a33d a7a0 103e
000000e0: 8eb0 2dbc 1ee3 bcbe 409a d1be cc39 47be
000000f0: 8c99 313d 7b1c 2f3e e2c4 193e aab4 c8be
-0.20959836 0.47117603 0.3823011 -0.6371053 0.46534163 -0.5894254 -0.6328097 -0.7036575
-0.613135 0.39931616 -0.67360944 0.5966843 0.47761497 0.55421466 -0.8361943 -0.71132267
-0.6230874 -0.7270531 0.50386757 -0.9640217 0.44673878 -0.6482105 0.4205431 -0.6197807
0.5226921 -0.75503165 0.519007 0.8303536 0.43818507 -0.85837454 0.43764222 -0.7352666
0.1212764 0.08921433 0.25493792 0.10753914 0.22156097 -0.15007414 -0.21169391 -0.0037952466
0.23694085 -0.039553568 0.024499992 0.19009766 0.106210664 -0.0026533904 -0.39601701 -0.30727828
0.013911109 0.072709836 0.26391155 -0.32668635 -0.08888452 0.1864564 0.07965351 0.14123784
-0.010601176 -0.36892027 -0.40937996 -0.19455642 0.043359324 0.17100708 0.15016511 -0.39200336
