logs/discharge_point/grin/2023-11-16_14-17-53_487462124/epoch=38-step=3393.ckpt (torch, 708068 bytes, 102 tensors)

model.bigrill.emb f4 [8, 20]
000000 00 03 bc bc 1b 56 c7 3a c9 6c 38 bd f2 fa 55 3e
       -0.02295065 0.0015208157 -0.04502562 0.2089651
000010 e4 52 4a be dc ec ff 3d bc 13 d8 bd d9 0b ce 3c
       -0.19758183 0.12496349 -0.10550639 0.025152134
000020 47 e6 3f 3e 8f b9 22 3f 76 44 b0 3e 62 7e be 3e
       0.18740188 0.6356439 0.34427232 0.37205797
000030 e1 ba 6e 3b c1 24 43 3e 2a 37 96 be 31 bb 6c 3e
       0.0036427306 0.19056989 -0.29338962 0.23118283
000040 57 02 fe 3e 50 c3 13 bf c5 80 33 be cc 35 a3 3e
       0.4961116 -0.577199 -0.1752959 0.3187698
000050 7a 96 d1 bd d8 2a 58 3f bb 70 af 3d 6b d3 09 bd
       -0.10233779 0.84440374 0.085664235 -0.03364889
000060 3c ba 1d 3f 5f 53 1a 3e c2 a7 d1 3e 37 41 3d bf
       0.61612296 0.15070866 0.40948302 -0.73927635
000070 15 11 f7 3e cd 13 c2 bd 8a 2b 93 be c2 ae 27 be
       0.4825522 -0.09476433 -0.28744155 -0.16375259
000080 78 4b 8c 3a 81 fe d4 3e f2 70 54 3f 42 42 d1 3e
       0.0010703644 0.4160042 0.8298484 0.40870863
000090 a9 3a 6d be 76 0d 40 bd c8 84 32 3d 87 c8 b3 3e
       -0.23166908 -0.046887837 0.04358366 0.35113928
0000a0 f0 14 c7 3e aa 5d a8 3e d9 d9 88 be b3 d5 a3 3e
       0.38883162 0.3288396 -0.26728705 0.31998977
0000b0 ae 86 f0 3e 52 e9 d8 bd 17 6e 99 be 0e 65 21 bf
       0.46977752 -0.10591377 -0.29966804 -0.6304482
0000c0 6b 7f c3 bd 25 71 d3 3c a9 f7 da bc 0b 9c 03 bf
       -0.095457874 0.025810787 -0.026729422 -0.5140998
0000d0 5f 1c 56 be 13 7c 1d 3e 79 4d 2b 3f 22 31 19 3f
       -0.2090926 0.15379362 0.6691509 0.59840596
0000e0 80 0f a5 3e d9 a2 9c bd 6e 4d 83 3e f9 3a d9 3e
       0.32238388 -0.07648248 0.25645012 0.42427805
0000f0 8f 9f c6 3d f7 de 30 3d 6d 01 c9 bd 45 98 19 3e
       0.09698402 0.043181386 -0.09814725 0.14999492
000100 f8 b5 0b be ff e8 f2 bd b9 b3 e2 3d 5e fe 28 3f
       -0.13643634 -0.11860847 0.110694356 0.66013134
000110 fd 20 5f be 3a ca 08 3d 80 5a 20 bc 07 f1 30 3e
       -0.21789928 0.033395983 -0.009787202 0.17279445
000120 cc f7 9c 3e ed 6e 67 bd 86 4f a7 be 2e b6 9a 3e
       0.30657804 -0.05650227 -0.3267786 0.30217117
000130 75 79 bf 3c f4 a5 22 3e 22 a9 21 3f e4 ea 54 bf
       0.023373345 0.15883619 0.631487 -0.83170915
000140 8e 4f ed 3d f1 2b 12 bf 8d 64 c5 be 5b 0b 9f be
       0.115874395 -0.570983 -0.38553277 -0.3106335
000150 5b 87 51 be 74 ff 08 3f 7b 8f 9c be 12 9a 1e 3f
       -0.2046179 0.5351479 -0.30578217 0.6195384
000160 ee 38 91 be 50 cd 12 3e c7 e7 b7 bd 5d 4a dc bd
       -0.28363746 0.14336133 -0.08979755 -0.10756371
000170 d6 01 c0 be 33 5f 5e be cf 51 2d be 66 fa 2b 3f
       -0.375014 -0.21716003 -0.16925739 0.6717895
000180 ef 04 d4 be 98 84 d9 3e 97 79 7a 3e da 26 d3 bd
       -0.41410014 0.42483974 0.24460445 -0.10310145
000190 d2 f9 69 3c d7 b1 c2 3e 78 4c 8c be c0 b0 78 3e
       0.014280753 0.38026306 -0.2740209 0.24286175
0001a0 db 4f c4 bd 1c e5 1c bf 40 1b 88 3d 7c eb cd bd
       -0.09585544 -0.61287093 0.066458225 -0.10054681
0001b0 75 34 30 3e 26 b9 3a 3e 2b 97 f2 be 95 0c 8b be
       0.17207511 0.18234691 -0.47380957 -0.27158037
0001c0 c4 7c 1d 3f bd 18 d9 be c9 a9 15 3f 56 d2 03 3e
       0.615185 -0.42401686 0.58462197 0.12873206
0001d0 9e c1 65 be 01 89 a1 3e 3e 2e 9c be 63 1c ce be
       -0.2243714 0.31549838 -0.3050403 -0.40256032
0001e0 f8 32 58 3f cc c8 c9 be 9c df ff bd e1 76 11 bd
       0.8445277 -0.39411008 -0.12493822 -0.035513762
0001f0 50 47 59 be a6 e9 68 3f 81 27 dd 3e 17 23 19 3f
       -0.2121861 0.9098152 0.43194202 0.5981917
000200 8a a5 17 be 8f 6f cf 3c a0 3f 04 3f 46 25 60 3f
       -0.14809242 0.02532175 0.51659584 0.87556875
000210 87 bb 44 be 23 b2 aa 3e 3c ed 5f 3e ac a6 b8 be
       -0.19212161 0.33339033 0.21867841 -0.3606466
000220 f6 99 09 bf 3d b5 7f 3d a9 00 34 3e 35 c2 c0 bd
       -0.5375055 0.0624287 0.17578377 -0.09412042
000230 14 fd ef 3e 50 8e 99 be c7 74 cf 3e 2c 6f 79 3c
       0.4687277 -0.29991388 0.40518782 0.015224259
000240 5a 55 43 3e c3 13 11 3f 12 92 0a 3f e5 01 29 3f
       0.19075528 0.5667078 0.54129136 0.66018516
000250 24 af bb be 8d 71 9d bd 2a 83 6e 3e eb b7 86 3e
       -0.3665706 -0.07687674 0.23292223 0.26312193
000260 21 ab 0c 3f b2 1c 2d be 35 82 b5 3e 33 33 c9 bd
       0.5494862 -0.16905478 0.35450903 -0.098242186
000270 d0 00 18 3c d2 82 36 3d 01 2b f1 3e 66 af 71 3d
       0.009277537 0.044558354 0.47103122 0.059005164

model.bigrill.fwd_rnn.cells.0.forget_gate.mlp.weight f4 [32, 170, 1, 1]
000000 4f 8b 56 3f 37 1f 13 bf 3f 42 55 be e3 62 81 3e
       0.8380632 -0.57469505 -0.20826052 0.25270757
000010 e3 0c ab be a9 fe 3c be ea 9b a4 3d 3c f4 f1 be
       -0.3340827 -0.1845652 0.08037551 -0.4725665
000020 d0 e5 9a 3d 8f 39 45 3e df 6d 89 3d ab 64 1d 3e
       0.075633645 0.19260238 0.067104094 0.15370433
000030 77 14 4d be 7a fb c7 bd b3 20 1f be aa b3 e8 bc
       -0.20027338 -0.09764762 -0.15539818 -0.028405983
000040 08 81 8c bd 8a 31 cb 3d e9 79 83 be 80 20 5f 3e
       -0.06860548 0.09921558 -0.25678948 0.21789742
000050 35 39 2c 3b 16 9c 01 bf 8e 86 cd bd d9 77 f2 3d
       0.0026279215 -0.50628793 -0.1003543 0.118392654
000060 a3 eb 37 3e d2 99 b8 be 56 65 ed 3c ad 76 24 3e
       0.17960982 -0.36054856 0.028978985 0.16060896
000070 dc 32 74 be e4 fb 05 bd 96 1a fb 3d ae 64 79 3d
       -0.23847526 -0.032710925 0.1226093 0.06088703
000080 36 d6 a0 be 10 1a 9b be a1 7d e9 3d fa f4 51 bd
       -0.3141343 -0.30293322 0.11400915 -0.05125902
000090 03 f1 31 bd 38 ab 80 3d 80 4d 29 3e 3f a1 0d 3d
       -0.043442737 0.062826574 0.1653347 0.034577604
0000a0 d3 40 bd 3c d0 97 a0 bc 47 b3 eb 3d 06 78 c0 bd
       0.0231022 -0.01960364 0.11508804 -0.09397893
0000b0 27 d9 4b be b3 ac f6 3a e7 fe ca 3d 0b 95 14 3d
       -0.19907056 0.0018819779 0.099119 0.03627495
0000c0 d1 69 c6 bc 10 b7 4c bc 14 71 42 3d cc 77 08 3d
       -0.02422038 -0.012494817 0.04747112 0.033317372
0000d0 ed c2 ee 3d 5c 14 24 bc 1f b5 5f be d5 ca 51 bd
       0.11658273 -0.01001462 -0.21846436 -0.051218826
0000e0 4f fe aa 3d b2 b8 12 be ec 57 fe bd 27 10 a4 bd
       0.08349287 -0.14328268 -0.124191135 -0.08010893
0000f0 cc 6b de bc 77 a8 bc 3d e9 43 ae 3d ed c9 f1 3d
       -0.02715101 0.092118196 0.085090466 0.118060924
000100 8c af 5a 3e 7a 67 61 3d 42 43 69 bd a7 32 97 bd
       0.21356028 0.055030324 -0.056948908 -0.07382708
000110 ca 04 6f bc 11 08 30 3d fc 5b 0e 3d 89 e6 41 bd
       -0.014588544 0.042976443 0.034755692 -0.047338996
000120 92 f9 58 bd df fa 08 be a1 ba 5f 3d 67 d0 79 bd
       -0.052972384 -0.1337695 0.054621343 -0.060989764
000130 54 36 27 3c e4 f9 e9 bc 15 e0 18 be 75 78 12 3d
       0.010205824 -0.02856154 -0.1492923 0.035759408
000140 ab 68 8c 3c 3b cf d4 3d f3 48 f6 3c 87 33 b2 3c
       0.017139753 0.103910886 0.030064082 0.021753086
000150 ab 27 53 bd 91 90 cb bc cd 69 6b 3d 81 97 c5 3d
       -0.051551502 -0.024849208 0.057473946 0.09648038
000160 9c c0 87 3c 06 56 95 bd de e5 41 3d 0d a7 e1 bc
       0.016571335 -0.07291798 0.04733836 -0.027545476
000170 c8 1b 66 3c cd 1a 99 bd 2c 23 47 3d 18 f3 25 3e
       0.0140447095 -0.07475815 0.048617527 0.16206014
000180 ff fc 05 3d 12 13 a2 bd 38 16 93 3e c5 e6 86 3c
       0.03271198 -0.079137936 0.2872789 0.016467461
000190 12 54 2d bd 08 5b 32 bd 3c c1 97 3c 7b c8 52 be
       -0.042316504 -0.043543845 0.018524759 -0.2058429
0001a0 80 be 0f 3b 6c 1a 38 3e 6f 88 0a bc 4a 36 2a bd
       0.0021933615 0.17978829 -0.00845538 -0.04155568
0001b0 45 88 64 be eb 6e b3 3d e4 6e 10 3d 19 47 2a 3d
       -0.22317608 0.0876139 0.035262004 0.04157171
0001c0 13 f9 e0 3d c4 bf 29 3d 08 05 b7 3d 27 85 35 3d
       0.10985007 0.041442648 0.089365065 0.044316437
0001d0 52 a0 78 3e 67 97 85 3d 35 be 3f 3d b4 f8 92 bd
       0.24279907 0.06523018 0.046812255 -0.071763426
0001e0 d8 26 e8 3c 4e 3b 8a 3c 45 4c 22 3d 81 ca 44 bd
       0.028338835 0.016873982 0.039623518 -0.048044685
0001f0 15 47 6c bd 6d 67 fd bb 87 a9 cf bc 53 52 37 be
       -0.057684977 -0.0077332766 -0.025349392 -0.17902498
000200 e5 a6 02 bd a5 10 e8 bb 12 26 84 3d 90 ac 1a 3e
       -0.031897444 -0.0070820623 0.06452574 0.1510489
000210 80 bf 82 bd 00 a6 b2 be 72 c8 e5 bd a1 68 a8 bc
       -0.06384182 -0.34892273 -0.112198725 -0.020557703
000220 2e 9e 00 3d eb 3d 5d 3d e8 83 1e bd 2a e9 36 be
       0.031400852 0.054014128 -0.038700014 -0.17862383
000230 eb 99 32 3d 8c 3a 83 3d 07 d5 18 bd 14 ca 47 3e
       0.04360382 0.06407651 -0.037312534 0.1951068
000240 fd 19 58 3c d1 d9 7e bd 3e 0f 32 bd 58 b1 f4 bb
       0.01318979 -0.062219445 -0.043471567 -0.00746743
000250 60 a4 07 3e ec 89 28 3d 8c e6 68 bd a6 c7 7b bd
       0.13246298 0.041147158 -0.05686049 -0.061469696
000260 bc b2 40 bb 34 5d 19 3b 8e c8 60 3e 49 e5 9e bd
       -0.002940341 0.00234015 0.21951506 -0.077585764
000270 51 4c d1 3c 77 b8 ee 3d 74 c9 1d 3d c8 00 8c bd
       0.025549086 0.116562776 0.0385222 -0.068360865
000280 f9 76 c6 3c af d5 c8 ba 8e 6a 8e 3d 30 bd 50 bd
       0.024226652 -0.0015322472 0.069539174 -0.050961673
000290 0b 5d b6 bd 7c 23 20 3d 10 0b 30 bd 00 30 da 3d
       -0.08904465 0.03909634 -0.0429793 0.106536865
0002a0 a8 35 10 3e 2a 22 28 3e 13 0b b6 3d 74 ca a7 be
       0.14082968 0.16419283 0.08888831 -0.32771647
0002b0 f5 fb 01 be c1 e9 19 3e d1 8b 9c bd 68 6f f3 bd
       -0.1269377 0.15030576 -0.07643855 -0.118864834
0002c0 6d f1 90 3e 54 36 b8 bd c2 22 e6 3a ff 78 e6 3d
       0.28309193 -0.08994737 0.0017557966 0.11253547
0002d0 5b a9 be 3d 78 dd 3b bd ca cb b9 bd e0 c1 e3 bd
       0.09309646 -0.045865506 -0.09072073 -0.11120963
0002e0 7c 23 f5 bd 84 9c c7 bd 9f bf 49 be 79 aa 45 3d
       -0.11969659 -0.0974665 -0.19702004 0.04825828
0002f0 9f 5c b2 bd f0 df 66 bc 4d a0 25 3d c9 32 e8 bd
       -0.08709072 -0.014091477 0.040436078 -0.113378115
000300 b1 6b 12 be 8b ce 57 3e f8 3b 27 3e de 43 65 be
       -0.14298894 0.21074884 0.1633147 -0.2238917
000310 1a e1 9b 3d 9f 05 6c 3d 77 b8 0f be ce 87 4d 3e
       0.07611294 0.05762255 -0.14035212 0.20071337
000320 00 a3 ae 3d 3e 48 d7 bb 11 fd 2c be 81 ba b1 bd
       0.085271835 -0.0065698912 -0.16893412 -0.08678151
000330 c0 ac 2f 3e e7 64 c6 be 5e 58 9a bd 5e aa 5f 3e
       0.17155743 -0.38748857 -0.07536386 0.21842334
000340 16 59 cd bd 9c fe 8b be e3 b3 06 3e 9a f1 33 3c
       -0.100267574 -0.2734269 0.13154559 0.010982895
000350 b6 5a 7d 3c 2e 85 2c 3e f8 f9 54 3c 72 ae 19 3d
       0.015463522 0.16847679 0.01299905 0.03751988
000360 02 70 fc bd bf 71 e5 bd f0 75 eb bd 00 92 8f 3d
       -0.12326051 -0.11203336 -0.11497104 0.07010269
000370 c3 c5 42 be 25 47 cc 3d 8f 12 60 bd 38 30 8c 3c
       -0.19020753 0.09974507 -0.0547052 0.017112836
000380 2f d3 12 be 47 64 36 3d e2 c3 73 bc 70 91 6d 3d
       -0.14338373 0.044529226 -0.014878245 0.058000028
000390 e2 e2 9c 3d 21 b9 2b be 6c b1 47 bb 84 1d 59 bc
       0.07660462 -0.1676984 -0.0030470742 -0.013251666
0003a0 28 7b 4d bd a2 a9 4c 3e 27 79 94 3c 2f 3c 1d 3c
       -0.05016628 0.19986585 0.018124176 0.009596868
0003b0 31 7a 80 3d 8c f9 1a be 1b 1f d4 3c e0 79 95 be
       0.06273306 -0.15134257 0.025893738 -0.29194546
0003c0 b2 95 9e bd 4e e3 3f 3e 8f a7 bb bd f7 1f dd bd
       -0.07743396 0.18739054 -0.09162819 -0.107971124
0003d0 ae fd f3 bc 87 a8 f9 3b bc f6 5b bc e3 a0 3e 3c
       -0.02978405 0.007618967 -0.013425525 0.011635038
0003e0 21 6d 34 3e 11 88 e9 bd 1c 2b 43 be da 1d 5c 3c
       0.17619754 -0.11402906 -0.19059414 0.013434852
0003f0 f3 7d 02 3b 2b 83 5b bd 79 a3 61 be 80 6e 41 3c
       0.0019911497 -0.05359189 -0.22035016 0.01180613

model.bigrill.fwd_rnn.cells.0.forget_gate.mlp.bias f4 [32]
000000 60 ba ca bb 2f 76 99 bd 6d 61 4a be 8b d2 70 bd
       -0.0061867684 -0.07493245 -0.19763727 -0.05879454
000010 39 ec cd 3d 48 48 56 3c f9 3f d8 3d b9 1f 27 be
       0.100548215 0.013078757 0.10559077 -0.16320695
000020 6f a6 27 3c 10 a9 a5 3d 53 e3 d0 bd 81 42 51 3e
       0.010232552 0.08088887 -0.10199609 0.20435525
000030 62 11 04 be 93 50 01 3e d4 0a a9 bc f0 6b 53 3c
       -0.12897256 0.12628393 -0.020635046 0.012904152
000040 3d 2f 18 3e 7f 0d cb 3c 02 04 21 3d 8a e0 8b 3d
       0.1486177 0.024786709 0.039310463 0.06829937
000050 77 0f c9 bd 00 fe ba 3d b2 7f 2c be 3a 04 3d be
       -0.09817403 0.09130478 -0.16845587 -0.18458644
000060 96 0e 0f 3e 52 7e 05 bc 63 ed b8 bd d3 b0 cc 3d
       0.13970408 -0.008147793 -0.09029653 0.09994664
000070 24 d2 9e 3d 54 8c ac 3d af f4 83 bd ab 40 a7 3d
       0.07754925 0.08425203 -0.06443154 0.08166631

model.bigrill.fwd_rnn.cells.0.update_gate.mlp.weight f4 [32, 170, 1, 1]
000000 c5 3f 3f bb ac a9 83 3d 1d 51 1e 3e 20 a8 59 be
       -0.0029182297 0.06428847 0.1546063 -0.21255541
000010 75 89 2a 3e cd 95 38 3e 27 9f 44 be d1 d7 2d 3e
       0.16653998 0.18025894 -0.19201337 0.16976859
000020 3d 0c 0d be 4a 91 11 be 28 e0 62 3d 1f 5b 5f 3d
       -0.137742 -0.1421558 0.055389553 0.05453026
000030 a9 2b 06 3e f8 8c 3a 3e c2 bf 38 be 6c 8d 7d bc
       0.13102593 0.18217838 -0.180419 -0.015475612
000040 72 1c 55 3e 48 5a 18 3d 51 a1 70 3e d1 73 60 be
       0.20811632 0.037195474 0.23499037 -0.2191918
000050 d5 0d 8a 3d 3e a8 0c 3e 8b 3e d7 3d 0a fe 4d bd
       0.067409195 0.13736054 0.10509976 -0.0502911
000060 88 68 a6 bd b8 33 1a 3e 6c 0c 3a be 4c e6 c4 bd
       -0.081254065 0.15058792 -0.18168801 -0.09614238
000070 9d de 47 bc bb c1 cb bb 7c 74 44 be a4 92 ad bc
       -0.012199071 -0.006218163 -0.1918506 -0.021188088
000080 68 a5 3b 3e 4e 26 b4 3e 69 9e 00 bd 35 bc 01 3d
       0.18324816 0.35185474 -0.03140107 0.03167363
000090 5b 16 03 3e 8e 2b 35 be 77 f8 19 3d f8 bb 01 3e
       0.12801497 -0.17692396 0.03759047 0.1266936
0000a0 00 d2 f0 bc 2d e7 6b 3d da d7 d3 bd a2 f4 b9 3b
       -0.02939701 0.057593513 -0.10343905 0.0056749145
0000b0 b7 12 81 3d 07 35 1c 3c 7a d0 ab 3d 32 02 80 3a
       0.06302398 0.009534127 0.08389373 0.0009766279
0000c0 bc 74 d8 bc 4f a1 c3 3d 8b 85 ae 3d 07 87 3b bd
       -0.02642285 0.095522515 0.08521565 -0.04578307
0000d0 ed 05 92 3d 62 98 a5 bd 94 56 08 3d 64 47 ad 3c
       0.071300365 -0.08085705 0.033285692 0.021152206
0000e0 fc 56 03 be 58 f0 56 bd 1d ab 63 3c ba 95 ac 3c
       -0.1282615 -0.052475303 0.013895777 0.021067489
0000f0 69 6e bd bd 4e 9b 53 bd 53 37 a0 bd 96 40 b1 bd
       -0.09249575 -0.051661782 -0.07823052 -0.08654897
000100 e2 86 a6 bd ad 59 a2 bd 2c 2a 86 3d 45 c7 50 3e
       -0.081311956 -0.079272605 0.065510124 0.20388515
000110 f6 d8 37 bd a8 72 69 3c 2d e1 2f 3c f5 f2 07 be
       -0.044884644 0.014248528 0.010734838 -0.13276275
000120 84 75 ae bd 81 5d b1 bd 2a 16 52 3d 44 f7 0f bd
       -0.08518508 -0.086604126 0.05129067 -0.03514792
000130 59 ae 14 3d f8 86 61 3e 36 09 8e bc 06 d3 1c 3e
       0.036299083 0.22024143 -0.017338376 0.15314874
000140 69 9b 55 3c 71 6d 10 be c1 9c b3 bd 2d 8e af 3d
       0.013037541 -0.14104249 -0.08770133 0.0857204
000150 12 d6 e6 3c d4 a6 b1 3c 1c 58 22 bd 96 42 39 3d
       0.028178249 0.021685995 -0.03963481 0.045229517
000160 8e 6f 61 bd b2 57 1f 3c b9 38 45 be 10 14 04 3c
       -0.055038027 0.009725498 -0.19259919 0.008061424
000170 68 2b be 3d fc a3 2a 3e 4f 60 1a bd 16 4b 9c 3d
       0.09285623 0.16664118 -0.037689503 0.07631509
000180 72 3f af bd 84 c2 2b 3b ff b5 39 bd 67 98 23 3d
       -0.08557023 0.002620847 -0.04533958 0.039940264
000190 ee 1c 22 3d 6f 74 32 3e 20 f0 62 bd 4f 85 79 3d
       0.03957837 0.17427228 -0.055404782 0.06091815
0001a0 2c 1f e5 3d cd ba 2d be ec ef c2 bd bc 67 99 3c
       0.11187586 -0.1696579 -0.09518418 0.018726222
0001b0 26 17 af bd 9f 44 e0 3b 87 b3 8e 3d 76 4e 9b bd
       -0.08549337 0.006844118 0.06967836 -0.075833246
0001c0 d6 f4 3f bc 23 18 c5 3d de 8e b1 3d 55 14 e1 bd
       -0.011716088 0.09623744 0.08669828 -0.10990206
0001d0 a4 27 cd 3d 7e 02 3a bd a5 4a 20 3e 78 c6 81 3d
       0.100173265 -0.045412533 0.15653475 0.06336683
0001e0 44 91 7a bc e8 ca c8 bb a8 93 ea 3a c9 83 b3 bd
       -0.015293423 -0.006127704 0.0017896788 -0.087653704
0001f0 8e d9 da 3c 93 86 09 bb 11 39 2b be 8b d7 07 3e
       0.026715066 -0.0020984754 -0.16720988 0.13265817
000200 af 26 ba bd 60 26 f9 bc 5e 7c a9 3e 58 86 ba bc
       -0.090894096 -0.030413806 0.33102697 -0.022769138
000210 b2 41 32 3d 95 89 e5 3c 20 64 0b bd db d1 0a 3e
       0.043519683 0.028019706 -0.034031034 0.13556616
000220 91 17 d6 bc f7 11 c8 3d ba 06 dc 3d d6 43 d6 3d
       -0.026134284 0.097690515 0.107434705 0.104621574
000230 8d 5f 08 be 28 fa 02 be 25 12 8e 3d 70 6e d4 bd
       -0.133177 -0.1279074 0.069370545 -0.10372627
000240 f0 b2 c9 3d 27 96 27 bd 78 24 f5 3c 12 65 cd bc
       0.09848583 -0.04091468 0.029924616 -0.025072608
000250 d6 bb b7 bd 82 67 c9 3c 5e 27 7a 3e 05 53 19 bd
       -0.08971374 0.02458549 0.2442908 -0.03743269
000260 c2 6c 99 3d 91 12 38 be 8f 79 64 be 28 a0 2e bd
       0.07491447 -0.17975833 -0.22311996 -0.042633206
000270 7a 57 45 3c 41 8a a5 bd 46 44 86 3d 7a 5d e1 bd
       0.012044782 -0.080830105 0.06555991 -0.11004157
000280 af 64 0c bd 77 a9 2b bd 64 12 ab bc 0b 77 73 3b
       -0.034275707 -0.04190966 -0.020882793 0.0037149813
000290 e0 a1 f8 bd 2d 83 d8 bd c8 df ed 3c 8b b2 05 be
       -0.1214025 -0.10571895 0.029037371 -0.1305639
0002a0 54 75 6d bc 92 27 4f be ab f8 39 bb da e9 91 3e
       -0.014493305 -0.20229939 -0.0028376977 0.28498727
0002b0 95 df d8 3d 30 a1 e8 be ca 3a b8 3e 28 46 c8 3e
       0.1058952 -0.45435476 0.35982352 0.39116025
0002c0 ca ce 78 3d 9a e6 98 bc e6 56 87 bd 11 a0 4d be
       0.060744084 -0.018664647 -0.066083714 -0.20080592
0002d0 6c 5b 91 bd f8 4e b5 3d 8f 22 56 3e 1e bf 02 3e
       -0.070975155 0.08852953 0.2091162 0.12768218
0002e0 cd da 60 bc cb 70 09 3e 79 85 62 3e c5 11 3c bd
       -0.013724041 0.13421933 0.22121228 -0.045915384
0002f0 28 5e 1f 3e 60 96 ae bc cd 61 8a bd 6f c5 43 bd
       0.15563262 -0.021311939 -0.06756935 -0.04779571
000300 08 ed 50 3e 3e 30 73 be 37 f3 70 be a6 00 de 3d
       0.2040292 -0.23748872 -0.23530279 0.108399674
000310 fe 2a 16 bd ad 21 c5 bd 38 d3 a6 3d 27 3f 2e bd
       -0.036662094 -0.09625564 0.081457555 -0.042540696
000320 d3 e9 b5 bd ab 6b 23 3e 40 f4 1f bd 4c 57 f7 3d
       -0.08882489 0.15959041 -0.039051294 0.120771974
000330 93 4a 0d bc ba aa f2 3d c8 8a d9 3d de a7 38 be
       -0.008623737 0.1184897 0.106221735 -0.18032786
000340 3a 3b e3 bd 8d d6 ec 3d 71 f8 08 3e 3e e7 16 be
       -0.11095281 0.1156436 0.13376023 -0.1473665
000350 6c 90 d0 bc e9 72 c9 bd cf 08 e4 bd 3c a8 ec 3d
       -0.02545949 -0.098363705 -0.111344926 0.11555526
000360 7c c8 64 3d 9a b5 5b 3d c5 d7 22 bc bf 55 a8 3d
       0.05585526 0.053639986 -0.009939139 0.0821948
000370 db de 40 3c a4 d4 74 bd b9 9b 42 3d 76 a2 85 bd
       0.011771883 -0.059773102 0.04751179 -0.065251276
000380 10 c9 74 bd ca 5f 71 bd bf cb 92 bd ab f5 9d 3d
       -0.05976206 -0.058929242 -0.07167768 0.07712873
000390 bc 7d 99 3d 4e b7 5c 3e ca 45 fe 3d 53 f0 ce bc
       0.07494685 0.215543 0.12415655 -0.02526108
0003a0 80 65 42 3c 1c 55 09 be e6 0e 37 3d c7 2b 75 3e
       0.01186502 -0.13411373 0.044691943 0.23942481
0003b0 a4 b2 fd bd c0 ce d0 3d 15 0c 66 bb 14 9c ca 3d
       -0.123875886 0.101956844 -0.0035102416 0.09893051
0003c0 44 23 58 ba 74 0c 7d bd 45 5a f6 bc 58 51 a4 3c
       -0.0008245001 -0.061779454 -0.03007234 0.020058319
0003d0 6a 38 a0 3d e4 71 c2 3d fd 07 07 bd f7 5a 9d bd
       0.0782326 0.09494379 -0.032966603 -0.07683366
0003e0 e8 2f 69 3d c9 b4 57 ba 9c cf f4 3d 65 6f 4b 3d
       0.056930453 -0.0008228538 0.11953661 0.04966678
0003f0 c7 7f 3e 3d 0c 5b 39 3b 28 ff a2 3d fe 9a be bd
       0.046508577 0.0028283028 0.079588234 -0.09306906

model.bigrill.fwd_rnn.cells.0.update_gate.mlp.bias f4 [32]
000000 29 b4 6c 3d b0 ef 6d 3e aa 5b 77 3e e7 8e d1 3d
       0.057789 0.23235965 0.24156061 0.102323346
000010 6e 07 01 be b0 72 69 3e ab f1 5e 3e 76 6f 3f bc
       -0.1260049 0.22797656 0.21771877 -0.011684289
000020 9a c1 b6 3c 62 bf dc bd 5c 93 6e 3e 24 6e 30 bd
       0.022309113 -0.10778691 0.232984 -0.04307379
000030 95 86 9f 3c 1a 59 f6 bd 6d 71 a4 3c d4 33 03 3e
       0.019473353 -0.120287135 0.020073617 0.1281274
000040 c2 1b 08 be 1c 36 3b 3e a4 f8 2c 3e 76 f8 cb 3e
       -0.13291839 0.1828236 0.16891724 0.39837998
000050 ac 7f 47 3d cb a9 2d be 1a d4 5e 3e 15 9d 61 bd
       0.04870574 -0.16959302 0.21760598 -0.055081446
000060 dd 28 df 3b bf e0 1f 3e 87 56 04 3e 4e c7 50 3d
       0.006810291 0.15613078 0.12923633 0.05097132
000070 bb 79 75 3e 30 fa 0d 3d fa 10 5d 3d a6 91 34 3e
       0.23972218 0.034662426 0.05397127 0.17633685

model.bigrill.fwd_rnn.cells.0.c_gate.mlp.weight f4 [32, 170, 1, 1]
000000 aa 48 60 bc c3 9f d0 3e 9a 70 eb 3d 20 bd 53 be
       -0.013689199 0.4074689 0.114960864 -0.20677614
000010 08 69 0b 3e c9 44 b8 3d 83 2e 09 3e a9 56 b9 bb
       0.13614285 0.08997495 0.13396649 -0.0056560826
000020 66 df 9a 3c ca 36 13 3c 35 fd fc bd ad ea 1f 3e
       0.018905353 0.008985231 -0.12352983 0.15616865
000030 e9 22 58 3e 59 80 c9 bc 88 16 2c bd 9d 25 0f 3e
       0.21107067 -0.024597334 -0.042013675 0.13979192
000040 7f c9 e3 bc 2a 08 3d bb de 6e 42 be 37 03 e7 3d
       -0.027806042 -0.0028843977 -0.18987605 0.1127991
000050 a2 0f a6 bd e9 af ee bc eb 66 7e bd 18 eb 53 bd
       -0.081084505 -0.029136615 -0.06210987 -0.051737875
000060 73 ba 64 bc f9 aa 17 3e fc 97 1b 3d ee 8c 41 3d
       -0.013960469 0.14811315 0.03798674 0.04725354
000070 94 9c 04 3d e1 61 c0 bd 9c c5 b6 3d 62 eb 70 3d
       0.032375887 -0.09393669 0.0892441 0.05881823
000080 9e de c1 3d 46 df fd 3d 70 b7 34 3a 2e f1 01 3e
       0.09466289 0.12396102 0.00068937894 0.12689659
000090 2b d1 ab bc 58 6e b6 b6 53 fb 84 bd 04 db 52 3d
       -0.020973762 -5.4368684e-06 -0.06493249 0.0514784
0000a0 bc 77 10 3e 05 96 5b bd 67 01 1c bc cf f6 c6 3d
       0.14108175 -0.053609867 -0.009521819 0.09715044
0000b0 0e b4 eb bd 96 38 13 3e 6f d8 ca 3d 71 34 bb bb
       -0.11508952 0.14377055 0.09904563 -0.0057130386
0000c0 fa 7f 25 bd c1 2b 27 3e c5 fe 65 3d f5 64 9b bd
       -0.04040525 0.16325285 0.05615117 -0.075876154
0000d0 9b f1 e5 bd 6a c8 15 3c 38 80 91 bc d8 0e 07 bd
       -0.11227723 0.009142021 -0.017761335 -0.03297314
0000e0 f8 25 53 3c 91 4c 5d bc 14 70 92 bd 68 8f 7a bc
       0.01288747 -0.013507024 -0.071502835 -0.01529298
0000f0 cb 92 5f 3d 53 c7 54 bb 59 3b 8f bd 91 d0 c1 3d
       0.054583352 -0.003246744 -0.069937415 0.09463609
000100 8b ad 83 3d 16 f8 9c bc da da 9f be 90 cc 9a 3d
       0.06429585 -0.019161265 -0.31221658 0.075585485
000110 4f 58 b4 3a ce 83 a0 3d ae 65 90 bd 4e c9 68 bc
       0.0013759228 0.0783764 -0.07050644 -0.014208151
000120 b2 fb b1 3c 6f f9 c7 3c 0f 6c 19 3d 33 9f 34 bd
       0.021726463 0.024410931 0.03745657 -0.044097137
000130 ca ed fa 3d af fa 9e bd 24 59 c1 bd 5b 03 bc 3d
       0.12252386 -0.07762658 -0.0944083 0.091803275
000140 eb 82 d9 bc a7 ab e6 bd 9e 4c 42 3d 3d ea b5 3d
       -0.026551684 -0.11263209 0.04743635 0.08882568
000150 b3 ac 0d 3d 30 96 d2 bd 26 c1 bb 3b 2c 71 2e bd
       0.034588527 -0.10282552 0.005729812 -0.042588398
000160 8d ae b1 bd 01 59 b9 bd e5 6a 39 bc 9e 42 52 3c
       -0.08675871 -0.09050179 -0.01131699 0.012833266
000170 f0 49 76 3c 1c 87 4c 3d 45 d4 fa 3d 86 c0 13 bd
       0.0150322765 0.049933538 0.122475185 -0.036072277
000180 18 ae c0 3c 37 7c 13 3d db da 07 3e 01 83 fc 3d
       0.023520514 0.036007132 0.1326708 0.123296745
000190 8c 7f 62 be 47 93 ed 3d 66 68 d2 bb 05 3e 9c 3e
       -0.22118968 0.116003565 -0.0064211367 0.30516067
0001a0 6b e4 26 be bf 99 b0 3d c5 7f d4 bd 62 6c ab 3d
       -0.16298072 0.08623075 -0.103759326 0.08370282
0001b0 20 20 e9 3d 9f ec 86 be 95 c4 b6 3d 9d 45 02 bd
       0.113830805 -0.26352403 0.08924214 -0.03180467
0001c0 50 3d 04 be 00 44 49 3e 93 90 f1 bc c2 0e 40 bd
       -0.12914014 0.19654846 -0.029487884 -0.046889074
0001d0 a4 e4 93 bc 65 c3 dd 3d 75 46 5f 3c c2 b0 b0 3d
       -0.01805336 0.10828284 0.013627638 0.08627464
0001e0 07 6c 10 bd a5 0b de 3d e1 2b b2 bd d2 58 0e be
       -0.035259273 0.10842065 -0.086997755 -0.1390107
0001f0 47 6b 12 be 64 bf 8d 3c 7b 88 09 3d bc bb 83 bd
       -0.14298736 0.017303176 0.033577424 -0.06432292
000200 fe fd d7 3c 59 ff 3d bb 74 6d 23 bd 2f ab b5 bd
       0.02636623 -0.002899131 -0.039899305 -0.08870541
000210 49 aa 5f 3d d1 e4 31 3e ef b8 eb bd 87 7d 8c bc
       0.054605756 0.17372443 -0.11509883 -0.0171497
000220 47 f5 4e bc c6 ac 47 3e b7 4f 8d bd c6 c4 e0 3d
       -0.012631721 0.19499502 -0.0689997 0.109750316
000230 9f 61 32 3d 15 4c 8a 3d d6 c7 4a 3e 6d 72 89 be
       0.04355013 0.06752793 0.19802794 -0.26845112
000240 35 d4 b1 3c 07 f6 a8 3d 29 eb 3b bd ec b5 69 3e
       0.021707634 0.08250051 -0.045878563 0.22823304
000250 37 01 33 3e ba cb 15 be a5 ca 87 3c 7d ca 41 3e
       0.17480932 -0.14628497 0.01657612 0.189249
000260 cb e5 b0 bc eb 4c fc 3d 57 a4 da bd f3 13 d7 3d
       -0.021593949 0.123193584 -0.106758766 0.10501852
000270 8c 02 c6 bd b2 35 04 be 01 2d c3 bd 50 e5 5e 3e
       -0.096684545 -0.12911108 -0.09530068 0.21767163
000280 a8 c9 98 bc 36 ea a3 bd fe 05 71 3e e2 16 d8 3d
       -0.018650845 -0.080036566 0.23537442 0.105512396
000290 3d 82 03 be e3 d8 ef bd 21 6f 80 bd a5 54 23 3e
       -0.1284265 -0.1171129 -0.06271196 0.15950258
0002a0 7c 5d 12 3d 4c 02 c0 bd a5 3c 61 3d 7a ad 29 bd
       0.035733685 -0.09375438 0.054989476 -0.041425206
0002b0 8e 72 1a be 5f 65 bd bd 71 28 9a 3c 35 d1 80 3b
       -0.15082762 -0.092478506 0.018818112 0.0039311894
0002c0 1b ae b5 3c 10 b6 69 3d f2 13 ba bd f8 d1 9e 3d
       0.022177747 0.057058394 -0.090858355 0.07754892
0002d0 d7 b3 b5 3d 12 bd 53 3d bf 75 dd bd 50 ff bc 3d
       0.08872192 0.051693983 -0.10813474 0.092283845
0002e0 db 8f db 3b eb 4a e0 bd ee 9e 7d bc f1 df 1a bd
       0.0067004985 -0.109517895 -0.015479786 -0.037811223
0002f0 e7 d7 fd 3d f2 37 23 bc fd de 60 bb 34 93 6e bd
       0.12394696 -0.009962069 -0.00343126 -0.058245853
000300 89 f2 0d 3d a0 a5 cf b8 95 2f 1c b9 79 24 11 be
       0.034655128 -9.901379e-05 -0.00014895045 -0.1417407
000310 e5 b4 75 bd 02 83 ba bd a8 b4 b8 bd 8e d7 5a 3a
       -0.059986968 -0.09107019 -0.090188324 0.000834816
000320 c5 ae 65 be b2 1a 97 3c 19 8b a6 bd 95 01 1f be
       -0.2242995 0.018445347 -0.081319995 -0.15527947
000330 70 99 61 3c 1a 0d 0b bd e6 7c a9 bc 41 59 6c bd
       0.0137694925 -0.03394804 -0.020689439 -0.057702307
000340 c3 28 09 bd e3 dd 43 bc 6d 5b 85 bd 43 91 09 bd
       -0.03348614 -0.011954757 -0.06511579 -0.033585798
000350 2f 53 22 bd 44 68 b8 bc 8a a6 cb 3b a8 11 d1 bd
       -0.03963011 -0.022510655 0.0062149214 -0.10208446
000360 69 03 a0 bd 4f b2 1f 3e b8 35 db 3c 03 39 a4 bd
       -0.078131504 0.15595363 0.026759014 -0.080186866
000370 f7 a5 46 3d 55 9e 1e bc 19 4e 44 3b ff 9e d0 bd
       0.04849812 -0.009681304 0.0029953776 -0.10186576
000380 98 4f 78 bc 2d b2 cd 3d 1d c5 73 bd cd d1 be bd
       -0.015155695 0.1004375 -0.059514154 -0.0931736
000390 b8 bd 85 bd 6a f9 b5 bd 4d 8b 7b bd f5 12 54 bc
       -0.065303266 -0.088854626 -0.061412144 -0.012943973
0003a0 5a 83 94 3d 95 2a 74 3d 48 63 8b bd 23 66 d2 bd
       0.07251616 0.059610922 -0.06806046 -0.10273387
0003b0 0f 1a e1 3d 34 df 29 bd f2 27 df bb 0b dc ad bc
       0.109912984 -0.04147263 -0.006810182 -0.021223089
0003c0 a5 d9 a8 3c 97 e9 14 bd db 9e 40 bc 71 e0 79 3c
       0.020611593 -0.03635558 -0.011756624 0.015251265
0003d0 7d 31 34 bd d0 c7 b5 bc 25 16 0c bd 43 65 2e 3c
       -0.04399251 -0.022190005 -0.034200806 0.01064426
0003e0 10 08 cb 3b 71 9e 0b be 42 6d 7e bd 3e 22 3f 3e
       0.0061960295 -0.1363466 -0.062115915 0.18665406
0003f0 93 72 84 3c a3 eb 37 be 6f 37 3e 3d 60 8f 10 3d
       0.016167914 -0.17960982 0.046439584 0.035292983

model.bigrill.fwd_rnn.cells.0.c_gate.mlp.bias f4 [32]
000000 75 f8 83 3e 28 75 20 be 4a cd a5 3d fb b9 16 3e
       0.25775495 -0.15669692 0.080957964 0.14719383
000010 41 05 04 be 09 8f 0f 3c c2 e9 a2 3d 90 c2 29 be
       -0.12892629 0.00876213 0.07954742 -0.16578126
000020 f0 28 b7 3d f8 92 04 3e 68 28 2c 3e 91 14 5f 3d
       0.08943355 0.12946689 0.16812289 0.054462973
000030 a5 d7 05 3e 8d e8 0d 3e c4 3a 24 3e 0e f7 0d be
       0.13070543 0.13858242 0.16038042 -0.13863775
000040 3e 33 31 3e a6 5c 98 bd 16 13 27 bc d6 4f a4 bd
       0.17304704 -0.07439546 -0.010197422 -0.0802304
000050 76 41 ef 3c a4 69 72 be ed 60 69 bd 6e bc 19 3e
       0.029206019 -0.23673111 -0.0569772 0.15013286
000060 1b cd 91 bd 4f 76 18 3b 8a 65 91 3d 78 f8 a4 bd
       -0.07119199 0.0023263877 0.07099445 -0.08055204
000070 f1 85 33 bd d3 2b 31 be 1f 75 f3 3d 02 4a 3d 3e
       -0.04382891 -0.17301874 0.118875735 0.18485263

model.bigrill.fwd_rnn.first_stage.weight f4 [1, 32, 1]
000000 c8 a4 99 3e 4e 9a 38 3f 0c c2 6a bf 6c 82 69 bf
       0.3000853 0.7211045 -0.9170234 -0.91214633
000010 98 2d 84 3f 4d 8c da 3c e0 f3 6c 3f 79 4b 91 3f
       1.0326414 0.026678229 0.92559624 1.1351157
000020 fa b7 7e bf f7 b9 7c 3f 2e 6a 64 bf 2d 7f 9b bf
       -0.99499476 0.9872126 -0.8922452 -1.2148186
000030 20 f0 8b bf 68 8a 85 3f 7a 28 68 bf bd 79 74 3f
       -1.0932655 1.0432863 -0.9068676 0.9549826
000040 2a b9 79 bf 30 54 50 3f 05 c6 7d bf 1c e9 88 bd
       -0.9754816 0.8137846 -0.9913028 -0.06685087
000050 60 06 8a bf f8 76 a7 3f ff 05 89 3f 76 e5 89 3f
       -1.0783195 1.3083181 1.0704955 1.0773151
000060 3c d7 83 3f 61 86 82 3f 14 14 84 bf 5d d0 7a bf
       1.0300059 1.0197259 -1.0318627 -0.9797419
000070 cd cd 3d 3f 63 0a 88 3f 97 63 d6 3e a3 4b 2e 3f
       0.7414215 1.062817 0.41872856 0.6808416

model.bigrill.fwd_rnn.spatial_decoder.lin_in.weight f4 [32, 34, 1]
000000 23 41 f9 ba 20 22 9f bc a2 94 1e 3e 3d 81 65 3d
       -0.0019016605 -0.019425452 0.15486386 0.056031454
000010 94 65 07 be 2e 00 0e 3e 8e 1f 27 bc 59 78 85 3d
       -0.13222343 0.13867256 -0.010200394 0.06517095
000020 94 54 8c be 0b 90 da bc 2d 93 c9 3d a3 74 80 bd
       -0.27408278 -0.026680013 0.09842525 -0.06272247
000030 7a b6 ae 3d b1 38 3b 3e cc 86 c5 3c 74 33 dd bd
       0.085308984 0.18283345 0.024112128 -0.108008295
000040 8a a8 19 bc 5e 1f cc 3d 69 8d 30 be 57 9e 93 be
       -0.009378562 0.0996692 -0.17241444 -0.2883174
000050 30 48 9c 3d a5 11 6e 3d 56 01 41 3c a7 31 83 bc
       0.07630956 0.058122296 0.011780104 -0.016014887
000060 e2 8d ed bd d9 7f ae 3d 44 3d 1d be 40 cf 14 be
       -0.115993276 0.08520479 -0.15355402 -0.14532185
000070 dc 4f 30 3d 6e cb c4 be ad f5 82 be 63 c4 9d 3d
       0.04304491 -0.38436455 -0.2557806 0.077034734
000080 bf bf 03 3e ff 05 8b 3d c8 42 1b 3b 7c b0 14 3e
       0.12866114 0.06788253 0.0023690928 0.14520448
000090 18 33 de bd 3e 39 90 be 00 e7 cb 3d cd fc 47 be
       -0.10849589 -0.28168672 0.09956169 -0.1953003
0000a0 77 2d 09 3e 40 0e 6e be 7a fb 0f 3e 05 b4 b2 3b
       0.1339625 -0.23247623 0.14060774 0.005453589
0000b0 36 55 41 be 93 f9 bf 3d 93 8a 94 3b ba 79 e1 bc
       -0.18880162 0.093737744 0.004533121 -0.027523864
0000c0 4d f6 fc bc 21 f5 8b 3d 78 c5 28 be 43 c5 c5 3d
       -0.030879164 0.06833864 -0.16481578 0.09656765
0000d0 f7 49 5d bc ab 65 83 bd b1 ae 24 be 4c fc 28 3d
       -0.013506404 -0.06415876 -0.16082264 0.041256234
0000e0 4a 11 61 3e 8e 3f 94 3d 1f a5 27 3d ce 94 52 3e
       0.21979252 0.072386846 0.040928956 0.20564577
0000f0 72 f2 2f bd 52 25 0e 3e bf c3 b5 3d 73 17 94 3d
       -0.042955823 0.13881424 0.08875226 0.07231035
000100 bd 6d c0 3d 8b e9 ae 3d 08 fd d3 bc 3f 5f 26 be
       0.09395931 0.085406385 -0.02587749 -0.16247271
000110 1d 8d 92 3d b1 37 83 bd 21 37 8f be 97 4f 0e 3e
       0.071558215 -0.06407107 -0.27971748 0.13897549
000120 2d 55 5b bd d5 29 19 be b3 45 14 3e e2 76 15 be
       -0.053548027 -0.14957364 0.14479713 -0.14596131
000130 ab b2 fb 3c 21 12 93 bd 9e f6 7a be e1 ee 2f 3e
       0.030724844 -0.07181192 -0.2450814 0.17180969
000140 2b 19 f9 3d 57 b6 e6 3d fe 79 04 3d 97 5a cd 3d
       0.121630035 0.11265247 0.032342903 0.10027044
000150 3d 00 17 bd bd 0e c8 bd 46 18 26 3e 3e 3b e4 39
       -0.03686546 -0.09768436 0.16220197 0.00043531688
000160 b4 77 00 be ae 55 06 be 85 d7 32 be f1 a6 21 be
       -0.12545663 -0.13118622 -0.17465027 -0.1578634
000170 10 6c e0 bd 04 4c 04 be 75 65 44 3e 77 b0 3e 3e
       -0.10958111 -0.12919623 0.19179328 0.18622003
000180 f8 e7 74 be d4 4d 38 3e 9d ef d0 bc 8d aa 2d 3d
       -0.23916614 0.17998439 -0.025504882 0.042398978
000190 65 82 69 3c ce c5 1e be 86 f8 89 bd a0 90 f3 bd
       0.01425228 -0.15505144 -0.06736855 -0.118928194
0001a0 a5 01 9c bd 67 79 c4 be 76 e4 3b bd 52 2f 20 be
       -0.07617501 -0.38373873 -0.045872174 -0.15643051
0001b0 aa c7 62 3e 90 6e 15 be 87 71 3d bd 7b c1 8d bc
       0.22146478 -0.14592957 -0.046250846 -0.017304173
0001c0 38 9c 05 3e 9f 90 1b 3b 54 0d 5b be a5 e5 dc 3d
       0.13047874 0.0023737324 -0.21391803 0.10785989
0001d0 71 b1 c5 3d 52 4b d2 bd 40 ac 40 be c7 6c 0b be
       0.09652985 -0.102682725 -0.18815708 -0.13615714
0001e0 53 fa 01 be 17 32 26 bd 26 98 29 3e bb c8 d4 3d
       -0.12693147 -0.040575113 0.16561946 0.10389849
0001f0 39 48 95 3d ca 21 40 3e ab 7b 9b 3c 33 1c cc 3d
       0.07289166 0.1876289 0.018979868 0.09966316
000200 ea a1 44 be 49 fc 81 be 06 31 06 be 1b 12 eb be
       -0.1920239 -0.2538779 -0.13104638 -0.4591225
000210 ac 3f 19 be af 75 f0 3d 32 e5 c9 3a 51 db 60 3e
       -0.14965695 0.11741196 0.0015403389 0.21958663
000220 12 6a b5 bb 43 f8 9a bd c2 d8 75 be 8a 17 3f 3e
       -0.005536326 -0.075668834 -0.24008468 0.18661323
000230 4d cc fc 3c 51 2e 47 be eb 64 f6 3d a8 80 12 3d
       0.030859137 -0.19451262 0.12030967 0.035767227
000240 8e 1f 57 3e 8c c6 27 be 20 c8 50 be ad 47 64 3e
       0.21008131 -0.16384333 -0.20388842 0.22292967
000250 24 d5 fd 3d 02 30 53 bd d0 e2 3a be 87 7e 07 3e
       0.12394169 -0.051559456 -0.18250585 0.1323186
000260 a4 25 58 3d 9d 75 a0 3c cb e4 0c be ec 84 e4 b9
       0.052770272 0.019587332 -0.13759153 -0.00043586583
000270 00 d8 0a be 0f 52 0c bc 10 1f 1a be a4 ce e8 bd
       -0.1355896 -0.008564486 -0.15050912 -0.113675386
000280 5c 1d 05 bd 36 37 07 3e f8 cc 35 3e 43 d1 b0 bc
       -0.032498702 0.13204655 0.1775397 -0.021584159
000290 85 4d 38 be e5 79 71 3e 80 24 41 3e 0a d9 aa bd
       -0.17998321 0.23581655 0.1886158 -0.08342178
0002a0 33 57 e3 bd 81 5f bf 3d de ec 71 bd a1 7d d4 bd
       -0.11100616 0.09344388 -0.059063785 -0.10375524
0002b0 50 6d fe bd db d8 17 be 71 b4 15 be fb 8d f9 3d
       -0.124231935 -0.14828818 -0.14619614 0.12185284
0002c0 38 4a 41 bd 2d 0c 14 bd a7 df 0c be f3 1f 41 3e
       -0.04718992 -0.036144424 -0.13757192 0.18859844
0002d0 f0 67 dc 3d de 13 3b be d7 cf 02 be 9c 27 1b be
       0.10762012 -0.18269297 -0.12774597 -0.15151829
0002e0 ce 18 12 3d 6a 03 5d 3d 10 c6 f6 3d d7 de 09 be
       0.035668187 0.053958334 0.12049496 -0.13463913
0002f0 33 c5 85 bc 5a 8b f8 bc a2 ab 84 bd 09 64 af bd
       -0.016329383 -0.030339886 -0.06478049 -0.08564002
000300 fc a9 9d 3c 36 3b 25 3e 29 68 35 be 2c 0a 89 3d
       0.019246094 0.16135868 -0.17715515 0.06691393
000310 e1 12 a6 bd a9 af 8e bc 38 c5 8b 3c 01 26 02 bf
       -0.081090696 -0.017417746 0.017061815 -0.5083924
000320 95 b9 b3 bd d1 2b 2c 3c 59 e2 59 bd 11 c5 b5 3c
       -0.08775631 0.0105084935 -0.053194378 0.022188695
000330 77 0c c0 3d 7f 39 ea 3d 86 c6 0f 3e 94 6e f0 3d
       0.093773775 0.11436748 0.14040574 0.11739841
000340 11 f4 92 3e 94 d5 37 3d bd ca 95 bd 73 8d 8d 3e
       0.28701833 0.04488142 -0.0731406 0.2764698
000350 9d a1 bb 3e e4 f6 b5 bc a9 38 3e 3d 2c ef 5a 3e
       0.3664674 -0.022212453 0.046440754 0.213803
000360 ab 0f d0 3d cc 44 ef bd d4 2f 6e bd ca 81 c8 bd
       0.101592384 -0.11683044 -0.05815108 -0.0979038
000370 8b 64 7a bd 64 90 17 be 69 68 bc 3e 57 f3 3c 3e
       -0.06113104 -0.14801174 0.3679841 0.18452202
000380 f9 eb ea bd 34 60 bd bd ca 70 a5 3d 28 5e 54 be
       -0.114707895 -0.09246865 0.080781534 -0.20739043
000390 09 dc c6 bd 4d c6 9a bd d8 93 1b bd ed 8f 0b 3e
       -0.09709937 -0.07557354 -0.03798279 0.13629122
0003a0 81 59 8f 3d fa ed b6 3d 96 10 50 be cc 11 72 3d
       0.069994934 0.08932109 -0.20318827 0.059099004
0003b0 61 fc 52 be 46 72 2b be 40 38 a4 3d 0d 1b 34 be
       -0.20604087 -0.1674281 0.08018541 -0.17588444
0003c0 35 81 03 3e ff 5b fc be 92 f7 3c be 16 bf 47 bd
       0.12842257 -0.49288937 -0.18453816 -0.048766218
0003d0 4a f5 9d 3d 07 b1 d2 be 0a fb 7e be 5c 60 94 bd
       0.07712801 -0.41150686 -0.24900451 -0.072449416
0003e0 83 11 c0 3c 8e 71 10 be ce a0 84 be 24 af 40 3e
       0.02344585 -0.14105818 -0.25903934 0.18816811
0003f0 55 f0 4a bd ac f7 26 bc b2 92 15 be 5b 6b ee 3d
       -0.049545605 -0.0101908855 -0.14606741 0.1164157

model.bigrill.fwd_rnn.spatial_decoder.lin_in.bias f4 [32]
000000 d5 78 ee bc 01 67 03 3b ed b0 8c 3e 16 5e 7e be
       -0.029110352 0.0020050409 0.27478734 -0.24840578
000010 4c b5 37 3c 5a 2f 0d bd 5b 6b 27 3d f2 fd 98 bd
       0.011212658 -0.034468986 0.040873867 -0.07470311
000020 86 84 92 be 95 33 89 3d 27 61 49 be a9 c5 70 3e
       -0.28616732 0.066992916 -0.19665967 0.23512901
000030 2b 55 07 3e 0d 2b 9f bd 7c fa 82 be e6 1f 0d 3e
       0.13216083 -0.07771883 -0.2558173 0.137817
000040 c6 f6 1d bd 9f 48 8c 3c 66 a9 66 be 32 a0 78 3e
       -0.03856542 0.017124472 -0.22525558 0.2427986
000050 11 0f 60 bd 09 94 17 3e df 5e 7d be 0e e4 a2 be
       -0.05470187 0.14802565 -0.24743222 -0.31814617
000060 c9 a0 a9 3b 36 f4 81 3d 77 ca c1 bd 91 27 62 3e
       0.005176638 0.06345408 -0.09462445 0.22085406
000070 63 b0 4b 3e 2b b9 4c 3e 77 1a 01 bd 5a df 88 3e
       0.19891505 0.19992511 -0.03151938 0.26732904

model.bigrill.fwd_rnn.spatial_decoder.graph_conv.mlp.weight f4 [32, 64, 1, 1]
000000 5b 7f fc 3c 5b 33 e6 bd fd b8 8d 3d a6 53 e2 3d
       0.030822447 -0.11240264 0.06920049 0.11051111
000010 30 86 6d bd 72 21 0f 3e da 05 2b 3d 41 10 73 3b
       -0.0579893 0.13977602 0.041753627 0.0037088546
000020 aa 0c a7 bd b5 e7 a9 bc 24 5e 98 bd ba 6a 8a bd
       -0.08156712 -0.02074037 -0.07439831 -0.06758638
000030 f5 80 48 bd 9d 34 86 bd a5 f1 8c bd 24 c7 ef bd
       -0.048951108 -0.06553004 -0.068820275 -0.11707905
000040 10 03 4e bc 22 bb 7b bc af fa 49 3e 95 0a 52 bd
       -0.012573972 -0.01536444 0.19724534 -0.051279623
000050 aa 89 31 bd da 75 15 bd 65 df 01 3e c5 c2 6b bd
       -0.043344177 -0.036489345 0.12682875 -0.057558794
000060 6f 42 9c 3c 49 d3 6d bd ff 46 20 ba ff b4 18 be
       0.019074647 -0.058062825 -0.0006114095 -0.14912795
000070 f5 1e a2 3d 2a b5 02 3d da ea c1 bd 26 cf 07 be
       0.07916061 0.031911053 -0.094686225 -0.13262615
000080 f5 b1 a1 3d 59 91 2a 3e c4 aa 1d bc 3f de d9 3d
       0.07895271 0.16657008 -0.009623233 0.10638093
000090 4e 6d 3b bd ce 2b d9 3d f8 e3 50 bc 93 cd 03 3e
       -0.045758538 0.10604058 -0.0127496645 0.12871389
0000a0 75 4e 05 3d ad 41 b2 bd b6 ca c0 bd 99 80 98 3d
       0.032545526 -0.08703933 -0.09413664 0.07446403
0000b0 ab 71 ce bd d7 d9 39 3c 51 51 95 3d 4f 0f 57 bd
       -0.10080274 0.011343441 0.072909005 -0.052504834
0000c0 9e 72 70 3d 1f 29 30 3c 26 d3 31 bd 16 30 c7 bd
       0.058703057 0.0107519915 -0.043414257 -0.097259685
0000d0 c9 c9 06 3e 2f 36 7f 3d 42 a9 32 bd 41 53 c1 bd
       0.13162912 0.062307533 -0.043618448 -0.094397075
0000e0 7e 20 26 3e 93 2e 7e 3d 3c 1d ae 3c 3a fc 5c 3d
       0.16223332 0.062056135 0.021254174 0.05395148
0000f0 5f 88 22 bc 44 a5 0c 3e e5 ee 12 3d 3d c5 c7 bd
       -0.009920209 0.13734919 0.03587236 -0.09754417
000100 86 90 d8 bc ce 39 e0 39 7d 3a 67 bd 35 35 fc bc
       -0.026436102 0.00042767677 -0.056452263 -0.03078709
000110 0c 49 20 be f3 79 22 bd 5e 2c 8b bd cc a6 71 3c
       -0.15652865 -0.03966708 -0.06795572 0.01474924
000120 cc ac 2b 3e c3 18 ad bd 7b 85 d6 3d fe 68 a9 bd
       0.16765136 -0.084519885 0.10474678 -0.08271979
000130 51 09 9a bd 22 ac e7 3d 78 f5 bc 3d 5f 99 b3 bd
       -0.07521308 0.113121286 0.09226507 -0.087694876
000140 30 a1 95 bd cd 01 45 3c c6 77 e2 3a 98 d3 7b 3c
       -0.07306135 0.012024355 0.0017278127 0.015370272
000150 9c 4a 3f 3c 7f e5 76 bd a7 34 d7 bd 20 fb e0 3d
       0.011675503 -0.06027746 -0.105080895 0.10985398
000160 93 1f 39 bd c8 b2 db bd 7d 76 a4 3d 33 15 69 3b
       -0.045196127 -0.10727459 0.08030412 0.0035565614
000170 54 9e 11 bc 9c 54 2e 3d 72 64 3f 3d ee a0 27 be
       -0.008887846 0.04256116 0.04672665 -0.16369984
000180 b1 ee fa bc d5 9b 08 3e df 54 44 bd 01 c7 f9 3d
       -0.030631395 0.13340695 -0.047932502 0.1219616
000190 3b 0e ba bd c3 5e f7 3d 13 5e a5 bd ec 03 ab 3d
       -0.090847455 0.12078621 -0.08074584 0.083503574
0001a0 fa 27 90 3d a7 4d 43 3d d5 5d ab 3c ae e2 01 be
       0.07038875 0.047681477 0.020918766 -0.12684128
0001b0 9c 7a dd bd 59 33 41 3d a8 31 be bd 5c 3e 9f 3d
       -0.108144015 0.04716811 -0.09286815 0.07775566
0001c0 8b ec 2d 3d 5f 42 b9 bc bc 20 5a bc 31 9d 39 be
       0.042461913 -0.022614656 -0.013313469 -0.1812637
0001d0 38 5e c4 bd fe 6d 2d be 76 e2 84 3d 25 72 9a bd
       -0.09588283 -0.1693649 0.064885065 -0.075413026
0001e0 27 fb f3 bc 4c ed bf 3d fb d1 a5 bd a1 3e 5e bd
       -0.029782845 0.09371433 -0.08096691 -0.054258946
0001f0 6e 12 07 be 34 94 e1 bd 28 0a da 3d 82 29 ed 3c
       -0.13190624 -0.11014596 0.106464684 0.028950457
000200 f9 04 a0 3d 9c 53 1e bd 3a cc 0a be 46 8f 87 bd
       0.078134485 -0.038653955 -0.13554469 -0.06619124
000210 f3 18 2c bd 1e 44 f5 3c e7 4a 4a 3d 80 18 89 3d
       -0.04201598 0.029939707 0.04938784 0.06694126
000220 29 db b9 3d 09 58 50 3d 2e d0 95 3d d8 b8 48 3d
       0.090750046 0.050865207 0.07315098 0.049004406
000230 6e ac 94 3c e4 fa f6 bd 55 08 d8 bd f9 e6 ab bd
       0.018148627 -0.12059572 -0.10548464 -0.08393664
000240 e0 aa e2 bd 89 9c 2a 3b e7 ce 4c 3d 47 b2 03 be
       -0.11067748 0.0026033244 0.050002005 -0.12860976
000250 47 eb c8 bd 63 b8 f3 3c 69 c7 c4 3d 76 bd f8 bc
       -0.098105006 0.029751008 0.09608347 -0.03036378
000260 be 3d ce 3d 2b 3a 4f bd 71 ef d7 3d 24 93 ad 3d
       0.1007037 -0.050592583 0.10543717 0.084753305
000270 4d 01 af 3d 27 e7 f6 bd f4 5a ef bd 68 41 94 3d
       0.0854517 -0.120558076 -0.1168727 0.07239038
000280 40 2b c5 3d 88 3f c7 3d 9b ea 02 3c 8e aa 0c be
       0.0962739 0.097289145 0.007990505 -0.13736936
000290 2d 90 c2 bb 1b 80 b8 bd ad ce 62 bd 9c d2 d3 bd
       -0.0059375972 -0.09008809 -0.055372883 -0.10342905
0002a0 89 e2 94 bc 9d ec 98 3d 05 9d ef 3d 58 e3 ba bd
       -0.018174427 0.074670054 0.11699871 -0.09125394
0002b0 19 b5 39 be c3 2b f9 bd 34 87 af 3d 6e 9d 04 3e
       -0.1813549 -0.1216655 0.0857071 0.1295068
0002c0 3c 52 6f 3d 80 c9 85 3c e2 6b 0a 3c 65 d0 83 3d
       0.058428034 0.016331434 0.008448573 0.064362325
0002d0 e6 3d 96 3d c0 c9 21 bd 28 bb 5f bd 33 f0 e1 bc
       0.07336025 -0.039499044 -0.054621845 -0.027580356
0002e0 17 d3 0d 3e e1 fe 0c be f0 6a d7 bd ca 7f 7e bd
       0.13850056 -0.13769104 -0.105184436 -0.062133588
0002f0 2a 3e 46 3d 04 ec 31 3c 7c 03 a4 bd b0 b1 10 3d
       0.048399128 0.010859493 -0.08008477 0.035325706
000300 67 00 ff 39 6a 06 54 3d 0a d4 71 3c d8 6c f5 bd
       0.0004863769 0.05176393 0.014760027 -0.11983651
000310 42 c1 18 3e a7 e7 31 bd 69 f2 ea 3d db 98 cc bd
       0.14917472 -0.04343381 0.11472017 -0.09990092
000320 34 87 7e 3c 4f 77 60 bd 83 0d 8b 3d 33 ae 0c bc
       0.015535165 -0.05480128 0.067896865 -0.008586454
000330 42 97 e0 3d fe ec b3 3c 14 e7 b5 bd 7d c2 d2 3d
       0.1096635 0.021963593 -0.08881965 0.10291002
000340 ac db 06 3d 1f e4 e6 3d 09 52 2d be 1e f3 08 bc
       0.03292434 0.112739794 -0.16925825 -0.008358745
000350 75 ea 2e 3d 87 23 c4 3c 8f dd 05 bd 20 19 a4 3d
       0.042704064 0.023942722 -0.032681998 0.08012605
000360 1c 6a b0 3d d5 27 dd bc dc b5 bf bd 5d 5f f0 bc
       0.08613989 -0.026996532 -0.09360859 -0.029342348
000370 c5 4e 50 3d 28 f0 b8 bd ab 43 1d bd c0 09 68 3d
       0.05085637 -0.09030181 -0.03839461 0.056649923
000380 88 48 2c be 09 49 37 bc c5 4f d8 bd 52 ea f4 bd
       -0.16824543 -0.0111868465 -0.1056209 -0.119587556
000390 55 e3 65 bd 90 8f e6 bc 60 e8 b3 3c fd b7 af bd
       -0.056125004 -0.028144628 0.021961391 -0.08580015
0003a0 0e 15 10 3a 46 ef 6a bd cf eb 00 3e 28 02 99 bd
       0.00054963015 -0.057357095 0.12589954 -0.074711144
0003b0 7a 66 b1 3c 79 51 24 be f1 a2 c6 3d df 96 d2 bd
       0.02165531 -0.16046704 0.09699047 -0.102826826
0003c0 6e 1d 1b bd f8 50 23 3d 5d bb 7e bc 77 1f 19 3e
       -0.037869863 0.03987214 -0.015547601 0.14953409
0003d0 9c 1f e0 bd 13 84 c3 bd 3f ad 44 bc 03 d6 af 3d
       -0.10943529 -0.095466755 -0.012004196 0.08585741
0003e0 56 43 15 be 47 29 d7 bc 7f 92 d5 bd 54 de 06 3e
       -0.14576468 -0.0262648 -0.104283325 0.13170749
0003f0 d6 d4 ea bb c5 c3 f9 bd 1a 6b ed bd 11 19 c7 3c
       -0.0071664853 -0.12195543 -0.115926936 0.024303945

model.bigrill.fwd_rnn.spatial_decoder.graph_conv.mlp.bias f4 [32]
000000 16 4e 3d be 5a ea 88 be cb 23 1a be 56 df 5e 3e
       -0.18486819 -0.26741296 -0.15052716 0.21764883
000010 1e 3f 28 be 7e 1d 01 be 74 b6 97 be 25 22 54 3e
       -0.16430327 -0.12608907 -0.29631388 0.2071615
000020 de 13 99 3e cf 55 10 bd 77 e5 93 be 0d 37 32 3e
       0.2989797 -0.035238083 -0.28886005 0.17403813
000030 78 63 1e 3e 43 ff 21 3e 0c 65 3e 3e e4 9f fe 3d
       0.15467632 0.15820031 0.18593234 0.124328405
000040 3d 9c 79 3e e7 cc b0 be 05 be bd 3e b5 42 8f 3e
       0.24376006 -0.34531328 0.37059036 0.2798058
000050 f7 49 48 3e 73 a8 13 be bb e6 9e be c5 e9 e9 3c
       0.19559465 -0.14419727 -0.31035408 0.028553853
000060 b8 16 7f 3e b7 9b c8 bb e3 b4 9c bd 76 ab 47 3e
       0.2491101 -0.0061220783 -0.07651689 0.19499001
000070 ab 0d 48 3e b8 9b 8f 3e 20 fe bb 3e e2 17 4b 3e
       0.19536464 0.2804849 0.3671732 0.1983333
