logs/discharge_point/grin/2023-11-16_21-04-21_856070797/epoch=46-step=4089.ckpt (torch, 708068 bytes, 102 tensors)

model.bigrill.emb f4 [8, 20]
-0.24285574 -0.50858253 0.66293186 0.41852927 -0.23285533 -0.26717407 -0.12257613 0.11155868
0.009847145 0.37410092 0.7036002 0.36397827 -0.27100793 -0.42962965 0.24286354 -0.19034193
-0.8181766 0.6588861 -0.30612618 -0.64404655 -0.38308823 0.19833052 -0.18933564 -0.4760878
-0.17009279 0.039434034 -0.570626 -1.231097 -0.3714519 -1.1030437 -0.38528475 -0.24709417
-0.6585226 0.18677889 0.77304965 0.68548965 -0.2476576 -0.96616423 -0.5082516 0.005446679
0.01582259 0.5098778 0.28868443 0.26759312 0.41618297 -0.33396396 -0.004047315 0.29425308
0.15663384 -0.18823048 0.38406307 -0.09040328 -0.35141987 0.28480083 0.3171272 0.18873785
0.2578824 0.121290445 -0.8958856 0.26459014 -0.25158018 0.22411849 0.0036408557 0.44360644
0.043530345 0.018034216 -0.3337438 -0.09899947 -0.03509329 0.07419453 0.5752331 -0.5396901
0.009343968 0.056992028 0.8029818 0.055075604 0.45764387 0.5064863 0.07853668 -0.10677897
1.2533935 -0.87571573 0.04563767 0.45442325 -0.08103018 0.549599 0.5153208 -0.5784111
-0.8798354 -0.0414863 -0.9262871 -0.5302228 0.6709076 -0.7863388 -0.5734346 0.075209804
-0.37342045 -0.32390258 0.25509977 0.4129343 0.46480456 -0.15077363 -0.5460107 0.42459378
-0.10547745 0.23299286 0.18608782 0.2683725 -0.0736087 0.3821415 -0.19068098 0.19888094
0.59213036 -0.28382298 -0.85651916 -0.429055 0.25716063 0.15781085 0.6300221 -0.44744298
-0.12440261 -0.05954564 0.4819527 -0.1513534 0.16747324 -0.1285522 -0.33517227 -0.011032132
-0.26226765 -0.29616174 1.1662141 -0.2768986 -0.1977452 0.015112159 -0.025280185 -1.063178
0.26521924 0.4681053 -0.14341977 0.14857207 0.20908776 -0.69457847 -0.4490091 -0.7652781
0.49241963 0.81117696 -0.104812935 0.049802877 -0.26788577 0.1265562 -1.2266846 0.5234616
-0.122213155 -0.34880373 -0.31142017 -0.5215176 -0.44352186 -0.32661152 0.5179964 0.29761645
00000000: 2daf 78be 7732 02bf e7b5 293f 7849 d63e
00000010: a171 6ebe 0acb 88be 3209 fbbd e178 e43d
00000020: eb55 213c 288a bf3e 251f 343f 5c5b ba3e
00000030: 8dc1 8abe 6bf8 dbbe 38b1 783e ffe8 42be
00000040: 0674 51bf c2ac 283f 92bc 9cbe 3ce0 24bf
00000050: 2424 c4be 2817 4b3e 34e1 41be c8c1 f3be
00000060: ce2c 2ebe 9585 213d 8c14 12bf 9694 9dbf
00000070: f22e bebe 8930 8dbf 0b44 c5be 4106 7dbe
00000080: f094 28bf f742 3f3e 95e6 453f 407c 2f3f
00000090: f499 7dbe 8a56 77bf c71c 02bf 0e7a b23b
000000a0: 609e 813c 5a87 023f 72ce 933e f701 893e
000000b0: ef15 d53e 53fd aabe 579f 84bb 57a8 963e
000000c0: 9f64 203e 7ebf 40be eaa3 c43e 5b25 b9bd
000000d0: 4eed b3be 6ad1 913e 7f5e a23e 7f44 413e
000000e0: 2909 843e 2067 f83d c258 65bf 5c78 873e
000000f0: 1ecf 80be 517f 653e 6c9b 6e3b 6220 e33e
00000100: e04c 323d 7ebc 933c 78e0 aabe 3cc0 cabd
00000110: fbbd 0fbd 4df3 973d 7a42 133f 2129 0abf
00000120: 7117 193c 7970 693d 3790 4d3f f596 613d
00000130: 4c50 ea3e 16a9 013f d7d7 a03d efae dabd
00000140: 336f a03f e82e 60bf 91ee 3a3d 2aaa e83e
00000150: 27f3 a5bd 85b2 0c3f 10ec 033f c012 14bf
00000160: e53c 61bf 8aed 29bd 2721 6dbf aebc 07bf
00000170: 9ac0 2b3f 804d 49bf 9ccc 12bf 9907 9a3d
00000180: f730 bfbe 8fd6 a5be 709c 823e 206c d33e
00000190: ddfa ed3e 6764 1abe 5bc7 0bbf 5b64 d93e
000001a0: 9004 d8bd ae95 6e3e ce8d 3e3e 1f68 893e
000001b0: 28c0 96bd 0da8 c33e e041 43be 72a7 4b3e
000001c0: db95 173f 3f51 91be d744 5bbf 19ad dbbe
000001d0: 8faa 833e 2b99 213e 2149 213f 3f17 e5be
000001e0: ccc6 febd 21e6 73bd 81c2 f63e 63fc 1abe
000001f0: 1b7e 2b3e 30a3 03be b39b abbe 1ec0 34bc
00000200: f247 86be 83a2 97be 8146 953f a7c5 8dbe
00000210: b87d 4abe fd98 773c 6418 cfbc 3716 88bf
00000220: d1ca 873e 7fab ef3e a2dc 12be 4723 183e
00000230: 1a1b 563e e5cf 31bf 85e4 e5be 44e9 43bf
00000240: 6d1e fc3e 4ba9 4f3f 2aa8 d6bd 1afe 4b3d
00000250: 5328 89be f397 013e 0004 9dbf 9401 063f
00000260: e44a fabd 6796 b2be 7772 9fbe 2d82 05bf
00000270: 4c15 e3be a039 a7be 699b 043f 2f61 983e

model.bigrill.fwd_rnn.cells.0.forget_gate.mlp.weight f4 [32, 170, 1, 1]
-0.014273809 0.21425083 -0.12964384 -0.1107304 -0.026176507 0.30317545 -0.11814516 -0.012502714
-0.2878551 0.22632043 0.0549099 -0.17617966 -0.07502695 -0.29005006 -0.06261465 0.20029713
0.033903915 -0.22130594 0.115089335 -0.15319699 -0.03779056 0.10785369 0.077169105 -0.14783578
-0.14919926 -0.19079588 -0.08852392 -0.13250713 -0.12152772 0.12906331 0.010925557 0.032778796
0.056172278 -0.42964503 -0.039207507 0.025367716 -0.088313416 -0.104051515 -0.07178062 0.68098104
-0.13798673 0.15293287 -0.11474587 0.25576934 0.10252057 -0.13836731 0.34005582 -0.5790545
-0.16548584 0.06076476 -0.13794516 -0.14082874 0.111048296 -0.08284807 0.016718192 0.16707397
0.15281488 0.03964029 -0.19221562 -0.093800806 -0.05332202 -0.19110446 -0.21388203 0.22927448
-0.16602433 0.1268575 0.28086168 -0.3239288 0.02394412 0.12587442 -0.12009445 0.0009407038
-0.0038902157 0.3121292 -0.09102647 0.20983621 -0.19628423 0.5045888 0.15627682 -0.15169767
0.042865176 -0.015114478 -0.030322157 0.026126355 -0.25700477 -0.103101455 0.18836129 -0.07074812
0.07543618 0.18661858 0.582203 -0.4697917 -0.15158774 -0.135913 -0.030502321 -0.21844101
-0.07384512 0.14812551 0.11245012 4.5883844e-05 0.033301942 -0.44805592 0.003968705 0.49619126
-0.09589849 -0.0921285 -0.0053302394 0.2602855 -0.1877081 0.47972438 -0.23809437 0.47579607
0.13997507 -0.10446042 -0.21325888 -0.2463115 -0.12664407 0.15404603 -0.15219843 -0.08446625
0.28882524 -0.11368068 0.06677203 0.06484768 0.37239888 -0.67132586 -0.080175325 -0.08505947
-0.085070185 -0.29427746 -0.11913799 0.09864773 -0.24303721 0.088376366 0.22807291 -0.30775112
-0.0670593 0.5269644 -0.13032545 -0.24379934 -0.11965706 0.53760517 -0.22514412 0.23619099
-0.19001895 0.56582516 0.27061483 -0.16833994 0.27398393 -0.2828733 -0.099626586 0.120467134
-0.4596135 -0.20755059 0.41620556 -0.16370556 0.04742337 0.20428158 0.40163094 0.08309284
-0.017705705 -0.16070127 -0.22375073 -0.09344129 -0.19133182 0.1802323 -0.31388795 0.095189095
0.34054723 -0.03356647 0.19735266 -0.18896529 0.026712973 -0.003890374 0.046960164 0.008566375
-0.0616841 0.041912172 0.010068803 -0.02653103 0.030985318 0.03678032 -0.04873731 -0.023756407
0.083306074 -0.06161949 -0.019508814 0.035789844 -0.105209336 0.04873854 8.09775e-05 0.034519386
0.10253525 -0.12351758 0.040930133 -0.038116265 -0.054235965 -0.058520682 -0.0060944846 -0.096679024
-0.017633276 -0.089049816 -0.04938059 -0.010863556 0.050111063 -0.18675236 0.06655178 0.05496057
0.08487533 0.08182851 -0.15204091 -0.118761 0.05563483 0.20110422 0.18986055 0.020201609
-0.042774346 0.0037351628 -0.052276965 -0.022241855 -0.009369263 -0.033074073 0.13898247 0.08743698
0.110589564 0.108353406 0.19024509 -0.270844 0.05424419 0.0009211693 -0.042014014 -0.06967958
0.060606387 -0.047125578 0.11609662 -0.10307506 0.18964835 0.01280619 -0.059304997 -0.073389284
-0.05466073 0.14086284 -0.027178744 0.11630195 -0.103808254 0.07267984 -0.013282144 0.48585477
0.18666393 0.036117423 0.12975997 -0.3396158 0.022678303 -0.044579882 -0.6484582 -0.0014738844
00000000: b2dc 69bc 9264 5b3e 5bc1 04be 9fc6 e2bd
00000010: 1d70 d6bc d039 9b3e 17f6 f1bd 2fd8 4cbc
00000020: be61 93be 8bc0 673e 34e9 603d 7168 34be
00000030: bba7 99bd 7181 94be 1c3c 80bd b11a 4d3e
00000040: d5de 0a3d 069e 62be f5b3 eb3d acdf 1cbe
00000050: 46ca 1abd 65e2 dc3d d60a 9e3d 4362 17be
00000060: b1c7 18be ff5f 43be 074c b5bd f3af 07be
00000070: 86e3 f8bd 2c29 043e 1c01 333c 0f43 063d
00000080: e714 663d 6ffa dbbe 0d98 20bd f5cf cf3c
00000090: aadd b4bd f618 d5bd b801 93bd c654 2e3f
000000a0: 654c 0dbe 6f9a 1c3e e2ff eabd 33f4 823e
000000b0: 4ef6 d13d 29b0 0dbe cc1b ae3e ea3c 14bf
000000c0: 1f75 29be 78e4 783d 7f41 0dbe 6935 10be
000000d0: 4a6d e33d 40ac a9bd 97f4 883c 7015 2b3e
000000e0: 817b 1c3e db5d 223d 2cd4 44be a31a c0bd
000000f0: 3168 5abd e3b0 43be e403 5bbe eec6 6a3e
00000100: 4802 2abe efe6 013e 1acd 8f3e ffd9 a5be
00000110: 7626 c43c 39e5 003e 14f4 f5bd 9099 763a
00000120: fdf2 7ebb 66cf 9f3e 166c babd 4edf 563e
00000130: bcfe 48be bb2c 013f 0807 203e a256 1bbe
00000140: 6593 2f3d b7a2 77bc 2c66 f8bc f006 d63c
00000150: 2196 83be db26 d3bd c8e1 403e 64e4 90bd
00000160: 497e 9a3d f118 3f3e 410b 153f 8a88 f0be
00000170: d139 1bbe c72c 0bbe 01e0 f9bc 00af 5fbe
00000180: 1c3c 97bd 37ae 173e 404c e63d 6773 4038
00000190: 9e67 083d 9667 e5be e90b 823b c80c fe3e
000001a0: 6d66 c4bd dead bcbd 4aa9 aebb 2444 853e
000001b0: 8d36 40be 6f9e f53e 03cf 73be 8b9b f33e
000001c0: a055 0f3e 58ef d5bd 8960 5abe 1539 7cbe
000001d0: fcae 01be 3ebe 1d3e e8d9 1bbe a4fc acbd
000001e0: e7e0 933e 6bd1 e8bd c6bf 883d dcce 843d
000001f0: 11ab be3e 03dc 2bbf f632 a4bd a933 aebd
00000200: 4739 aebd 89ab 96be 9efe f3bd d207 ca3d
00000210: bfde 78be abfe b43d f28b 693e 8e91 9dbe
00000220: 6356 89bd 24e7 063f 0974 05be 89a6 79be
00000230: c30e f5bd 7ea0 093f 2e8c 66be 0ddc 713e
00000240: 5494 42be ebd9 103f 078e 8a3e 4e61 2cbe
00000250: 9f47 8c3e c5d4 90be 0609 ccbd 79b7 f63d
00000260: 7652 ebbe 2488 54be e518 d53e 6ea2 27be
00000270: 023f 423d 312f 513e 92a2 cd3e 942c aa3d
00000280: 8e0b 91bc e08e 24be e91e 65be 265e bfbd
00000290: 7dec 43be d18e 383e ecb5 a0be 80f2 c23d
000002a0: 355c ae3e ff7c 09bd d116 4a3e 1e80 41be
000002b0: 2ad5 da3c a5f5 7ebb 4d59 403d fb59 0c3c
000002c0: 78a8 7cbd 19ac 2b3d 9ff7 243c 9a57 d9bc
000002d0: ecd4 fd3c f6a6 163d c6a0 47bd cc9c c2bc
000002e0: 609c aa3d b864 7cbd f3d0 9fbc 5f98 123d
000002f0: fe77 d7bd 10a2 473d 77d2 a938 3364 0d3d
00000300: 00fe d13d c9f6 fcbd 5ba6 273d cd1f 1cbd
00000310: 8826 5ebd 62b3 6fbd 3eb4 c7bb a7ff c5bd
00000320: a973 90bc c05f b6bd 4d43 4abd 0efd 31bc
00000330: 4241 4d3d 033c 3fbe 4d4c 883d 561e 613d
00000340: 1ed3 ad3d b595 a73d 9db0 1bbe f838 f3bd
00000350: 59e1 633d 44ee 4d3e ce6a 423e d87d a53c
00000360: 2734 2fbd a2c9 743b 5f20 56bd 8d34 b6bc
00000370: 8a81 19bc ae78 07bd 6c51 0e3e 2912 b33d
00000380: c87c e23d 64e8 dd3d 9ccf 423e 11ac 8abe
00000390: 282f 5e3d a07a 713a e316 2cbd 2bb4 8ebd
000003a0: 673e 783d c006 41bd 11c4 ed3d 0419 d3bd
000003b0: 2d33 423e 0ed1 513c cce9 72bd 1f4d 96bd
000003c0: eee3 5fbd 593e 103e f5a5 debc b72f ee3d
000003d0: 6c99 d4bd 2bd9 943d 5a9d 59bc f5c1 f83e
000003e0: d424 3f3e ddef 133d ccdf 043e 1fe2 adbe
000003f0: d9c7 b93c 6599 36bd 5b01 26bf 5b2f c1ba

model.bigrill.fwd_rnn.cells.0.forget_gate.mlp.bias f4 [32]
0.04298789 -0.08636886 0.08860544 -0.070332035 -0.03210772 -0.077491745 -0.16760433 -0.103018224
-0.2362092 -0.15814872 -0.004431849 -0.02627028 -0.08261525 0.14705648 0.06405108 0.054962356
0.11276275 -0.0041313143 0.10211258 -0.07191885 -0.00957534 -0.005282685 -0.012678212 0.037035126
0.09172865 -0.026200192 0.007062584 0.07397536 -0.007862827 -0.030476488 0.12165971 0.06332383
00000000: 1214 303d 28e2 b0bd c576 b53d 3e0a 90bd
00000010: 6283 03bd feb3 9ebd 78a0 2bbe 38fb d2bd
00000020: d3e0 71be bdf1 21be 0b39 91bb c534 d7bc
00000030: 2f32 a9bd f995 163e 362d 833d 3520 613d
00000040: 28f0 e63d fa5f 87bb 6620 d13d 314a 93bd
00000050: e3e1 1cbc 601a adbb 46b8 4fbc 25b2 173d
00000060: 3bdc bb3d c9a1 d6bc 406d e73b 6580 973d
00000070: 16d3 00bc d4a9 f9bc ba28 f93d edaf 813d

model.bigrill.fwd_rnn.cells.0.update_gate.mlp.weight f4 [32, 170, 1, 1]
-0.047870886 0.06663303 -0.0023130972 0.0036697953 0.056888938 0.03530217 0.028569663 0.013500007
0.15303385 -0.07357542 -0.058828633 0.09152242 -0.031402707 0.039381474 -0.08078968 0.049000636
-0.023841746 0.07947226 -0.040845253 0.04679765 -0.09906692 -0.12123736 -0.14357068 0.13514395
0.09511918 0.03357376 0.037920214 0.044859838 0.012173575 -0.090719804 0.10695877 0.0036434436
-0.029734192 0.08651828 -0.059730962 -0.13201328 0.17502981 -0.11615211 0.013492599 -0.06769911
0.11691835 0.0076245978 0.07046184 -0.10598244 -0.114510134 0.13253163 -0.14926003 -0.035475172
0.10366155 0.05479613 -0.012017704 0.1184147 -0.033509683 0.11383965 -0.11217838 0.020447103
-0.121806435 0.023011202 0.0782755 0.1996877 0.060024604 0.09329862 -0.028986635 -0.17642269
0.0959911 -0.096689835 -0.020084767 0.063204974 -0.15286529 0.05384092 -0.0020172433 -0.09980345
0.0035068116 0.054933563 0.0879513 -0.0538852 0.043889787 0.026771348 -0.053619906 0.021982782
0.050688446 -0.06705381 0.10034511 -0.007816296 0.041944362 -0.0776147 -0.0038622657 0.020927481
0.032594386 -0.0800346 0.009210347 0.15518895 -0.016495172 0.083106324 0.10533234 -0.027297175
0.06623879 0.028393487 0.041716542 -0.00088613416 -0.031753473 0.008573083 -0.04529692 -0.024295548
0.108789206 -0.038277853 0.08497873 -0.05460653 0.032522004 -0.009623619 0.09052869 -0.093703985
-0.09121835 0.08847975 0.08682498 0.019051502 0.02937591 -0.01433255 0.022081148 0.117293425
-0.08600533 0.10827374 -0.008389945 -0.062472355 -0.09559363 -0.13907382 0.094944715 0.026868476
0.12418668 0.038698357 0.024515253 -0.13563661 0.065797485 -0.04689619 -0.030504981 0.15360028
-0.14083922 0.05799991 0.11151477 0.045184556 0.13051195 -0.013574942 -0.01240471 0.022632163
0.067130074 0.07760912 0.03995292 0.13229766 -0.105754875 0.021255631 0.004351417 -0.08751772
-0.052274764 -0.011785908 -0.007168538 -0.013679496 -0.124893196 -0.058608 -0.029569237 -0.10770591
0.12330988 -0.0020384388 0.054140557 -0.05697771 0.08212915 0.013198857 -0.026283247 -0.070703946
-0.0062381476 0.08316606 -0.08093538 0.011189383 0.061072737 -0.104436025 0.045628738 0.11486159
0.014538156 0.018973175 -0.043092955 -0.11175402 0.02820446 0.035955716 -0.13514714 -0.0032839463
-0.12434792 0.07466989 -0.111867234 0.020190982 -0.09607405 0.0062419577 -0.081228875 0.018988054
-0.01381901 -0.096728146 0.101396084 0.04789923 -0.1114668 0.008662266 -0.07139399 -0.05054907
0.098235406 -0.024184808 0.10696693 0.0960855 -0.12369195 -0.03481206 0.109539345 -0.03791389
0.062810495 0.09693065 -0.007997116 -0.03902253 -0.020177756 0.042956717 -0.014752868 -0.05829972
-0.04643615 -0.037981506 -0.057663266 0.1345971 -0.035295174 -0.10143358 -0.0067992774 -0.11220854
0.029248042 -0.044184547 0.04259253 0.13072811 -0.024582725 -0.083165534 0.05502227 0.07600186
-0.0032227486 0.0064299935 0.034000397 0.03410446 0.033190984 0.05930749 -0.210008 0.09876715
0.13242732 -0.06515871 -0.061772224 0.20278646 -0.033971377 0.023754815 -0.060508706 -0.017102273
-0.011836986 -0.019135943 0.06518699 -0.090813346 0.009798299 -0.01870345 -0.009910014 -0.12129609
00000000: 4314 44bd e676 883d 5597 17bb f380 703b
00000010: 6004 693d 0299 103d ed0a ea3c 222f 5d3c
00000020: e8b4 1c3e b6ae 96bd 4bf6 70bd 1b70 bb3d
00000030: 20a0 00bd 784e 213d 0f75 a5bd e4b4 483d
00000040: c44f c3bc 5ac2 a23d 5a4d 27bd e5ae 3f3d
00000050: 99e3 cabd 4b4b f8bd 3104 13be 2d63 0a3e
00000060: d8cd c23d a484 093d 3a52 1b3d f3be 373d
00000070: ad73 473c 4ecb b9bd 330d db3d d7c6 6e3b
00000080: 1f95 f3bc 7f30 b13d 74a8 74bd 7d2e 07be
00000090: 043b 333e 28e1 edbd 1010 5d3c d5a5 8abd
000000a0: e372 ef3d c3d7 f93b 4c4e 903d 520d d9bd
000000b0: 4a84 eabd 5fb6 073e 9fd7 18be 6a4e 11bd
000000c0: 824c d43d e871 603d e7e5 44bc 6883 f23d
000000d0: 7341 09bd c324 e93d c7bd e5bd af80 a73c
000000e0: a775 f9bd fd81 bc3c e84e a03d ef7a 4c3e
000000f0: 5cdc 753d 5913 bf3d 6175 edbc 26a8 34be
00000100: fb96 c43d 5205 c6bd cf88 a4bc 9c71 813d
00000110: b888 1cbe 4c88 5c3d ba33 04bb c065 ccbd
00000120: 89d2 653b 0402 613d d01f b43d bab6 5cbd
00000130: c7c5 333d 964f db3c 8ca0 5bbd 3c15 b43c
00000140: b09e 4f3d 8253 89bd bd81 cd3d ec0f 00bc
00000150: dacd 2b3d 75f4 9ebd 111e 7dbb 1c70 ab3c
00000160: b181 053d 2ee9 a3bd ffe6 163c dae9 1e3e
00000170: e220 87bc a633 aa3d 7bb8 d73d 539e dfbc
00000180: 34a8 873d 7599 e83c f7de 2a3d 754b 68ba
00000190: ee0f 02bd 1e76 0c3c 4389 39bd 7507 c7bc
000001a0: e0cc de3d 3dc9 1cbd 5409 ae3d 19ab 5fbd
000001b0: cb35 053d 62ac 1dbc 1b67 b93d e0e7 bfbd
000001c0: b0d0 babd df34 b53d 4cd1 b13d e511 9c3c
000001d0: c0a5 f03c 12d3 6abc 86e3 b43c 8937 f03d
000001e0: 9023 b0bd 9fbe dd3d fb75 09bc 03e3 7fbd
000001f0: 98c6 c3bd 5e69 0ebe 6072 c23d 471b dc3c
00000200: 9655 fe3d 2b82 1e3d 36d4 c83c 53e4 0abe
00000210: d5c0 863d 3816 40bd 95e5 f9bc 6449 1d3e
00000220: 2838 10be 5091 6d3d db61 e43d 7113 393d
00000230: eda4 053e 6f69 5ebc 203d 4bbc 1667 b93c
00000240: 7e7b 893d 88f1 9e3d aca5 233d 0a79 073e
00000250: 0396 d8bd 4a20 ae3c 5596 8e3b 7e3c b3bd
00000260: 101e 56bd ae19 41bc 0ee6 eabb f71f 60bc
00000270: 01c8 ffbd f10e 70bd 2f3b f2bc eb94 dcbd
00000280: e489 fc3d 5497 05bb 7dc2 5d3d 7661 69bd
00000290: 5433 a83d 0540 583c f74f d7bc 3bcd 90bd
000002a0: 6069 ccbb f852 aa3d 73c1 a5bd ad53 373c
000002b0: 6827 7a3d 8ee2 d5bd 33e5 3a3d 8e3c eb3d
000002c0: 7231 6e3c a26d 9b3c 3d82 30bd 4bdf e4bd
000002d0: 0a0d e73c 4d46 133d 0364 0abe 7a37 57bb
000002e0: 1faa febd 87ec 983d a61a e5bd 8f67 a53c
000002f0: 79c2 c4bd 5689 cc3b 535b a6bd d68c 9b3c
00000300: 2169 62bc 6819 c6bd c0a8 cf3d fc31 443d
00000310: b548 e4bd 2dec 0d3c 0337 92bd 8b0c 4fbd
00000320: a52f c93d 381f c6bc 7a11 db3d 7ac8 c43d
00000330: 3552 fdbd 1797 0ebd 2a56 e03d 984b 1bbd
00000340: caa2 803d 9483 c63d 5606 03bc 17d6 1fbd
00000350: d24b a5bc 62f3 2f3d 03b6 71bc b0cb 6ebd
00000360: d533 3ebd 7f92 1bbd 5130 6cbd d2d3 093e
00000370: ac91 10bd 69bc cfbd 79cc debb 97cd e5bd
00000380: 9799 ef3c dbfa 34bd 8175 2e3d 97dd 053e
00000390: b661 c9bc b152 aabd 085f 613d dda6 9b3d
000003a0: c034 53bb b2b2 d23b 0044 0b3d 1eb1 0b3d
000003b0: 45f3 073d 69ec 723d 560c 57be 6e46 ca3d
000003c0: 079b 073e ee71 85bd df04 7dbd 41a7 4f3e
000003d0: 9225 0bbd 7599 c23c fad7 77bd 111a 8cbc
000003e0: ebef 41bc fbc2 9cbc c280 853d 59fc b9bd
000003f0: 0b89 203c fa37 99bc 9d5d 22bc 166a f8bd

model.bigrill.fwd_rnn.cells.0.update_gate.mlp.bias f4 [32]
-0.025456712 -0.03029026 -0.23305516 0.26715332 0.03672502 0.23962532 -0.42341363 0.24468958
0.20213258 0.028251663 0.034703244 0.27627572 0.10026284 -0.2025274 0.23311363 -0.23365557
0.04791885 -0.01577166 0.015289417 0.049451217 0.055225626 0.07239966 0.15148905 -0.20980987
-0.0015556943 0.20102972 -0.13507907 -0.21397881 0.13698995 0.07282186 0.18809946 -0.0901079
00000000: 988a d0bc 4823 f8bc 03a6 6ebe 52c8 883e
00000010: f96c 163d 5760 753e acc9 d8be e88f 7a3e
00000020: d8fb 4e3e 0870 e73c fd24 0e3d 0374 8d3e
00000030: 9b56 cd3d 5863 4fbe 57b5 6e3e 6843 6fbe
00000040: 8e46 443d 9133 81bc 7680 7a3c 5c8d 4a3d
00000050: 4434 623d 4646 943d f21f 1b3e 66d8 56be
00000060: 70e8 cbba bcda 4d3e 2b52 0abe 431d 5bbe
00000070: 1847 0c3e a123 953d 259d 403e 7e8a b8bd

model.bigrill.fwd_rnn.cells.0.c_gate.mlp.weight f4 [32, 170, 1, 1]
-0.030109398 0.021779353 0.06773127 -0.08456031 -0.030931018 0.008830657 0.095831916 0.009664876
0.12903972 -0.119256556 0.053067666 0.07438202 -0.029865997 0.035491213 0.033171766 0.1013835
0.00023459287 -0.069529906 -0.012770618 0.030546857 -0.06613345 -0.02791526 0.050625753 0.0948302
-0.01754398 0.14430073 -0.028324788 0.03670871 -0.03472272 0.06983076 0.06137418 -0.018202484
-0.04247658 -0.06285468 -0.054928612 0.0048633707 0.061364498 0.0037323034 -0.0031470146 0.027904432
0.15976414 0.035564147 0.11896811 -0.16995169 0.1721352 0.09212799 0.032850027 -0.05088154
-0.049133025 0.037352916 0.107176535 -0.14479528 0.06887716 0.14349438 0.05057878 -0.035059795
-0.041080438 0.13920785 -0.0008374279 0.12174764 0.10680301 -0.055046126 0.027276326 0.033172082
0.0689304 0.011041217 -0.06611182 -0.056587048 -0.068506576 0.05418352 0.16418482 -0.0894455
-0.0061781453 0.027853247 0.06417707 0.06696217 0.1469571 -0.015655903 0.3039785 0.11411717
-0.029783579 -0.0838885 0.00213011 0.015626177 0.111763634 -0.018223224 0.035320632 0.18158352
-0.11340197 -0.02111393 -0.062460363 0.11952969 -0.027369669 0.14460075 0.014886768 0.029320024
0.041293845 0.052865103 -0.05274535 0.08611421 -0.06784279 0.002814828 -0.0426962 -0.029023217
0.11314077 -0.032143332 -0.08436441 -0.12050945 0.055119928 -0.08594239 0.11155993 -0.10441514
-0.0131319845 0.0379248 0.0009027301 0.047940403 -0.0041333386 -0.021369286 0.037705828 -0.10766122
-0.089419514 0.12072705 -0.091281734 -0.029966457 -0.010148397 0.1326132 0.069531426 0.018331999
0.0062099574 -0.014406475 -0.049146384 -0.032577287 0.08717157 0.010062144 -0.13805857 -0.051506136
-0.077350706 -0.037159994 0.05816644 -0.047711674 0.008503314 -0.12750283 0.17450441 -0.07517664
0.06116144 -0.10394117 0.011610744 0.0867456 -0.1092717 0.017514275 0.044098664 -0.03657223
0.04956589 -0.14851758 0.013540461 0.10942705 -0.092611134 0.007618019 -0.047311015 0.04349392
0.049134683 0.055586126 0.003272475 0.028036555 0.07841704 -0.03279285 0.071889974 0.115598604
-0.09103598 -0.044749707 -0.050880663 -0.0011829075 -0.015569092 -0.015335933 0.04808713 -0.035055723
0.018921757 0.04967811 0.076927654 0.07215758 0.03434964 0.035712518 -0.11069365 0.014802994
0.08170505 -0.067556515 -0.055092108 -0.027299091 0.11021982 0.07123171 0.089645505 -0.05822859
0.030894713 -0.13151576 0.093337126 0.03013856 -0.057474032 0.04209903 0.09523719 -0.0009897079
-0.024831193 -0.06667808 0.043010768 0.040366855 -0.047928456 -0.069634125 0.07811381 -0.06094263
0.013713983 -0.008343003 0.074536785 0.02306221 0.10498307 -0.059945524 0.030213073 0.06744767
-0.03275957 -0.07717159 -0.058518473 0.0044701523 0.015424258 -0.01640584 0.16318116 0.09402732
0.09289166 0.013728087 -0.048765965 0.02745365 -0.0014303639 0.017275948 -0.10344347 -0.113483295
-0.023921382 0.027749874 -0.039993204 0.038425345 0.06977771 -0.057238888 -0.044778466 -0.03022836
0.08731651 0.0013256647 -0.03218649 0.09989883 -0.0016689281 0.07353408 0.24001129 0.047805026
0.14630188 -0.0028067727 -0.054700296 -0.113679245 -0.07308391 -0.064149566 -0.02697291 -0.1166934
00000000: fca7 f6bc 9d6a b23c b1b6 8a3d f52d adbd
00000010: 0c63 fdbc 76ae 103c 8643 c43d 6e59 1e3c
00000020: fd22 043e c83c f4bd 7b5d 593d 9a55 983d
00000030: 89a9 f4bc 3c5f 113d 1edf 073d 27a2 cf3d
00000040: 0bfd 7539 b265 8ebd db3b 51bc 673d fa3c
00000050: f970 87bd 8bae e4bc f35c 4f3d 5636 c23d
00000060: 65b8 8fbc 92c3 133e 6309 e8bc df5b 163d
00000070: 6939 0ebd 6e03 8f3d 7e63 7b3d 601d 95bc
00000080: ecfb 2dbd f4b9 80bd d3fc 60bd e95c 9f3b
00000090: 5759 7b3d a999 743b 253e 4ebb d697 e43c
000000a0: 3699 233e b6ab 113d 8da5 f33d d107 2ebe
000000b0: 3644 303e 9aad bc3d c08d 063d 2969 50bd
000000c0: b63f 49bd 5fff 183d 5f7f db3d 3745 14be
000000d0: 780f 8d3d 31f0 123e b22b 4f3d dc9a 0fbd
000000e0: f643 28bd 818c 0e3e d686 5bba d456 f93d
000000f0: 89bb da3d 0c78 61bd 9a72 df3c 73df 073d
00000100: 622b 8d3d 38e6 343c a265 87bd d2c7 67bd
00000110: 2d4d 8cbd 8aef 5d3d 1120 283e 342f b7bd
00000120: 0a72 cabb 7e2c e43c 456f 833d 7623 893d
00000130: ec7b 163e cf40 80bc 12a3 9b3e 43b6 e93d
00000140: b1fc f3bc bccd abbd 5199 0b3b 7802 803c
00000150: 55e4 e43d df48 95bc 5eac 103d 08f1 393e
00000160: 4b3f e8bd 1ff7 acbc 70d6 7fbd fbcb f43d
00000170: 5b36 e0bc 3812 143e a1e7 733c 8c30 f03c
00000180: bc23 293d 1489 583d 820b 58bd a65c b03d
00000190: 29f1 8abd fa78 383b 36e2 2ebd 19c2 edbc
000001a0: 59b6 e73d baa8 03bd 3fc7 acbd a9cd f6bd
000001b0: 6fc5 613d 9002 b0bd 8879 e43d 9bd7 d5bd
000001c0: 8927 57bc 0957 1b3d 31a5 6c3a 285d 443d
000001d0: f570 87bb a40e afbc 6d71 1a3d 7c7d dcbd
000001e0: 9421 b7bd be3f f73d ebf1 babd 377c f5bc
000001f0: 7645 26bc c1cb 073e 7e66 8e3d fd2c 963c
00000200: e67c cb3b 2309 6cbc b84d 49bd c36f 05bd
00000210: 0287 b23d b1db 243c 3a5f 0dbe 19f8 52bd
00000220: 0c6a 9ebd 1435 18bd ef3f 6e3d 516d 43bd
00000230: 7c51 0b3c 1a90 02be 49b1 323e 36f6 99bd
00000240: 6b84 7a3d 1cdf d4bd fd3a 3e3c ada7 b13d
00000250: d7c9 dfbd 197a 8f3c cda0 343d c3cc 15bd
00000260: 9a05 4b3d fe14 18be cfd8 5d3c 4a1b e03d
00000270: e8aa bdbd 93a0 f93b 32c9 41bd ae26 323d
00000280: 7341 493d 47ae 633d 0577 563b ebac e53c
00000290: 1d99 a03d cc51 06bd 0d3b 933d f6be ec3d
000002a0: 1271 babd 784b 37bd 3e68 50bd ca0b 9bba
000002b0: 8115 7fbc 9143 7bbc 03f7 443d 9796 0fbd
000002c0: cd01 9b3c 467b 4b3d 3f8c 9d3d 5ac7 933d
000002d0: 35b2 0c3d 4a47 123d 5ab3 e2bd 4288 723c
000002e0: fa54 a73d 125b 8abd 43a8 61bd 58a2 dfbc
000002f0: eeba e13d eee1 913d 1098 b73d 1a81 6ebd
00000300: e916 fd3c 11ac 06be 8927 bf3d 24e5 f63c
00000310: e469 6bbd 0870 2c3d b70b c33d 16b9 81ba
00000320: c96a cbbc 848e 88bd 0f2c 303d b757 253d
00000330: a150 44bd 569c 8ebd 22fa 9f3d fb9e 79bd
00000340: 9db0 603c 17b1 08bc bea6 983d f6ec bc3c
00000350: 5d01 d73d 7089 75bd 6881 f73c 0122 8a3d
00000360: e62e 06bd 230c 9ebd 11b1 6fbd 5b7a 923b
00000370: 07b6 7c3c 8a65 86bc f618 273e 6591 c03d
00000380: fc3d be3d c5eb 603c d2be 47bd 7ae6 e03c
00000390: 0c7b bbba 4a86 8d3c 2cda d3bd ee69 e8bd
000003a0: c6f6 c3bc b453 e33c eacf 23bd e563 1d3d
000003b0: 9ee7 8e3d 5373 6abd a069 37bd 77a1 f7bc
000003c0: 00d3 b23d edc1 ad3a fbd5 03bd c297 cc3d
000003d0: efbf daba 0999 963d 85c5 753e 34cf 433d
000003e0: 29d0 153e d5f1 37bb 6b0d 60bd aad0 e8bd
000003f0: 04ad 95bd d960 83bd 4bf6 dcbc f3fc eebd

model.bigrill.fwd_rnn.cells.0.c_gate.mlp.bias f4 [32]
0.124697864 0.0063049584 -0.21001522 -0.09808664 0.12587519 0.022858065 0.099741824 -0.11604161
-0.093870245 0.10735653 0.021841679 -0.0074153505 0.03585052 0.20182134 0.108439855 0.09920094
-0.09229396 0.035676375 -0.081291735 -0.13934426 -0.09077201 0.12676439 -0.072423585 0.17409687
0.018014504 0.117656216 0.046973772 -0.073676586 0.13345625 0.027411867 -0.116579935 -0.1478266
00000000: 9861 ff3d d399 ce3b 3b0e 57be a6e1 c8bd
00000010: 6de5 003e d640 bb3c 7145 cc3d 39a7 edbd
00000020: 0b3f c0bd bedd db3d 52ed b23c 78fc f2bb
00000030: ffd7 123d 41aa 4e3e b715 de3d dd29 cb3d
00000040: 9e04 bdbd 6421 123d 487c a6bd 43b0 0ebe
00000050: ade6 b9bd 86ce 013e d152 94bd 7346 323e
00000060: 2793 933c bef5 f03d 9267 403d c0e3 96bd
00000070: c1a8 083e da8e e03c 76c1 eebd db5f 17be

model.bigrill.fwd_rnn.first_stage.weight f4 [1, 32, 1]
-0.86836374 -0.8054055 -0.755797 -0.18000814 -0.6474487 -0.42645827 -0.8572496 0.4842455
-0.62944126 -0.73905617 -1.1727698 0.21377835 -0.73912776 0.65517867 -0.3971131 -0.8434451
0.71368766 -0.8155578 -0.49126104 0.63628167 -0.16113168 0.17195462 -0.60456544 -0.82450885
-0.6737737 0.38210022 -0.74169856 0.8830956 -0.42265636 0.7538005 0.4992508 0.258473
00000000: 164d 5ebf 0e2f 4ebf ea7b 41bf 0e54 38be
00000010: 33bf 25bf bd58 dabe b674 5bbf 07ef f73e
00000020: 1023 21bf c932 3dbf 521d 96bf b6e8 5a3e
00000030: 7a37 3dbf cab9 273f 6952 cbbe 05ec 57bf
00000040: 3cb4 363f 65c8 50bf 9186 fbbe 5be3 223f
00000050: b4ff 24be df14 303e cdc4 1abf 0313 53bf
00000060: 6f7c 2cbf a4a2 c33e f5df 3dbf 8e12 623f
00000070: 6a66 d8be 12f9 403f cd9d ff3e 9356 843e

model.bigrill.fwd_rnn.spatial_decoder.lin_in.weight f4 [32, 34, 1]
0.00061969 -0.014675546 -0.06948182 0.06266585 -0.2042846 -0.060475893 -0.36302578 0.2968238
-0.021400183 0.24554282 0.13764343 0.07335851 -0.14287338 0.07572022 -0.21999481 0.20320436
-0.06805194 -0.13105352 0.07792615 -0.057195306 0.23120585 -0.009952116 0.15692973 -0.34165114
-0.09550727 -0.008004175 -0.19099602 -0.45163888 -0.010546039 -0.016575335 -0.0013183267 0.2875041
-0.07286259 -0.15481862 0.09632742 0.02732531 -0.043941982 -0.023012966 -0.22772333 0.2478231
-0.15896681 0.39288387 0.12308978 0.19721769 0.19619405 -0.13620909 -0.3271842 -0.22622345
-0.10412109 -0.0497247 -0.05380105 -0.038611863 0.028821617 -0.026092693 0.4037111 0.012200588
0.32252744 -0.117758796 -0.18210362 -0.14638747 -0.073729455 -0.21889825 0.037337705 0.16228025
-0.092915535 -0.05657635 -0.038839307 -0.032925405 0.07299972 0.047628663 -0.04536898 -0.17107658
-0.05729204 -0.04532395 -0.26481304 0.0730955 0.07259144 0.05080334 0.13825327 -0.12941204
-0.15942836 -0.03630223 0.09459352 -0.04743021 -0.12489248 0.07402522 -0.059077 0.023714097
0.10885094 0.017063841 0.13695604 -0.26698425 -0.16763058 0.032351162 -0.014971324 -0.24887028
-0.06826046 -0.12649909 -0.12314721 0.052033555 -0.012861239 -0.13974676 0.13500905 -0.15155515
-0.012996543 0.05728615 -0.06444097 0.26809588 -0.22815907 0.13737738 -0.20609386 0.0343621
0.12105494 -0.1932709 -0.3268934 -0.10140861 -0.16242222 -0.079996705 -0.017729951 -0.0022029688
-0.034892827 0.057692192 0.34723967 0.20349188 0.32147992 -0.2384858 -0.22078313 0.026560966
-0.09073426 -0.046165798 0.03297252 -0.11737961 -0.02940604 0.21146078 -0.016911907 0.032491747
0.0030296925 0.07253095 0.09475772 -0.06936092 -0.068781726 0.05770961 0.24046367 -0.30215365
-0.014583124 -0.12743181 -0.30146614 -0.03935155 0.1567917 -0.10469138 0.06503452 -0.043750938
-0.055596035 -0.11187168 -0.33975288 0.13126588 -0.36609495 0.10360491 -0.29647577 0.08126933
0.024961838 -0.13064626 0.021728408 0.47588956 -0.039661888 0.049006533 -0.34539714 -0.041162543
-0.037295327 0.48452288 0.016633278 0.12549181 0.05080378 0.015130004 -0.03297067 0.046876274
0.17367606 -0.23685458 -0.08708606 -0.11532862 -0.3269832 -0.10967274 0.26236245 0.0129161645
-0.07233746 -0.1405156 -0.069769956 -0.13287096 -0.31246987 -0.089871764 -0.3758105 0.07819645
-0.14484523 0.28508678 0.0585118 -0.042624522 0.040648207 0.31871313 0.10187158 0.11806671
0.022262307 -0.16700512 -0.18226478 0.58585674 -0.1684231 -0.16468726 0.08971541 -0.08697372
-0.048704736 -0.13322005 0.08240448 -0.23443563 0.11281052 -0.010472284 -0.010513988 0.03625516
0.1540727 -0.07318855 0.025636172 0.056900352 -0.112974495 -0.00593573 -0.09436536 -0.052221544
-0.30488685 -0.05306192 -0.06242214 0.22719267 -0.07164559 0.15634395 0.1683388 0.23637505
0.07826114 -0.10148033 -0.06005834 0.027345128 -0.010452201 0.17271744 -0.12986547 -0.30591995
0.12633501 0.15270397 -0.10717676 -0.18623012 0.033893667 -0.24758708 0.15098412 -0.2513151
-0.17420739 0.050914098 0.019326793 0.15488091 -0.024813967 0.047980074 -0.20724267 -0.1600437
00000000: b172 223a b471 70bc 7c4c 8ebd f456 803d
00000010: fb2f 51be 92b5 77bd 84de b9be 4af9 973e
00000020: 704f afbc 946f 7b3e 66f2 0c3e fd3c 963d
00000030: 664d 12be 3413 9b3d 5246 61be ce14 503e
00000040: d15e 8bbd e532 06be bf97 9f3d a045 6abd
00000050: 3ac1 6c3e 330e 23bc 30b2 203e e6ec aebe
00000060: 5199 c3bd f123 03bc 7694 43be 363d e7be
00000070: 4bc9 2cbc ffc8 87bc b4cb acba bd33 933e
00000080: fb38 95bd c688 1ebe 4f47 c53d 54d9 df3c
00000090: 82fc 33bd b085 bcbc 4e30 69be 57c5 7d3e
000000a0: 32c8 22be 1328 c93e 7f16 fc3d 6ff3 493e
000000b0: 18e7 483e 657a 0bbe b084 a7be 1fa7 67be
000000c0: 703d d5bd 21ac 4bbd 7d5e 5cbd 7927 1ebd
000000d0: 501b ec3c 58c0 d5bc 39b3 ce3e fae4 473c
000000e0: 5122 a53e 862b f1bd 5f79 3abe 99e6 15be
000000f0: 78ff 96bd dd26 60be 6cef 183d cb2c 263e
00000100: 804a bebd 9abc 67bd f715 1fbd cadc 06bd
00000110: e180 953d 4616 433d d3d4 39bd b32e 2fbe
00000120: 0fab 6abd 9ba5 39bd 9395 87be 18b3 953d
00000130: d2aa 943d 2a17 503d 4492 0d3e 9784 04be
00000140: 3041 23be a6b1 14bd 3fba c13d 2e46 42bd
00000150: a1c7 ffbd 899a 973d b9fa 71bd 1144 c23c
00000160: 3eed de3d 78c9 8b3c 343e 0c3e 29b2 88be
00000170: 5aa7 2bbe a782 043d 494a 75bc dad7 7ebe
00000180: 24cc 8bbd fa88 01be 9b34 fcbd 2321 553d
00000190: f2b7 52bc c619 0fbe d03f 0a3e 4631 1bbe
000001a0: 74ef 54bc e2a4 6a3d a1f9 83bd dd43 893e
000001b0: 88a2 69be a8ac 0c3e 450a 53be 46bf 0c3d
000001c0: a7eb f73d cfe8 45be 925e a7be 51af cfbd
000001d0: 0352 26be 50d5 a3bd 673e 91bc af5f 10bb
000001e0: c8eb 0ebd a64e 6c3d 66c9 b13e 2d60 503e
000001f0: 0499 a43e 9f35 74be f914 62be 6296 d93c
00000200: e2d2 b9bd 5918 3dbd 310e 073d b964 f0bd
00000210: f0e4 f0bc 2d89 583e d78a 8abc 1116 053d
00000220: ce8d 463b 1b8b 943d 5610 c23d 190d 8ebd
00000230: 6fdd 8cbd e960 6c3d 1c3c 763e e2b3 9abe
00000240: 0eee 6ebc 7c7d 02be c559 9abe 172f 21bd
00000250: 018e 203e 6f68 d6bd d230 853d 2f34 33bd
00000260: abb8 63bd fb1c e5bd 17f4 adbe 906a 063e
00000270: cc70 bbbe d02e d43d accb 97be 8970 a63d
00000280: c57c cc3c 22c8 05be c6ff b13c cca7 f33e
00000290: 8174 22bd 13bb 483d e5d7 b0be 0e9a 28bd
000002a0: fcc2 18bd 6213 f83e 8342 883c ed80 003e
000002b0: a017 503d d6e3 773c 410c 07bd 5601 403d
000002c0: 23d8 313e 028a 72be 2d5a b2bd 6931 ecbd
000002d0: 586a a7be 1a9c e0bd 5f54 863e 529e 533c
000002e0: aa25 94bd 52e3 0fbe 8de3 8ebd 530f 08be
000002f0: 0dfc 9fbe b00e b8bd 3c6a c0be 7625 a03d
00000300: 4f52 14be e5f6 913e 12aa 6f3d 0d97 2ebd
00000310: bc7e 263d 5e2e a33e 0ca2 d03d f6cc f13d
00000320: 715f b63c 6403 2bbe 9ea3 3abe b5fa 153f
00000330: 1b77 2cbe c7a3 28be b6bc b73d 471f b2bd
00000340: 9e7e 47bd d66a 08be aec3 a83d e50f 70be
00000350: 3409 e73d f193 2bbc dd42 2cbc 4a80 143d
00000360: 3cc5 1d3e e1e3 95bd f302 d23c 5810 693d
00000370: 2c5f e7bd 8380 c2bb a042 c1bd 42e6 55bd
00000380: 211a 9cbe 7557 59bd 5cae 7fbd 32a5 683e
00000390: ecba 92bd a118 203e 0261 2c3e 4d0c 723e
000003a0: 6047 a03d ebd4 cfbd bcff 75bd e402 e03c
000003b0: b53f 2bbc d7dc 303e 74fb 04be 8aa1 9cbe
000003c0: f75d 013e 6e5e 1c3e 7d7f dbbd 1cb3 3ebe
000003d0: 16d4 0a3d 7887 7dbe 959b 1a3e 5fac 80be
000003e0: 6c63 32be 4d8b 503d 3953 9e3c 1a99 1e3e
000003f0: a946 cbbc c186 443d 6c37 54be 7fe2 23be

model.bigrill.fwd_rnn.spatial_decoder.lin_in.bias f4 [32]
0.093352005 0.23547216 0.0491269 0.14557731 -0.17935936 -0.024267374 -0.22623563 -0.27540594
0.13081275 0.043660045 0.11700294 0.17805336 -0.1470343 -0.09230985 -0.17774613 -0.043069165
-0.010084835 -0.022346918 0.032709666 0.2297446 -0.023389416 0.23186274 -0.058858108 -0.110527225
0.18658046 0.06832649 0.108780734 -0.07155194 -0.0618643 -0.26349714 0.04161715 -0.07599171
00000000: 562f bf3d 9d1f 713e 4a39 493d 3812 153e
00000010: fba9 37be 5fcc c6bc 50aa 67be 0202 8dbe
00000020: c7f3 053e e0d4 323d 3d9f ef3d 9f53 363e
00000030: 2990 16be f20c bdbd 1503 36be 4b69 30bd
00000040: dd3a 25bc e210 b7bc 92fa 053d 2b42 6b3e
00000050: 299b bfbc 6d6d 6d3e 3315 71bd 195c e2bd
00000060: f30e 3f3e c2ee 8b3d 6fc8 de3d d389 92bd
00000070: 6c65 7dbd 19e9 86be bf76 2a3d 8ba1 9bbd

model.bigrill.fwd_rnn.spatial_decoder.graph_conv.mlp.weight f4 [32, 64, 1, 1]
-0.036453422 0.015290778 -0.03871555 0.092811584 0.023947816 -0.018119536 0.047510307 0.12717347
-0.05374987 0.094942525 0.032291964 0.040956676 0.27086884 0.04347571 -0.046529144 -0.0108623
0.030988963 -0.124269836 0.101127855 -0.15506747 0.08678405 0.0977151 -0.103926904 0.12269291
0.036586545 0.030157816 0.06499885 -0.022964034 0.1069339 0.034703266 -0.08157897 0.06938743
-0.18765509 -0.021499174 0.051303316 0.09661729 0.10224902 0.35038248 -0.08276115 0.07698925
-0.33515522 -0.015405759 -0.21131712 -0.041936025 0.3195676 -0.058262892 0.08308765 0.050477557
-0.008529271 -0.28126258 0.21657866 0.034979507 0.1219002 -0.17367701 -0.057478115 0.08055421
-0.18507475 -0.12165102 -0.21799484 -0.068614654 0.02253966 0.10381648 -0.047682475 0.25506097
-0.013644514 -0.14930162 0.06537139 -0.029325185 -0.08319232 -0.07537922 0.046919107 -0.03556278
-0.18674298 -0.06441408 0.10493903 -0.10194806 0.15586093 0.077713065 0.0632369 0.14213921
0.07374523 -0.27382955 0.20664085 -0.09193157 0.072295524 0.047662668 0.04109138 0.030327093
0.013895156 0.038957145 -0.092254475 -0.047835097 0.26105356 0.12514785 -0.12564465 0.17337699
-0.17428449 -0.047438085 -0.14420974 -0.124318495 0.13596824 0.22567075 0.092917256 -0.064105555
-0.22479928 0.034947965 -0.14687829 0.058621474 0.39548907 -0.023764983 0.15787794 0.10206488
-0.029816236 -0.26452458 0.021769397 -0.13160849 -0.028848955 -0.09431639 0.06848751 0.088801146
-0.12148925 -0.09789845 -0.29031637 -0.13224587 -0.0634309 0.17186451 0.01194466 0.1361992
-0.039001442 -0.14888309 0.079095036 -0.046537887 0.029829793 0.0753408 0.13541761 -0.05759651
-0.20858598 0.051754408 -0.017937949 -0.012801069 0.108217105 0.006708846 0.018475085 0.018221062
-0.16042092 -0.077132784 0.04537969 -0.058585722 0.07940051 -0.082598925 -0.14686066 0.042430934
-0.07052143 0.0769348 -0.076981 0.03058628 0.18979627 0.16807811 -0.11215994 0.07024064
-0.22795685 -0.16283998 -0.09819039 0.016665632 0.0816551 0.23942094 0.007131883 0.07021078
-0.3534044 0.14697507 -0.0155087635 -0.13314211 0.29810432 -0.12775171 -0.047394115 0.012400036
-0.11500719 -0.22510085 -0.018056452 -0.088347614 -0.022573639 -0.056854174 -0.0727804 -0.010790279
-0.15935938 0.04442052 -0.09503507 -0.17135072 0.059754618 0.07174901 -0.15245365 0.18207099
-0.10930757 -0.022683853 -0.07741857 -0.042858746 0.06675959 0.06662893 -0.017725904 0.05196277
-0.13376832 -0.054433648 -0.043513887 -0.0009555212 0.2182431 -0.057259947 0.10626085 -0.07124747
0.07363643 -0.21468613 0.086832605 0.07581442 0.06393766 0.022535635 0.052634 0.11396492
0.020382555 0.0674974 0.06394969 -0.100423165 0.26758727 0.04590599 -0.09254625 0.2497644
-0.2524429 0.013763121 0.037682656 -0.108850814 0.22985671 0.36629477 -0.05453574 -0.0093836095
-0.33648443 0.03259781 0.029259028 -0.10261606 0.36361596 0.028422203 0.16532955 0.14132962
-0.121797495 -0.26456022 0.16768193 -0.05256262 -0.045592006 -0.043962978 0.13429923 -0.06252328
0.060807813 -0.12972333 -0.26253846 -0.13467067 -0.0042003104 0.10761753 -0.07278499 0.19574463
00000000: 2f50 15bd 2c86 7a3c 3294 1ebd 0014 be3d
00000010: 362e c43c 6c6f 94bc 2b9a 423d c339 023e
00000020: d328 5cbd 3a71 c23d 9444 043d 30c2 273d
00000030: 52af 8a3e 9613 323d 5895 3ebd caf7 31bc
00000040: 91dc fd3c 2f81 febd 1f1c cf3d 02ca 1ebe
00000050: d6bb b13d db1e c83d a1d7 d4bd 6c46 fb3d
00000060: c6db 153d 860d f73c 1e1e 853d 121f bcbc
00000070: 2900 db3d 0325 0e3d e012 a7bd ff1a 8e3d
00000080: a828 40be 091f b0bc 6d23 523d 49df c53d
00000090: ef67 d13d 5565 b33e ae7e a9bd 8aac 9d3d
000000a0: 7799 abbe 7068 7cbc 8463 58be 1cc5 2bbd
000000b0: 5d9e a33e 12a5 6ebd dc29 aa3d 8ec1 4e3d
000000c0: 5bbe 0bbc a601 90be ccc6 5d3e ac46 0f3d
000000d0: d0a6 f93d 63d8 31be 2c6e 6bbd 9bf9 a43d
000000e0: 3c84 3dbe 2c24 f9bd 0a3a 5fbe d785 8cbd
000000f0: 18a5 b83c bc9d d43d b34e 43bd 5a97 823e
00000100: 3d8d 5fbc 86e2 18be 6fe1 853d 5f3b f0bc
00000110: bc60 aabd 6c60 9abd 402e 403d 47aa 11bd
00000120: 8d39 3fbe 87eb 83bd 46ea d63d 25ca d0bd
00000130: 029a 1f3e 0728 9f3d 5982 813d f18c 113e
00000140: bd07 973d 6333 8cbe a999 533e 9e46 bcbd
00000150: ad0f 943d ee39 433d 6f4f 283d 8670 f83c
00000160: 82a8 633c 8791 1f3d eaef bcbd bcee 43bd
00000170: d0a8 853e c226 003e fea8 00be bd89 313e
00000180: a277 32be 704e 42bd b8ab 13be b29a febd
00000190: 423b 0b3e 3c16 673e 674b be3d c649 83bd
000001a0: c831 66be 9925 0f3d 4367 16be 121d 703d
000001b0: 8b7d ca3e c8ae c2bc c1aa 213e 6407 d13d
000001c0: 2e41 f4bc c46f 87be bc55 b23c 60c4 06be
000001d0: a554 ecbc f428 c1bd 2e43 8c3d 60dd b53d
000001e0: 5bcf f8bd fc7e c8bd 59a4 94be 766b 07be
000001f0: 0fe8 81bd 40fd 2f3e 89b3 433c ce77 0b3e
00000200: fabf 1fbd cf74 18be 94fc a13d 839e 3ebd
00000210: 9c5d f43c 474c 9a3d eaaa 0a3e 51ea 6bbd
00000220: 9097 55be 6efc 533d 9bf2 92bc 93bb 51bc
00000230: eea0 dd3d e1d5 db3b 1059 973c 5644 953c
00000240: 6245 24be cbf7 9dbd 0ee0 393d 95f7 6fbd
00000250: bc9c a23d a029 a9bd a462 16be 0fcc 2d3d
00000260: 8a6d 90bd fe8f 9d3d 37a8 9dbd 1490 fa3c
00000270: f459 423e ab1c 2c3e 1cb4 e5bd 53da 8f3d
00000280: 856d 69be 86bf 26be 0b18 c9bd 5d86 883c
00000290: ca3a a73d c32a 753e 92b2 e93b abca 8f3d
000002a0: 6cf1 b4be a280 163e 7818 7ebc 6856 08be
000002b0: 21a1 983e 58d1 02be 5520 42bd 8529 4b3c
000002c0: e488 ebbd d680 66be 20eb 93bc 98ef b4bd
000002d0: 5aec b8bc ecdf 68bd e40d 95bd b6c9 30bc
000002e0: 1b2f 23be 4bf2 353d bfa1 c2bd 9076 2fbe
000002f0: 42c1 743d 25f1 923d cf1c 1cbe d170 3a3e
00000300: a6dc dfbd 7dd3 b9bc a18d 9ebd a78c 2fbd
00000310: 40b9 883d c074 883d ea35 91bc ead6 543d
00000320: 90fa 08be d1f5 5ebd 9e3b 32bd f17b 7aba
00000330: 1f7b 5f3e 6889 6abd 4a9f d93d 32ea 91bd
00000340: b2ce 963d aed6 5bbe 4bd5 b13d 9744 9b3d
00000350: bff1 823d a79c b83c c096 573d 7166 e93d
00000360: 51f9 a63c 143c 8a3d 0ef8 823d a9aa cdbd
00000370: 3301 893e eb07 3c3d e388 bdbd 3dc2 7f3e
00000380: 3240 81be b77e 613c 2159 1a3d 2ded debd
00000390: 8f5f 6b3e fd8a bb3e de60 5fbd b6bd 19bc
000003a0: b047 acbe 4885 053d a1b0 ef3c 5e28 d2bd
000003b0: df2b ba3e aed5 e83c 264c 293e b6b8 103e
000003c0: f770 f9bd 7074 87be d0b4 2b3e e74b 57bd
000003d0: afbe 3abd 8612 34bd bd85 093e 350c 80bd
000003e0: 9d11 793d 31d6 04be 716b 86be 1ce7 09be
000003f0: c2a2 89bb 9466 dc3d 4c10 95bd 4871 483e

model.bigrill.fwd_rnn.spatial_decoder.graph_conv.mlp.bias f4 [32]
-0.2345899 -0.26023844 -0.08433729 -0.18658723 0.026174556 -0.054032 0.0711115 -0.10269452
0.08018585 -0.2558571 0.10543235 0.27445567 0.07519204 -0.19493109 -0.096258625 0.25332063
0.21694973 0.09971936 0.012510201 0.015653396 0.008933505 0.117490046 0.25623336 -0.20986797
0.12222911 0.069012485 -0.045088198 0.054970954 0.044725046 0.10106702 -0.24197803 -0.20103295
00000000: 5638 70be f93d 85be 07b9 acbd b910 3fbe
00000010: 066c d63c a950 5dbd e8a2 913d 8151 d2bd
00000020: 7b38 a43d b4ff 82be eaec d73d 7485 8c3e
00000030: 49fe 993d 049c 47be 3e23 c5bd 3eb3 813e
00000040: 1228 5e3e aa39 cc3d 96f7 4c3c 8d3b 803c
00000050: d65d 123c 9f9e f03d 0531 833e a1e7 56be
00000060: 4153 fa3d 6b56 8d3d 67ae 38bd 3929 613d
00000070: 9c31 373d 3afc ce3d 17c9 77be 95db 4dbe

model.bigrill.fwd_rnn.spatial_decoder.lin_out.weight f4 [32, 64, 1]
-0.11242314 -0.19669458 0.06635517 -0.11883607 0.052508138 0.037515625 0.18395254 -0.108713925
0.106560074 -0.0128605245 -0.060117576 0.16575111 0.31222302 -0.104266696 -0.13015336 0.1146174
0.008059973 0.17689441 -0.19156958 0.0363108 0.2622338 0.12010692 0.08864014 -0.0901687
-0.014671258 0.17574088 0.16069664 0.07275055 0.034088124 0.08893149 -0.09807593 -0.28642222
-0.24125779 -0.16631162 -0.2862945 0.52692723 -0.5504945 0.07835055 -0.30467466 0.62190366
0.40928045 -0.3141746 0.5572949 -0.6394818 -0.3610272 0.33055612 -0.52958846 -0.19693868
0.39038435 -0.2250502 0.33172137 0.18445872 0.33824787 0.54687905 -0.59323704 -0.18233177
-0.2906378 -0.15437107 -0.10125956 0.28872213 -0.6616718 0.16490093 0.6911221 0.097704545
-0.15189053 -0.032069504 -0.09225498 0.031064905 0.11143571 0.14613234 0.12624443 -0.1119401
0.009069025 0.08627486 0.017354952 -0.012638915 0.028712705 -0.05354977 -0.11883066 -0.090711854
0.04681407 0.08236704 -0.037626907 -0.062084224 0.048251797 -0.104088806 0.06572264 0.05252148
0.16341615 -0.05552968 -0.01751127 0.12552984 0.06981921 0.11884364 -0.1426897 -0.03842479
-0.023526799 -0.032924052 -0.20828475 0.48379922 -0.2026425 0.1163997 -0.049697887 0.110750645
0.28761312 -0.028721694 0.51589805 -0.50476253 -0.14238606 0.17392385 -0.22934473 0.013281585
0.044337984 0.028623823 0.3712359 0.0021046621 0.18779954 0.5523856 -0.28788736 0.0063668652
-0.05885621 -0.25216186 -0.15182485 0.042874478 -0.5882372 -0.015664397 0.39727893 -0.07906577
0.03657038 0.10628464 -0.07734194 -0.031011505 0.004705846 0.121920556 -0.07250215 0.1265821
-0.06943971 0.11573033 0.04222538 -0.12533113 -0.05239713 -0.06384032 -0.01411371 -0.15729411
-0.116519615 -0.059974648 -0.026791828 -0.08156067 0.031434823 -0.060241174 0.010845913 0.09514909
-0.036519784 -0.01397233 -0.09447078 -0.04629368 -0.0249317 -0.06469193 0.09760795 0.06756647
-0.02959321 0.20714621 0.2619798 -0.25558317 0.11150412 0.08702511 0.026826505 -0.10793151
-0.18825236 0.121551976 -0.289336 0.5733045 0.20931719 -0.25332618 0.31441 0.11482624
0.103291824 0.04067564 -0.2804856 -0.014043855 -0.22444975 -0.47404918 0.34013718 0.08044627
0.037975565 0.04985802 0.14427146 -0.078584805 0.47655356 -0.27493447 -0.23860279 0.24570437
0.05754196 0.122925885 0.117130384 -0.06358873 -0.04180778 0.10281 0.070653535 0.03734192
-0.15058811 0.14183703 -0.10695394 -0.13140671 0.07071548 0.09897161 0.08474296 -0.016285373
-0.011660043 0.066452704 -0.06082453 -0.053001493 -0.11693329 0.07464086 0.005841431 -0.06037366
-0.008303589 -0.07624236 0.07091438 -0.05684491 0.08251076 -0.11026222 0.14735797 0.13418925
0.025350971 0.0047152126 0.31084198 -0.41400626 0.21421215 -0.1464041 -0.063089944 -0.036584087
-0.20497182 0.009420411 -0.39142 0.48961708 0.18809153 -0.3151534 0.15310746 0.01777921
-0.16391024 0.17955402 -0.21213388 -0.12275055 -0.23664936 -0.34505957 0.40819204 -0.059407152
0.17065674 0.108709045 0.079185955 0.09632347 0.28246328 -0.27448002 -0.24365626 0.15322405
00000000: 1a3e e6bd 4e6a 49be 38e5 873d 5360 f3bd
00000010: c612 573d fca9 193d 0e5e 3c3e 68a5 debd
00000020: 2b3c da3d f3b4 52bc d93d 76bd a9ba 293e
00000030: b2db 9f3e c789 d5bd ec46 05be 87bc ea3d
00000040: fa0d 043c cf23 353e d12a 44be a2ba 143d
00000050: 8243 863e 9efa f53d f688 b53d 5eaa b8bd
00000060: b75f 70bc 6bf5 333e a98d 243e 3efe 943d
00000070: fd9f 0b3d b721 b63d 08dc c8bd efa5 92be
00000080: 480c 77be 984d 2abe 3195 92be b4e4 063f
00000090: 35ed 0cbf 4176 a03d 51fe 9bbe 1435 1f3f
000000a0: 358d d13e 7edb a0be e1aa 0e3f 14b5 23bf
000000b0: 8fd8 b8be a73e a93e 1c93 07bf 4baa 49be
000000c0: 75e0 c73e 8f73 66be 62d7 a93e bfe2 3c3e
000000d0: d32e ad3e 4400 0c3f 62de 17bf 2eb5 3abe
000000e0: 7ace 94be 7313 1ebe 2c61 cfbd 63d3 933e
000000f0: 5363 29bf cadb 283e 61ed 303f 5219 c83d
00000100: 3189 1bbe 505b 03bd 2ef0 bcbd d47b fe3c
00000110: 6838 e43d b7a3 153e 3846 013e da40 e5bd
00000120: 3f96 143c e0b0 b03d f92b 8e3c 7413 4fbc
00000130: e836 eb3c 0157 5bbd 7d5d f3bd 23c7 b9bd
00000140: 1cc0 3f3d 0db0 a83d ac1e 1abd 074c 7ebd
00000150: ada3 453d 832c d5bd 9799 863d c320 573d
00000160: 9056 273e 1773 63bd cb73 8fbc e58a 003e
00000170: 60fd 8e3d 4b64 f33d 401d 12be 5063 1dbd
00000180: 46bb c0bc 5fdb 06bd 9948 55be 88b4 f73e
00000190: 8481 4fbe f762 ee3d 0390 4bbd 3cd1 e23d
000001a0: 0742 933e c249 ebbc e511 043f 1e38 01bf
000001b0: a7cd 11be 1819 323e 58d9 6abe 019b 593c
000001c0: bf9b 353d 827c ea3c a212 be3e 5fee 093b
000001d0: 864e 403e 2569 0d3f f965 93be 23a1 d03b
000001e0: 3613 71bd 5c1b 81be f977 1bbe 269d 2f3d
000001f0: b796 16bf 9f52 80bc 2568 cb3e 3ced a1bd
00000200: d3ca 153d c3ab d93d 7365 9ebd d70b febc
00000210: 7f33 9a3b 7cb1 f93d 027c 94bd bd9e 013e
00000220: 6836 8ebd 0604 ed3d 85f4 2c3d ce56 00be
00000230: 5f9e 56bd b7be 82bd 313d 67bc b511 21be
00000240: d6a1 eebd faa7 75bd 897a dbbc 4809 a7bd
00000250: cdc1 003d 73bf 76bd 0eb3 313c 87dd c23d
00000260: c595 15bd 33ec 64bc e579 c1bd 719e 3dbd
00000270: 913d ccbc 347d 84bd ade6 c73d 4a60 8a3d
00000280: 766d f2bc 231e 543e 3722 863e ccdb 82be
00000290: 465c e43d 393a b23d 42c3 db3c 320b ddbd
000002a0: 3ac5 40be 3ef0 f83d d923 94be 15c4 123f
000002b0: 3f57 563e f8b3 81be 59fa a03e 052a eb3d
000002c0: aa8a d33d 809b 263d cf9b 8fbe 3218 66bc
000002d0: 28d6 65be 93b6 f2be 7626 ae3e 04c1 a43d
000002e0: 448c 1b3d ec37 4c3d e6bb 133e 12f1 a0bd
000002f0: d4fe f33e 36c4 8cbe 4a54 74be ed99 7b3e
00000300: 1eb1 6b3d 91c0 fb3d 0ee2 ef3d cf3a 82bd
00000310: a23e 2bbd 0d8e d23d cdb2 903d d7f3 183d
00000320: c533 1abe ba3d 113e ab0a dbbd 7b8f 06be
00000330: 47d3 903d a1b1 ca3d b88d ad3d e768 85bc
00000340: c409 3fbc 5b18 883d 2423 79bd 1818 59bd
00000350: b97a efbd 4fdd 983d 7a69 bf3b 5f4a 77bd
00000360: c70b 08bc f424 9cbd 8f3b 913d 35d6 68bd
00000370: 67fb a83d 29d1 e1bd 02e5 163e e868 093e
00000380: d7ac cf3c 1282 9a3b ae26 9f3e a1f8 d3be
00000390: 6e5a 5b3e f5ea 15be 4d35 81bd 32d9 15bd
000003a0: 22e4 51be 1158 1a3c 3468 c8be 17af fa3e
000003b0: 119b 403e c95b a1be 34c8 1c3e b5a5 913c
000003c0: 16d8 27be 02dd 373e a039 59be a464 fbbd
000003d0: 3654 72be a6ab b0be 8cfe d03e ea54 73bd
000003e0: a4c0 2e3e d9a2 de3d 3f2c a23d 3d45 c53d
000003f0: 079f 903e a588 8cbe 0781 79be c4e6 1c3e

model.bigrill.fwd_rnn.spatial_decoder.lin_out.bias f4 [32]
0.12367267 0.035594266 -0.18729827 -0.23706396 -0.01357376 -0.06952086 0.08945976 -0.16178428
-0.21768126 0.018645814 0.047632135 -0.24410072 0.02425263 0.06847171 0.13961917 -0.03581161
0.2578301 0.12579595 0.12667848 0.1523636 0.03181117 -0.24193977 0.20183717 -0.3000074
0.08819225 -0.2312777 0.026193166 -0.27391055 -0.16899711 0.105807096 -0.23578727 0.004577848
00000000: 1948 fd3d 4bcb 113d 1ecb 3fbe e5c0 72be
00000010: 7a64 5ebc f460 8ebd ae36 b73d c7aa 25be
00000020: d6e7 5ebe 1bbf 983c ea19 433d 8af5 79be
00000030: 74ad c63c e53a 8c3d 54f8 0e3e 32af 12bd
00000040: 4f02 843e a7d0 003e 01b8 013e 3405 1c3e
00000050: 6e4c 023d 0fbf 77be 67ae 4e3e 929a 99be
00000060: 239e b43d 10d4 6cbe 0d93 d63c 013e 8cbe
00000070: 940d 2dbe 64b1 d83d 3872 71be c601 963b

model.bigrill.fwd_rnn.spatial_decoder.read_out.weight f4 [1, 64, 1]
0.3725118 0.21791759 -0.26032624 -0.30914074 0.42134646 0.2737454 0.32206267 -0.23106296
-0.37952825 0.20534386 0.27581665 -0.4552888 0.37507063 0.42913067 0.44283453 0.4773583
0.38406202 0.24137482 0.20696636 0.27957073 0.27410486 -0.25954112 0.25236195 -0.4295839
0.31187898 -0.23615824 0.3742128 -0.60053366 -0.4517972 0.20647664 -0.3610367 0.48893738
-0.1896246 -0.12497125 -0.24980828 0.32186845 -0.15177087 -0.023747958 -0.06708503 0.017668316
0.1342505 -0.23918892 0.35652503 -0.4329799 -0.2396003 0.28681168 -0.24460043 -0.20328432
0.14388329 -0.12259754 0.25815943 0.11194889 0.2009279 0.44586703 -0.40066123 -0.13233353
-0.12663798 -0.22617629 -0.03626621 -0.03383084 -0.3484718 0.23259588 0.2275176 -0.22446841
00000000: deb9 be3e ca25 5f3e 7b49 85be b247 9ebe
00000010: b9ba d73e 5b28 8c3e 66e5 a43e c59b 6cbe
00000020: 8751 c2be a945 523e d737 8d3e 9d1b e9be
00000030: 4209 c03e 04b7 db3e 35bb e23e 4f68 f43e
00000040: c7a3 c43e f62a 773e fdee 533e e523 8f3e
00000050: 7957 8c3e 93e2 84be 9635 813e 6cf2 dbbe
00000060: 9aae 9f3e 77d3 71be d298 bf3e 93bc 19bf
00000070: f651 e7be 9d6e 533e cdd9 b8be 0056 fa3e
00000080: f32c 42be edf0 ffbd becd 7fbe f1cb a43e
00000090: d369 1bbe 148b c2bc e063 89bd 25bd 903c
000000a0: f778 093e f1ed 74be 738a b63e 8baf ddbe
000000b0: c859 75be fbd8 923e 8978 7abe c429 50be
000000c0: 2456 133e 6b14 fbbd 792d 843e 7645 e53d
000000d0: 0bc0 4d3e af48 e43e 7823 cdbe 7182 07be
000000e0: 63ad 01be c29a 67be e18b 14bd 3592 0abd
000000f0: e56a b2be 9d2d 6e3e 60fa 683e 0cdb 65be
