logs/discharge_point/grin/2023-10-15_21-41-34_542104259/epoch=24-step=2175.ckpt (torch, 707635 bytes, 102 tensors)

model.bigrill.emb f4 [8, 20]
0	0x3eee9ebc	0.4660548
1	0xbd447a05	-0.04796793
2	0x3e63016a	0.22168508
3	0xbddbc523	-0.1073096
4	0x3f1155b8	0.5677142
5	0xbcf00d5f	-0.02930325
6	0x3da39ae2	0.07988526
7	0xbf8696eb	-1.0514807
8	0xbeb05f6d	-0.34447804
9	0xbe9ccdf1	-0.3062587
10	0x3e39d0fe	0.1814613
11	0x3e29348d	0.16523953
12	0x3e1a5454	0.15071231
13	0xbeb131c9	-0.34608296
14	0x3f928e48	1.1449671
15	0x3ebc878f	0.36822173
16	0xbd908142	-0.07055904
17	0xbda84fed	-0.0821837
18	0x3ea33227	0.318742
19	0xbe378f16	-0.17925677
20	0xbefd92a1	-0.4952593
21	0xbd2c8656	-0.0421203
22	0x3ea2be32	0.31785733
23	0xbf84ae7d	-1.036575
24	0x3f24d016	0.64380014
25	0x3f204e2a	0.6261927
26	0x3f11e995	0.5699704
27	0xbec935f4	-0.39298975
28	0xbea77cac	-0.32712305
29	0xbe248204	-0.16065222
30	0xbe414285	-0.18873031
31	0xbf6f0ea6	-0.93381727
32	0x3f010ff0	0.50414944
33	0xbe3b0a34	-0.18265611
34	0x3d501e4f	0.050810155
35	0xbddff6f7	-0.10935777
36	0xbe8abaec	-0.27095735
37	0x3f95300a	1.1655285
38	0xbdc25c59	-0.0949027
39	0xbdb19f36	-0.08672945
40	0x3e899317	0.26870033
41	0x3e26c818	0.16287267
42	0x3e6feaac	0.23429364
43	0xbe849c50	-0.25900507
44	0x3f58e4a6	0.8472389
45	0x3f2ccdaa	0.6750132
46	0x3e95c841	0.29254344
47	0x3e9d76f7	0.30754825
48	0xbe8ef8e3	-0.2792426
49	0x3d8fe543	0.0702615
50	0x3d587d43	0.052853834
51	0x3e12cb04	0.14335257
52	0x3e3deeb1	0.18548085
53	0xbec6ada3	-0.3880435
54	0x3f83f354	1.0308633
55	0x3f44fba4	0.76946473
56	0x3c47dc5a	0.012198532
57	0x3e440431	0.19142224
58	0xbf4146cd	-0.7549866
59	0xbec71f29	-0.3889096
60	0xbdce3122	-0.10067965
61	0x3e87125f	0.26381204
62	0xbdfafb5d	-0.12254975
63	0x3c6692cc	0.014073085
64	0x3f18fa92	0.5975734
65	0xbef36339	-0.47536638
66	0xbe5346ca	-0.20632473
67	0xbea9a666	-0.33134764
68	0xbea29898	-0.31757045
69	0xbfaa7e35	-1.3319765
70	0xbea5ff7c	-0.32421482
71	0xbf0f11c5	-0.5588649
72	0xbe59f646	-0.21285352
73	0x3ee3bc00	0.4447937
74	0x3e73c685	0.23806198
75	0x3f77c3c9	0.9678312
76	0x3ce099fb	0.027417174
77	0xbe12126d	-0.14264841
78	0xbf51f26f	-0.8201055
79	0x3e8c47a5	0.2739841
80	0x3daf3796	0.08555524
81	0xbeeac590	-0.45853853
82	0xbe4bab31	-0.19889523
83	0xbe9ea843	-0.30987749
84	0xbe9583c0	-0.2920208
85	0xbf0ea2b0	-0.5571699
86	0xbf06296b	-0.5240695
87	0x3e853c4a	0.2602256
88	0x3e4a2529	0.19740738
89	0x3f5ad93a	0.8548771
90	0x3e6db5b6	0.23213848
91	0x3f0ffa78	0.5624156
92	0xbd8d6e73	-0.06905832
93	0xbde1085d	-0.10987923
94	0xbecc5612	-0.39909416
95	0xbe0e6bea	-0.13908353
96	0x3e91cf77	0.28478596
97	0xbe8551f1	-0.2603908
98	0xbe9597ea	-0.29217464
99	0xbf09f3ac	-0.5388744
100	0xbeff9d0d	-0.49924508
101	0xbefac306	-0.48976916
102	0xbc57a369	-0.013161519
103	0xbf0a2c4d	-0.5397385
104	0x3dffa6dc	0.12482998
105	0x3e57cb3a	0.21073619
106	0x3def0681	0.116711624
107	0xbece46d7	-0.40288422
108	0xbed5eca6	-0.4178211
109	0xbf3028b7	-0.68812126
110	0xbf268838	-0.65051603
111	0xbde60694	-0.112317234
112	0x3edc3b56	0.4301402
113	0xbcc1e0c8	-0.023666754
114	0x3f039129	0.5139337
115	0x3e90174e	0.2814278
116	0xbf42b6f7	-0.7606043
117	0x3f002c2b	0.50067395
118	0xbd83591b	-0.0641348
119	0x3f117fea	0.56835806
120	0x3c8d5fe9	0.017257648
121	0xbdbf11c5	-0.09329561
122	0x3ef7820c	0.48341405
123	0x3e0e8437	0.13917623
124	0x3f4d814d	0.8027542
125	0x3f5cbfa2	0.8622991
126	0x3dac7c54	0.08422151
127	0xbf11f9dc	-0.5702188
128	0xbf002c04	-0.5006716
129	0xbf962efc	-1.1733088
130	0xbc985bc0	-0.018598437
131	0xbf146632	-0.5796844
132	0xbe8213fd	-0.25405875
133	0xbe7c0e28	-0.24614775
134	0x3e854c04	0.26034558
135	0x3f4fb2cd	0.81132203
136	0xbdc706f3	-0.09718122
137	0xbea3f530	-0.32023
138	0x3dfed560	0.12443042
139	0xbdab7b24	-0.083730966
140	0x3e8a737a	0.27041227
141	0xbde87aac	-0.11351523
142	0xbe04adc7	-0.12956916
143	0x3da88275	0.08228008
144	0x3f2f64b8	0.6851306
145	0x3e355ca8	0.17711127
146	0xbf16c3d0	-0.58892536
147	0xbd06ffa5	-0.032958645
148	0x3dcb7bcd	0.099357225
149	0xbe55eb2c	-0.20890492
150	0xbef7bc28	-0.4838574
151	0xbef597af	-0.47967288
152	0xbe0fffe8	-0.14062464
153	0xbe99b021	-0.30017188
154	0x3e9aa972	0.30207402
155	0x3f757155	0.95876056
156	0x3d37079e	0.044685
157	0xbab11ea3	-0.0013513159
158	0xbda44007	-0.08020025
159	0x3f0c3cea	0.5478045

model.bigrill.fwd_rnn.cells.0.forget_gate.mlp.weight f4 [32, 170, 1, 1]
0	0xbd7476de	-0.059683673
1	0x3d708071	0.05871624
2	0xbd89f890	-0.06736863
3	0xbe5564f9	-0.208393
4	0x3d0a6ec2	0.033797033
5	0x3e2a03d8	0.16603029
6	0xbd9bc41e	-0.07605766
7	0x3c195c6a	0.009360412
8	0xbc3f09db	-0.011660065
9	0x3dbc1e59	0.09185476
10	0x3c927093	0.017875945
11	0xbe02eb5d	-0.12785096
12	0xb974693b	-0.00023308855
13	0xbe43dad1	-0.1912644
14	0xbd9b28b9	-0.075761266
15	0x3d61f50d	0.05516534
16	0xbd0469bd	-0.032327402
17	0x3d8124b4	0.06305829
18	0x3d3e4978	0.046456784
19	0xbdd75824	-0.10514858
20	0xbd507716	-0.05089482
21	0xbd164fff	-0.036697384
22	0x3d1ac45d	0.037784923
23	0xbdcfe919	-0.10151882
24	0xbd3834f2	-0.044972368
25	0xbdc29060	-0.095001936
26	0xbe1b9dce	-0.15196916
27	0xbdc35e11	-0.09539426
28	0x3d512311	0.051058833
29	0xbdad3d61	-0.08458973
30	0xbd6ee518	-0.05832395
31	0xbdb823f5	-0.08991233
32	0xbcafcb8b	-0.021459362
33	0xbbd26225	-0.006420391
34	0xbd72201b	-0.05911265
35	0x3e01d6d2	0.12679604
36	0xbd05e37f	-0.03268766
37	0xbcceba9b	-0.025235465
38	0x3ce6bacc	0.028165244
39	0x3d72541f	0.059162255
40	0xbd0c10bb	-0.034195643
41	0x3ba7cdb1	0.005120956
42	0xbdb21e97	-0.08697241
43	0x3d750bf6	0.05982586
44	0xbd022ae1	-0.031779174
45	0xbdc29ca3	-0.09502532
46	0xbcb43c14	-0.022001304
47	0xbc11a3aa	-0.008889118
48	0xbde9a38a	-0.11408146
49	0x3d473650	0.04863578
50	0xbd124246	-0.035707735
51	0x3d6d1877	0.05788466
52	0x3c741553	0.014897662
53	0xbdc80ec6	-0.09768443
54	0xbd9cb829	-0.07652313
55	0xbe0ea75d	-0.13931032
56	0xbc2864b4	-0.010277916
57	0xbd1dc4e3	-0.038517844
58	0xbc19c143	-0.009384456
59	0x3d5070df	0.050888892
60	0xbd9bf2f1	-0.07614697
61	0xbccbb8b4	-0.024868347
62	0x3d742667	0.059606936
63	0x3d16a1f4	0.036775544
64	0xbd71323a	-0.05888579
65	0xbdb8eaa8	-0.09029132
66	0xbdc9ff50	-0.0986315
67	0xbad49555	-0.0016218821
68	0x3d0cf451	0.034412686
69	0x3ec918bc	0.39276683
70	0xb9b29dd7	-0.00034068406
71	0xbdd00c6c	-0.10158619
72	0x3da5b143	0.080904506
73	0x3e03dc26	0.12876949
74	0x3b96516b	0.0045873425
75	0x3db31a41	0.08745242
76	0xbdb18103	-0.08667185
77	0x3dc2ffd8	0.095214546
78	0xbd16976e	-0.03676551
79	0xbe50fe48	-0.204095
80	0xbd3f9ba5	-0.046779294
81	0xbcbfe3b4	-0.023424007
82	0xbd11fad3	-0.035639595
83	0x3d8494a7	0.06473666
84	0xbdb6516d	-0.089022495
85	0x3d5e9f8e	0.054351382
86	0xbd62ee5f	-0.05540311
87	0xbde43097	-0.1114208
88	0xbde77b9d	-0.11302874
89	0xbd71bda5	-0.05901875
90	0x3d90ef6b	0.07076915
91	0xbe37f663	-0.17965083
92	0xbdbe71e5	-0.092990674
93	0xbdea1e5c	-0.11431572
94	0xbc33a54e	-0.010964705
95	0xbd446806	-0.047950767
96	0xbb966086	-0.004589143
97	0x3c90e694	0.017688073
98	0xbda050c7	-0.07827907
99	0x3c97e7fd	0.018543238
100	0xbe52cb04	-0.20585257
101	0x3dcc186c	0.099655956
102	0x3dfb2fd5	0.122649826
103	0xbd9ecf8e	-0.07754432
104	0x3d2b26ff	0.041785236
105	0xbe3702f0	-0.17872214
106	0x3d20c5c1	0.039251093
107	0x3d99f285	0.0751696
108	0xbd3eb149	-0.04655579
109	0x3dace513	0.0844213
110	0xbda2355c	-0.07920334
111	0x3dc99e3c	0.09844634
112	0xbb62131b	-0.003449625
113	0xbca35e4c	-0.019942425
114	0xbd1aadbe	-0.03776335
115	0xbde7b095	-0.11312977
116	0xbb329802	-0.0027251248
117	0x3bd0dcb3	0.0063739656
118	0xbc5fdc66	-0.013663387
119	0xbbe3536c	-0.006937435
120	0x3d0b3203	0.03398324
121	0xbd612b45	-0.054972906
122	0x3c4f448c	0.01265062
123	0xbd6832e7	-0.05668917
124	0x3d3ea1df	0.04654109
125	0xbdf2f7c9	-0.118636675
126	0x3c1c29fb	0.009531493
127	0xbdb38528	-0.08765632
128	0x3c602dfe	0.01368284
129	0xbe0eb4ee	-0.13936207
130	0x3d999b1b	0.07500287
131	0x3d416551	0.047215763
132	0xbd8e2e69	-0.06942446
133	0xbc18fcef	-0.009337648
134	0xbd4f8d80	-0.050672054
135	0xbcb09878	-0.021557078
136	0x3e0f971a	0.14022484
137	0x3d297dff	0.041379925
138	0xbd3fe0c8	-0.046845227
139	0xbdfa48ae	-0.12220894
140	0x3d61afb2	0.055099197
141	0x3d06e51f	0.03293335
142	0x3b8d166b	0.004305651
143	0xbcea76b0	-0.028621048
144	0xbd97ff5a	-0.07421751
145	0x3d56225b	0.052278858
146	0x3c9bd97f	0.019024609
147	0xbd9971be	-0.07492398
148	0x3d80c7be	0.06288098
149	0xbdc62874	-0.096756846
150	0xbd1fa324	-0.038973942
151	0x3dfd16bb	0.12357851
152	0xbda0678d	-0.07832251
153	0xbd2848e5	-0.041085143
154	0xbdcb1010	-0.09915173
155	0x3c8abc13	0.016935384
156	0x3d977fe5	0.07397441
157	0xbd12d2cf	-0.035845574
158	0x3dbf70d8	0.09347695
159	0xbd9acb6f	-0.07558333
160	0xbd9427d4	-0.07234159
161	0xbd28d2a9	-0.041216526
162	0xbe102d37	-0.14079748
163	0x3c3e1072	0.011600601
164	0x3cf5a34e	0.029985096
165	0x3d4b306c	0.049606726
166	0xbde0f2e0	-0.10983825
167	0x3d6199a6	0.05507817
168	0xbcb95f3a	-0.022628415
169	0xbb5a2d12	-0.0033291024
170	0x3df06eae	0.117398605
171	0xbe98dc1f	-0.2985544
172	0x3c37527c	0.011189099
173	0xbd5d30ea	-0.054001726
174	0x3dc75128	0.09732276
175	0x3d91383a	0.070908025
176	0xbe07f150	-0.13275647
177	0x3d2cc494	0.04217966
178	0xbcb4a715	-0.022052327
179	0x3db65402	0.08902742
180	0x3d0c418e	0.034242205
181	0x3c87dac9	0.016583817
182	0xbd3aca28	-0.045602947
183	0xbd7dd0a4	-0.061966553
184	0xbde7a3af	-0.11310517
185	0x3cc90dba	0.024542678
186	0xbd86c404	-0.06580356
187	0x3c31eaa5	0.010859166
188	0x3bcf73c6	0.00633094
189	0xbdb0cafc	-0.08632466
190	0xbcc252f2	-0.023721192
191	0xbd4f70cc	-0.05064468
192	0x3c9c1e49	0.01905741
193	0x3cd51df2	0.026015256
194	0xbd4ddfdb	-0.050262313
195	0x3bc18c2a	0.0059066014
196	0xbdb9166b	-0.09037479
197	0xbda620b6	-0.08111708
198	0x3d902a48	0.070393145
199	0xbce2786c	-0.027645312
200	0x3c257a51	0.010099963
201	0xbdaf83e7	-0.0857008
202	0xbcf31a83	-0.029675728
203	0x3e171219	0.14752997
204	0x3e283417	0.1642612
205	0xbecd2d19	-0.4007347
206	0xbc0f6ee7	-0.0087544685
207	0x3d12e1d9	0.035859916
208	0x3d981d95	0.07427517
209	0x3d1586d2	0.036505528
210	0xbd984d2d	-0.07436595
211	0x3daa11bb	0.08304163
212	0xbd98371f	-0.074323885
213	0x39fe1160	0.000484596
214	0xbd6640f4	-0.056214288
215	0xbcc1eef0	-0.023673505
216	0x3d0e1502	0.034688003
217	0xbd2d43a2	-0.042300828
218	0xbe1a61b5	-0.15076335
219	0x3d970c06	0.0737534
220	0xbd00730c	-0.031359717
221	0x3df13ef7	0.11779588
222	0x3def2229	0.116764374
223	0x3d1d8abf	0.038462397
224	0xbdbf2825	-0.09333829
225	0x3cd7a383	0.026323086
226	0xbd35fb3d	-0.044429053
227	0xbc7b702e	-0.01534657
228	0xbc7181a9	-0.014740386
229	0xbb9a05dd	-0.004700406
230	0x3c8c1cee	0.017103638
231	0xbcfc5869	-0.030803876
232	0x3d170a7a	0.036875226
233	0xbdca03f8	-0.09864038
234	0xbd8a5d20	-0.067560434
235	0xbdaa20d6	-0.08307044
236	0xbd8334b6	-0.06406538
237	0x3e05ac67	0.13054048
238	0x3df6cb05	0.12050442
239	0xbe70c081	-0.23510934
240	0xbdd409b7	-0.103534155
241	0xbd32964e	-0.043600373
242	0x3d00b009	0.03141788
243	0x3cf86cff	0.03032541
244	0xbd9e732a	-0.077368096
245	0x3cf522ca	0.029923815
246	0xbccea59c	-0.025225453
247	0xbcf18a5b	-0.029484918
248	0x3b296387	0.0025846676
249	0xbd924093	-0.07141223
250	0xbd2313be	-0.03981375
251	0xbd0a493f	-0.03376126
252	0xbda95342	-0.08267833
253	0x3d1e5c5c	0.0386623
254	0xbd9287b6	-0.07154791
255	0x3d412a9e	0.047159784

model.bigrill.fwd_rnn.cells.0.forget_gate.mlp.bias f4 [32]
0	0xbca62cd5	-0.02028505
1	0x3d537dad	0.051633526
2	0xbe164b41	-0.14677145
3	0xbdc62043	-0.09674122
4	0x3ddd2196	0.10797422
5	0xbcc2bce8	-0.023771718
6	0xbd5a46ad	-0.053290058
7	0xbded242e	-0.11579166
8	0xbd4d75f4	-0.050161317
9	0xbc8bb77c	-0.017055266
10	0xbd000351	-0.031253163
11	0x3d4c8a7f	0.049936768
12	0x3dec9dc1	0.11553527
13	0xbcfd402e	-0.030914392
14	0xbcd4c856	-0.025974434
15	0x3c4a8239	0.012360149
16	0x3d8f9d3c	0.07012412
17	0x3cea8c4c	0.028631352
18	0xbd7ce168	-0.0617384
19	0xbdf68a66	-0.12038116
20	0xbd55451c	-0.05206786
21	0x3d0b1956	0.03395971
22	0x3d870ccf	0.0659424
23	0xbdeaccac	-0.11464819
24	0x3ce3a805	0.027790079
25	0x3cb04a97	0.021519942
26	0x3d6c0e7d	0.057631005
27	0x3d3d4000	0.046203613
28	0x3bf2a413	0.007404813
29	0xbd3c63b2	-0.045993514
30	0x3dd4cac4	0.10390237
31	0x3de1ee34	0.11031762

model.bigrill.fwd_rnn.cells.0.update_gate.mlp.weight f4 [32, 170, 1, 1]
0	0xbddf4dfe	-0.10903548
1	0xbe17a127	-0.14807568
2	0x3dffc7a6	0.12489252
3	0x3e07ceb4	0.13262445
4	0xbe0f6b12	-0.14005688
5	0xbe14b513	-0.145222
6	0x3dfb872d	0.12281642
7	0x3b1802b3	0.0023194968
8	0x3e19c9da	0.15018407
9	0xbdf845e5	-0.12122706
10	0xbca0b9c2	-0.019619826
11	0x3e41291a	0.18863335
12	0x3e4517f7	0.19247423
13	0x3dff2f18	0.12460154
14	0x3e13cc02	0.14433292
15	0xbced0b03	-0.028935915
16	0x3e5747ff	0.21023558
17	0xbc50d238	-0.012745433
18	0xbdce0ee1	-0.10061432
19	0x3c45eb40	0.012080014
20	0x3d51dd4a	0.05123643
21	0x3de68f8e	0.1125785
22	0xbdb27579	-0.087138124
23	0x3da89bac	0.08232817
24	0xbc3a4fab	-0.011371533
25	0x3d50b17a	0.050950505
26	0x3e1bc6c2	0.15212539
27	0x3d0ae901	0.033913616
28	0xbc89049f	-0.016725836
29	0x3dcfec76	0.10152523
30	0x3de71fc8	0.11285359
31	0x3dab5dad	0.083674766
32	0x3e3c0cf8	0.18364322
33	0xbe3ba0f5	-0.18323119
34	0xbdfd89ee	-0.123798236
35	0x3ca73255	0.020409742
36	0x3de4f1a4	0.11178902
37	0x3de4d638	0.111736715
38	0xbdb3c059	-0.08776922
39	0xbde56792	-0.11201395
40	0x3e0d864f	0.13820766
41	0xbe03adb2	-0.12859228
42	0x3ce3c87c	0.02780556
43	0xbda9fc93	-0.08300128
44	0xbe1bb792	-0.15206745
45	0x3e3f54c0	0.18684673
46	0x3df95a00	0.12175369
47	0xbc0f5c63	-0.008750054
48	0x3e64f6c8	0.22359765
49	0xbd9bf446	-0.07614951
50	0x3e15f747	0.1464511
51	0xbd94eb7a	-0.07271476
52	0x3cce08f7	0.02515076
53	0x3d051d02	0.032498367
54	0x3caf685c	0.021412067
55	0x3dc57af6	0.096425936
56	0xbc7b0daa	-0.015323082
57	0x3e05bd11	0.13060404
58	0xbdcd522b	-0.10025438
59	0xbc03082c	-0.007997554
60	0x3d8b92a3	0.06815078
61	0x3d4ae977	0.049539056
62	0xbc8c4bed	-0.017126048
63	0x3e256935	0.16153415
64	0x3d032502	0.032017715
65	0x3d18c21e	0.0372945
66	0x3e105457	0.14094673
67	0xbdb74036	-0.08947794
68	0xbdea05c7	-0.11426883
69	0xbd7d998e	-0.06191402
70	0x3db9cb36	0.090719625
71	0x3d706586	0.05869057
72	0xbdc4a5df	-0.0960195
73	0xbe0b19c2	-0.13584045
74	0x3ddf231d	0.10895369
75	0xbe243e68	-0.16039431
76	0x3dab509d	0.08364985
77	0xbe1c6bd9	-0.15275516
78	0xbda4870e	-0.08033572
79	0x3d7e1234	0.06202908
80	0x3da3bafa	0.07994647
81	0x3dbb22f9	0.0913753
82	0x3e12ee42	0.143487
83	0xbb789394	-0.003792976
84	0x3d6937cc	0.056937978
85	0xbe0f9d72	-0.14024904
86	0xbcff7fa6	-0.031188797
87	0x3d4048c4	0.046944395
88	0x3e1221a4	0.14270645
89	0x3d5d0569	0.053960238
90	0xbe201244	-0.15631968
91	0x3dbd12ba	0.092320874
92	0x3d2bc5e3	0.041936766
93	0x3dc539e3	0.09630182
94	0x3db89fd2	0.09014858
95	0x3dc03308	0.093847334
96	0x3bcc9b72	0.0062441165
97	0x3e183976	0.1486567
98	0x3e2bf264	0.16791683
99	0x3cc0af5f	0.023521123
100	0x3e54e2f1	0.20789696
101	0xbd9de325	-0.0770934
102	0xbe1cedbd	-0.15325065
103	0xbdd2eb16	-0.10298745
104	0x3d8a5034	0.06753579
105	0x3e34a9c6	0.17642888
106	0xbc4c6fe3	-0.012477848
107	0xbe6495af	-0.22322725
108	0x3e1263a0	0.14295816
109	0xbd091305	-0.033465404
110	0x3d4e96e0	0.050436854
111	0xbe1ad15f	-0.15118931
112	0xbba75e45	-0.0051076734
113	0x3e18272e	0.14858696
114	0x3de2c71f	0.110731356
115	0x3e384eb2	0.1799877
116	0x3dfaac0f	0.12239849
117	0x3dfd464a	0.12366922
118	0x3e62c252	0.2214444
119	0xbd7a4442	-0.061100252
120	0xbd0b4617	-0.03400239
121	0xbaead025	-0.0017914815
122	0x3dffff3c	0.12499854
123	0xbd42bfb9	-0.047546122
124	0xbd7623e0	-0.060092807
125	0x3e258c3c	0.16166776
126	0xbc9d6dcf	-0.0192174
127	0x3d343344	0.043994203
128	0x3db990e7	0.09060841
129	0x3e0389d6	0.12845549
130	0xbe3ef4f2	-0.18648127
131	0x3dab9b2b	0.08379205
132	0x3e14befa	0.14525977
133	0x3ccc09fa	0.024907101
134	0x3e555fd4	0.20837337
135	0xbe1377b2	-0.14401129
136	0xbdbcd553	-0.09220376
137	0xbe05deb6	-0.13073239
138	0x3df9d7a1	0.12199331
139	0x3e2add4e	0.16685984
140	0x3d05c535	0.032658774
141	0xbe1dfdd9	-0.15428866
142	0x3dd7ddf9	0.10540385
143	0xbdba0e06	-0.09084706
144	0x3e4e471d	0.20144315
145	0xbaf18bc4	-0.0018428494
146	0xbe01b2e2	-0.12665895
147	0x3e60db63	0.2195869
148	0x3e5c0ec8	0.21490014
149	0x3db888ea	0.09010489
150	0x3eaa5af6	0.33272523
151	0xbb501229	-0.0031749106
152	0x3df13cdb	0.117791854
153	0xbc9a2eeb	-0.0188212
154	0xbc855b33	-0.016278839
155	0x3e185371	0.1487558
156	0x3e23ba3f	0.15989016
157	0x3ddfb69e	0.10923503
158	0xbd01b251	-0.031664196
159	0x3dcffbb1	0.10155428
160	0x3c31a4fa	0.010842556
161	0x3d561575	0.052266557
162	0x3e074b25	0.13212259
163	0x3e5732fd	0.21015544
164	0xbdef6a1d	-0.116901614
165	0x3e2dddde	0.16979167
166	0x3d99a62a	0.075023964
167	0x3d6676e4	0.056265727
168	0x3a6c1d95	0.00090070936
169	0xbe2abf1f	-0.1667447
170	0x3e1ef3eb	0.15522735
171	0x3ef9080b	0.4863895
172	0x3e23993c	0.15976423
173	0xbd2233c3	-0.039600145
174	0xbe00bef0	-0.12572837
175	0x3bd00f47	0.0063494775
176	0x3d82bd40	0.06383753
177	0xbd912ef9	-0.070890374
178	0x3dbd6ab0	0.09248865
179	0x3bef4b26	0.0073026596
180	0x3cdd2b75	0.026998261
181	0x3dd7b619	0.10532779
182	0x3d387f36	0.045043193
183	0xbd8aad02	-0.0677128
184	0xbdb0d0a5	-0.08633546
185	0xbd9848d7	-0.07435768
186	0x3dd3ba0c	0.1033822
187	0xbd13d57c	-0.036092266
188	0xbe576006	-0.21032724
189	0xbd87ad73	-0.0662488
190	0x3d481f36	0.04885789
191	0xbe3c53c5	-0.1839133
192	0xbddaecdf	-0.10689711
193	0x3cb99cd3	0.022657787
194	0x3d0cea5e	0.034403197
195	0xbd442151	-0.047883336
196	0xbe5c4c77	-0.21513544
197	0xbb437f13	-0.002983038
198	0xbd86e17b	-0.06585976
199	0x3d4d6ab4	0.05015059
200	0xbda9332c	-0.082617134
201	0xbdc41c6b	-0.09575733
202	0x3e1eded6	0.15514693
203	0xbd8ac433	-0.06775703
204	0xbdba114c	-0.0908533
205	0xbdd3ff15	-0.103513874
206	0x3e050e25	0.12993677
207	0x3e04f6d6	0.12984785
208	0x3d3815be	0.04494261
209	0x3b94ec9b	0.004544807
210	0x3cf2eb07	0.029653085
211	0xbdc83291	-0.0977527
212	0x3d390c49	0.04517773
213	0xbe289fa5	-0.1646715
214	0xbd9b3aec	-0.07579598
215	0x3e5bbac6	0.21457967
216	0x3d89b21c	0.06723425
217	0x3c20cdb6	0.00981467
218	0x3e0970fe	0.1342201
219	0xbd89c0b9	-0.06726212
220	0x3df797c0	0.12089491
221	0xbd8e008f	-0.069337
222	0xbd81560b	-0.063152395
223	0xba89efb0	-0.0010523703
224	0x3da861cb	0.082217775
225	0x3c9973f1	0.018732043
226	0xbe60648b	-0.21913354
227	0x3de30b9a	0.11086197
228	0xbd90fa3a	-0.07078977
229	0xbd09d79a	-0.03365288
230	0xbe03b281	-0.12861063
231	0xbb53e14a	-0.0032330328
232	0xbd1a6296	-0.037691675
233	0x3d642b7e	0.05570554
234	0xbd284ca1	-0.041088704
235	0x3e15970f	0.14608406
236	0x3dfb0f85	0.122588195
237	0xbdcc6d53	-0.099817894
238	0xbd920afd	-0.07131002
239	0xbd10facd	-0.035395432
240	0x3d4e0f95	0.05030783
241	0x3dfc7a30	0.12327993
242	0xbcc5d9a0	-0.024151623
243	0xbe0e8598	-0.1391815
244	0x3dde545c	0.10855934
245	0xbde25d7b	-0.11052986
246	0x3dbeba69	0.09312899
247	0xbdb12fb4	-0.08651677
248	0x3c753e04	0.014968399
249	0x3dc6c05f	0.097046606
250	0xbd546f0f	-0.051863726
251	0x3db56c7e	0.08858584
252	0x3dc4e041	0.096130855
253	0xbb4a3efd	-0.0030860298
254	0x3dc234f5	0.09482757
255	0x3cb78c34	0.022405721

model.bigrill.fwd_rnn.cells.0.update_gate.mlp.bias f4 [32]
0	0xbd76a775	-0.060218293
1	0xbe403de3	-0.18773608
2	0x3deb9a55	0.11504046
3	0x3df9828f	0.12183105
4	0xbeb76f1f	-0.35826966
5	0x3db2a46d	0.08722768
6	0x3ddcf47b	0.107888184
7	0xbd211d3f	-0.039334532
8	0xbe19008e	-0.14941618
9	0xbdbe0844	-0.0927892
10	0xbeb9147b	-0.36148438
11	0x3c2d4cf9	0.010577434
12	0xbf0408c8	-0.515759
13	0x3d936f54	0.071989685
14	0xbe0017cb	-0.12509076
15	0x3dcb5c9c	0.09929773
16	0xbdafbf24	-0.08581379
17	0x3d99c4c9	0.07508237
18	0x3e1d2157	0.1534475
19	0x3dd16b8e	0.102255926
20	0xbce077d8	-0.027400896
21	0x3d647112	0.055771895
22	0xbdae4ccd	-0.08510742
23	0xbaf7b24c	-0.0018897741
24	0x3e028f58	0.12749994
25	0xbcddc374	-0.027070738
26	0xbe257128	-0.16156447
27	0xbe621cc5	-0.22081287
28	0xbc93f68a	-0.018061895
29	0xbd84d149	-0.064852305
30	0xbd810114	-0.06299034
31	0xbe812aa9	-0.2522786

model.bigrill.fwd_rnn.cells.0.c_gate.mlp.weight f4 [32, 170, 1, 1]
0	0xbcbd31ea	-0.02309509
1	0xbe2779d6	-0.1635507
2	0xbcf24f5d	-0.029578859
3	0x3c5c52d8	0.013447486
4	0x3d574d03	0.05256368
5	0xbdd9b79e	-0.10630725
6	0xbcd49834	-0.025951482
7	0xbd517dc5	-0.051145334
8	0x3c79cf22	0.015247138
9	0x3d4d9285	0.05018856
10	0x3daf0087	0.085450225
11	0x3d035328	0.032061726
12	0xbdcd06fb	-0.10011097
13	0xbbc6c346	-0.006065759
14	0xbe82e258	-0.25563312
15	0x3dd32049	0.10308892
16	0x3d11dd27	0.035611298
17	0xbd471829	-0.048607025
18	0x3d4af31c	0.049548253
19	0x3d107088	0.03526357
20	0xbd942d46	-0.07235198
21	0x3d8286f2	0.06373395
22	0xbcbcd248	-0.023049489
23	0x3d7e8da5	0.0621468
24	0x3d029dba	0.0318887
25	0xbd8da57a	-0.06916328
26	0x3d440abb	0.047861796
27	0x3d36ece5	0.044659514
28	0x3e093514	0.13399154
29	0x3d854f18	0.065092266
30	0x3d1bb880	0.03801775
31	0xbdff82ae	-0.12476097
32	0xbd2698f0	-0.040673196
33	0x3da12d0a	0.07869919
34	0xbd00c654	-0.03143914
35	0xbdc3d731	-0.09562529
36	0x3d97cbb7	0.074119024
37	0x3da25c4e	0.07927762
38	0xbd872f11	-0.06600774
39	0xbce8d99c	-0.028424077
40	0xbc8c7174	-0.017143942
41	0xbd90c1b7	-0.07068198
42	0x3be81ea5	0.0070837312
43	0xbd967c95	-0.07347981
44	0xbc276ef0	-0.010219321
45	0x3e204e9f	0.15654992
46	0xbd21befd	-0.03948878
47	0x3d72006e	0.05908244
48	0xbde1ef06	-0.11031918
49	0xbd2a160c	-0.04152493
50	0x3c753454	0.014966089
51	0xbdbc0d62	-0.0918224
52	0x3db39660	0.08768916
53	0x3c969666	0.018382262
54	0xbcefb788	-0.02926232
55	0xbc4c2ae1	-0.012461395
56	0xbd98a8e1	-0.07454086
57	0x3ded0fed	0.11575303
58	0xbc288511	-0.010285632
59	0xbc6a88ed	-0.014314872
60	0x3d506106	0.05087378
61	0xbca60890	-0.020267755
62	0x3e6d8e3c	0.2319879
63	0xbca1ce2c	-0.01975163
64	0x3dab2867	0.083573155
65	0xbe032e14	-0.12810546
66	0x3cb383ed	0.021913493
67	0x3e2baeda	0.1676592
68	0xbd758796	-0.059943758
69	0xbdeb55f3	-0.11491003
70	0x3d921c00	0.07134247
71	0x3c069a76	0.008215537
72	0xbd9e5a9f	-0.07732128
73	0x3d5f40c3	0.05450512
74	0xbdad4185	-0.084597625
75	0xbd21211e	-0.039338224
76	0x3d939e9d	0.072079875
77	0xbe100c2f	-0.14067148
78	0xbcdc6878	-0.026905283
79	0x3daef45e	0.08542703
80	0xbdc682d2	-0.09692921
81	0x3da76d2b	0.08175119
82	0xbc3a2d44	-0.011363331
83	0x3d067186	0.032823108
84	0x3d1561f0	0.036470354
85	0x3d2f55a1	0.04280627
86	0x3db9f5ed	0.0908011
87	0x3caba836	0.020954233
88	0xbc255505	-0.010091071
89	0x3ba2b2d9	0.004965168
90	0xbd35d283	-0.044390213
91	0x3ce89ccf	0.028395085
92	0xbd956b2e	-0.072958335
93	0xbbbb362f	-0.0057132463
94	0x3d421177	0.047379937
95	0x3d89a46d	0.06720815
96	0x3e3e00bd	0.18554969
97	0x3c48fb00	0.012266874
98	0x3bf76ff2	0.0075511867
99	0x3d0871bb	0.033311587
100	0x3d842f4d	0.064543344
101	0x3e1a3ff5	0.1506346
102	0xbd8082e3	-0.06274965
103	0xbe1fffd1	-0.1562493
104	0xbd66e518	-0.056370825
105	0xbd8c5755	-0.06852595
106	0xbc5443af	-0.01295559
107	0xbdaec33c	-0.08533332
108	0xbda4ef85	-0.08053497
109	0xbcadf253	-0.021233713
110	0x3d38207c	0.044952855
111	0x3c1c8b26	0.00955466
112	0x3d931958	0.07182568
113	0x3d1ef12d	0.038804222
114	0xbe1485b9	-0.14504136
115	0x3db48a0d	0.088153936
116	0xbe858b1c	-0.26082695
117	0x3d0422f6	0.032259904
118	0x3d5ae2c6	0.053438924
119	0xbb8283ff	-0.0039830203
120	0x3e0a53f3	0.13508587
121	0xbd9ba29a	-0.07599373
122	0x3c88b677	0.016688569
123	0x3d0a62b4	0.033785537
124	0xbc8d96f1	-0.017283889
125	0x3c41c051	0.011825637
126	0x3becf7cc	0.007231688
127	0x3d0a47c0	0.033759832
128	0x3d496983	0.04917289
129	0x3d528274	0.05139394
130	0x3db633b0	0.08896577
131	0x3c9dfc1e	0.019285258
132	0x3da376d1	0.07981647
133	0xbdb8eedf	-0.09029936
134	0xbd96a010	-0.07354748
135	0x3de6e873	0.11274805
136	0xbda7c29a	-0.08191414
137	0xbe13044d	-0.1435711
138	0xbb662e1c	-0.0035122698
139	0xbde5e61a	-0.11225529
140	0x3d10063e	0.035162203
141	0xbd4ed654	-0.050497368
142	0xbd6b2e2a	-0.057417072
143	0xbd2ce70e	-0.04221254
144	0xbcc802f5	-0.024415473
145	0x3d9d044c	0.07666835
146	0xbcd77f18	-0.02630572
147	0x3d7021c6	0.05862596
148	0x3cc45463	0.02396602
149	0x3d27e4d7	0.040989723
150	0xbe7db1f0	-0.24774909
151	0xbdac74ac	-0.08420691
152	0xbda1ca3f	-0.078999035
153	0x3d7d2c7a	0.061809994
154	0x3df17d73	0.11791506
155	0x3c8029ac	0.01564487
156	0xbc21f6d6	-0.00988551
157	0x3dbc4586	0.09192948
158	0x3c774aaf	0.01509349
159	0x3ddc5c4f	0.10759794
160	0xbd4971e0	-0.049180865
161	0xbc14a962	-0.009073587
162	0x3d75453d	0.059880484
163	0xbd81e1a0	-0.06341863
164	0x3e37d87e	0.17953679
165	0xbd2540bb	-0.040344935
166	0x3d88d988	0.06682116
167	0xbc9827ea	-0.01857372
168	0x3d82bbba	0.06383462
169	0x3df93402	0.12168123
170	0x3d966169	0.07342798
171	0x3e092380	0.13392448
172	0xbd964c23	-0.07338741
173	0xbd6eef44	-0.05833365
174	0xbc1813bd	-0.00928205
175	0xbec24257	-0.37941238
176	0xbab8a2d3	-0.0014086611
177	0xbd60f526	-0.05492129
178	0xbc462dbb	-0.012095864
179	0x3d062c50	0.032757103
180	0x3d0bd9e0	0.03414333
181	0x3e5e23bb	0.21693318
182	0xbe2ee1d9	-0.17078342
183	0x3e20cf96	0.15704188
184	0xbe352a68	-0.17691958
185	0x3c5685fb	0.013093467
186	0xbda0d9c5	-0.07854036
187	0x3dada8b3	0.084794424
188	0x3d9283da	0.07154055
189	0x3d139b17	0.036036577
190	0xbdd56078	-0.104187906
191	0x3e4415f8	0.19149005
192	0x3c967e7b	0.018370857
193	0x3da04f12	0.078275815
194	0xbc91cd9a	-0.017798234
195	0xbd28a511	-0.041173045
196	0xbbe32a0b	-0.006932502
197	0xbcd04e59	-0.025427984
198	0x3cc7c5d0	0.024386317
199	0xbca04672	-0.019564841
200	0xbccee468	-0.025255397
201	0xbd18595a	-0.037194587
202	0x3ddb76cf	0.1071602
203	0x3d23f72b	0.04003064
204	0xbaa2b0a1	-0.0012412259
205	0x3ca72bee	0.02040669
206	0xbc86299a	-0.016377259
207	0x3df13f56	0.117796585
208	0x3c11354b	0.008862804
209	0xbb0452c2	-0.002019093
210	0xbe27bf2c	-0.1638152
211	0x3db0407a	0.08606048
212	0xbdb44221	-0.088016756
213	0xbc1406e2	-0.009034844
214	0x3d1b8aaf	0.037974056
215	0x3d788b64	0.06067981
216	0xbd2260a6	-0.039642952
217	0x3e3b26f2	0.18276575
218	0xbe410f52	-0.188535
219	0xbc2718ab	-0.010198752
220	0xbda2b492	-0.07944597
221	0x3d86ad9d	0.06576083
222	0xbd82f7b3	-0.06394901
223	0x3d0267bb	0.031837206
224	0x3d6a8944	0.057259813
225	0xbe0e7aa7	-0.13913976
226	0x3d1f0461	0.038822535
227	0x3e5997ed	0.21249361
228	0xbdccc518	-0.0999853
229	0x3c44de1a	0.012015844
230	0x3c780820	0.015138656
231	0x3cb133ea	0.0216312
232	0x3ca89634	0.020579435
233	0xbe22ecb3	-0.15910606
234	0xbd2e7d9c	-0.04260026
235	0xbd630e7e	-0.055433743
236	0xbe0a93ce	-0.13532946
237	0x3de292b1	0.110631354
238	0xbdb27e90	-0.08715546
239	0xbdc24852	-0.0948645
240	0xbd97af86	-0.07406525
241	0x3dcda7ed	0.10041795
242	0xbd8fc9f0	-0.070209384
243	0xbdbdbfd3	-0.09265103
244	0xbdaee5e6	-0.085399434
245	0x3d9577ff	0.07298278
246	0xbbca770e	-0.006178743
247	0xbd1f1703	-0.038840305
248	0x3c714909	0.014726886
249	0x3e058bf0	0.13041663
250	0xbe925919	-0.285836
251	0x3d4e3718	0.05034551
252	0x3c3c809a	0.01150527
253	0x3da00a65	0.078144826
254	0x3baa90cc	0.0052052494
255	0x3dbc9d7d	0.09209726

model.bigrill.fwd_rnn.cells.0.c_gate.mlp.bias f4 [32]
0	0xbc0f246c	-0.008736711
1	0xbd9b0239	-0.07568783
2	0x3d894c50	0.067040086
3	0xbd87f481	-0.06638432
4	0xbca2af96	-0.019859117
5	0xbc2d0e8f	-0.010562553
6	0x3cac163d	0.021006698
7	0xbd20b2be	-0.03923296
8	0x3d986538	0.07441181
9	0x3d1535be	0.036428206
10	0xbba151b8	-0.0049230717
11	0x3d33f826	0.043937825
12	0x3d1d9a43	0.038477194
13	0x3cabd39a	0.020974923
14	0x3ceb3652	0.028712425
15	0x3cbc5907	0.02299167
16	0x3d8277cb	0.06370505
17	0x3cba26f6	0.022723656
18	0x3bb7e5fa	0.005612132
19	0x3b6bed4b	0.0035999592
20	0x3ca009eb	0.01953598
21	0x3d0e8d3c	0.03480266
22	0xbd89dda3	-0.06731727
23	0xbd1fab15	-0.038981516
24	0x3db79923	0.089647554
25	0x3d496087	0.04916432
26	0x3d7f628c	0.06234984
27	0x3d5c4044	0.053772226
28	0x3ddef4be	0.108865246
29	0xbd869283	-0.06570914
30	0x3c07fa5e	0.008299438
31	0x3c459750	0.0120600015

model.bigrill.fwd_rnn.first_stage.weight f4 [1, 32, 1]
0	0xbf298a69	-0.6622682
1	0xbe9a6efb	-0.30162796
2	0x3f0ef135	0.558368
3	0x3ee9b71c	0.45647514
4	0xbf38af68	-0.7214265
5	0x3f092183	0.5356676
6	0xbf0189f6	-0.50601137
7	0x3f1fb569	0.62386185
8	0x3f274a8f	0.6534814
9	0x3f11bce3	0.56928843
10	0xbf225af9	-0.63420063
11	0xbee4926f	-0.4464297
12	0xbf47ed29	-0.7809625
13	0x3f433069	0.76245743
14	0xbf458905	-0.771622
15	0x3f33165e	0.69956005
16	0x3f39633f	0.7241706
17	0xbf25b8d0	-0.64735126
18	0xbf3e78ad	-0.74402887
19	0xbea0b9a6	-0.3139164
20	0x3f2cdc76	0.67523897
21	0xbe606a15	-0.21915467
22	0xbf3c6190	-0.7358637
23	0xbf3e5a3e	-0.7435645
24	0xbf1bfe2d	-0.60934716
25	0xbf0c3534	-0.5476868
26	0x3f3fba31	0.7489348
27	0xbf3b0b15	-0.73063785
28	0xbf2fa3e3	-0.68609446
29	0xbf2b8629	-0.6700159
30	0x3c950d40	0.018194795
31	0x3f414bfa	0.75506556

model.bigrill.fwd_rnn.spatial_decoder.lin_in.weight f4 [32, 34, 1]
0	0xbd1dbccc	-0.03851013
1	0x3e361262	0.1778045
2	0x3e4a5341	0.19758321
3	0x3e4fdd88	0.20299351
4	0x3b11b947	0.0022235678
5	0xbdac3633	-0.08408775
6	0xbd8c902f	-0.06863438
7	0xbce8c60b	-0.028414747
8	0x3d9c732b	0.07639154
9	0xbd797e78	-0.060911626
10	0xbe52c0c3	-0.20581345
11	0x3e980304	0.296898
12	0xbb533754	-0.0032229023
13	0x3e5805cc	0.21095961
14	0x3e10ef99	0.14153899
15	0x3dcaf977	0.09910863
16	0x3e51836d	0.20460291
17	0x3d876bae	0.06612335
18	0xbddccf87	-0.1078177
19	0x3e280e48	0.16411698
20	0x3dc33d1e	0.095331416
21	0x3b02292e	0.001986097
22	0x3d11e31b	0.035616975
23	0x3e58301e	0.21112105
24	0xbd60061f	-0.054693338
25	0x3d24c3b2	0.040225692
26	0xbdb622ae	-0.088933334
27	0x3da38e69	0.07986147
28	0xbd71deb3	-0.059050273
29	0xbda26066	-0.07928543
30	0x3d121647	0.035665777
31	0x3dd0c09d	0.10192988
32	0xbd71b5e1	-0.059011344
33	0x3d20934a	0.039202966
34	0x3d60dfb3	0.054900836
35	0xbefc93cf	-0.4933152
36	0xbd28452b	-0.04108159
37	0x3bb65f83	0.005565585
38	0xbceb46f4	-0.028720357
39	0x3df83266	0.12118988
40	0x3e25471d	0.16140409
41	0xbe0c0d91	-0.1367705
42	0x3d664a71	0.056223337
43	0xbe2adcd5	-0.16685803
44	0x3bc64026	0.0060501276
45	0x3e204d0c	0.15654391
46	0x3d8e069f	0.069348566
47	0xbd837039	-0.06417889
48	0x3e109226	0.14118251
49	0x3d2e64e1	0.042576674
50	0x3cbabd12	0.022795234
51	0xbd22ae2e	-0.039716892
52	0x3e595574	0.21224004
53	0x3a8ae91c	0.0010598036
54	0xbde56582	-0.11201002
55	0xbb1c8875	-0.0023885046
56	0x3e00936a	0.12556234
57	0xbd99fc98	-0.075188816
58	0x3e2c74a2	0.16841367
59	0x3db18174	0.08667269
60	0xbdb1c189	-0.08679492
61	0xbd984b7a	-0.07436271
62	0xbe17b6a2	-0.14815763
63	0xbd5985cf	-0.053106125
64	0xbde29cf4	-0.11065093
65	0x3de28efa	0.11062427
66	0x3d24ccc1	0.04023433
67	0x3d4b475a	0.049628593
68	0xbdb25757	-0.08708065
69	0xbe8d44bb	-0.275915
70	0x3e0b4016	0.13598666
71	0xbe08de78	-0.13366115
72	0xbc2fef25	-0.010738169
73	0x3d20cd19	0.039258096
74	0xbe2950f7	-0.16534792
75	0x3de2d6c3	0.11076119
76	0xbdb6d3c1	-0.089271076
77	0xbd98ba88	-0.07457453
78	0x3e4c6698	0.19961011
79	0xbd9f9bd5	-0.077933945
80	0xbdf42a30	-0.11922109
81	0xbe4730fe	-0.19452283
82	0xbd5acee5	-0.053419966
83	0xbc83cb38	-0.016088113
84	0xbe1987ce	-0.14993212
85	0x3e39f837	0.18161093
86	0x3e011772	0.126066
87	0xbd919e1d	-0.07110236
88	0xbc43b094	-0.011943955
89	0x3c99e647	0.018786563
90	0x3d1e184f	0.0385974
91	0xbe058376	-0.1303843
92	0xbb249f28	-0.0025119279
93	0x3dd5eee4	0.104459554
94	0xbded3294	-0.11581913
95	0x3dc5c0a4	0.09655884
96	0x3c185d68	0.009299614
97	0x3dcc8435	0.09986154
98	0xbe0a3ebf	-0.13500498
99	0xbdd9e69e	-0.1063969
100	0xbdbbd7a7	-0.09171992
101	0xbdda89ef	-0.1067084
102	0x3d92f5b8	0.071757734
103	0x3e584282	0.2111912
104	0x3e2d43fc	0.16920465
105	0x3e82b74a	0.25530463
106	0xbe15356f	-0.14571165
107	0xbc602bc4	-0.01368231
108	0x3ca25990	0.019818097
109	0x3dbc53b5	0.09195653
110	0xbdcf8f0b	-0.10134705
111	0xbd4d799f	-0.050164815
112	0xbe52da3a	-0.2059106
113	0x3ea8b561	0.3295088
114	0x3d784fa8	0.06062284
115	0x3e28cc4c	0.16484183
116	0x3da3ce57	0.079983406
117	0xbd61addd	-0.05509745
118	0xbd4093c4	-0.04701592
119	0x3da80991	0.0820495
120	0x3dfeed35	0.124475874
121	0x3e10d1ff	0.14142607
122	0xbdd20d39	-0.10256428
123	0xbe17d10c	-0.14825839
124	0xbe4d229f	-0.20032738
125	0x3eb8604f	0.36010978
126	0x3cdff0a3	0.027336424
127	0xbb69045f	-0.0035555584
128	0x3e086251	0.13318755
129	0xbe0f4e46	-0.13994703
130	0xbdaee4d7	-0.085397415
131	0xbe3734bf	-0.17891215
132	0x3e33c568	0.17555773
133	0xbdb92a4f	-0.09041273
134	0xbd266009	-0.04061893
135	0x3e018bfe	0.12651059
136	0xbdad3051	-0.08456481
137	0xbdb2359f	-0.08701634
138	0x3e2eb1f4	0.17060071
139	0x3e3b7714	0.18307143
140	0xbe4bcd74	-0.19902593
141	0x3bbfbb00	0.0058511496
142	0x3dcf37de	0.10118078
143	0x3d821dc4	0.063533336
144	0x3e450e88	0.19243824
145	0xbe0250ed	-0.12726183
146	0xbe1733ce	-0.14765856
147	0x3e58944d	0.21150322
148	0xbd298a05	-0.04139139
149	0x3e3520ef	0.17688344
150	0x3e382019	0.17980994
151	0xbe27146b	-0.16316383
152	0xbdbdae33	-0.092617415
153	0xbe3f344e	-0.18672296
154	0xbe0fe07b	-0.14050476
155	0x3dc0af49	0.09408433
156	0x3e2120d3	0.15735178
157	0x3dd017cc	0.10160789
158	0x3d090d3a	0.03345988
159	0x3e6f1508	0.23347867
160	0x3e4d258b	0.20033853
161	0xbce2a038	-0.027664289
162	0xbd47bb89	-0.04876283
163	0x3e04b891	0.12961031
164	0xbdec4bdc	-0.115379065
165	0xbd4d56cd	-0.050131608
166	0xbe091463	-0.13386683
167	0x3e4b1a2b	0.19834201
168	0x3df78db1	0.12087572
169	0x3e25e424	0.1620031
170	0xbd34fdb0	-0.044187248
171	0xbe255859	-0.16146983
172	0xbde0d732	-0.10978545
173	0xbd878345	-0.066168346
174	0xbd7086b5	-0.058722217
175	0x3d2186fb	0.039435368
176	0x3de36a2f	0.11104237
177	0xbdc9a916	-0.09846704
178	0x3d80634f	0.062689416
179	0xbdbbca48	-0.091694415
180	0xbe6e6c18	-0.23283422
181	0xbcf2bf2d	-0.029632175
182	0x3e1fb7ef	0.15597509
183	0x3e6594c7	0.22420035
184	0xbcc8894f	-0.024479536
185	0xbdf74c95	-0.12075154
186	0xbd571241	-0.052507643
187	0x3dc17738	0.09446567
188	0xbdcbf074	-0.09957972
189	0xbd548213	-0.05188186
190	0x3da4b7ea	0.08042891
191	0x3d52978b	0.051414054
192	0x3d40a75c	0.047034606
193	0x3e3fc27a	0.1872653
194	0x3d1e7f28	0.038695484
195	0xbc64835b	-0.013947333
196	0xbdf2fbad	-0.118644096
197	0x3d92ae2f	0.07162129
198	0xbe1f510a	-0.15558258
199	0xbd12b95b	-0.0358213
200	0xbdc9be1f	-0.09850716
201	0x3e4e8959	0.20169581
202	0xbd66d76c	-0.056357786
203	0xbd414fa9	-0.04719511
204	0xbdc8dfa3	-0.0980828
205	0xbe342bb5	-0.17594798
206	0xbd3e4b5d	-0.04645859
207	0x3e8141c9	0.25245503
208	0xbda0a0ec	-0.078431934
209	0x3d9bda4e	0.07609998
210	0x3e3a2c77	0.18181024
211	0x3dc90893	0.098160885
212	0x3d6897b1	0.05678529
213	0xbde7bee7	-0.113157086
214	0xbe2a9388	-0.16657841
215	0x3b9ed85f	0.004847571
216	0x3d288b34	0.04114838
217	0x3cb67c49	0.02227606
218	0xbd9a6514	-0.0753881
219	0xbe3a2bcc	-0.1818077
220	0xbd6535a4	-0.05595936
221	0xbdd9900f	-0.1062318
222	0x3ceec2dc	0.02914565
223	0x3b14c58b	0.0022700753
224	0x3be54c85	0.006997647
225	0xbdad8673	-0.0847291
226	0xbcdb4a23	-0.02676875
227	0x3e6bad54	0.23015338
228	0x3d6ba6b0	0.057532012
229	0x3abdb6c8	0.0014474029
230	0xbbbc3f34	-0.005744839
231	0xbd6548a0	-0.055977464
232	0xbdcb798d	-0.09935293
233	0xbe0d24ab	-0.13783519
234	0x3caa8f47	0.020820273
235	0xbded87b6	-0.115981504
236	0x3e029b71	0.12754609
237	0xbd6fb969	-0.05852643
238	0x3d2098bb	0.039208155
239	0xba3d3dc6	-0.0007218983
240	0xbd1cb2af	-0.038256343
241	0xbd8ce7db	-0.068801604
242	0xbc8ea85f	-0.01741427
243	0x3e400607	0.18752299
244	0xbd7a0601	-0.061040882
245	0x3df95869	0.12175066
246	0xbe2a5b64	-0.16636425
247	0xbe1062a2	-0.14100125
248	0xbd6f2c01	-0.058391575
249	0xbe927e48	-0.2861197
250	0x3e04a451	0.12953307
251	0xbe65d5da	-0.22444859
252	0xbddf8642	-0.109142795
253	0xbdfca965	-0.12336997
254	0xbcf32291	-0.029679568
255	0xbdcb6490	-0.0993129

model.bigrill.fwd_rnn.spatial_decoder.lin_in.bias f4 [32]
0	0x3dad4b0c	0.0846158
1	0xbe0cc8b1	-0.13748433
2	0x3dd49d42	0.10381557
3	0xbd282097	-0.041046705
4	0xba4e3e7b	-0.00078675867
5	0xbe4b15ae	-0.19832489
6	0xbe3765d7	-0.17909943
7	0x3e2d902d	0.1694953
8	0x3e080d58	0.1328634
9	0xbda8164f	-0.0820738
10	0xbd21381b	-0.039360147
11	0xbc8fb192	-0.017540727
12	0xbdcf749d	-0.10129664
13	0x3c8e00cc	0.017334364
14	0xbcc798e2	-0.024364892
15	0xbd7a19d9	-0.061059806
16	0x3d2c2e79	0.042036507
17	0x3c1dbec4	0.009628002
18	0xbdfed445	-0.12442831
19	0x3d347297	0.044054594
20	0x3d38dd06	0.04513266
21	0xbd1bcd2e	-0.03803747
22	0x3d144927	0.036202576
23	0x3d1574aa	0.036488213
24	0x3cc781eb	0.024353942
25	0x3de84a86	0.11342339
26	0xbe3cceb0	-0.1843822
27	0xbe3882f7	-0.18018709
28	0x3db743ff	0.08948516
29	0xbd8750a2	-0.06607176
30	0x3df4d2bb	0.11954256
31	0xbdf2ec2a	-0.11861451

model.bigrill.fwd_rnn.spatial_decoder.graph_conv.mlp.weight f4 [32, 64, 1, 1]
0	0x3ce82222	0.028336588
1	0xbe0f4192	-0.13989857
2	0xbcce3ad5	-0.025174538
3	0x3db8eb1d	0.09029219
4	0xbdcb76e3	-0.09934785
5	0xbe20249f	-0.1563897
6	0x3d3690de	0.04457175
7	0xbe06410a	-0.13110748
8	0xbdaf86b0	-0.085706115
9	0xbd71e5cf	-0.059057053
10	0xbe090441	-0.13380529
11	0xbc5e8cc8	-0.01358337
12	0x3bf5a878	0.0074968897
13	0xbe3c32d7	-0.18378769
14	0x3a1e127f	0.0006029978
15	0xbc4935d6	-0.012280902
16	0xbd8506fe	-0.06495474
17	0xbdaad9c6	-0.08342318
18	0xbde13765	-0.10996894
19	0x3dca256e	0.098704204
20	0xbd594421	-0.05304349
21	0x3d16ab42	0.036784418
22	0xbdcb3473	-0.09922113
23	0x3d64806a	0.055786528
24	0xbd9b9fa4	-0.075988084
25	0x3d4d21e5	0.050081152
26	0xbdb7c97e	-0.089739785
27	0xbe406b78	-0.18790996
28	0xbda940f1	-0.0826434
29	0xbd09cff6	-0.033645593
30	0x3e19685e	0.14981219
31	0xbd9a11a9	-0.075229
32	0x3ceb5643	0.028727656
33	0x3b7a8be2	0.003823035
34	0x3dd1a81b	0.10237142
35	0x3d7ec445	0.062198896
36	0xbda3e5cd	-0.080028154
37	0x3bb6e200	0.0055811405
38	0xbd31026b	-0.043215197
39	0xbbf278b6	-0.007399644
40	0x3e432345	0.19056423
41	0xbdd38604	-0.10328296
42	0xbe2317e6	-0.15927085
43	0xbdc463c4	-0.09589341
44	0xbdf064e2	-0.11737992
45	0x3dc99bd9	0.09844179
46	0x3d660115	0.056153376
47	0x3d24ee93	0.040266585
48	0x3c6db7d6	0.014509162
49	0xbd0aa9da	-0.03385339
50	0xbdb64fc5	-0.089019336
51	0x3dcb28cc	0.09919891
52	0x3dea3bbb	0.11437174
53	0x3c9e1958	0.019299194
54	0x3cacb2f3	0.021081423
55	0xbd9ced26	-0.0766242
56	0x3e0bc3a7	0.13648854
57	0x3dacb5e9	0.08433134
58	0x3c70f249	0.014706203
59	0x3d65263a	0.05594466
60	0x3e1485a9	0.14504112
61	0xbdb50b9c	-0.08840105
62	0x3c8a277c	0.01686453
63	0xbdb90439	-0.090340085
64	0xbcf21fa1	-0.029556097
65	0xbda1c1f7	-0.07898324
66	0x3dd456fd	0.10368154
67	0xbc9755c0	-0.018473506
68	0xbcb771fe	-0.022393223
69	0x3b9e9ea6	0.0048406897
70	0x3d8da786	0.06916718
71	0xbb11a6bf	-0.0022224633
72	0x3d7601e8	0.06006041
73	0xbd3a25b6	-0.04544612
74	0xbe0681db	-0.13135473
75	0x3df9cf92	0.12197794
76	0xbcb34f54	-0.021888413
77	0xbe203003	-0.15643315
78	0x3d759291	0.05995423
79	0x3c9c6d8b	0.019095203
80	0xbdaaa1ab	-0.08331617
81	0x3dc8e957	0.09810131
82	0xbda5b81e	-0.08091758
83	0x3db65c45	0.08904318
84	0x3dab9ea1	0.083798654
85	0x3bb91b23	0.005648987
86	0xbdf60133	-0.120119475
87	0x3da986ff	0.082777016
88	0x3d7666d9	0.060156677
89	0xbcf6f167	-0.030144406
90	0xbdd96c58	-0.10616368
91	0xbe04a1f1	-0.129524
92	0x3dc230be	0.09481953
93	0xbca0ecac	-0.019644104
94	0xbb4afa2d	-0.003097187
95	0x3d007b98	0.03136787
96	0x3dde82ab	0.10864767
97	0x3dca44ec	0.09876427
98	0xbd1c1090	-0.038101733
99	0x3de3de06	0.11126332
100	0xbd72e895	-0.05930384
101	0xbdbd4c8e	-0.09243117
102	0xbb2cf021	-0.0026388245
103	0xbc93dde7	-0.018050147
104	0xbd08fb57	-0.03344282
105	0xbb45d73f	-0.003018811
106	0xbdcbd345	-0.09952406
107	0x3dd75357	0.10513943
108	0x3db0eb39	0.08638615
109	0x3e1a81f1	0.15088631
110	0xbc6d9647	-0.014501161
111	0x3d85cb39	0.06532902
112	0xbe352161	-0.17688514
113	0x3dbc9c12	0.092094555
114	0x3d143194	0.036180094
115	0xbd0c66ac	-0.034277603
116	0xbda240c3	-0.079225086
117	0x3d36dce4	0.04464425
118	0x3c623ab8	0.013807945
119	0x3d167002	0.036727913
120	0xbd38c2dc	-0.045107707
121	0x3d2a3e27	0.04156318
122	0x3db9a11c	0.09063932
123	0x3bbc8bf7	0.00575399
124	0xbd9d5a90	-0.07683289
125	0x3d66a151	0.056306187
126	0xbdcf802d	-0.101318695
127	0xbd73f274	-0.059557393
128	0x3d074c44	0.033031717
129	0x3d692c6c	0.05692713
130	0xbc66272f	-0.014047428
131	0xbe03c484	-0.12867934
132	0xbd86a4e0	-0.06574416
133	0xbe0fa9fd	-0.14029689
134	0xbdf6cc3e	-0.12050675
135	0x3e1196c6	0.14217672
136	0x3a1e3694	0.00060353545
137	0x3dc6231a	0.09674664
138	0x3dd69a2b	0.10478624
139	0xbcf3afc9	-0.029746907
140	0x3e0bf9b4	0.13669473
141	0xbe145f49	-0.14489473
142	0x3df26b15	0.118368305
143	0x3dc9773f	0.098371975
144	0x3db47f73	0.088133715
145	0xbc958c05	-0.018255243
146	0xbdb030e6	-0.08603077
147	0xbd04e218	-0.032442182
148	0x3d1018f9	0.035180066
149	0x3bb77a57	0.005599301
150	0xbdf847eb	-0.12123092
151	0xbcf7fc39	-0.030271636
152	0xbe01144c	-0.12605399
153	0x3dd88c3b	0.10573622
154	0xbdc272f0	-0.09494579
155	0xbc8f91af	-0.017525522
156	0x3e1aa46c	0.15101784
157	0xbc9453bc	-0.018106334
158	0xbdea78c8	-0.114488184
159	0x3cbd69f0	0.023121804
160	0xbdd6f266	-0.104954526
161	0x3d9bc3d6	0.07605712
162	0xbd8fa40f	-0.070137136
163	0xbda6470f	-0.08119022
164	0x3daec6bd	0.08534
165	0xbda7fe0e	-0.08202754
166	0x3da54c92	0.08071245
167	0x3db8101e	0.08987449
168	0x3ddc4a4b	0.10756358
169	0xbd3b17bc	-0.04567693
170	0x3dcd5d18	0.10027522
171	0x3d8f3ddf	0.06994223
172	0x3db9a083	0.09063818
173	0xbd124022	-0.035705693
174	0xbc8f337f	-0.01748061
175	0x3db598e1	0.0886705
176	0xbd4873ec	-0.048938677
177	0xbd27b5a8	-0.040944725
178	0x3da8f346	0.08249526
179	0x3da857bf	0.08219861
180	0xbdbb95b1	-0.09159411
181	0xbd9cc142	-0.076540485
182	0x3e0f9366	0.14021072
183	0x3df99cce	0.12188111
184	0x3c32dce4	0.010916922
185	0xbd193be5	-0.037410636
186	0xbd1397d6	-0.036033474
187	0x3dae0a9b	0.084981166
188	0xbbe82aa6	-0.007085162
189	0xbd9375e7	-0.072002225
190	0xbe11fc39	-0.14256372
191	0xbe702a93	-0.23453741
192	0x3e21fedb	0.15819876
193	0xbd468a2e	-0.048471622
194	0xbdfa1324	-0.12210682
195	0x3c16cee3	0.009204599
196	0x3dcf014a	0.10107668
197	0xbdbcfbf1	-0.092277415
198	0xbdbe20e5	-0.09283618
199	0x3da6dcb9	0.08147568
200	0x3d8805ca	0.06641729
201	0xbd13a07f	-0.036041733
202	0xbdf64937	-0.120256834
203	0x3d9c02a0	0.07617688
204	0x3d896be8	0.067100346
205	0x3cd4d74e	0.025981572
206	0x3dc8cb09	0.09804351
207	0xbdb5dd51	-0.088801034
208	0xbddfe326	-0.10931997
209	0x3db1e974	0.08687106
210	0x3def8fd8	0.11697358
211	0xbc6737db	-0.014112438
212	0x3e00b885	0.12570389
213	0xbbe2c78e	-0.0069207614
214	0x3da9051b	0.08252927
215	0x3d837d28	0.06420356
216	0x3e016912	0.12637737
217	0xbdaae0fa	-0.08343692
218	0x3d0040ca	0.031311788
219	0x3de79c66	0.113091275
220	0xbe1134ea	-0.14180341
221	0x3e057060	0.13031149
222	0x3da81e4e	0.08208905
223	0xbd23165c	-0.039816245
224	0x3d426d7b	0.04746769
225	0xbabafc0f	-0.0014265793
226	0xbdf0549c	-0.11734888
227	0xbcb0c98d	-0.021580482
228	0x3e093d7c	0.1340236
229	0x3de821fb	0.11334606
230	0x3dd3d413	0.10343184
231	0xbdca2300	-0.09869957
232	0xbdf79460	-0.12088847
233	0xbc032ade	-0.008005826
234	0x3d117faf	0.03552216
235	0xbdda91d1	-0.106723435
236	0xbd505f16	-0.05087193
237	0xbd0d2f0e	-0.034468703
238	0xbd8bd0d7	-0.068269424
239	0xbdcc21b2	-0.09967364
240	0x3d309b83	0.043117058
241	0x3dafd8b8	0.08586258
242	0xbd56bf1c	-0.05242835
243	0xbdf71f85	-0.12066559
244	0x3d77ecc6	0.06052854
245	0x3c9ac82a	0.018894274
246	0xbd4669e7	-0.04844084
247	0x3d6a5526	0.05721011
248	0x3b6d8713	0.003624384
249	0x3db43c25	0.08800534
250	0x3db0da29	0.08635361
251	0xbddb34ce	-0.10703431
252	0x3c569c37	0.013098768
253	0x3e1ff3d7	0.15620361
254	0x3cb45d3d	0.022017116
255	0x3be5a835	0.007008577

model.bigrill.fwd_rnn.spatial_decoder.graph_conv.mlp.bias f4 [32]
0	0xbd45ff37	-0.048339095
1	0xbc68d2cc	-0.014210414
2	0xbd6c1872	-0.0576405
3	0x3d617374	0.055041745
4	0x3dbc7d93	0.09203639
5	0xbdcf6c27	-0.1012805
6	0xbcea08b5	-0.028568605
7	0xbd957936	-0.0729851
8	0xbe0dd47c	-0.13850588
9	0x3e5e0802	0.21682742
10	0xbe45759b	-0.19283144
11	0xbd3d0441	-0.046146635
12	0x3da5bb03	0.0809231
13	0x3d4f9c99	0.050686453
14	0x3d8bfdc2	0.0683551
15	0xbce02a6d	-0.02736398
16	0xbe27d425	-0.1638952
17	0xbda53bb1	-0.08068026
18	0xbd1fb699	-0.038992498
19	0xbd3d8818	-0.046272367
20	0xbe0a0b4e	-0.13480875
21	0x3e1e88fc	0.15481943
22	0x3ce9d2ec	0.028542958
23	0x3d36bfbf	0.044616457
24	0x3e205fcc	0.15661544
25	0x3e07baf7	0.13254915
26	0xbc8b739f	-0.017022906
27	0x3d438b90	0.04774052
28	0xbca38197	-0.019959254
29	0xbdcd6c56	-0.10030429
30	0x3d46d90e	0.048546843
31	0xbddc5411	-0.10758222

model.bigrill.fwd_rnn.spatial_decoder.lin_out.weight f4 [32, 64, 1]
0	0xbdb55c94	-0.088555485
1	0x3d8b32a2	0.06796767
2	0xbda12231	-0.078678496
3	0xbae84bde	-0.0017722805
4	0x3c93257f	0.017962215
5	0xbe08ee40	-0.13372135
6	0xbd899507	-0.06717878
7	0x3bb7e105	0.005611541
8	0xbd95c615	-0.07313172
9	0xbd8facb4	-0.070153624
10	0x3e4396a6	0.19100437
11	0x3dc7dd37	0.0975899
12	0x3db0bcf9	0.08629794
13	0x3ccc626b	0.024949273
14	0x3c3a0448	0.01135356
15	0xbd7735bd	-0.060353983
16	0x3ddfddb6	0.1093096
17	0xbdbf50d6	-0.0934159
18	0xbc3efdc9	-0.011657187
19	0x3dd3cc39	0.10341687
20	0x3dccfd84	0.10009292
21	0x3d1643e5	0.036685843
22	0xbd2f843b	-0.042850714
23	0xbe2c8620	-0.1684804
24	0xbdac1836	-0.08403055
25	0xbc031a8c	-0.008001935
26	0xbca40bba	-0.020025123
27	0x3d1c4c9e	0.038159005
28	0x3e1d96f9	0.15389623
29	0x3c9175d0	0.017756373
30	0x3ba50c92	0.005036899
31	0x3df11a0f	0.117725484
32	0xbbbaa15e	-0.005695506
33	0x3d73465f	0.059393283
34	0xbe3a63b5	-0.18202098
35	0x3debcd69	0.11513788
36	0x3dde96d4	0.10868612
37	0xbdb0e9b8	-0.08638328
38	0x3d840618	0.06446475
39	0x3db85168	0.08999902
40	0xbd106aaf	-0.03525799
41	0xbe3e73c5	-0.1859885
42	0x3d4587fd	0.04822539
43	0x3d6f836a	0.058474936
44	0xbd8918f3	-0.06694212
45	0xbd8cd681	-0.06876851
46	0x3daa1ede	0.08306669
47	0xbd52baad	-0.05144756
48	0x3ceebb9e	0.029142197
49	0x3d93c70d	0.072157
50	0x3d8547b1	0.06507815
51	0x3da7d9f6	0.081958696
52	0xbd3fdf1b	-0.04684363
53	0xbd69538d	-0.056964446
54	0x3c8d5209	0.017251031
55	0x3d032b9b	0.032024007
56	0xbd8ec841	-0.06971789
57	0xbc51f2e4	-0.012814257
58	0xbe0eaf09	-0.13933958
59	0xbc87e0ee	-0.016586747
60	0xbdfafd80	-0.122553825
61	0x3d905067	0.070465855
62	0xbd0b274a	-0.033973016
63	0x3d802dc2	0.062587276
64	0xbe2473bd	-0.16059776
65	0xbdbd4600	-0.09241867
66	0x3d6a0e98	0.057142824
67	0x3de39d9e	0.111140475
68	0xbe213aa3	-0.15745024
69	0x3d2252e7	0.039629843
70	0xbe082bb0	-0.13297915
71	0xbccd2eb2	-0.02504668
72	0xbdd65a0d	-0.104663946
73	0x3cad0b51	0.02112356
74	0x3e2f5eb9	0.17125978
75	0x3da254ca	0.079263285
76	0xbd95dd95	-0.07317654
77	0xbcfc2171	-0.030777665
78	0x3d16e9fb	0.036844235
79	0x3e2c220e	0.16809866
80	0x3e27a171	0.16370179
81	0x3d02a433	0.031894874
82	0x3da35d03	0.07976725
83	0x3da738ed	0.081651546
84	0x3db95568	0.09049493
85	0x3d01561f	0.031576272
86	0xbd6a7031	-0.0572359
87	0xbd83b152	-0.064303055
88	0xbbebff12	-0.0072020376
89	0xbddffb4e	-0.109366044
90	0x3e12f0f4	0.14349729
91	0xbda1844b	-0.07886561
92	0x3e00dc7e	0.12584111
93	0x3db10d8a	0.086451605
94	0x3c8e793a	0.01739179
95	0xbcf6d695	-0.030131618
96	0xbd2f09a8	-0.04273382
97	0x3e698d3c	0.22807783
98	0xbe315ab6	-0.1731976
99	0xbe8d5322	-0.27602488
100	0x3ced42ed	0.028962577
101	0xbe09f02f	-0.13470529
102	0x3e211341	0.15730001
103	0xbd85a19a	-0.06524964
104	0xbe4d0aa3	-0.20023589
105	0x3e4da079	0.20080747
106	0x3dcf0b4f	0.10109579
107	0x3db0d7f5	0.086349405
108	0xbca94e92	-0.020667348
109	0xbde6685d	-0.112503745
110	0x3e24ef4c	0.1610691
111	0xbe0a7a32	-0.13523176
112	0x3c2241a8	0.009903349
113	0x3d2e95ac	0.042623207
114	0xbbda601e	-0.00666429
115	0x3e59c30f	0.21265815
116	0xbb810e5d	-0.00393848
117	0x3ceb7d58	0.028746292
118	0x3e0fbdae	0.14037201
119	0x3da42826	0.0801547
120	0x3cb17f05	0.021667013
121	0x3e0fb6d0	0.14034581
122	0xbc668de5	-0.014071916
123	0x3db04d9e	0.08608554
124	0x3e0102f0	0.12598777
125	0x3e0e9c32	0.13926771
126	0x3e827bb6	0.2548501
127	0x3d6f80ec	0.05847256
128	0xbe05da12	-0.13071468
129	0xbdaada87	-0.08342462
130	0xbcda77fb	-0.02666854
131	0xbdb60a27	-0.08888655
132	0xbcfc7e0f	-0.030821828
133	0x3d92c59f	0.071665995
134	0xbdd8a3b7	-0.10578101
135	0x3dca5bb9	0.09880776
136	0x3d2a4454	0.04156907
137	0x3d50cfc5	0.050979394
138	0xbd7a11e0	-0.061052203
139	0xbdd0f49f	-0.10202908
140	0xbcbba3f8	-0.022905335
141	0xbe0232c0	-0.12714672
142	0xbd55d79e	-0.05220758
143	0xbd10372d	-0.03520887
144	0x3d1e75e3	0.038686644
145	0x3df78ecf	0.120877855
146	0x3d4cf35a	0.050036766
147	0x3e07f9f8	0.1327895
148	0x3d9246a1	0.07142378
149	0x3e05f10e	0.13080236
150	0x3cdec97b	0.027195683
151	0xbd91fea3	-0.07128646
152	0x39c406e1	0.00037389158
153	0x3df9132e	0.12161861
154	0xbddf7d35	-0.10912553
155	0x3d9affe9	0.07568342
156	0x3d5f58f9	0.05452821
157	0x3dd1cc5f	0.10244059
158	0xbd1e8b5d	-0.038707126
159	0xbd930299	-0.0717823
160	0x3db0841b	0.08618947
161	0xbd2d2802	-0.042274483
162	0x3db1e7b7	0.08686774
163	0x3eb1bf17	0.34716102
164	0xbd8d1bbe	-0.06890057
165	0xbda4211e	-0.08014129
166	0x3da0dc5c	0.0785453
167	0xbdad06f5	-0.084485926
168	0x3ca25d8f	0.019820003
169	0xbe3d1466	-0.18464813
170	0x3c48d6db	0.012258257
171	0xbe466dbc	-0.19377798
172	0xbde74bfd	-0.112937905
173	0xbaa501a6	-0.0012588992
174	0x3daea63f	0.08527803
175	0xbdbe1a88	-0.09282404
176	0xbe17a7e0	-0.14810133
177	0x391f68c1	0.00015202446
178	0xbe005bcb	-0.12535016
179	0xbe712cc0	-0.23552227
180	0xbc10e3c8	-0.00884337
181	0xbe9a87f0	-0.30181837
182	0x3c704916	0.014665863
183	0xbd51070b	-0.051032107
184	0xbe1845a2	-0.14870313
185	0x3d1f6c41	0.0389216
186	0x3d4a3e9d	0.04937612
187	0xbdd04b44	-0.10170606
188	0x3c4a706d	0.012355906
189	0x3d52ae66	0.05143585
190	0xbec93088	-0.3929484
191	0xbd98cc4f	-0.07460844
192	0x3ceddb9d	0.029035384
193	0xbdf6a365	-0.12042884
194	0xbdd5a93f	-0.10432672
195	0x3dc6129a	0.09671517
196	0xbc97a18d	-0.01850965
197	0xbde79cb4	-0.113091856
198	0xbe33368f	-0.17501281
199	0xbdc3f7fc	-0.09568784
200	0xbd8671a2	-0.065646425
201	0x3d5cdd48	0.053921968
202	0xbcb931a0	-0.02260667
203	0x3dd962af	0.106145255
204	0xbd92b0b3	-0.07162609
205	0x3dd6514a	0.104647234
206	0x3e52fcb6	0.20604214
207	0x3d9c424c	0.076298326
208	0xbc94e3cb	-0.018175026
209	0x3c75e7cd	0.015008879
210	0xbe067a6c	-0.13132638
211	0xbbe1e38d	-0.0068935812
212	0xbb161b9c	-0.002290464
213	0x3c2c08fd	0.01050019
214	0x3cd39071	0.025825711
215	0x3cbacf79	0.022804009
216	0x3c6bce13	0.014392394
217	0xbdfbea3e	-0.123005375
218	0x3d9fcc8c	0.07802686
219	0x3dbd5fd9	0.09246797
220	0xbac6f805	-0.0015180117
221	0x3ddb4fb1	0.10708559
222	0xbe1bc4ee	-0.15211841
223	0x3cce4afb	0.025182238
224	0xbdc68934	-0.09694138
225	0x3e61071f	0.21975373
226	0xbd99f078	-0.07516569
227	0xbc3b36d4	-0.011426646
228	0xbd0f9ad8	-0.03505978
229	0xbe34018d	-0.17578717
230	0x3cf5df31	0.030013653
231	0x3be0fdae	0.0068661785
232	0xbd932bde	-0.071861014
233	0x3e053335	0.13007815
234	0xbd06a330	-0.03287047
235	0x3df96ab1	0.12178553
236	0xbc8d5b87	-0.017255558
237	0xbe308008	-0.1723634
238	0xbca6283b	-0.020282855
239	0xbcca204e	-0.024673607
240	0x3dc19449	0.09452111
241	0x3e0391fe	0.1284866
242	0x3da982e8	0.082769215
243	0x3e7e5fae	0.24841186
244	0xbcc0ebb3	-0.02354989
245	0x3e42beab	0.19018047
246	0x3e21eede	0.15813777
247	0x3dd1905c	0.102326125
248	0x3e533d02	0.20628741
249	0x3e36802b	0.1782233
250	0x3d111561	0.03542078
251	0x3e2e900f	0.17047141
252	0x3d5e2087	0.05423024
253	0x3ce0c0f1	0.027435752
254	0x3df825b9	0.1211657
255	0x3da2c6b0	0.07948053
