logs/discharge_point/grin/2023-11-14_23-41-26_344877467/epoch=48-step=4263.ckpt (torch, 708068 bytes, 102 tensors)

model.bigrill.emb f4 [8, 20]
00000000: 97bd 063f 3dbb 91bd 883f 4a3e b19a 093f
00000010: e3ac 793e 702b ec3d d232 9abe 4ad4 a43d
00000020: 14c0 7e3e d408 703e 6acf 913e 3cd8 ae3e
00000030: f47a 993a 308a 85be beee 833e 30f2 083f
00000040: da96 4b3e b72b b7be 4c41 b0be 3af4 223f
00000050: 4cae a5be 7023 a93e 2ae3 9f3e a261 b33d
00000060: c0c1 0d3f 4d9c 3dbe 3730 b83e 5974 9cbe
00000070: b9b8 893d cf6b e0bd e65e 43be ab46 aabe
00000080: 54fb e8be 1c36 853b bef1 823e ce00 15bf
00000090: 645e 563e 6ec6 8cbe db97 d9be bb16 86be
000000a0: 808d 303f 0d5e d9be 5d3b 9bbb b887 aabe
000000b0: 3776 72bd 5cbe 343e a8f8 adbc 5528 58bd
000000c0: 27a5 39bf c526 c6be 1bea a93b e83f 76bd
000000d0: 2e92 1c3e 972a 36be 437b 2b3d 08d8 5fbc
000000e0: d1d0 a9be 7701 d03e 14bf 3bbe 3c99 d43d
000000f0: 8cab b43e f1d9 09bf 4269 023d 6881 e23c
00000100: e069 58be 9afa ec3e f96e 5abe 8df8 073f
00000110: acbe e83e 1e09 2abe a753 ee3e 3f90 82be
00000120: 72f8 b6bd a1da 43be ad90 13be 079d 21bf
00000130: d91d a7bd 00ab 3d3e 2851 823d 763a a0be
00000140: 235d df3e 4406 753e 753b fb3d 7b9e 05bf
00000150: ba7b ad3e b4e3 3ebe 36f8 20be a460 55bf
00000160: 0900 853d 826f 4abd 542e c5be 508e fabe
00000170: 6ae2 043e 2aac 183f ba35 ac3e e63a 143f
00000180: b984 b3bd 0d8d 95be 4347 693d 042e 3e3f
00000190: a710 023e e995 b0bf 9b98 0fbf 6d63 b7be
000001a0: 0ba9 12bf 38fe 7a3e b147 e0bd 548b 4a3e
000001b0: f380 f7be 860d 143f d0bb 1d3f 86e1 bc3e
000001c0: a626 823c 0df2 5fbe 34ef 37bf 12e0 2bbf
000001d0: 3fd1 22bd ee70 223c 92ca 8f3e 5ad2 ab3d
000001e0: 72df c63d c0f9 cf3e 8dc3 903e e630 d23d
000001f0: 2882 233e 1f09 523e 8e01 8fbe 1beb 2ebf
00000200: 507c 4d3f 0065 1c3f f43c 923e 9820 16bf
00000210: a65d d93e b612 203f 8ec6 553e 7f29 babe
00000220: 97dd d73e b095 06be e6ed 15bf cd87 813e
00000230: f02e 063e 2f48 06bf 86ac 203e f4f8 1bbf
00000240: 57ac a9be 1ae5 0cbe be88 f9be 80ff 263e
00000250: 8945 f13c e924 0ebe e009 20bf 048e ce3d
00000260: 8f84 0c3d c497 063f 8159 d7be 389b adbe
00000270: ba54 093e 277d 08be 7489 8a3d 9a2a 16bf
0.5263304 -0.07115791 0.19750798 0.53751665 0.24382357 0.115317225 -0.30116898 0.080483034
0.2487796 0.23440868 0.28478557 0.3414935 0.0011709617 -0.2608199 0.25768083 0.5349455
0.19881764 -0.3577554 -0.34424818 0.6365391 -0.3235954 0.3303485 0.31228 0.08758856
0.55373764 -0.18516655 0.35974285 -0.30557516 0.06724686 -0.10958063 -0.1907917 -0.3325704
-0.45504248 0.004065288 0.2557506 -0.5820435 0.20934445 -0.2749514 -0.4249867 -0.26189217
0.6896591 -0.42454568 -0.0047373013 -0.3330667 -0.05919477 0.17650741 -0.021236733 -0.05277284
-0.7251763 -0.38701454 0.0051853782 -0.06011954 0.15290138 -0.17789684 0.0418656 -0.013662346
-0.33167127 0.40626118 -0.1833461 0.1038079 0.3528713 -0.5384818 0.031838663 0.027649596
-0.21134138 0.46284944 -0.21331395 0.53113633 0.4545797 -0.1660504 0.46548197 -0.25500676
-0.08934106 -0.19126369 -0.14410658 -0.6313023 -0.0815999 0.18522263 0.063631356 -0.31294602
0.43625745 0.23928171 0.122672 -0.52194947 0.33883458 -0.1864155 -0.15719685 -0.83350587
0.06494147 -0.04942275 -0.38511908 -0.489367 0.12976995 0.596377 0.3363474 0.5790237
-0.08765549 -0.29209176 0.056952726 0.74288964 0.12701665 -1.3795749 -0.5609223 -0.35818043
-0.5728919 0.2451104 -0.10951174 0.19779712 -0.48340568 0.57833135 0.61614704 0.3689081
0.01588757 -0.21869679 -0.7184937 -0.6713878 -0.039750334 0.00991462 0.28084236 0.08389731
0.097105876 0.40620232 0.28274193 0.10263233 0.1596762 0.20511292 -0.27930874 -0.6832749
0.8026781 0.61091614 0.2856213 -0.58643484 0.4245426 0.6252855 0.20876524 -0.36359784
0.42161247 -0.13143039 -0.5856613 0.2529892 0.13103843 -0.52453893 0.15690812 -0.6092675
-0.33139297 -0.1375927 -0.48737139 0.16308403 0.029452102 -0.13881268 -0.6251507 0.10085681
0.034306105 0.52575326 -0.42060474 -0.33907485 0.13411227 -0.13328992 0.06764498 -0.58658755

model.bigrill.fwd_rnn.cells.0.forget_gate.mlp.weight f4 [32, 170, 1, 1]
00000000: 3f30 be3d f9cf 943d 3f23 8b3c a2a2 6abc
00000010: fe0d 4a3e ba65 393c 0a4d 6b3d 0b43 8c3b
00000020: d372 88be e5ea 833e 4831 8fbc e0d0 25be
00000030: 711c 883e acc3 40be 7d4b 333c 5213 6cbe
00000040: 8dfa 6e3d a6a2 a63d 673a 06bd 977b 6d3e
00000050: 4fd5 34be 2a7a 283d 7bd3 c03d 8f20 a03d
00000060: acc8 1bbe 052f 33be d095 3f3d dcec fb3c
00000070: 3a05 8abe 9b6b 193e 52e4 133e 0b69 f03d
00000080: 469e 433c be9e 1e3e 2f0d e63c 939b dc3c
00000090: 01a1 613e dee1 2dbe 316b 6cbe ab46 213a
000000a0: 2238 12bd 38b1 dc3d 313b 3fbd d193 223e
000000b0: 6bef 8abb 0df9 113d 1632 373e 5c61 9fbd
000000c0: 9d49 d1bc e559 07be 74f5 1dbe bf80 6d3e
000000d0: ebe9 3e3d 4515 a13d 2336 85bd 18f6 f2bd
000000e0: 9ca5 be3c 508e d43d 3b26 25bd d644 4abe
000000f0: f0ac c23d 3dba 623e 20fb 08bd 93c4 e73d
00000100: d527 083e 8d52 ea3d 9b1d e5bd 9f72 323e
00000110: 81b7 21bc 8bdd 69bc 87ff 563e 0bc6 27be
00000120: 97e4 e2bd 01e5 c6bc 8773 eebd c29b 423e
00000130: 28d4 503e 8b91 7d3d a24c a73d a22b 28bc
00000140: 1f8f a33d 190e f1bd c27b e73d 85ea b7bd
00000150: 676b e5bd ca09 223e 363f 1a3e de07 32bd
00000160: 63c1 3e3d e774 c6bd 719a 1a3d feaa 313e
00000170: b3a7 31be 8c5e 4dbd 90a2 983d fbf8 3c3e
00000180: 09c0 7c3d 41d9 dd3d ec94 d7bd 5ccb 8a3d
00000190: 3eac 1dbd 4849 4ebc 00a2 44bb 5500 0d3e
000001a0: d1c0 3f3e a053 b2bd e7da c53b 1617 b7bc
000001b0: 7831 dd3d c767 81bd 4993 dfbe c303 a03d
000001c0: 5e65 9f3d d54d 2bbc 5ede a73d d402 d4bd
000001d0: b6eb 483b abc9 4cbd 1d7f c9bd dd68 183d
000001e0: a3e8 f33d 65e2 b93d 5125 edbd 599f 673e
000001f0: 4945 d6bd 3b95 273e 3c0c 613e f0d5 c7bd
00000200: 4773 803c 3782 433a b0e2 c1bd 73d2 b63d
00000210: 2654 2cbd 4de4 133e 3eda 033e 5e81 993e
00000220: 51d9 503e 3946 8d3d 0854 4f3e a1fb c6bd
00000230: 4542 983e b134 843d 9ddc c1bd b1b9 29be
00000240: 642b ffbd f263 803e 7da8 8ebd c02d 92be
00000250: e08c d23e e031 abbd 4bbb aebd af5f 8b3d
00000260: c9e9 c3bd 7fce 9c3d 8aee 7b3e 2ce7 dd3e
00000270: 9e1d 00be f0da d13c d745 14be 87c9 6b3d
00000280: c508 7d3c b0b1 9cbe 452a e3bc a249 f6bc
00000290: e0c1 7dbe bc91 a03e 2534 f93d c4c4 103e
000002a0: 44dd ab3c 8142 2f3e 5efb ea3c 47f8 383e
000002b0: a94a 89bd acb2 f0bc 9aed 873c bb8d 79bc
000002c0: b769 06bc f797 ef3c f015 023d 22fb d33d
000002d0: ad05 e2bd 7757 cabd d73e 31be 2c71 b1bd
000002e0: e4b3 b5bb 992e 4a3c 6202 f7bd c666 1d3c
000002f0: a482 3b3d 566c a33d 4245 a1bd ec6d 353d
00000300: 64ba 48bd d02f d4ba 5428 3e3c 9bf1 a9bd
00000310: e274 6ebc 34b5 bbbd 2793 eb39 562d 8b3c
00000320: 43c0 06be f980 a3bc ca23 413e bf03 8e3d
00000330: 9e26 f43a 59b9 fb3d 46aa 0c3c e4bf c0bd
00000340: ccfa 773b 5a87 ec3c 80c5 aebd 82f7 89bd
00000350: 394b 4c3d 05c1 0b3e bd4f 33bd 8373 aebd
00000360: e973 ddbd 7a29 8cbd bdd6 4bbc faf3 a8bd
00000370: e6b4 25bd 3e23 1fbd 871b a03c 66e4 673c
00000380: 3029 bfbd 95a1 35bb 3905 293c 2a7c ca3b
00000390: c514 f8bc df8e 48be 61c0 7fbd 81b2 e3bc
000003a0: 3a38 3e3d 0e2c 85bc c0d7 b6bc 732b 603d
000003b0: 8dd4 ba3d 02bf 8fbc 30a3 45bd a6d5 0a3e
000003c0: c6cd a73d 019d 03be aab7 07bc d577 dfbc
000003d0: 7d6a 12be c75f 8bbd 983a 833d d012 943d
000003e0: 9bf1 83bd 1bcb 1bbe 462a 9fbd bf1e a9bd
000003f0: ad3d 1dbc 575b e33a 7938 7ebc e395 d53c
0.09286546 0.0726623 0.01698458 -0.014321001 0.197319 0.011315757 0.057446517 0.004280453
-0.26650104 0.25765148 -0.017479554 -0.1619296 0.265842 -0.18824643 0.010943291 -0.23054245
0.058344413 0.081364915 -0.03277054 0.23191677 -0.17659496 0.04113213 0.09415337 0.0781871
-0.15213269 -0.17498405 0.04677373 0.030752592 -0.26957113 0.14982454 0.14442566 0.11738785
0.011939591 0.15490243 0.028082458 0.026929652 0.22034074 -0.16980693 -0.23087765 0.0006152193
-0.035698064 0.10775989 -0.04668731 0.158767 -0.0042399666 0.035637904 0.178902 -0.07782242
-0.025547797 -0.13217886 -0.15425664 0.23193644 0.0466098 0.07865385 -0.065044664 -0.11863345
0.023272328 0.103787065 -0.040319663 -0.19752821 0.095056415 0.22141357 -0.033442616 0.113167904
0.13296445 0.114415266 -0.111872874 0.17426537 -0.009870411 -0.014274011 0.20995913 -0.16384141
-0.11078756 -0.02427912 -0.11643129 0.1900473 0.20393431 0.06190638 0.081689134 -0.010264309
0.079862826 -0.11770267 0.11302902 -0.08980278 -0.11202126 0.15824047 0.15063176 -0.043464534
0.046571147 -0.09690266 0.037744943 0.17350385 -0.17349128 -0.050138995 0.07452881 0.18454354
0.061706576 0.108324535 -0.105264515 0.06777069 -0.03849434 -0.012590714 -0.0030003786 0.13769658
0.18725897 -0.087073565 0.006038058 -0.022349875 0.10800451 -0.06318622 -0.43667057 0.078132175
0.07783006 -0.010455568 0.0819671 -0.10352102 0.0030658073 -0.049997013 -0.09838698 0.03720938
0.11909606 0.090763845 -0.11579383 0.2261938 -0.10462434 0.1636552 0.21977323 -0.09757602
0.015679969 0.0007458063 -0.09467065 0.08926859 -0.042072438 0.14442559 0.12876222 0.29981512
0.203954 0.068981595 0.20246899 -0.09715963 0.2973806 0.064553626 -0.09465907 -0.16574742
-0.12459448 0.25076252 -0.0696573 -0.2855053 0.41123104 -0.08359122 -0.08531817 0.068053596
-0.09566075 0.076565735 0.24602714 0.43340433 -0.12511298 0.025617093 -0.14479767 0.05756524
0.015443985 -0.30604315 -0.027730117 -0.030064408 -0.24780989 0.31361187 0.12168149 0.1413756
0.020979531 0.17115213 0.028684314 0.1806346 -0.067036934 -0.029382072 0.01659279 -0.015231545
-0.008203915 0.029247267 0.031759202 0.10350634 -0.11036239 -0.09879964 -0.17309128 -0.08664164
-0.0055451263 0.012340211 -0.12061001 0.009607023 0.045778885 0.07979648 -0.07874538 0.044294283
-0.04900588 -0.0016188566 0.011606295 -0.08298036 -0.014554234 -0.09165421 0.0004493233 0.016989391
-0.1315928 -0.01995896 0.18861309 0.06934308 0.0018627231 0.12291212 0.008585518 -0.094116
0.0037838696 0.028873134 -0.08533764 -0.067366615 0.049876425 0.1364785 -0.043777216 -0.08518126
-0.10813124 -0.068438485 -0.012441334 -0.0824966 -0.04045572 -0.03885197 0.019544376 0.0141535755
-0.09334028 -0.0027714719 0.010316187 0.0061793523 -0.030283341 -0.19585751 -0.062439326 -0.027795078
0.04644034 -0.016256358 -0.022319674 0.054728936 0.09122572 -0.017547134 -0.04825133 0.13558063
0.08193545 -0.12852861 -0.008283535 -0.02727882 -0.14298435 -0.068053775 0.0640766 0.07230151
-0.06442567 -0.15214197 -0.07771735 -0.082578175 -0.009597224 0.0017345947 -0.015516394 0.026072448

model.bigrill.fwd_rnn.cells.0.forget_gate.mlp.bias f4 [32]
00000000: 209e 5cbd 96e8 2c3e 9ae4 f63c d4bc 6b3d
00000010: b718 813d 131f 0b3e b9bb 2b3d 94e0 ac3b
00000020: 14eb c2b7 ec81 bcbc eec1 bbbd 03ac 06bd
00000030: f04c 56bd 412d 0ebe a26c f939 e4a2 1e3d
00000040: bf6f 8ebc f58f c3bd dbb5 a5bd e31e 8339
00000050: 6775 1b3d 013f 86bd 77f2 3bbd 9e16 993c
00000060: 10e0 043e 6e6e 3e3d ff84 90bd 3c2d 32bd
00000070: af2f 833d 099e c23c c82a 09ba eebb 7ebd
-0.053861737 0.168856 0.030138303 0.057553127 0.06303542 0.13586073 0.041927073 0.0052757952
-2.3236069e-05 -0.02301117 -0.091678485 -0.032878887 -0.052319467 -0.1388445 0.0004757392 0.038729563
-0.017387269 -0.09548942 -0.08091327 0.0002500928 0.03795376 -0.06554986 -0.04588553 0.018687543
0.12976098 0.046492033 -0.07056617 -0.04350017 0.06405579 0.023756998 -0.000523251 -0.062190942

model.bigrill.fwd_rnn.cells.0.update_gate.mlp.weight f4 [32, 170, 1, 1]
00000000: a8a5 d1bd c119 ce3d ecfa c8bb 2e8f 68bd
00000010: bfd9 94be d956 18bc 415c 423d 78a4 443e
00000020: f059 483e 1880 1ebe 69f1 533e 2a26 fcbd
00000030: 84c7 aabd f98f 673c 2c40 d93d 9b6e 043e
00000040: b2ba fb3d d301 07bd 9424 f1bd 5f89 f5bd
00000050: f888 1e3e 5b3d 963c 1cef 413d 257f 9dbd
00000060: 4a53 56bd 6fb2 353e c022 9c3d b7e9 753e
00000070: 15b0 393e 0732 9bbd ec8e 41be f91d 64bd
00000080: 34db 35be 5e15 e5bb 3841 b5bd 8ef8 d5bd
00000090: deaa 28bc b28a 24be 9b26 c1bd 5dd5 10be
000000a0: a6ff cabd c300 ec3d a1e2 c73d 2cda 7bbd
000000b0: e448 7dbd 3348 8abd d299 b8bc 7869 0bbe
000000c0: 7863 ef3d 6736 043d d485 55be 5bbe 613d
000000d0: c3d3 cebc 4800 ba3d 233c e63d de8d 28be
000000e0: b38a 6c3d 8c75 ba3d 0687 50be aa56 d9bd
000000f0: 446a ddbd 9334 043e 5a0a c4bc 3dac 343d
00000100: 93ab 063e c4f0 393c d5b7 05b9 1130 17bd
00000110: 5f70 98bd 17ce 753d 880d c73c bd07 6cbe
00000120: c2a2 9abd b672 9dbd d324 03be acc5 573e
00000130: f452 913d f66b 463d a509 21bd 88a6 31bd
00000140: 4498 503d 4167 88be 4408 d83d 7902 6b3d
00000150: 1f6d 53be 2029 783c bcd3 313e c096 ccbd
00000160: fea8 a63d e4fc 74be 2c65 80bd ec2d 1c3e
00000170: fc8a 72be 0e6d 8bbd 562c a5bd 5038 bd3d
00000180: a2dc e73d 6ff4 683d bd2b 053e 639e a53d
00000190: 5a72 1fbe 99d8 a7bd 6d0a dbbd 5951 b03d
000001a0: e7aa dd3c 82a0 8abe 7ff4 1cbe 3c12 6c3d
000001b0: b4f2 f8bd 068a f8bc 92e8 213e e88d 1dbd
000001c0: 7581 e33b 7a20 273d 1768 c13c 9858 f2bd
000001d0: 198c 32bc 14c5 55bd ca4c a5bd e832 df3d
000001e0: fe1c 21bd d6a5 0dbc f318 a93a 87cd 4abd
000001f0: adc1 41bd 76cd ffbc 9959 36bd cb69 32bc
00000200: 316e cd3c cf21 a33c 42aa 513b 885c e9bc
00000210: e2a1 4c3d 0f9a fbbc c1af d4bb be68 1f3c
00000220: b910 48bd af2f 5b3d 65bc b03d d298 66be
00000230: f410 efbd 340f 113c 166f 64bc 6ad0 683d
00000240: 4a43 f03d 1e58 23bd 84df dc3c 81a8 c4bd
00000250: 9e11 773d 4b85 46be c844 143b 2d31 aabd
00000260: fbce 06bd ad94 763d b2a9 2f3d 0afb 09bd
00000270: 21b2 e93b f334 90bd 104f 0bbd 3cb3 bd3b
00000280: c0f0 8ebe c303 9ebd 8405 05bd 76fb 08bc
00000290: 91f8 973d 07f3 ce3c 29c4 9d3d b61c 643d
000002a0: 331d f2bd 90b6 dabc 1f87 00be de36 2f3d
000002b0: 5820 d9bb 2df1 9f3c 344c abbc 5c54 bdbd
000002c0: d925 053e 30a3 1cbe bfce ccbc 92d7 37bd
000002d0: 175f 143e bc98 503c 5a06 a1bd a6df 2a3e
000002e0: 2a19 f13d 2cd5 bd3d 9954 f73d 46a4 8abb
000002f0: ab84 82bd cb24 c9bc 1ffc a23d 520e 083e
00000300: 0422 55bd d885 f43d d999 2f3e e8b0 8d3d
00000310: 1053 253e 57df ddbb 5188 153e c8c8 d5bd
00000320: 6f57 5bbe 9473 36be b175 953d 43ab 42bc
00000330: 2d59 2abd 7bbd ccbd 49e5 d4bc 3b89 c93d
00000340: 4a01 5cbd 9c03 2abe 770e d43d 6fac e0bd
00000350: 446e cdbd 6434 0fbe 829f 473d 8542 493b
00000360: b5b2 d4bc 1d60 e8bb 416d 973d 9781 81bd
00000370: 35e6 a73d 7118 cebd 9a4a c03c f318 253e
00000380: 1d7a 9d3c 504d 0f3d 89d6 c0bc 7b5c 6abd
00000390: d235 263d cc46 553d 8d1e 00bc 4baf db3d
000003a0: 444e 3dbd 7cb9 5b3d 9d3b dbbc d53c 56bc
000003b0: 754a 16be 1310 21bd 7ba5 c6bd 362c 6fbd
000003c0: 9890 babc 191e a53d 5951 913c 89c8 c3bd
000003d0: 96d2 093e fdd4 cabc bf3d 983c 7912 b2bd
000003e0: ee5e 0d3d 30af 023e 0055 99bd a9b2 ca3d
000003f0: a478 00be 0ed8 ac3d 39bf 97bd fc48 b4bc
-0.102366745 0.10063506 -0.006133428 -0.05677717 -0.29072377 -0.00929805 0.04745126 0.19203365
0.19565558 -0.15478551 0.2069756 -0.12311967 -0.08338836 0.014133447 0.10607943 0.12932818
0.12291469 -0.032960724 -0.11774555 -0.11989092 0.15481937 0.018339803 0.047347173 -0.076902665
-0.052325524 0.17743848 0.076238155 0.24014936 0.18133576 -0.07577901 -0.18902177 -0.055692647
-0.177594 -0.0069910726 -0.0885033 -0.10447799 -0.010294644 -0.16068533 -0.094311915 -0.14143892
-0.09912042 0.11523583 0.09760023 -0.06148736 -0.061837092 -0.06752052 -0.022534285 -0.13614452
0.11688894 0.032278445 -0.20851833 0.055113178 -0.02524746 0.09082085 0.11241939 -0.16460368
0.05774946 0.091044515 -0.20364007 -0.10612233 -0.10811284 0.1291068 -0.023930717 0.04410957
0.13151388 0.011348907 -0.00012752351 -0.036911074 -0.07443308 0.060010996 0.024298444 -0.23049827
-0.07550575 -0.07687895 -0.12807016 0.210715 0.070959 0.048442803 -0.03931584 -0.043371707
0.05092646 -0.26641276 0.105484515 0.057375405 -0.20647095 0.015146524 0.17365927 -0.09989691
0.081377015 -0.23924595 -0.06269297 0.15251893 -0.23685831 -0.0680791 -0.08065097 0.092392564
0.11321379 0.056873735 0.13004966 0.080868505 -0.15570965 -0.081956096 -0.10695348 0.08609266
0.027059032 -0.27075583 -0.15327643 0.057634577 -0.12155667 -0.030339252 0.15811375 -0.03846541
0.0069429227 0.040802456 0.023609204 -0.11833304 -0.01089766 -0.0521899 -0.08071287 0.108983815
-0.03933429 -0.008645495 0.0012901112 -0.049512412 -0.047303844 -0.031225901 -0.04451904 -0.010889481
0.025076957 0.019913582 0.003199235 -0.028486505 0.04995907 -0.03071311 -0.006490678 0.009729562
-0.048844073 0.05351227 0.086296834 -0.22519234 -0.116731554 0.008853722 -0.013942501 0.056839384
0.11731584 -0.039878957 0.02696205 -0.09602452 0.060319535 -0.19386785 0.0022624005 -0.08310161
-0.032912236 0.060200382 0.042886443 -0.033686675 0.0071318303 -0.07041349 -0.034010947 0.0057891887
-0.27918053 -0.07715561 -0.032475963 -0.008360734 0.07420457 0.025262369 0.0770343 0.055691443
-0.118219756 -0.02669838 -0.12551545 0.042776935 -0.00662617 0.019524181 -0.02091036 -0.09244606
0.13002719 -0.15296626 -0.025000928 -0.04488332 0.14489399 0.012731727 -0.078625396 0.16686878
0.11772378 0.09269175 0.120766826 -0.0042310087 -0.06372961 -0.024553677 0.079582445 0.13286713
-0.052034393 0.11939591 0.17148532 0.06918508 0.16144967 -0.006771009 0.14602782 -0.104386866
-0.21420072 -0.17817527 0.072978385 -0.011881652 -0.04158895 -0.09997078 -0.025988238 0.09840628
-0.053712167 -0.1660294 0.103543214 -0.10970389 -0.10030797 -0.13984829 0.048736103 0.0030709815
-0.02596412 -0.0070915357 0.073938854 -0.063235454 0.081982054 -0.100632556 0.023473073 0.16122799
0.019223267 0.03498584 -0.023539798 -0.057217102 0.04057867 0.05206947 -0.007819784 0.10726794
-0.046217218 0.05364369 -0.026761824 -0.013076027 -0.1467684 -0.03932197 -0.09699532 -0.058391772
-0.022774026 0.08062381 0.017738985 -0.095597334 0.13459238 -0.024759764 0.01858413 -0.0869493
0.03451436 0.12762141 -0.074869156 0.09897358 -0.12546021 0.08439647 -0.0740952 -0.022007458

model.bigrill.fwd_rnn.cells.0.update_gate.mlp.bias f4 [32]
00000000: b8c7 823d 9afa 07be d667 6c3d 00bc 803c
00000010: bdf1 d23c 4175 c4bd eb37 363e 5cac b8bc
00000020: a881 893e aa95 3d3e 6f9b 313e 1fd3 41be
00000030: 376e 813d c552 0c3e b0d2 2e3c a248 003e
00000040: cf3c 86bb 6392 d63d 94a9 0b3d 4443 0bbb
00000050: a03f a0bd 7f23 e83d ec7d 333e c59a fdbd
00000060: 144f 093d 6642 54bd ce39 643e 2ac8 663e
00000070: c615 1e3e 5416 23bd 5cdc 213c cecc e53d
0.063857496 -0.1327919 0.057716213 0.015714645 0.025750035 -0.09592677 0.17794769 -0.022543125
0.26856732 0.18514124 0.1734445 -0.18928193 0.0631985 0.13703449 0.010670349 0.12527707
-0.0040966044 0.1047714 0.03409727 -0.002124981 -0.078246355 0.11334895 0.17528504 -0.123830356
0.03352268 -0.051821135 0.22287676 0.22537294 0.15437993 -0.039816216 0.009879198 0.11220704

model.bigrill.fwd_rnn.cells.0.c_gate.mlp.weight f4 [32, 170, 1, 1]
00000000: 2bda 233c b4f8 3b3d f391 a73e bdbf 433e
00000010: 1ceb 99bc f86f 75be 6984 4e3c 8e4e 313e
00000020: df7d 29be 8eb5 8dbc f38a 9f3a d669 293d
00000030: bbaa 93bd fc4b 9d3d d809 543e 0496 2dbd
00000040: 02c0 debc bad8 98bd 0cc4 af3d eb59 533e
00000050: 1d6f a0bc af4d fabd e210 893d 64c8 c43d
00000060: 365b 71bc 488c 833d de70 553e bc79 573e
00000070: 36be 31be 1add 6ebc 5e18 023d eaf4 cf3d
00000080: f374 18be aa6a 1e3e e083 013d 6488 acbb
00000090: 6dc6 493e 94cf e73d 9a95 e03d 7f23 8ebd
000000a0: 2e13 6b3d 172b 373d c359 7bbe 8847 8bbd
000000b0: fa41 3e3e 08cc 0cbd e005 0bbc ec9c 903d
000000c0: af2d 5a3e 488f 4b3d 3c64 81bd f0a6 18be
000000d0: da32 173e ffd7 ce3d ca3f 74bc f125 933d
000000e0: 69ae 653d 385c 79bc e7f6 a6bd 346d cf3a
000000f0: eb82 173e 119c 443e ac8e e5bc b0fe 2ebd
00000100: 0497 ef3b f897 bb3d 8a8a 80bd 655b 243c
00000110: 525d 853d 8126 35bd 6b99 593e ad4c 223e
00000120: 0c4d 98bd 4e48 b5bd a11f 3e3e 7297 3c3e
00000130: a6a4 c8bd 456c 82be 3683 e53d f359 81bd
00000140: 96f7 3f3e 2c7d 01bd 9c5e 103e d688 0cbe
00000150: f985 13be 8d65 3bbd 26d4 663e 3c5c 1b3c
00000160: e7a4 56bd 2bbc cb3d 51f8 84bd baba 843e
00000170: 0bdf 03bd a610 97bd ccc4 3e3e 7acf 2e3e
00000180: 577d 04be cd2e 933d 0baf 33be b0e3 963d
00000190: 70d2 99bd b429 0b3d 83fa 1d3b 8bf8 d73c
000001a0: 8f2a e83c fe50 293e 5e2b 61bc 90ca f0bd
000001b0: 6f77 823d eb2d 423e 3e33 61be f839 24bd
000001c0: c196 e93d f663 01be 3a2b 83bd 7cf4 033e
000001d0: 5c75 513e 5850 b13d c20d 11bc 4e18 83be
000001e0: faec d23d e220 8dbc 4e3f c13d 2514 d13d
000001f0: 7594 dc3d e54c 0b3d e493 8e3d 2dd4 cc3c
00000200: ebbf 343e 51c2 0c3e cf99 973d b678 8abe
00000210: 5859 e83c ff71 033d 3b4e 83bb c455 293e
00000220: eca9 0d3d 478c c23d 50af 583d 18d9 2f3e
00000230: f303 ccbd 5432 f1b8 2dd5 823e 3c91 e83d
00000240: db7a c6be b1ba 28bc 2a1f 343e f07c c03d
00000250: 2f4a 52be b779 9c3d 8495 013e 2dec ef3d
00000260: 1dd5 423b 24bb 25be 4b6f 76bc 49bb 563d
00000270: c967 dabc 4843 af3e bbed e6bc 2049 bc3c
00000280: 7765 e63e 8a63 06be cdda 4e3e 6631 653d
00000290: d64f 453e 3684 a3bd e55f 8bbe 75db 653d
000002a0: c73d 113e 2225 063e f412 84bd 6b22 023e
000002b0: 155c f0bd 8c4d 56be f71c e63d 7437 873e
000002c0: 26ca 793d 1933 11be 3da4 b33d 0b71 5d3e
000002d0: 6980 cfbd e0d1 933d da41 afbe 6dab a0bc
000002e0: 75b9 1c3b 95e2 153d 17af 053d 3a31 c0bd
000002f0: 1f82 e8bd aef5 20be 573a acbc 1183 363e
00000300: 0f00 64b9 0f16 15be 17a9 413c 7dd8 23be
00000310: 20af 39be 3d41 28be d0b9 893e c2d4 35be
00000320: aed3 d3bc 6018 1ebe 82c7 213e fa1b 53be
00000330: 03f6 24bc d5e8 ef3d f403 ea3c 040c 54be
00000340: 79f8 b3bd f25e 0e3d 314b 0bbe e335 fbbd
00000350: a451 b43d b078 f13d 9923 41bc 95ca 33bd
00000360: 4791 b9bd b402 c5bc 8d54 f33d d5ff a7bd
00000370: e253 d2bd 94a5 1a3e 037c 5bbc bbb7 013e
00000380: fb7b 273c 405c 9dbd d536 45bd d708 6abd
00000390: 2bc6 0c3d 4a5e 5abe 8c38 53be 4754 d7bd
000003a0: 56b0 3c3d b5b9 b8bd 82c4 723e ebdb 5cbd
000003b0: a6aa d03d 47e8 723d 7f97 17bc 1b94 c53d
000003c0: a617 673c 127a 9ebe 5077 943d b707 1c3c
000003d0: 6ebd 32be 4f36 d8bd 9591 2e3e 33e5 703e
000003e0: 2da9 12be cb0f a83a 3685 a7bd fed4 84bc
000003f0: ff81 87bc 2929 97bd bcd9 35be eea0 b73d
0.010000746 0.04589148 0.32728538 0.19116111 -0.018788867 -0.23968494 0.012604811 0.17315122
-0.16551922 -0.017298486 0.0012172147 0.0413607 -0.07210299 0.076805085 0.2070688 -0.042379394
-0.027191166 -0.07463212 0.08582315 0.2063977 -0.019584233 -0.12221848 0.06692673 0.09608534
-0.014731219 0.06423241 0.20843837 0.21042532 -0.17357716 -0.014579082 0.03176152 0.101541355
-0.14888363 0.15470377 0.031619906 -0.0052652825 0.197046 0.11318889 0.10966034 -0.06940364
0.057391338 0.044718828 -0.2454596 -0.06800753 0.18579856 -0.034374267 -0.008485287 0.070611805
0.2130649 0.04969719 -0.06317946 -0.14907432 0.14765492 0.10099792 -0.014907787 0.07184971
0.056074534 -0.015219741 -0.08152562 0.0015825392 0.14796035 0.1920016 -0.028022133 -0.042723358
0.0073117036 0.09159845 -0.06276424 0.010031556 0.0651194 -0.044226173 0.2124993 0.15849562
-0.074365705 -0.08851682 0.18566753 0.18417147 -0.09797029 -0.25473228 0.11206667 -0.063159846
0.1874679 -0.031613514 0.1409859 -0.13724074 -0.14406575 -0.045751143 0.22541866 0.00948244
-0.052403357 0.099479996 -0.06492675 0.2592371 -0.032195132 -0.07376222 0.1862976 0.17071334
-0.12938438 0.07186661 -0.17547242 0.07367647 -0.07510841 0.033975318 0.0024105615 0.026363632
0.028340606 0.16534802 -0.01374325 -0.11757386 0.063704364 0.18962829 -0.21992204 -0.040094346
0.11405707 -0.12635788 -0.06404729 0.12886232 0.20454925 0.086579025 -0.008853378 -0.2560448
0.10299106 -0.017227594 0.094359025 0.102089204 0.107705034 0.03400888 0.06961802 0.025003517
0.17651336 0.13746001 0.074023835 -0.2704522 0.028362915 0.032091137 -0.0040071285 0.16536623
0.03458588 0.09499412 0.052901566 0.17172658 -0.09961691 -0.0001150115 0.25553265 0.11355826
-0.38765606 -0.010298417 0.17590013 0.0939883 -0.20536111 0.07640403 0.12654692 0.11714969
0.0029729076 -0.1618467 -0.015041183 0.052424703 -0.026660817 0.3423102 -0.02818953 0.022984087
0.44999287 -0.13123909 0.20200653 0.055955313 0.19268736 -0.079842016 -0.272216 0.056117494
0.14183722 0.13100103 -0.064489275 0.12708442 -0.11736313 -0.2092802 0.11235993 0.26409495
0.0609838 -0.14179648 0.0877156 0.21625154 -0.10131914 0.07217765 -0.34229928 -0.019612992
0.0023914252 0.03659304 0.03263768 -0.09384389 -0.11352944 -0.1571872 -0.021023912 0.17823435
-0.00021743796 -0.14559196 0.011820099 -0.16000552 -0.18133211 -0.16431136 0.26899576 -0.17756942
-0.025857773 -0.15438986 0.15798762 -0.20616141 -0.010068419 0.11714331 0.028566338 -0.20707709
-0.08787627 0.034758516 -0.13602902 -0.122661375 0.08804634 0.117905974 -0.011788272 -0.04389437
-0.090609126 -0.02404914 0.11881361 -0.08203093 -0.102699056 0.15102226 -0.013396266 0.12667744
0.01022243 -0.07683611 -0.048147995 -0.057137337 0.034368675 -0.21325031 -0.2062704 -0.105141215
0.046066605 -0.09019796 0.23707774 -0.053920668 0.101887986 0.05930355 -0.009252428 0.096473895
0.014104759 -0.30952507 0.072493196 0.009523324 -0.17455074 -0.105572335 0.17047723 0.23524933
-0.14322348 0.001282209 -0.08179705 -0.016214844 -0.01654148 -0.073808976 -0.1775884 0.08966242

model.bigrill.fwd_rnn.cells.0.c_gate.mlp.bias f4 [32]
00000000: 3fac debd 0a10 c73d 7c22 ad3d 3af0 db3d
00000010: f743 053d 913b ecbd 42bb 80be 4581 adbd
00000020: 266d 55bd 2c03 ed3d cd9d 05be 06a3 2b3e
00000030: c886 83bd 8ce5 9d3c f075 103d 1789 10bc
00000040: 153f 2dbe 0fab 4bbc da5e be3d 2694 193e
00000050: b14d a63d dcd1 08be af51 7e3e f7ee 413d
00000060: 7a87 2cbd 3e9e 1fbe 5ea1 d43d 6d27 22be
00000070: e51d cbbd 7529 14be 0571 333e f070 0fbe
-0.10872697 0.09719856 0.08453843 0.10739179 0.03253552 -0.11534799 -0.25142866 -0.08471922
-0.052106045 0.115728706 -0.13048477 0.16761407 -0.06422192 0.019274496 0.035268724 -0.008821747
-0.16918595 -0.01243092 0.09295435 0.1499792 0.08120287 -0.13361305 0.24835847 0.047347035
-0.042121388 -0.15587708 0.10382341 -0.15835352 -0.09917811 -0.1446894 0.17523582 -0.14007926

model.bigrill.fwd_rnn.first_stage.weight f4 [1, 32, 1]
00000000: d070 963f 4bcb 8fbf dbf0 9d3f 3a08 933f
00000010: bc29 95be 609a 8abf ae72 35bf 1647 913f
00000020: b104 00bf acfa 19bf 4b4c 8c3f 04f7 98bf
00000030: b71b 7cbf 0312 32bf 9db7 9cbf adc7 463f
00000040: 76ad 913f 3a52 8e3f 4d75 8fbf 8778 433f
00000050: ae41 8abf 6200 863f 5a69 993f c476 bdbf
00000060: b7bb 84bf 13cd 80bf 0f46 3ebf 4fac 863f
00000070: 13d9 0ebf ded3 8c3f ccd5 733f 2b7c 833f
1.1753178 -1.1233915 1.2339128 1.1486886 -0.29133403 -1.0828362 -0.7087811 1.1349819
-0.5000716 -0.6014812 1.0960783 -1.1950383 -0.9847979 -0.69558734 -1.2243534 0.7764843
1.1381061 1.1118844 -1.1207672 0.76355785 -1.0801294 1.0468867 1.1985276 -1.4801869
-1.0369786 -1.0062584 -0.7432565 1.0521334 -0.5579998 1.1002157 0.95248103 1.0272268

model.bigrill.fwd_rnn.spatial_decoder.lin_in.weight f4 [32, 34, 1]
00000000: 4831 1b3b 6b87 63bc 8c52 11be 570e d23d
00000010: 5df2 76be 17e3 8e3d 78b9 983d d32c a4bd
00000020: 5941 4dbd 0dab 5a3e 9712 35be c617 263e
00000030: 9213 61be 4f30 30be b29e febd a223 e3bc
00000040: 1553 9b3c b9c2 503e e351 513e 79d8 84bb
00000050: e76b 693d f250 9f3d 10a1 8bbe fb69 2a3e
00000060: 22fd 873e 1f5e 8e3e d655 a73d 3dbc 27be
00000070: b304 e63d f404 93bd e490 66be 194c 803e
00000080: 99bd 71be 21d1 003e a5db e9bb f243 423d
00000090: c758 8dbd a31e 073e 5fde 96be 7ac9 983e
000000a0: 1760 b4bc 88e1 57be e15a 0cbe c8c4 593e
000000b0: 0bc8 04be af39 713e 10c8 4e3c a03b a7bb
000000c0: 3607 87bd ac3e ea3c fb8d 0b3e 2742 343e
000000d0: 6a3d 153e 7461 2b3e 4129 4dbe 80de 5ebe
000000e0: 115c b1bc 8c84 03bd 4367 1b3e 8b58 333e
000000f0: 7845 1dbe 156c c6bd f28c 46be fe7d 273d
00000100: c7d0 88bc 2d0c 273e 7998 35be ecb4 673e
00000110: a81e 92bd 2cf0 333c 67ab 70bc 7e47 f6bd
00000120: 9453 883e 9a6b 03be be05 673e 14b3 433e
00000130: 2b0e 093d 58ae 4abe bc60 403e abe6 713d
00000140: e15d 13be 0bbf 063e 2b29 ba3d ea9d 523d
00000150: 25ad 383d 6b88 143c 27d7 053e d579 2d3d
00000160: 304a 1e3e 8782 ea3d 2507 89bd ec42 3ebe
00000170: 3c00 933d 8859 6dbe ee7f 723c 8791 903d
00000180: 6e5d 063e 9c9d 253e 943c 713e c404 efbd
00000190: 074c b93e dcf8 8ebe c53c cfbd 2612 eabc
000001a0: b3ad febd 3e85 2c3e acf8 073d 7490 1abd
000001b0: 8080 033e ff68 dd3d 45c7 0abd f9d3 62be
000001c0: 714c e4bc 683f b73d 4553 0abe 13ef 9d3d
000001d0: dc96 4b3e 84ee 843c 1222 6cbd 5407 74bd
000001e0: 5cf4 ce3d 2e47 ef3d 5afa 603e 57e2 4b3e
000001f0: 51f0 8b3d dcc6 5d3d b148 81be 8387 8dbe
00000200: 4705 4f3e db62 06bc a9e5 943c be0c 26bd
00000210: a4d1 3c3e 8cee 5dbe 0938 b93e 4e5d 4fbd
00000220: 4417 82bd 5d90 34be a2ec 623d 51da bebd
00000230: aa42 63bd 15a6 dcbd 9532 cb3c 5533 043e
00000240: 73a9 c13e 50c5 5e3d 506f 2dbe 327a 8c3e
00000250: ca25 f8bc 6431 243e 98da 023e 71a7 633d
00000260: aaa2 42bd 551d c33e 401b 0b3d 9644 afbc
00000270: 9f6c ef3a 0cfa a8bd f300 093d 75ce 833c
00000280: 3746 6e3e ca07 09be 2d81 2a3e 128b 1d3e
00000290: 945f 673d 29e2 69bc da44 643e 20f8 183e
000002a0: 5181 9e3e 3359 96be 4d6e 063e c132 be3d
000002b0: da0b bd3d 2e40 70bc 7f1d 7e3e 3914 87bd
000002c0: 3402 403e 552a cabc aa07 e53d 521c 78be
000002d0: 9c01 bdbd 433a 203d 6d7a e1bd 97f2 b8bd
000002e0: 4f87 893e e2e1 f53d 46ad f2bc 62f0 eb3d
000002f0: 9e41 31be 5250 173d dfb4 42bb e0ee d53d
00000300: d5fd 283e 4c96 2d3c 5e96 d4bc 1d21 9e3c
00000310: c202 6a3e 9192 09bd 6a61 b83c 5470 59bd
00000320: 0b7b cf3d c03a 453d b2aa 653d 91e0 38bd
00000330: b29d e03c eff1 e3be 6b67 8f3e 0b74 cfbd
00000340: 9d78 04be 5252 68be 2d28 dcbc a799 023e
00000350: c91b bb3d 7045 9b3d 3cf8 aa3e cd35 edbd
00000360: c228 ce3c d474 45be 5070 753e ba9f 1dbd
00000370: 9d5a dcbd f747 aebe 4a78 ea3c 950d 863e
00000380: 83b8 073e 8e90 3abe e807 203e b70c 993d
00000390: 501d 84be 39ad 19bd 9773 1abe 7c71 d13d
000003a0: 5f82 1fbe d58f 80be ce84 823e 2a7e 6dbe
000003b0: c772 84bd f8bc a13e 4ef0 ff3d 4db7 3e3d
000003c0: 2b7e bd3d 347a 24be 012b 88be 5af3 7a3e
000003d0: f651 64be 7680 adbd 19ba ebbd fd6c 403e
000003e0: 3d60 89be e123 4d3e 9cbb a2bd aefe 9bbd
000003f0: ee76 a6be f286 51be 04ac ee3d 3a0d e9bd
0.0023680497 -0.013887267 -0.14191645 0.10256641 -0.24115892 0.06976908 0.0745725 -0.08016362
-0.05011115 0.21354313 -0.17682873 0.16220006 -0.21980122 -0.17205928 -0.124326125 -0.027726952
0.018960515 0.20386781 0.20441394 -0.004054126 0.05698767 0.07779111 -0.27271318 0.16641991
0.26560313 0.27806184 0.08170669 -0.16380401 0.11231365 -0.07178679 -0.22516209 0.25058058
-0.23607482 0.12579776 -0.0071367794 0.04742808 -0.069016986 0.1319528 -0.2946653 0.29841214
-0.022018475 -0.21082127 -0.13706543 0.21266472 -0.12966935 0.23557161 0.012620941 -0.0051035434
-0.06593172 0.028594337 0.1362838 0.1760336 0.14574209 0.16736394 -0.20035268 -0.21764565
-0.021650346 -0.03210883 0.1517611 0.17514245 -0.15358531 -0.09688584 -0.19389704 0.04089164
-0.016701115 0.16313238 -0.17733945 0.2262761 -0.071347535 0.010982554 -0.014689303 -0.12025355
0.26626265 -0.12834015 0.22560784 0.19111282 0.033460777 -0.1979307 0.18786901 0.059057873
-0.1439128 0.13158815 0.090898834 0.05142013 0.045087 0.009065728 0.13070355 0.042352516
0.15457988 0.11450677 -0.06690816 -0.18580216 0.07177779 -0.23178685 0.014801009 0.07059007
0.13121578 0.16173404 0.23558265 -0.11670831 0.36190817 -0.2792424 -0.10119013 -0.028573107
-0.12435474 0.16847703 0.033196136 -0.037735417 0.12841988 0.10811042 -0.033881444 -0.22151174
-0.027868481 0.08947641 -0.13508327 0.077116154 0.19881767 0.016227014 -0.05764968 -0.0595773
0.101052016 0.11683498 0.21970502 0.1991056 0.06832946 0.054144725 -0.25250772 -0.2764245
0.20216857 -0.00820228 0.018175917 -0.040539496 0.18439347 -0.2167303 0.36175564 -0.05062609
-0.06352094 -0.17633195 0.055401452 -0.09318984 -0.055483498 -0.10773865 0.024804393 0.12910207
0.37824592 0.05438739 -0.16936994 0.27436978 -0.030291457 0.16034466 0.127787 0.055579606
-0.04751841 0.38108316 0.033961535 -0.021395009 0.0018266625 -0.08250818 0.03344817 0.016089657
0.23268972 -0.13381878 0.16650839 0.15385082 0.056487635 -0.014275112 0.2229189 0.14938402
0.30958036 -0.2936493 0.13128014 0.09287024 0.09230776 -0.014663739 0.2481594 -0.06595654
0.1875084 -0.024678389 0.111831024 -0.24229553 -0.092288226 0.039118063 -0.11009679 -0.09030645
0.26861045 0.12005974 -0.029623639 0.11520459 -0.17310187 0.036941834 -0.0029709858 0.104459524
0.16503079 0.010594916 -0.025950607 0.019302899 0.22852615 -0.033587042 0.022507388 -0.05308564
0.101308905 0.04815173 0.05607099 -0.04513604 0.027418945 -0.44520518 0.2800859 -0.10129555
-0.12936635 -0.22687653 -0.026874626 0.12753926 0.09136159 0.075816035 0.33392513 -0.11582527
0.02516592 -0.19282848 0.23968625 -0.038482405 -0.107594706 -0.3403928 0.028621811 0.26182237
0.1325398 -0.18219206 0.15628016 0.07473128 -0.25803614 -0.037518714 -0.15083157 0.102267236
-0.15577076 -0.25109735 0.25491947 -0.23192659 -0.064672045 0.31589484 0.12497006 0.046561528
0.0925258 -0.16062242 -0.2659531 0.24506894 -0.2229689 -0.084717676 -0.11510105 0.18791576
-0.26831236 0.20033218 -0.0794594 -0.07616936 -0.3251261 -0.20461634 0.11653903 -0.11379476

model.bigrill.fwd_rnn.spatial_decoder.lin_in.bias f4 [32]
00000000: e1df 843d 4df5 413d 194b 58be b0c1 353c
00000010: e70d 183e 0d37 81be f889 d63d 78f6 233e
00000020: 67de 9dbb f34b 8ebe 5a3f bb3b 4bc4 533d
00000030: 108e 013c 0e01 d2bd cefc 1f3e 3730 88bc
00000040: 6325 483e 5764 a73d b95c 34be 1234 493e
00000050: 362a 26bd 9377 8abd 626d 5fbe 13cb 843e
00000060: ac7d 163d 99f9 22be b1a4 d63d ecd7 59bb
00000070: e44a 59bd 8b04 853d 8dba 61be 0acb 2a3e
0.06488014 0.047353078 -0.21122397 0.011093542 0.14849053 -0.25237313 0.10475534 0.16011989
-0.004817772 -0.2779232 0.005714339 0.05170087 0.0079074055 -0.102541074 0.15623781 -0.016624553
0.19545512 0.08173435 -0.17613496 0.1964877 -0.0405676 -0.06761088 -0.2181907 0.25936183
0.036740944 -0.15915526 0.10480631 -0.0033240272 -0.053049937 0.06495007 -0.2204382 0.16679016

model.bigrill.fwd_rnn.spatial_decoder.graph_conv.mlp.weight f4 [32, 64, 1, 1]
00000000: 9a7c 793e babd 653e cb50 8fbd 1485 613d
00000010: ba24 893d 5d04 91bd 4b15 c0bd 4e55 6a3d
00000020: 9768 153d 863e d2bd b5b4 90bd 3a42 6e3d
00000030: 07c7 51bd 7adc 57bd 8b7a 2a3d ad24 183e
00000040: 5610 dd3d 93e3 053e 7117 263d 394d c73c
00000050: 4eee 9b3d 872a cebc eb38 ae3c 08a1 f0bc
00000060: 5227 9f3c 7f8c ba3c b7c4 a5ba df08 94bd
00000070: d5e7 8f3c 4d2f d2bd a7d8 92bd 7693 6bbd
00000080: 59f4 eebd 2c6c c13c 18c8 b7bd 9d26 8b3d
00000090: 8dc9 6c3d 9ac4 a9bd 4677 b6bd 1756 b23d
000000a0: ed27 b23d 052c 4abd c585 eabd 682a aebd
000000b0: 8acb 9c3d ab85 1cbd 159e 8d3d c2e8 0e3e
000000c0: ebc8 123e 3bbf 62bd cb02 813d 386d e33d
000000d0: 68eb 933d 7907 d93d 0af7 163e 245c 7cbd
000000e0: 23ab 2ebe 3cdf d4b9 4658 a73d fa05 07be
000000f0: 45fa 61bd a9cc 39bd 3a03 993d e8df 21bd
00000100: bcc2 d9bd 1c24 0fbe df17 013e 2ee0 5f3d
00000110: c49d de3d 43be 3cbd 1fa0 b93d 8666 9dbd
00000120: 9230 0bbd 48ec 47bd 31ff 973d ca72 8cbd
00000130: 7c7a 1c3d c001 60bd 72df e6bd 9e9d a53d
00000140: aa35 1cbd 08c2 ee3d 18df 163d 1107 073d
00000150: bde2 6fbd 4c6b 073e 332a da3d 77c6 f2bd
00000160: 3600 f03c c2c4 c53d b935 0f3d 3291 ca3d
00000170: 35b5 df3d 23be dcbd cc37 05bd 903c 1bbd
00000180: e4c3 c8bc 6a71 d73d c421 efbd 01e4 bd3b
00000190: c0f0 3ebb a9d3 07bd 661e 003e 7fbc bc3b
000001a0: 8e98 883d 4252 49be c41c 8f3b a90e 12bd
000001b0: 4a74 cfbd e261 0bbe f676 13bd 8468 683d
000001c0: bd02 093d 5f85 e7ba afa9 e13c d25b 1c3c
000001d0: d11d fe3d 63dd be3b 0182 b63d bde4 c6bd
000001e0: d36d f83d ba18 833d d867 f73c 3c09 a03d
000001f0: 6a93 11be 899a cdbd 915b 91bd 6001 9bbd
00000200: 8134 3b3e e470 183b feb2 f5bd 5c17 1ebd
00000210: 8ca1 f73c d1de 94bd 16ce d83b 0b5e 69bd
00000220: dc42 11bd 5913 0dbe 1d88 7e3d cca3 713d
00000230: 4b5c c43d 62d9 a73d ddb5 d33b 1879 e83d
00000240: 5d6c a0bd 7467 983d 1d67 4fbd 9683 a5bc
00000250: 666f 1e3c 2885 d13d c3aa 893c ab8e 003e
00000260: a5c6 0d3e b327 ec3c 0e6a d23c 2ab9 f1bd
00000270: 83f8 16be 431e 5bbd 8452 83bd 68f7 943c
00000280: 077a e23d 91a7 433d fb64 3bba 4bbd b6bd
00000290: c9e2 34bd ae93 09bd 7868 4f3c 2dae dd3d
000002a0: c626 78bd fb7c 8abd fe3b 643d e45b 8ebd
000002b0: 1731 ee3d d4f9 2cbd 94dc ebbc 823f a93d
000002c0: 1116 50bd 5d17 a3bd faca 69bd 7b68 37ba
000002d0: 0ac6 3b3d 5359 8fbd dad5 adbd aadd ca3c
000002e0: ca3a 0b3d 0d85 c3bd ecd7 4a3d 6d42 0ebe
000002f0: 665f 02bd ff84 2cbd 8b9d a53d 6ab1 863c
00000300: b584 083e f41e 533e dbfa ab3d ed19 0bbe
00000310: 3545 ef3d 6396 debb 634b f9bd 73a6 133d
00000320: 9104 bd3d 95de 3bbd 9026 c93d c9c4 20bd
00000330: 90fb 083d b1cd a73c d610 f43d afd9 cd3d
00000340: 2997 94bb e7ac a13d 1d74 deba 3196 423d
00000350: 7571 93bd d38b 893d 3545 a4bd 644a c13c
00000360: 5901 6a3d 45fe 9cbc 90bb cabd 28d1 5c3d
00000370: c566 1ebe ec8b 11be 3ce8 abbd 9e11 853b
00000380: 1fbe 193d 2e38 f9bd 61b7 59bd 1600 bb3d
00000390: 09ab 76bd b629 dbbd 93b2 43bd d9d1 343d
000003a0: b266 293d 8536 56bd 915d e9bd a31e d93d
000003b0: e8bb 36bc f251 f1bd 6c44 abbd f993 bf3c
000003c0: cdf2 d03d f9be febc cab6 ef3d ee3b 86bc
000003d0: 8214 8d3d c805 93bb 1898 a1bd 5b08 603d
000003e0: 68b4 103d 64d6 8c3d 1e32 3bbd eb99 783d
000003f0: 7e06 3fbd 23c8 e5bd 116a 5dbd f7ce 723d
0.24363938 0.22435656 -0.06997832 0.055058554 0.06696458 -0.0708091 -0.09379061 0.05721026
0.036476698 -0.10265832 -0.07065717 0.058168627 -0.051215198 -0.052700497 0.041620772 0.1485774
0.107941315 0.13075094 0.0405497 0.024328815 0.076138124 -0.025166763 0.021267375 -0.02937366
0.01942793 0.022772072 -0.0012647127 -0.072282545 0.0175666 -0.10262928 -0.071702294 -0.057513677
-0.11667699 0.02361115 -0.08973712 0.06794474 0.0578094 -0.08289452 -0.08909468 0.087078266
0.086990215 -0.049358387 -0.11451296 -0.08504182 0.076560095 -0.038213413 0.069149174 0.13955978
0.14334457 -0.055358153 0.06299361 0.11104816 0.072226346 0.105971284 0.14742675 -0.06161131
-0.17057471 -0.00040602114 0.08171134 -0.13185874 -0.055170316 -0.045361195 0.074713185 -0.039520174
-0.10632846 -0.13978618 0.12606762 0.054657154 0.10869935 -0.046079885 0.09063744 -0.076855704
-0.033981867 -0.04880932 0.07421721 -0.06857832 0.038202748 -0.05468917 -0.112730876 0.08086704
-0.038137116 0.11658102 0.036833853 0.032965723 -0.058565844 0.13224524 0.1065258 -0.118542604
0.029296976 0.09656669 0.034963343 0.09890975 0.109232344 -0.10778453 -0.032523915 -0.037899554
-0.02450747 0.10519679 -0.11676362 0.0057950024 -0.0029135197 -0.03316084 0.12511596 0.005759775
0.066697225 -0.19660285 0.004367443 -0.035658512 -0.10129602 -0.13611558 -0.036002122 0.0567403
0.033449877 -0.0017663649 0.027546732 0.009543376 0.12408031 0.005824731 0.08911515 -0.09711597
0.12130322 0.064012006 0.030200884 0.07814261 -0.1421639 -0.10039241 -0.07097543 -0.07568622
0.18281747 0.0023260647 -0.11997031 -0.038596496 0.030228399 -0.07269061 0.0066163642 -0.056974452
-0.035464153 -0.13776912 0.062141526 0.0589941 0.09587916 0.08195759 0.006460889 0.11351222
-0.07833169 0.07441607 -0.050635446 -0.020204347 0.009670114 0.10230476 0.016805058 0.12554424
0.13845308 0.028827524 0.025685336 -0.11802895 -0.14743237 -0.053495657 -0.06412223 0.018184379
0.11058431 0.047767226 -0.0007148531 -0.089228235 -0.04416159 -0.033588104 0.012659185 0.10824237
-0.060583852 -0.067621194 0.055721276 -0.069511205 0.11630457 -0.042230442 -0.028791703 0.08264066
-0.050802294 -0.079634406 -0.05707834 -0.0006996465 0.04584316 -0.06999459 -0.084880546 0.0247639
0.033991612 -0.09546862 0.049522325 -0.13892527 -0.03182926 -0.042119022 0.080866896 0.01644202
0.13331874 0.20617276 0.08397456 -0.13584109 0.11683122 -0.00679283 -0.12172582 0.03604741
0.092293866 -0.045866568 0.09821808 -0.03925017 0.033443034 0.020483823 0.11917274 0.100512855
-0.0045346213 0.07894307 -0.001697186 0.047506515 -0.071993746 0.067161225 -0.08021013 0.023595043
0.05713019 -0.019164214 -0.09899056 0.053910404 -0.15468891 -0.14213532 -0.083939046 0.004060938
0.03753483 -0.121689186 -0.0531534 0.09130876 -0.060221706 -0.10701315 -0.047777724 0.04414544
0.041357704 -0.052298088 -0.113947995 0.106015466 -0.011153199 -0.11783208 -0.0836266 0.023385989
0.102025606 -0.031096922 0.11704786 -0.016385999 0.06888677 -0.004486773 -0.07890338 0.05469547
0.0353283 0.06876829 -0.045702092 0.060693663 -0.04663705 -0.11219814 -0.05405623 0.05927941

model.bigrill.fwd_rnn.spatial_decoder.graph_conv.mlp.bias f4 [32]
00000000: f1c2 633e 386e e73b 46f5 873d de0e 483e
00000010: dd2d 55bd d560 29be ec24 dcbd 5a66 163e
00000020: 0192 6cbe fbe5 74be 6fd7 3dbe 0a18 3b3e
00000030: 3864 503e bfc4 86be ca5d 72bc 17ef e03d
00000040: 0e9b 7dbe 0019 c1be 6c9d 893e 4dc6 483e
00000050: fbb8 55be ea10 b83d 592c e9bd 1e44 443e
00000060: a74c fabd 5531 26be 1d70 0fbe d3d0 8bbe
00000070: a3b0 43be afaa 42be b5e2 37be 4bf0 6cbe
0.22242333 0.0070626996 0.06638579 0.19536921 -0.05204569 -0.16540845 -0.1074923 0.14687482
-0.23102571 -0.23915856 -0.18539213 0.18270889 0.2035073 -0.2632198 -0.014792869 0.10983103
-0.2476618 -0.37714386 0.26877916 0.19606896 -0.20871346 0.08987601 -0.11385412 0.1916661
-0.122216515 -0.16229756 -0.14007612 -0.27307758 -0.1911035 -0.19010423 -0.17957576 -0.2313854

model.bigrill.fwd_rnn.spatial_decoder.lin_out.weight f4 [32, 64, 1]
00000000: f139 bf3c 2ef8 693c f700 e4bd 525e 2cbd
00000010: 4a1e c9bb 093a 3fbc 8741 813d 1080 013e
00000020: b458 6bbb 0447 c6bd 19b1 eabc 6b43 adbc
00000030: ec6c 8d3c 5c8c 1ebd daf9 fb3d dd03 a03b
00000040: d342 9abd d4d6 86bd 6c46 253c b320 ca3c
00000050: ec2c 673c a6de 27bd cc4e 8039 16cd c8ba
00000060: a6ce 473d 302a 6e3d bcd1 bfbd e33e 4dbd
00000070: 43ce e13b 2594 b4bd 31c8 75bd d5f8 853d
00000080: 6415 de3d 6d43 57bc 8ebc 0cbe 4b27 1d3e
00000090: 6980 95be 5075 e6bd 19b4 c03e 7c06 d73b
000000a0: db9f 9abe 1f99 33be 5451 4b3d 2b0e aabd
000000b0: 5c8e 2abe 47c2 78be 492d 053d cfee 8e3e
000000c0: a5e7 20bd f244 cabc 843b f2bc 8c8e 86be
000000d0: 722c 19be f0e9 373e fc06 c4be dc15 083e
000000e0: 3002 5f3d ec55 21be 0409 9bbe 0516 413e
000000f0: 469c b53e 9dc0 0d3e 7958 4abe a7dc 063e
00000100: 831c 17be 7b0a b73d 74e7 59bc f3c6 b4bd
00000110: 9ff4 b8bc edf1 b23d 4640 f53d 5eb4 cbbd
00000120: 158f 0e3d 402e 3c3e d9fe 4c3c e96b 073d
00000130: 01d0 01bd 2b77 fe3d 98a0 7bbd 2973 6a3d
00000140: f34c fdbc bb5a 45bd 706b f1bd bc8a 0bbe
00000150: ffde e83d 0e25 c9bd 160f 883d 7553 02be
00000160: 5634 283e ae59 0b3e 9fd2 aa3d b5b3 1bbd
00000170: 6f0c 303e 9645 043e e328 de3d 09c5 143d
00000180: 6311 35bd 1936 fa3d f80f 8dbd 6448 92be
00000190: 1cf5 bf3e f806 573e 2609 ccbe 9af2 aebd
000001a0: b651 163f acd8 083f 0613 92be adee c5bd
000001b0: 62cc 5b3e f666 9c3e 62df 2c3e 2f3e babe
000001c0: 2332 9fbb 954b 583d 1323 6f3e 918c bb3e
000001d0: d2a6 863e 5b25 42bd fb9d 953e add5 a23b
000001e0: da5e 4d3e 123c 0b3e 4273 db3e 0590 8bbe
000001f0: 7732 22bf ef6a b4bd d47d 023e 0969 08be
00000200: 06ea 07be 3ed9 e73c a5b8 0dbe 3b4b 1abe
00000210: cfc1 40bd 1f70 003e 8f68 01ba c715 833d
00000220: cd0b 463d 1725 ea3c 57f3 92bd e4d8 60bd
00000230: 9b7b acbd 990e c63d b08c 6bbd 26d7 ccbc
00000240: fcc5 473a 14e3 173e 2c5c 48bd f158 59be
00000250: b437 683d c7d9 863c e4c1 123e 2f2c 52bd
00000260: a205 3f3e 6797 f23d 8156 2d3c fc0e ce3d
00000270: 7c22 71bd ddf3 2b3e 1493 ee3d 8a6e 513d
00000280: 670f 85bd 0775 863d 7cc0 9e3c 6d6e 9abe
00000290: 109d c83e d4a5 4a3e 4830 1bbf 95cf 10be
000002a0: 4627 153f 9c70 103f e0af 45be 18bf 29bd
000002b0: 764e b33e 5612 9e3e 095c 913d 6854 f3be
000002c0: 9b88 efbd 085e 7cbd 1259 6a3e 78a2 2a3e
000002d0: df95 333e 4f36 27be 5cf1 c73e 52d8 04be
000002e0: 753c 8d3d 5093 8e3e a9eb af3e 67c0 0abe
000002f0: 879d 20bf a5b0 66be 8e50 c53d 5b3a 3fbe
00000300: 2401 49be b6b6 06bd c53a f6ba 9ff5 ffba
00000310: 05a7 0c3e d4fc 423d 3af2 713d 1e2c 473d
00000320: 4a2f 753c 52f0 e3bb 002b 8b3c 05fd babd
00000330: 1f87 0bbe d93a 2dbd 7705 853d 408c 9cbd
00000340: b066 513d f11c e53d 9602 11be d131 713c
00000350: eda3 4f3e 8d46 beba 2372 8bbc 4251 f5bd
00000360: 9ebf 3b3a 24dd 13bb 09f1 1f3e 7556 80bd
00000370: 4c2b df3d cdaf 3e3e db82 1a3e 0bdf 253e
00000380: fb23 4bbe 2319 163e f159 aebd 8bab d0bd
00000390: 149a cc3e 0063 133d 407a 00bf 0aa1 a1bd
000003a0: 3a0a a83e 2e0b ad3e f731 0cbe 66f1 d03d
000003b0: 37fc a23d 9d2f c23e af9b c03d 8087 87be
000003c0: 30e9 23be 4dca e4bc 697f 4f3e 9046 c73e
000003d0: eef4 173e 8095 53bd ff9b 813e b6e1 5d3d
000003e0: 7437 b53d dfea 3f3e c12b b73e 976f 68be
000003f0: 788f eabe e96e 16bd 3b59 893e 021b 41be
0.023343058 0.014280362 -0.111329965 -0.04208214 -0.006137644 -0.0116715515 0.063113265 0.12646508
-0.0035911025 -0.09681514 -0.0286489 -0.021150311 0.017263852 -0.038708076 0.12303515 0.004883273
-0.07532277 -0.06583944 0.010087591 0.024673795 0.014109831 -0.04098382 0.0002447277 -0.001531991
0.04878106 0.058145702 -0.093661755 -0.0501088 0.0068910434 -0.08817319 -0.06000537 0.065416016
0.10843924 -0.013138634 -0.13743803 0.1534702 -0.29199532 -0.11252844 0.37637404 0.0065620523
-0.30200085 -0.1753888 0.049638107 -0.083034836 -0.16655868 -0.24292861 0.03251389 0.27916571
-0.039283413 -0.024691079 -0.029569395 -0.2628063 -0.14958361 0.17960334 -0.3828658 0.13289589
0.054445446 -0.15755433 -0.30280316 0.18856056 0.3547079 0.13843007 -0.19760312 0.1317011
-0.1475697 0.08937546 -0.013299812 -0.08827009 -0.022577582 0.0873755 0.1197515 -0.09946512
0.034804422 0.18377018 0.012511932 0.033061896 -0.03169251 0.12425073 -0.06143245 0.05723873
-0.030920481 -0.04818223 -0.1178807 -0.13627142 0.11370658 -0.09821521 0.066435024 -0.12727149
0.16426215 0.13608429 0.08340954 -0.03801318 0.17192243 0.1291717 0.10847642 0.03632072
-0.044206034 0.122173496 -0.068878114 -0.28570855 0.3749169 0.20998752 -0.3985073 -0.08542366
0.5871843 0.53455615 -0.2853014 -0.096646644 0.21464685 0.30547303 0.16882089 -0.36375567
-0.0048582717 0.052806456 0.23353224 0.3663068 0.2629915 -0.047398906 0.29222092 0.00496932
0.20055714 0.13597134 0.42861372 -0.27258316 -0.63358253 -0.088094585 0.12743312 -0.13321318
-0.13272867 0.028301831 -0.13839968 -0.1506776 -0.04705983 0.12542771 -0.000493654 0.06400638
0.048351098 0.028582139 -0.0717532 -0.054894343 -0.08422013 0.09670753 -0.057507217 -0.025004935
0.00076207495 0.14832717 -0.048916027 -0.21225335 0.056693748 0.016461266 0.14331776 -0.051311668
0.18654492 0.11845284 0.010579706 0.10061452 -0.058870777 0.16792245 0.11649147 0.05113081
-0.064970784 0.0656529 0.019378893 -0.30162373 0.3918233 0.19789821 -0.60620546 -0.14141686
0.5826305 0.5642183 -0.19305372 -0.041442007 0.35020798 0.30873364 0.070976324 -0.47525334
-0.11695977 -0.061613113 0.2288554 0.1666354 0.1753764 -0.16329311 0.3905133 -0.12973145
0.06896297 0.27846766 0.34359482 -0.13549958 -0.6274037 -0.22528322 0.09634505 -0.18674605
-0.19629341 -0.03288909 -0.0018785825 -0.0019528157 0.13735588 0.047604397 0.059068896 0.048626058
0.014964888 -0.0069561386 0.016988277 -0.09130291 -0.13625763 -0.04229245 0.06495183 -0.07643938
0.05112332 0.11187161 -0.14161143 0.01472135 0.20277376 -0.0014516875 -0.017022198 -0.11978389
0.0007162037 -0.002256223 0.15619291 -0.0626649 0.1089693 0.1862175 0.1508898 0.16198365
-0.19837944 0.14658026 -0.08513249 -0.10188969 0.39961302 0.035983086 -0.5018654 -0.07892044
0.32820302 0.33797592 -0.13690935 0.10202293 0.079582624 0.3792695 0.09404694 -0.26470566
-0.16006923 -0.027928496 0.20263447 0.38921022 0.14839527 -0.051656246 0.25314328 0.054170333
0.088484675 0.1874194 0.3577557 -0.22698818 -0.45812583 -0.036726866 0.2682589 -0.18857959

model.bigrill.fwd_rnn.spatial_decoder.lin_out.bias f4 [32]
00000000: ff3b 3ebd e82e 62bd 292a f1bd 7c44 5bbe
00000010: f85b b13d bb8c 923c 800e b9bd 68af b6bd
00000020: a070 4dbd 7e43 243b a105 a73d 7639 4ebe
00000030: 4021 90be 2557 5bbd 904b 10bd 87d2 863d
00000040: ebb2 bcbd fd20 0bbd 8081 7ebe 22f1 30be
00000050: f99f 81be 5fa1 acbd 1a96 6fbd 4b45 24be
00000060: 13ba 1bbd 2b80 2dbe 7a6d 62bb b7d5 6f3c
00000070: 9f79 5bbe 79a6 1e3e a435 913d 0f98 ca3d
-0.046443935 -0.055220515 -0.117756195 -0.21412843 0.0866012 0.017889371 -0.09035969 -0.08920175
-0.050156236 0.0025064643 0.081553705 -0.20139107 -0.28150368 -0.053549904 -0.035228312 0.06583124
-0.092138134 -0.033967007 -0.24854088 -0.17279485 -0.25317362 -0.084292166 -0.058492757 -0.16042058
-0.03801925 -0.16943423 -0.0034550116 0.014638356 -0.21433114 0.15493192 0.07090309 0.09892284

model.bigrill.fwd_rnn.spatial_decoder.read_out.weight f4 [1, 64, 1]
00000000: 5f85 0b3f bf0f 67bf 88fa 58bf 1c17 5ebf
00000010: bd15 26bf 5bde 153f 7c14 0b3f 93a0 053f
00000020: 94ce 173f 4a13 113f c288 d93e f0f6 6ebf
00000030: 92ec 7fbf 5f69 77bf 36ed 2f3f 2a1d 1e3f
00000040: 500d 58bf aa62 33bf e07b 8ebf 57bd 6dbf
00000050: ad19 84bf 1cee 6fbf 0927 6cbf 0140 51bf
00000060: 15db 88bf 5197 53bf 29ac 0c3f 60f2 d53e
00000070: 52aa 47bf 783f adbe 9beb 163f 6138 0f3f
00000080: 9422 893d 83e4 bfbe 9f04 1c3e 2cf9 983e
00000090: d114 29bf dc77 91be 4f96 e03e c709 903e
000000a0: 1fb3 2fbf fbca e6be 01b6 993e 5c2c a3be
000000b0: fe31 acbe d5ca 03bf 9072 4cbe 819d b83e
000000c0: 6a08 8b3d c640 6f3e 2578 a4be 8d49 aebe
000000d0: 948c 8dbe c02c 353e e028 bdbe 199c 01be
000000e0: f5cf d6be 6de3 87be 5f2e bfbe 2d75 993e
000000f0: 43f7 d33e 1bb8 233e 3103 9abe 0e7a b13e
0.54500383 -0.902584 -0.8475728 -0.8675401 -0.6487692 0.5854241 0.5432813 0.5219814
0.5929959 0.5667006 0.4248715 -0.93345547 -0.9997035 -0.9664516 0.6872133 0.6176325
-0.84395313 -0.70072424 -1.1131554 -0.92867035 -1.0320336 -0.937227 -0.9224706 -0.8173829
-1.0691859 -0.82652766 0.54950196 0.4178648 -0.77994263 -0.33837485 0.58953255 0.559454
0.066960484 -0.37479028 0.15236138 0.29877603 -0.6604739 -0.28411758 0.43864676 0.2813246
-0.6863269 -0.45076737 0.3002167 -0.3186978 -0.3363189 -0.5148137 -0.19965577 0.36057666
0.06788714 0.23364553 -0.32122913 -0.3404049 -0.27646315 0.17692852 -0.36945248 -0.12657203
-0.41955534 -0.265407 -0.37340066 0.2997221 0.41399583 0.159882 -0.3008056 0.34663433
