logs/discharge_point/grin/2023-10-26_18-24-37_785411668/epoch=33-step=2958.ckpt (torch, 707635 bytes, 102 tensors)

model.bigrill.emb f4 [8, 20]
0	0x3eaf773d	0.3427066
1	0xbea02786	-0.31280154
2	0x3e8b8d42	0.2725621
3	0x3d5ff414	0.05467613
4	0xbed12c1d	-0.40853968
5	0x3f4b05ba	0.79305613
6	0xbeb45ec4	-0.3522855
7	0x3f05497d	0.5206526
8	0xbd2c8c02	-0.04212571
9	0x3e573f99	0.21020354
10	0x3e81f2d1	0.25380567
11	0xbd9d7a54	-0.07689348
12	0xbda957ea	-0.082687214
13	0xbf00ab4c	-0.5026138
14	0xbd8f0331	-0.069830306
15	0xbca7ab10	-0.020467311
16	0xbe0e9f09	-0.13927855
17	0xbe32da25	-0.17466028
18	0x3b34fa80	0.002761513
19	0x3eb63bf3	0.35592613
20	0xbe897a90	-0.2685132
21	0xbeb94526	-0.3618557
22	0xbdfc13d6	-0.12308471
23	0xbf262b9b	-0.64910287
24	0xbf33c6e9	-0.7022539
25	0xbd96f1b8	-0.07370323
26	0xbe753ff0	-0.23950171
27	0x3ec29a88	0.38008523
28	0xbe986ffc	-0.29772937
29	0xbdb72d92	-0.08944239
30	0xbe1de67a	-0.15419951
31	0x3ea12e13	0.31480464
32	0x3ed81813	0.42205867
33	0xbeda9efc	-0.4269942
34	0xbdaca1f2	-0.08429326
35	0xbdec6181	-0.11542035
36	0x3d90fa60	0.07079005
37	0x3ef93ccc	0.48679197
38	0x3f27fd30	0.6562071
39	0xbe676630	-0.22597575
40	0x3ecd5cc9	0.40109852
41	0x3ea02251	0.3127618
42	0x3e8ccfce	0.27502292
43	0x3dc1b971	0.09459198
44	0x3ea2fbc2	0.318327
45	0x3e42ecf1	0.19035698
46	0xbe3a1d8d	-0.18175335
47	0xbddf7217	-0.10910433
48	0x3e35ed5d	0.17766328
49	0xbdb61215	-0.088901676
50	0xbe63a4ad	-0.22230788
51	0xbda5b3bb	-0.080909215
52	0xbcc85b66	-0.024457645
53	0x3e5f4f10	0.21807504
54	0x3eac703d	0.3367938
55	0x3f2abe82	0.6669694
56	0x3f0c2b0d	0.5475319
57	0xbd8ca1c7	-0.06866794
58	0xbe5c0911	-0.21487834
59	0x3ed122d0	0.40846872
60	0xbec654e7	-0.3873665
61	0x3ede01c1	0.43360713
62	0x3e9b3450	0.3031335
63	0xbeb8b37f	-0.36074445
64	0x3e194bd3	0.14970331
65	0xbeac29cf	-0.33625647
66	0xbe0faee9	-0.14031567
67	0xbf058ecf	-0.52171034
68	0xbe4f7c4c	-0.20262259
69	0x3d4aa13a	0.049470164
70	0x3f0c71c6	0.54861104
71	0x3dfe7686	0.1242495
72	0xbcde2bf9	-0.027120577
73	0x3e548806	0.20755014
74	0x3e2cfd31	0.1689346
75	0x3f3f7ebc	0.74802756
76	0xbe7dc369	-0.24781574
77	0xbef3b9c9	-0.4760268
78	0x3efb84f9	0.49124888
79	0x3e408ff4	0.18804914
80	0xbeb27e74	-0.348621
81	0xbda09b15	-0.078420796
82	0xbee1731b	-0.4403313
83	0xbd15d0a8	-0.036575943
84	0xbd5d49df	-0.054025527
85	0xbe94a588	-0.2903254
86	0x3d707764	0.05870761
87	0xbed77348	-0.4208014
88	0xbe69de86	-0.22838792
89	0xbe03328b	-0.1281225
90	0xbf06a976	-0.52602327
91	0xbf24dd0e	-0.643998
92	0xbf177b2a	-0.5917231
93	0x3df3e4aa	0.119088486
94	0xbe8eb48a	-0.27872115
95	0xbecdef35	-0.40221563
96	0xbb1bae69	-0.002375508
97	0xbd7bf699	-0.06151447
98	0x3c24af4b	0.010051559
99	0xbd8d92dc	-0.06912777
100	0xbe41116e	-0.18854305
101	0x3f248ac8	0.64274263
102	0x3e805df8	0.25071692
103	0xbe5da421	-0.21644641
104	0x3f26a0a2	0.65088856
105	0x3e65abea	0.22428861
106	0xbeacf59d	-0.33781138
107	0xbf57dbe9	-0.8431993
108	0x3f035b3a	0.51311076
109	0x3f1b22a3	0.60599726
110	0xbeb54705	-0.35405746
111	0xbf488a53	-0.78336066
112	0xbe40e25f	-0.18836354
113	0x3d86bf27	0.06579428
114	0x3f18c98b	0.5968253
115	0xbe0ee356	-0.1395391
116	0xbf03b273	-0.51444167
117	0xbf267aa4	-0.65030885
118	0xbed4242c	-0.41433847
119	0xbda89d6a	-0.08233149
120	0x3eaa5996	0.33271474
121	0xbf334d95	-0.70040256
122	0xbc158077	-0.009124867
123	0xbeab7488	-0.33487344
124	0xbeb5aa65	-0.35481563
125	0x3f8cb472	1.0992568
126	0x3e8527cf	0.26006934
127	0xbd088ea4	-0.033339158
128	0x3e727b85	0.23679931
129	0x3ebce62b	0.36894354
130	0xbe37df50	-0.1795628
131	0x3eeb374f	0.45940635
132	0x3d484797	0.0488964
133	0xbf14977a	-0.58043635
134	0xbf2c0960	-0.67201805
135	0xbec0ad64	-0.37632287
136	0x3e9eccc4	0.310156
137	0x3e30fb7c	0.17283434
138	0x3ea62354	0.32448828
139	0x3f741aec	0.9535358
140	0x3ea4606e	0.3210482
141	0xbe8a681f	-0.27032563
142	0xbe6d3793	-0.23165731
143	0x3ea603f2	0.32424885
144	0x3e77412e	0.24145958
145	0x3e7fe8b6	0.24991116
146	0x3ebf2741	0.37334636
147	0x3f03556b	0.5130221
148	0xbdfee7d1	-0.12446559
149	0xbec6729d	-0.38759318
150	0x3d76fce6	0.060299776
151	0x3e5ac3b4	0.21363717
152	0xbea87db1	-0.32908395
153	0xbe0beceb	-0.13664596
154	0xbf6277b6	-0.88463914
155	0xbf2470e5	-0.64234763
156	0x3e00fc95	0.12596352
157	0xbe9a76be	-0.30168718
158	0x3d6683cf	0.056278046
159	0xbdb64de8	-0.08901578

model.bigrill.fwd_rnn.cells.0.forget_gate.mlp.weight f4 [32, 170, 1, 1]
0	0xbda378b3	-0.07982006
1	0x3d8b3f23	0.06799152
2	0xbe0cb9db	-0.13742773
3	0x3da1521d	0.0787699
4	0x3d333c3c	0.043758616
5	0x3d2b0449	0.041752134
6	0xbd790c67	-0.060802843
7	0x3d84631d	0.06464217
8	0xbb4d3c9f	-0.003131665
9	0x3d83f7e3	0.06443765
10	0xbd442d83	-0.047894966
11	0xbda40382	-0.080084816
12	0x3dd6120b	0.1045266
13	0xbd2e5a4d	-0.042566586
14	0x3c96d354	0.018411316
15	0xbe09a88b	-0.134432
16	0xbd82c71f	-0.063856356
17	0x3d9322f0	0.07184398
18	0xbe29f407	-0.16596995
19	0x3db4ec44	0.088341266
20	0x3d6c67e8	0.05771628
21	0x3e119791	0.14217974
22	0x3dd11cf0	0.102105975
23	0x3e49d22a	0.19709077
24	0x3deff538	0.11716694
25	0xbd3feefd	-0.046858776
26	0x3dc385d3	0.09547009
27	0xbe22663f	-0.15859316
28	0xbd978c81	-0.07399846
29	0x3e1131fc	0.14179224
30	0x3dda633c	0.10663459
31	0x3d48e12e	0.049042873
32	0xbdf4af8e	-0.11947547
33	0x3d777ae6	0.06041994
34	0xbbdd7860	-0.0067587346
35	0x3dec9f2d	0.11553798
36	0xbd4200ef	-0.04736417
37	0x3e3a7139	0.18207254
38	0xbd91b1ea	-0.071140125
39	0xbdbfabbb	-0.09358927
40	0x3d76c4a9	0.060246143
41	0x3d274d47	0.04084518
42	0xbd3e555a	-0.046468116
43	0xbdc6e07d	-0.097107865
44	0xbda2d875	-0.07951442
45	0xbd310e1a	-0.04322634
46	0x3cdab60e	0.026698139
47	0xbd769c70	-0.060207784
48	0xbd98f893	-0.07469287
49	0xbd1ec6a0	-0.038763642
50	0x3d814c53	0.06313386
51	0x3b84ea5c	0.004056258
52	0xbd85a337	-0.065252714
53	0x3c5c79ec	0.013456803
54	0x3d93a55c	0.07209274
55	0x3cb601db	0.022217682
56	0x3d5ab4ba	0.05339501
57	0x3d24893f	0.04016995
58	0x3dd69d62	0.10479237
59	0xbd10ff20	-0.035399556
60	0x3db3fd10	0.08788502
61	0xbd7edbd7	-0.062221374
62	0xbd7b7549	-0.06139115
63	0xbd12adf8	-0.03581044
64	0x3cd8247c	0.026384585
65	0xbd27c92e	-0.040963344
66	0xbe0fb2e0	-0.14033079
67	0x3d77d90b	0.060509723
68	0x3d8c6167	0.068545155
69	0x3d3e13e4	0.046405688
70	0xbd81f675	-0.06345836
71	0x3cc6a6e5	0.024249503
72	0xbc71af66	-0.014751291
73	0xbe0765b4	-0.1322239
74	0x3b5eed2a	0.0034015873
75	0xbc97869f	-0.01849681
76	0xbce64f58	-0.028114006
77	0xbb950816	-0.004548083
78	0x3d98bd2f	0.07457959
79	0x3d84d7ce	0.06486474
80	0x3d367b7a	0.04455135
81	0xbc7c1fad	-0.0153884115
82	0xbb3a59a5	-0.002843478
83	0xbd997937	-0.07493823
84	0x3d7cd647	0.06172779
85	0x3d413add	0.047175277
86	0x3d19d4fe	0.03755664
87	0x3d5a3e89	0.053282294
88	0x3ce6b608	0.028162971
89	0xbd35173a	-0.044211604
90	0xbd3b3bef	-0.045711454
91	0x3db8d499	0.09024925
92	0xbb3b8444	-0.0028612772
93	0x3d807a42	0.06273319
94	0x3d417f6f	0.04724067
95	0x3de1b232	0.11020316
96	0xbd8c364c	-0.06846294
97	0xbd3f889c	-0.04676114
98	0x3cab98d6	0.020946901
99	0x3bac0196	0.0052492125
100	0xbd86a67b	-0.065747224
101	0x3d4187ee	0.047248773
102	0xbd37c5ea	-0.04486648
103	0x3d432034	0.047638133
104	0x3c006e41	0.007838787
105	0x3e300454	0.17189151
106	0xbd90076b	-0.07032665
107	0xbdca6ee5	-0.09884433
108	0x3b1c735f	0.0023872477
109	0xbc0fa8f7	-0.008768312
110	0xbace4de8	-0.0015739771
111	0x3d9fd217	0.07803743
112	0xbd9281ed	-0.071536876
113	0x3d48958a	0.048970737
114	0x3de32eb0	0.11092889
115	0xbd1c4df9	-0.038160298
116	0x3c4cca9f	0.0124994805
117	0xbda7efa5	-0.082000054
118	0x3da7fa46	0.08202033
119	0xbc878010	-0.016540557
120	0xbe403833	-0.18771438
121	0x3c76131a	0.015019203
122	0x3e1fc85d	0.15603776
123	0x3d95a24d	0.07306347
124	0x3dfe962d	0.124309875
125	0xbc267987	-0.01016081
126	0xbc8bfe68	-0.017089084
127	0x390f0005	0.0001363755
128	0x3dc3e607	0.095653586
129	0xbd10d74c	-0.035361573
130	0xbe50787e	-0.20358464
131	0x3d72b369	0.05925313
132	0x3e07ed2d	0.13274069
133	0xbd3467ba	-0.044044234
134	0xbd8f89ae	-0.07008682
135	0x3e324d65	0.17412336
136	0xbd530e01	-0.051527027
137	0x3e04aa2f	0.12955545
138	0xbca7bd9f	-0.02047616
139	0x3e1983b8	0.14991653
140	0x3ae3c826	0.0017378374
141	0x3cbbfe75	0.022948483
142	0xbd248a21	-0.040170792
143	0xbd7daf59	-0.061934803
144	0xbce2b9af	-0.027676431
145	0x3d8a59bf	0.06755399
146	0xbdf33013	-0.11874404
147	0xbdf47eb1	-0.11938227
148	0x3e292cd5	0.16521008
149	0xbdec7cd8	-0.115472496
150	0x3da33bf9	0.07970423
151	0xbe2bf2f4	-0.16791898
152	0x3aa17f2d	0.0012321227
153	0x3d93b217	0.07211702
154	0x3c864eca	0.016394991
155	0x3e543df1	0.20726754
156	0x3d3f94e0	0.046772838
157	0x3e0e5c1c	0.13902324
158	0x3c08c7ac	0.008348387
159	0x3d0ddc58	0.034633964
160	0x3dacc09d	0.084351756
161	0x3d37d7fc	0.044883713
162	0x3de52faf	0.111907355
163	0xbbbbd639	-0.0057323244
164	0xbdf4da77	-0.11955731
165	0x3e00f3eb	0.12593047
166	0x3db3a203	0.08771136
167	0x3d9d0b85	0.07668213
168	0xbc665b3d	-0.014059839
169	0x3e170ff4	0.1475218
170	0x3ec81b7e	0.39083475
171	0xbec31848	-0.38104463
172	0x3db83aa4	0.0899556
173	0xbdf3ba36	-0.11900751
174	0x3e24b8d7	0.16086136
175	0x3e0b80ce	0.13623354
176	0x3d0766ec	0.03305714
177	0xbe30d301	-0.17267992
178	0xbdb91b44	-0.09038404
179	0xbe665afa	-0.22495642
180	0x3df7c53b	0.120981656
181	0x3d1b38c0	0.037895918
182	0xbe7ea03e	-0.24865815
183	0x3da7aef7	0.08187669
184	0x3d82a0a2	0.063782945
185	0x3e4caf31	0.19988705
186	0x3c4b1745	0.012395685
187	0xbd5c54e6	-0.053791903
188	0x3e0570b3	0.13031273
189	0x3e4b9155	0.19879659
190	0xbe99a43e	-0.3000812
191	0xbe531b00	-0.20615768
192	0xbdffd2a7	-0.124913506
193	0xbe8521da	-0.2600239
194	0x3d48a3fa	0.048984505
195	0x3d9c1707	0.076215796
196	0xbea639ed	-0.3246607
197	0x3d26541c	0.040607557
198	0x3e041ca5	0.12901552
199	0xbdbeedac	-0.09322676
200	0xbde262da	-0.11054011
201	0x3df50255	0.119633354
202	0x3e80177b	0.25017914
203	0xbe86d16d	-0.26331654
204	0x3e0c6f68	0.13714373
205	0xbde58a22	-0.11207987
206	0x3d027a06	0.031854652
207	0xbd827be2	-0.06371285
208	0x3d99aea8	0.07504016
209	0xbda8da8b	-0.08244809
210	0xbe2101d7	-0.15723358
211	0xbdbd995e	-0.09257768
212	0x3d28e549	0.04123429
213	0xbd54b4b8	-0.05193016
214	0xbd0b6c4f	-0.034038838
215	0xbe03f7be	-0.12887475
216	0xbda191d9	-0.07889146
217	0x3e4a6ae0	0.19767332
218	0x3de6b548	0.112650454
219	0x3d920f14	0.07131782
220	0x3ccc231a	0.024919081
221	0x3d4f38c3	0.05059124
222	0x3cf1a2c0	0.02949655
223	0x3e2c382b	0.16818301
224	0xbe8ec93e	-0.2788791
225	0xbdd8b71a	-0.10581799
226	0xbe082c31	-0.13298108
227	0xbe5518a6	-0.20810184
228	0xbd36e210	-0.044649184
229	0x3d63a8e5	0.055580992
230	0xbdd30e25	-0.10305432
231	0xbc4390e3	-0.011936399
232	0x3e266679	0.16250028
233	0xbe072aa7	-0.13199864
234	0x3dce7354	0.10080591
235	0x3c4749d1	0.012163595
236	0x3ca29ea4	0.019851036
237	0x3c360387	0.011109239
238	0xbb70a645	-0.0036720198
239	0xbce60bf9	-0.02808188
240	0xbc6a5fa0	-0.014305025
241	0xbdb7aaae	-0.089681014
242	0x3d16e5aa	0.03684012
243	0x3e29aeff	0.16570662
244	0xbd342044	-0.043976083
245	0xbcab7bea	-0.02093311
246	0xbcf383e6	-0.02972598
247	0xbe11f9e8	-0.14255488
248	0x3d355611	0.044271532
249	0xbc5e2bc6	-0.013560241
250	0xbe306b2d	-0.17228384
251	0x3df2ebb1	0.11861361
252	0x3e01432f	0.12623285
253	0xbd7306a8	-0.05933252
254	0xbda3143f	-0.07962846
255	0x3dce305f	0.1006782

model.bigrill.fwd_rnn.cells.0.forget_gate.mlp.bias f4 [32]
0	0x3dc3e165	0.09564475
1	0x3c1ccc76	0.009570232
2	0x3cb896d0	0.02253285
3	0xbd9bb9ff	-0.07603835
4	0x3dabe7de	0.083938345
5	0xbe014bef	-0.12626623
6	0xbe109759	-0.14120235
7	0x3c177673	0.009244549
8	0x3da84b24	0.08217457
9	0x3d7de7d0	0.06198865
10	0xbd28063e	-0.041021578
11	0xbd8253a4	-0.063636094
12	0x3e06eba6	0.1317583
13	0xbd36c4e6	-0.04462137
14	0x3cf09754	0.029369034
15	0x3e0306ce	0.12795565
16	0x3dedb513	0.11606803
17	0x3d3b86f4	0.045783
18	0xbd049c62	-0.0323757
19	0x3de80b90	0.1133033
20	0xbdd4694c	-0.10371646
21	0xbd7e151c	-0.06203185
22	0x3d3ee5cb	0.046605866
23	0x3e69f29c	0.22846454
24	0x3dddf91e	0.10838531
25	0xbce70b9d	-0.02820378
26	0xbd86aff1	-0.06576527
27	0x3e0c04b0	0.13673663
28	0x3cb1fb53	0.021726286
29	0x3e0a9974	0.135351
30	0xbd43cf3e	-0.047805063
31	0xbb6a3286	-0.003573568

model.bigrill.fwd_rnn.cells.0.update_gate.mlp.weight f4 [32, 170, 1, 1]
0	0xbdca6f09	-0.098844595
1	0xbbab8fe2	-0.005235658
2	0xbe0382ec	-0.12842911
3	0x3ce797ba	0.028270591
4	0x3c4bf6f6	0.012449017
5	0xbdff6ace	-0.12471543
6	0x3d416864	0.047218695
7	0x3dd4cb7a	0.103903726
8	0x3e8e7b7a	0.2782858
9	0x3ddee3f8	0.10883325
10	0xbea1468a	-0.3149913
11	0xbda0ae8d	-0.07845793
12	0x3e2c129d	0.16803975
13	0xbe2b7b58	-0.1674627
14	0xbe75eb6d	-0.24015589
15	0xbdf284f5	-0.11841766
16	0xbdc99bd3	-0.09844174
17	0xbd7fd138	-0.062455386
18	0xbe207282	-0.15668681
19	0x3dfaeee8	0.12252599
20	0x3e1f0855	0.15530522
21	0x3d826068	0.06366044
22	0x3e1961cb	0.14978711
23	0x3afd011d	0.00193027
24	0xbdd97618	-0.10618228
25	0xbdca1de9	-0.09868986
26	0xbdac6cdb	-0.084192
27	0xbe98bef5	-0.2983319
28	0x3e14f6dd	0.14547296
29	0x3d05bfc0	0.03265357
30	0xbd0a05ad	-0.03369682
31	0xbe57de2d	-0.21080847
32	0xbdbbdf32	-0.091734305
33	0xbdde8658	-0.10865468
34	0xbdb19b2e	-0.08672176
35	0x3c31b084	0.010845307
36	0xbd98e599	-0.07465667
37	0xbe181e3d	-0.14855285
38	0x3db125d7	0.086497955
39	0x3d570a3d	0.0525
40	0x3debb57c	0.11509225
41	0x3da9b901	0.0828724
42	0x3de74e52	0.11294235
43	0x3b8f2df1	0.0043694903
44	0x3d151cc7	0.036404397
45	0x3cfd6e4a	0.030936379
46	0x3e4024d3	0.18764047
47	0x3de47f09	0.111570425
48	0x3ddafe00	0.10692978
49	0x3e222143	0.15833001
50	0x3918e2da	0.00014580358
51	0xbe102f9e	-0.14080665
52	0xbd1744d1	-0.036930863
53	0x3e694f7a	0.22784224
54	0x3e3d7746	0.1850253
55	0x3c7bc4a1	0.015366704
56	0x3dc33190	0.09530938
57	0x3d5eb39e	0.054370515
58	0x3d9475da	0.07249041
59	0x3d4b5f69	0.049651537
60	0xbcc37dab	-0.023863634
61	0xbd697829	-0.05699936
62	0xbcf752fa	-0.030190933
63	0xbe2e2240	-0.17005253
64	0xbdc4747b	-0.095925294
65	0xbcf14194	-0.029450215
66	0xbd582bfa	-0.052776314
67	0x3c921e29	0.017836647
68	0xbbaecfae	-0.005334816
69	0x3e7f331b	0.24921839
70	0x3db0a188	0.0862456
71	0x3cea032e	0.02856597
72	0x3c992977	0.01869653
73	0x3def2701	0.11677361
74	0x3d644c79	0.055736993
75	0x3ddc02bf	0.10742711
76	0x3ab2f5ba	0.0013653554
77	0xbcfb254e	-0.030657437
78	0xbbba5073	-0.00568586
79	0x3cebbddb	0.028777054
80	0x3ca8f3dc	0.020624094
81	0x3d2391f8	0.03993413
82	0xbd2ad8ae	-0.041710548
83	0xbe08298d	-0.132971
84	0xbe2d7bec	-0.16941804
85	0xbdb3c818	-0.08778399
86	0x3da5e09d	0.08099482
87	0x3e126be8	0.14298975
88	0x3d0182a3	0.031618726
89	0xbdacdccd	-0.08440552
90	0xbdc2335e	-0.09482454
91	0x3d14d4c7	0.036335733
92	0x3cd5b522	0.026087347
93	0x3d9ab9cd	0.0755497
94	0x3daa17aa	0.08305295
95	0x3bdda43d	0.0067639635
96	0x3dafde1b	0.08587285
97	0x3d0a95e4	0.033834353
98	0x3e6114fc	0.21980661
99	0x3d2fc5d2	0.042913266
100	0xbe0e2280	-0.13880348
101	0x3ddbca47	0.10731941
102	0xbcb62a87	-0.022237075
103	0x3c8464e6	0.016161393
104	0xbdea48a7	-0.114396386
105	0x3da952e4	0.08267763
106	0xbd7f1bfa	-0.06228254
107	0x3e1032b5	0.14081843
108	0xbc935055	-0.017982641
109	0xbce30b40	-0.027715325
110	0x3e7f4f92	0.24932697
111	0x3da05a71	0.0782975
112	0xbd9eee60	-0.0776031
113	0xbe5fda42	-0.21860602
114	0xbdd319a6	-0.103076264
115	0xbc4e0d39	-0.012576395
116	0x3cdf031f	0.027223168
117	0x3c37b8c3	0.011213484
118	0x3d529401	0.05141068
119	0xbd2e1f97	-0.042510595
120	0xbe1d7e7d	-0.15380283
121	0xbd00d86d	-0.0314564
122	0x3d34770e	0.044058852
123	0x3bffd6b7	0.0078075784
124	0xbe1656dc	-0.14681572
125	0xbcf16317	-0.029466195
126	0x3e2abc44	0.1667338
127	0xbd9cd3f4	-0.07657614
128	0x3e162125	0.14661081
129	0xbe8aad67	-0.2708542
130	0x3e263789	0.16232122
131	0xbd154dcd	-0.03645115
132	0x3de153a4	0.11002281
133	0xbdcfcb02	-0.101461425
134	0x3e03675b	0.12832396
135	0xbe8d5ac0	-0.276083
136	0xbd6913c8	-0.05690363
137	0xbe20c650	-0.1570065
138	0xbd81db2c	-0.06340632
139	0xbde6247d	-0.11237428
140	0xbd0bde58	-0.03414759
141	0xbd687c98	-0.056759447
142	0x3d17733d	0.036975134
143	0x3e270e7c	0.16314119
144	0x3e2b68a6	0.16739139
145	0x3b11e8b4	0.0022263946
146	0xbd3bdb26	-0.045863293
147	0xbd4f863a	-0.050665118
148	0x3bb869bc	0.005627839
149	0xbc11e060	-0.008903593
150	0xbd8573fd	-0.06516264
151	0x3c538d2f	0.012912079
152	0x3e2f4038	0.17114341
153	0xbc4e7085	-0.012600069
154	0xbda30248	-0.079594195
155	0xbe241e80	-0.1602726
156	0x3e1ea63f	0.15493105
157	0x3c130dcc	0.008975457
158	0xbdf9bcba	-0.121942
159	0xbe81dd97	-0.25364372
160	0x3b4e5a2e	0.0031486857
161	0xbe93af71	-0.2884479
162	0x3dee1ec5	0.116269626
163	0xbe579fed	-0.210571
164	0xbd6c5925	-0.057702202
165	0x3e24dc33	0.16099624
166	0x3d53f684	0.051748767
167	0xbdfb1f84	-0.122618705
168	0xbdaccdaa	-0.08437665
169	0x3d644763	0.055732142
170	0xbd36a075	-0.044586617
171	0xbf2d66ae	-0.677348
172	0xbe30064b	-0.171899
173	0xbedb5f28	-0.42846036
174	0x3d00883f	0.031379934
175	0x3e89a66f	0.2688479
176	0xbc83ba9e	-0.016080197
177	0xbc1b4b72	-0.009478437
178	0xbe13568b	-0.14388482
179	0x3d2b9c1d	0.041896928
180	0x3d57f202	0.05272103
181	0xbb55eb5a	-0.0032641501
182	0xbd888f36	-0.0666794
183	0x3d6ab1f8	0.05729863
184	0xbdea0aa7	-0.11427813
185	0x3c608352	0.013703184
186	0xbce0474a	-0.027377743
187	0xbd9f1856	-0.077683136
188	0x3bf1248d	0.0073590935
189	0x3ef0f62b	0.4706281
190	0xbc0254e0	-0.007954806
191	0x3e1e20b3	0.15442161
192	0xbccf2445	-0.02528585
193	0x3d53cb96	0.051707827
194	0x3ac67761	0.0015141779
195	0xbd725a70	-0.05916828
196	0xbed57017	-0.4168708
197	0xbcfb851d	-0.030703122
198	0x3df88491	0.1213466
199	0x3dcd07d6	0.1001126
200	0xbe964f32	-0.29357296
201	0x3db6eec4	0.0893226
202	0x3e55eb42	0.20890525
203	0x3c5f944d	0.0136461975
204	0x3b88e031	0.0041771163
205	0xbd486b1c	-0.048930272
206	0x3d0fd18b	0.035111945
207	0xbdfbfb9b	-0.12303849
208	0x3c5ce6d5	0.013482769
209	0x3d90655a	0.07050581
210	0xbc21a689	-0.009866365
211	0xbdaff447	-0.08591514
212	0xbcb1a03d	-0.021682853
213	0x3c290635	0.010316421
214	0x3e0c7a41	0.13718511
215	0xbc39d79b	-0.011342908
216	0xbe160b27	-0.14652692
217	0x3d859593	0.0652267
218	0xbc5b80a6	-0.013397371
219	0xbc68f5e5	-0.014218782
220	0xbd0b1bf0	-0.03396219
221	0x3cb77aa8	0.022397354
222	0x3d878fae	0.066192016
223	0x3d23cae7	0.039988425
224	0xbd3409e4	-0.043954745
225	0xbd3570a5	-0.04429688
226	0xbe2e3cde	-0.17015406
227	0xbdd9f70e	-0.10642825
228	0x3da73b84	0.081656486
229	0xbd5cc48e	-0.053898387
230	0xbd75a3a6	-0.05997052
231	0x3dc3c16f	0.09558379
232	0x3e2aa0d9	0.16662921
233	0x3caba38a	0.020952005
234	0xbd36a63b	-0.044592123
235	0x3ca6e44c	0.020372532
236	0x3e3c67cf	0.18398975
237	0xbdcb6367	-0.09931069
238	0xbb9bc1af	-0.0047533135
239	0x3cdf77f8	0.027278885
240	0xbced5a93	-0.028973853
241	0xbe0d2d1a	-0.13786736
242	0xbccf9565	-0.025339792
243	0x3c5c85e5	0.013459657
244	0xbd7931e3	-0.06083859
245	0xbd2c5c11	-0.04207999
246	0xbb8357bc	-0.0040082615
247	0xbca599ef	-0.020215003
248	0xbcad0598	-0.021120831
249	0x3cddadc3	0.027060395
250	0xbdc73a7d	-0.09727953
251	0x3d55d582	0.05220557
252	0x3d554076	0.052063428
253	0x3e0580eb	0.1303746
254	0xbd9487e1	-0.07252479
255	0xbd341174	-0.043961957

model.bigrill.fwd_rnn.cells.0.update_gate.mlp.bias f4 [32]
0	0xbe473ecd	-0.1945755
1	0xbc2eeea0	-0.01067701
2	0x3e008b90	0.12553239
3	0x3e3943a1	0.18092205
4	0xbcaad422	-0.020853106
5	0x3e725296	0.23664317
6	0x3da0a845	0.07844595
7	0x3e0f23e2	0.13978532
8	0xbb658a7c	-0.003502517
9	0x3dfc0867	0.1230629
10	0x3c971135	0.018440822
11	0xbc7113dd	-0.014714208
12	0xbe528500	-0.20558548
13	0x3da6a27a	0.08136459
14	0xbde7e043	-0.113220714
15	0xbce2d0f0	-0.02768752
16	0x3e95041b	0.29104695
17	0x3e9a1107	0.30091116
18	0x3d924910	0.07142842
19	0xbe836e4b	-0.25670084
20	0x3de1aef7	0.110197
21	0x3e5435e4	0.20723683
22	0x3bfc9cad	0.007709107
23	0xbc1bfa4f	-0.009520127
24	0x3e5b3f28	0.21410811
25	0x3db9b4a6	0.09067659
26	0x3e28b2e9	0.16474499
27	0xbe1d3e74	-0.15355855
28	0x3c6843a4	0.014176283
29	0x3e35584d	0.17709465
30	0x3d3d9c54	0.046291664
31	0x3e44de7d	0.19225498

model.bigrill.fwd_rnn.cells.0.c_gate.mlp.weight f4 [32, 170, 1, 1]
0	0x3dada9ae	0.084796295
1	0xbe3c95f0	-0.18416572
2	0xbe15142c	-0.14558476
3	0xbec6fe25	-0.38865772
4	0xbd34272c	-0.04398267
5	0x3b07be6c	0.0020712866
6	0x3cc5394e	0.024075177
7	0xbe2e0dea	-0.16997495
8	0xbdd0ef14	-0.102018505
9	0x3b00a8b6	0.001963181
10	0x3e745f28	0.23864424
11	0x3da2ba84	0.07945731
12	0xbc7cfe48	-0.015441485
13	0xbdff5fe2	-0.1246946
14	0xbe34df67	-0.17663346
15	0x3e6f99a2	0.2339845
16	0xbcb48445	-0.022035727
17	0xbd854b96	-0.065085575
18	0xbd7a9e3f	-0.06118607
19	0xbd1aba0e	-0.03777509
20	0xbd1b4e94	-0.037916735
21	0x3c82af51	0.015952738
22	0xbe7a892f	-0.24466394
23	0xbe83d93f	-0.25751683
24	0xbe2437ee	-0.1603696
25	0xbeb775b7	-0.35831997
26	0xbdfdcd53	-0.12392678
27	0x3e510b3c	0.20414442
28	0x3ea7c2e5	0.3276588
29	0x3d086da0	0.03330767
30	0xbd731881	-0.05934954
31	0xbe28b562	-0.16475442
32	0x3ebd66b0	0.36992407
33	0xbcb31118	-0.021858737
34	0x3badcb45	0.0053037726
35	0xbdfa229d	-0.12213633
36	0xbdf0a497	-0.11750143
37	0xbdf229a0	-0.118243456
38	0xbe09affe	-0.13446042
39	0x3d37ba2b	0.044855278
40	0x3d7723d5	0.060336906
41	0x3cc9a4cd	0.024614716
42	0x3dc1f651	0.09470809
43	0x3d05d3ff	0.03267288
44	0xbdbfd284	-0.093663245
45	0x3d9275db	0.071513854
46	0xbd9c20b9	-0.07623429
47	0xbcffb8be	-0.031216022
48	0xbd87fa4a	-0.06639536
49	0x3cb70588	0.022341505
50	0x3d314a52	0.043283768
51	0xbdfb23ca	-0.122626856
52	0xbd0f50e2	-0.034989245
53	0xbdf0d4e4	-0.11759356
54	0xbd75b720	-0.059989095
55	0xbcfb5156	-0.030678432
56	0xbe13a12b	-0.1441695
57	0xbe281154	-0.1641286
58	0xbe0dc15c	-0.13843292
59	0xbe9e526f	-0.30922267
60	0xbe2a9265	-0.16657408
61	0xbbfb952a	-0.007677694
62	0x3dfeef71	0.124480136
63	0x3dff69b3	0.124713324
64	0xbd551d1e	-0.05202972
65	0xbcb92932	-0.022602651
66	0xbb5adc75	-0.0033395563
67	0xbe06d6ee	-0.13167927
68	0x3b90b422	0.0044160048
69	0xbdb28a60	-0.08717799
70	0xbdf2e79d	-0.11860583
71	0xbd875edc	-0.0660989
72	0xbd40869a	-0.047003366
73	0x3d9d4202	0.076786056
74	0x3d548f80	0.051894665
75	0xbd20ccb9	-0.03925774
76	0x3da6c68f	0.08143341
77	0x3e4b8716	0.1987575
78	0xbe85014a	-0.25977546
79	0x3daf7d3b	0.08568808
80	0xbd643c87	-0.055721786
81	0xbc38c9c8	-0.011278577
82	0xbd307b68	-0.04308644
83	0xbcf4fd0a	-0.029905815
84	0x3d8564b1	0.06513346
85	0xbd910492	-0.0708095
86	0xbe4d2530	-0.20033717
87	0xbdf10e24	-0.11770275
88	0x3b9b5c64	0.0047412384
89	0x39ac1391	0.00032820975
90	0x3e3af4f2	0.18257502
91	0xbd61978e	-0.055076174
92	0xbe43e09e	-0.19128653
93	0xbee153b2	-0.44009167
94	0xbd0570d8	-0.03257832
95	0x3c91c79a	0.017795373
96	0xbd8e1adc	-0.06938717
97	0xbd486ad9	-0.048930023
98	0xbdbccbd0	-0.09218562
99	0xbe326421	-0.17421009
100	0xbd4b26c9	-0.049597535
101	0xbcb4a945	-0.02205337
102	0x3ce623be	0.028093215
103	0xbe02514c	-0.12726325
104	0xbd3f2518	-0.046666235
105	0xbcfd4294	-0.030915536
106	0xbe88146f	-0.2657809
107	0xbe31f52d	-0.17378683
108	0x3da593cb	0.0808483
109	0x3d46df2c	0.048552677
110	0x3eca15bc	0.39469707
111	0x3e0219d5	0.12705167
112	0xbe0a9ff3	-0.13537578
113	0x3dbe2cf5	0.092859186
114	0xbdf38c56	-0.11892001
115	0xbd294316	-0.041323744
116	0xbe00f3f2	-0.12593058
117	0xbd3b590b	-0.045739215
118	0xbd88a5bc	-0.06672236
119	0xbe005ee2	-0.12536195
120	0xbe455fac	-0.19274777
121	0xbe7c7bd2	-0.24656609
122	0x3c8291c0	0.01593864
123	0x3ce32076	0.02772544
124	0x3e9a4011	0.30127004
125	0xbd171508	-0.03688529
126	0xbe076ff1	-0.13226296
127	0xbe219405	-0.15779121
128	0xbc3f16ff	-0.011663198
129	0xbc98f104	-0.018669613
130	0xbe91ca76	-0.28474778
131	0x3d49dae3	0.049281012
132	0xbdc4c1eb	-0.096072994
133	0xbe87869a	-0.2646988
134	0xbd2fbede	-0.042906635
135	0xbc2c9db3	-0.010535645
136	0x3cc35cde	0.023847993
137	0xbe2ea59b	-0.17055361
138	0xbd8d2783	-0.06892302
139	0x3d8aae93	0.06771579
140	0xbdf2a09d	-0.11847041
141	0xbe5d84c2	-0.21632674
142	0xbcfd8e35	-0.030951599
143	0xbd29a454	-0.04141648
144	0x3ee7678f	0.45196196
145	0x3baed22b	0.0053351126
146	0xbe0e293e	-0.1388292
147	0xbdd52ce3	-0.10408952
148	0xbdf4c12f	-0.11950909
149	0xbca5fd42	-0.020262364
150	0xbe2a8871	-0.16653611
151	0xbde6a1fd	-0.112613656
152	0xbae43390	-0.0017410386
153	0xbdb2a030	-0.087219596
154	0xbbc797ed	-0.006091109
155	0xbea87474	-0.32901347
156	0xbe07bc56	-0.13255438
157	0x3dcb80cd	0.09936676
158	0x3d37eaf5	0.044901807
159	0x3db82091	0.089905865
160	0xbe02e167	-0.12781297
161	0xbe2b5c17	-0.16734348
162	0x3e2e0f11	0.16997935
163	0xbb73f250	-0.0037223287
164	0xbd8b3ce5	-0.06798724
165	0x3d415e2b	0.047208946
166	0xb9e45682	-0.00043552002
167	0xbe8219b3	-0.25410232
168	0xbeb9e355	-0.36306253
169	0x3d69c8d2	0.057076283
170	0xbc5fc84d	-0.013658595
171	0x3def2031	0.11676062
172	0x3df88dbb	0.12136408
173	0x3e4cba22	0.19992879
174	0x3e53cf71	0.20684601
175	0x3e06f990	0.13181138
176	0xbdb000b6	-0.085938856
177	0xbe0e4997	-0.1389526
178	0x3ddeae53	0.108730935
179	0xbe1b6bbd	-0.15177818
180	0xbda75168	-0.08169824
181	0xbe17dc2c	-0.14830083
182	0xbc9c3036	-0.019065958
183	0x3e23517c	0.15949053
184	0x3dab5632	0.0836605
185	0xbd986536	-0.074411795
186	0x3e309ba1	0.17246868
187	0x3e1d3f3c	0.15356153
188	0x3dfc02a2	0.1230519
189	0x3e5d1131	0.21588589
190	0xbd96785a	-0.07347174
191	0x3d1ffd45	0.039059896
192	0x3d372bf1	0.04471964
193	0x3d84ccb8	0.064843595
194	0x3e0fc640	0.1404047
195	0x3e43bd95	0.19115289
196	0x3dd5cd33	0.10439529
197	0x3d76a64a	0.06021718
198	0xbe072dec	-0.13201112
199	0xbe227934	-0.15866548
200	0xbd861ad4	-0.06548086
201	0x3dd5734c	0.10422382
202	0xbe6750dd	-0.2258944
203	0x3c2b25d1	0.010446028
204	0x3bc2259e	0.0059248945
205	0x3cc36e05	0.023856172
206	0x3d02324e	0.031786256
207	0x3e01b876	0.12668023
208	0x3e0e8955	0.13919576
209	0x3dd40bbb	0.103538
210	0xbc8a387a	-0.016872633
211	0xbe418834	-0.18899614
212	0xbe766d31	-0.2406509
213	0xbe79772b	-0.24361865
214	0x3da4d724	0.08048847
215	0xbe7cf671	-0.24703385
216	0x3c81f4e4	0.015863843
217	0x3dcbf7a5	0.09959344
218	0x3d6aedb4	0.057355598
219	0xbd7377dc	-0.05944048
220	0xbc5b235c	-0.01337513
221	0x3e0cb6c7	0.13741599
222	0x3e0841c7	0.13306342
223	0x3e920f8c	0.28527486
224	0xbcdcad15	-0.026938
225	0xbda01fe7	-0.07818585
226	0x3d636b20	0.055522084
227	0x3df5a9c7	0.11995273
228	0x3e2422f4	0.16028959
229	0x3ce868db	0.028370311
230	0x3ace7ff9	0.0015754692
231	0x3d13916b	0.036027353
232	0xbe2eda21	-0.17075397
233	0xbd95bdc0	-0.073115826
234	0xbd581bd4	-0.052760914
235	0x3da526ef	0.080640666
236	0xbe4a322e	-0.19745705
237	0x3d8cfe5e	0.06884454
238	0x3c0da356	0.008644899
239	0x3d3289de	0.04358851
240	0x3dd101e7	0.10205441
241	0xbcc374bd	-0.023859376
242	0x3da1bec7	0.07897716
243	0xbd592d3a	-0.053021647
244	0x3b917cf7	0.004439946
245	0x3d96634b	0.073431574
246	0xbdbbb8f9	-0.0916614
247	0xbd646e7e	-0.055769436
248	0x3e25537d	0.1614513
249	0xbdb34ae6	-0.0875452
250	0x3d9daafc	0.07698628
251	0x3c56b1ac	0.013103884
252	0x3d3735a3	0.044728886
253	0x3b9982a1	0.0046847616
254	0xbc98eeb6	-0.018668514
255	0x3d72ca81	0.059275154

model.bigrill.fwd_rnn.cells.0.c_gate.mlp.bias f4 [32]
0	0xbe0ef98c	-0.13962382
1	0x3dff4d2b	0.124658905
2	0xbd85ca78	-0.065327585
3	0xbdb64747	-0.08900314
4	0xbd2a8514	-0.04163082
5	0x3dc994c1	0.09842826
6	0x3de9db8c	0.11418828
7	0x3dad15ce	0.084514245
8	0xbe49570c	-0.19662112
9	0x3d27c501	0.040959362
10	0x3ddda2e1	0.10822082
11	0xbe3b3f8d	-0.18285961
12	0xbde14aae	-0.11000572
13	0xbd9c0204	-0.07617572
14	0xbd2b85ec	-0.041875765
15	0x3d29afc7	0.0414274
16	0xbd93fe2e	-0.07226215
17	0xbd33b91a	-0.0438777
18	0x3df28415	0.11841599
19	0x3e82ca7d	0.2554511
20	0x3d965bbb	0.07341715
21	0x3e23fd80	0.16014671
22	0xbdcfc2fc	-0.10144612
23	0xbd80dbf6	-0.06291954
24	0x3e2b1007	0.16705333
25	0xbdebae18	-0.11507815
26	0x3cb02478	0.021501765
27	0x3e772b08	0.24137509
28	0x3d7e4ddd	0.062085975
29	0x3dc1e5b8	0.094676435
30	0xbe077a0b	-0.1323015
31	0x3dad8717	0.08473032

model.bigrill.fwd_rnn.first_stage.weight f4 [1, 32, 1]
0	0x3f9660e6	1.1748321
1	0x3faed740	1.3659439
2	0x3f59c163	0.8506071
3	0xbea13b6a	-0.31490642
4	0xbf60332d	-0.8757809
5	0xbf530d52	-0.824422
6	0x3d54c199	0.05194244
7	0xbf868833	-1.0510315
8	0x3f92d5f8	1.1471548
9	0xbf7dc2a0	-0.991251
10	0xbf813bc5	-1.0096365
11	0x3f8b5ff4	1.0888658
12	0x3f87ac4c	1.0599456
13	0x3f86f6b2	1.0544035
14	0x3f87cfce	1.0610292
15	0x3f801011	1.0004903
16	0x3f66a5ea	0.90096915
17	0xbf7a785d	-0.9783991
18	0xbf5b4d40	-0.8566475
19	0xbf9c5f65	-1.2216612
20	0xbf90eb62	-1.1321833
21	0xbf739e8a	-0.95163786
22	0x3f847692	1.0348685
23	0x3f8d4cef	1.1039103
24	0x3e8eefe7	0.27917406
25	0x3f75ba57	0.9598746
26	0x3f62a576	0.88533723
27	0xbf7eb169	-0.99489456
28	0x3f8e3363	1.1109432
29	0x3eb99f46	0.36254328
30	0x3ed82280	0.4221382
31	0xbf842db6	-1.032645

model.bigrill.fwd_rnn.spatial_decoder.lin_in.weight f4 [32, 34, 1]
0	0x3e07e3d8	0.13270509
1	0x3de504ac	0.11182532
2	0x3ca332ba	0.01992165
3	0x3d0ed08d	0.03486686
4	0x3c65cdb8	0.014026098
5	0xbd92c0ce	-0.07165681
6	0xbd1ae96d	-0.03782027
7	0x3d118e29	0.035535965
8	0x3e3bfb4b	0.1835758
9	0x3e041ff8	0.1290282
10	0x3df557f5	0.11979667
11	0x3e23f484	0.16011244
12	0x3e779333	0.24177246
13	0xbdce72c5	-0.10080484
14	0xbe0ee6b0	-0.13955188
15	0x3d3e6c4b	0.046489995
16	0xbe25bb14	-0.16184646
17	0x3d19788e	0.037468486
18	0xbcff4773	-0.031162
19	0xbe79e1b0	-0.24402499
20	0xbd99e530	-0.07514417
21	0xbdb4a98b	-0.088214
22	0x3e07bba7	0.13255177
23	0xbd877fe1	-0.06616188
24	0xbe1a4972	-0.1506708
25	0x3cdafcb5	0.026731828
26	0xbd48d611	-0.049032275
27	0x3da58dcb	0.080836855
28	0xbda3ec5f	-0.080040686
29	0x3e10d0af	0.14142106
30	0xbe365b28	-0.17808211
31	0xbe3ec742	-0.18630698
32	0xbda6fe5b	-0.08153983
33	0xbd870418	-0.06592578
34	0xbdc841bf	-0.09778165
35	0xbdcdba80	-0.10045338
36	0x3d855e50	0.06512129
37	0x3cd9e180	0.026596785
38	0x3d5640b2	0.052307792
39	0xbe595e59	-0.21227397
40	0xbe2721b2	-0.16321447
41	0x3d892afb	0.06697651
42	0xbd1964a3	-0.03744949
43	0x3de20fe9	0.11038191
44	0xbe3fb151	-0.18719985
45	0xbdb3319e	-0.08749698
46	0xbe99b38a	-0.3001979
47	0x3e459dec	0.19298524
48	0x3e6fc8af	0.23416398
49	0x3d7642f7	0.060122456
50	0x3d0e8ffe	0.03480529
51	0x3da8bb58	0.08238858
52	0x3d1e0505	0.038579006
53	0x3d3c3f56	0.04595884
54	0xbe20fd6e	-0.15721676
55	0xbe38bf91	-0.18041827
56	0xbe391c43	-0.18077187
57	0xbe54a1f4	-0.20764905
58	0x3b70276c	0.003664459
59	0x3d84aecb	0.064786516
60	0x3df37e64	0.118893415
61	0x3e093c99	0.13402022
62	0x3e841bdf	0.25802514
63	0xbdfbb585	-0.122904815
64	0x3df4e891	0.11958421
65	0xbb5b7ba1	-0.0033490437
66	0xbd81ff94	-0.06347576
67	0xbe1a7c26	-0.15086421
68	0xbd63af1c	-0.05558692
69	0x3e77d7cd	0.24203415
70	0xbe8b45a4	-0.2720157
71	0xbdb0beba	-0.08630128
72	0x3bdc5bfc	0.0067248326
73	0xbc004f08	-0.0078313425
74	0xbda4b22f	-0.08041798
75	0x3e11fd6f	0.14256833
76	0xbbbcc89a	-0.0057612183
77	0xbd5ff0c7	-0.054672983
78	0xbc9d5133	-0.019203758
79	0x3db52fbf	0.088469975
80	0x3da8a45f	0.08234476
81	0x3d97e17e	0.07416056
82	0x3e0cd531	0.13753201
83	0x3daa150a	0.08304794
84	0x3e371555	0.17879231
85	0xbae8c893	-0.0017759971
86	0xbdab6ad6	-0.08369987
87	0x3db33f84	0.08752349
88	0xbdc4f2ac	-0.096165985
89	0x3d009c76	0.031399213
90	0xbc4777ab	-0.012174527
91	0xbd041f97	-0.03225669
92	0x3ddf77a1	0.10911489
93	0x3d2625cf	0.0405634
94	0x3db07f9e	0.08618091
95	0xbdc9f77e	-0.098616585
96	0x3e93a1cc	0.2883438
97	0x3d8b6a41	0.06807376
98	0x3d02b15f	0.031907436
99	0x3e812a4e	0.25227588
100	0xbe318745	-0.17336757
101	0xbd894d76	-0.067042276
102	0xbdf36de1	-0.11886192
103	0xbe7cca95	-0.24686654
104	0xbc494526	-0.012284553
105	0xbe576944	-0.2103625
106	0x3d6aedb8	0.057355613
107	0xbe630288	-0.22168934
108	0xbc1a93c9	-0.009434649
109	0x3d763956	0.060113274
110	0xbe430043	-0.19043069
111	0xbdca20fe	-0.09869574
112	0xbdcbde34	-0.09954491
113	0xbd8b1ae5	-0.06792239
114	0xbe2a4c37	-0.16630636
115	0xbd6fb51b	-0.058522325
116	0x3c4af918	0.01238849
117	0x3e00d6b0	0.12581897
118	0x3e2d8ad3	0.16947488
119	0x3e53a843	0.20669656
120	0xbc4fd7ab	-0.012685697
121	0x3e99f881	0.30072406
122	0xbc3b4491	-0.011429922
123	0xbe4aa308	-0.19788754
124	0x3c8f38ec	0.017483197
125	0xbdd08e4d	-0.10183392
126	0x3e18c23c	0.14917845
127	0x3e0c9cd9	0.13731708
128	0x3ddb72e7	0.10715275
129	0xbded8f66	-0.11599617
130	0x39d3df01	0.00040411207
131	0xbbfb525c	-0.00766973
132	0x3e56b0b4	0.20965844
133	0x3e311a48	0.17295182
134	0xbd351474	-0.04420896
135	0x3c384405	0.011246686
136	0xbcae6abe	-0.021291133
137	0xbd954feb	-0.07290634
138	0xbd3a8b86	-0.045543216
139	0x3e127bd6	0.14305052
140	0xbc2328bb	-0.009958441
141	0x3e39e076	0.18152031
142	0x3e717690	0.23580384
143	0x3d9c84a1	0.076424845
144	0x3e7ace96	0.24492869
145	0xbd70ba08	-0.058771163
146	0x3e2388d6	0.15970168
147	0xbdb21ca4	-0.08696869
148	0x3e9537c6	0.29144114
149	0xbd1a2aea	-0.037638582
150	0xbe3f1052	-0.1865857
151	0xbd4e0762	-0.05030001
152	0x3d9ea632	0.07746543
153	0xbe090b05	-0.1338311
154	0xbdb907cc	-0.0903469
155	0xbdc036f6	-0.09385483
156	0x3e854b8d	0.26034203
157	0xbdb47e5a	-0.08813162
158	0x3dde746d	0.1086205
159	0x3e67ee5b	0.22649519
160	0x3d97fb76	0.07421009
161	0x3d64f48d	0.055897284
162	0x3d7bf347	0.061511304
163	0xbcec4ac8	-0.028844252
164	0xbe558faa	-0.20855585
165	0x3e230e4a	0.1592342
166	0xbdac9574	-0.084269434
167	0xbe054e93	-0.13018255
168	0xbe0eea87	-0.13956653
169	0x3d8e3b54	0.0694491
170	0x3d5c9ff4	0.05386348
171	0x3e1ce5f7	0.153221
172	0xbddbd80a	-0.107345656
173	0xbe293cd1	-0.16527106
174	0xbb97e1ab	-0.004635056
175	0xba8a50a3	-0.0010552596
176	0xbe1120d9	-0.14172687
177	0x3da8fc13	0.08251204
178	0xbe64a2aa	-0.22327676
179	0x3dabf297	0.0839588
180	0x3d297d65	0.04137935
181	0xbc569a14	-0.0130982585
182	0xbddfdb0f	-0.10930454
183	0x3e00ab45	0.12565334
184	0x3d22fb95	0.03979071
185	0xbe348e63	-0.17632441
186	0x3eb570e5	0.35437694
187	0x3ea70868	0.326236
188	0x3dd26287	0.10272699
189	0x3e935f7d	0.2878379
190	0x3d5b7861	0.0535816
191	0x3d750e75	0.05982824
192	0xbd3f0133	-0.046632003
193	0x3db9aa9a	0.09065743
194	0x3ded1b8d	0.115775205
195	0x3c3081c0	0.010773122
196	0x3df3aac6	0.11897807
197	0x3d9cc15e	0.07654069
198	0x3ee1e486	0.44119662
199	0xbd15b198	-0.03654632
200	0xbc206a0e	-0.00979091
201	0x3e7bc67c	0.24587435
202	0xbdf56480	-0.119820595
203	0xbe1ea702	-0.15493396
204	0x3d94855f	0.07252001
205	0x3e0bf65b	0.13668196
206	0xbe371f19	-0.17882957
207	0x3c595b2b	0.013266365
208	0x3df24f77	0.11831563
209	0x3dceed90	0.10103905
210	0x3ccabc56	0.024748009
211	0x3cc4b8c5	0.024013886
212	0xbe8597c0	-0.2609234
213	0xbddbde60	-0.10735774
214	0x3e82a281	0.25514606
215	0x3e208f7a	0.15679732
216	0xbd63906e	-0.05555766
217	0xbe3357b2	-0.17513922
218	0xbd8a85a8	-0.06763774
219	0x3be19154	0.0068837795
220	0xbd1e89e5	-0.038705725
221	0x3dc4207f	0.09576511
222	0xbc423b10	-0.011854902
223	0x3edb72b4	0.4286095
224	0x3dafd85b	0.085861884
225	0x3e4be437	0.19911276
226	0x3e0df494	0.1386283
227	0xbc1c9d13	-0.009558934
228	0xbdcb7b9f	-0.09935688
229	0x3e8333f8	0.25625587
230	0xbe74e178	-0.23914135
231	0x3e50114e	0.20319101
232	0x3c7fe1fc	0.015617844
233	0x3c9903b2	0.01867852
234	0xbeac0284	-0.3359567
235	0xbe7378f5	-0.2377661
236	0x3e0383d7	0.12843262
237	0xbbb8f529	-0.0056444597
238	0xbde70380	-0.112799644
239	0xbe046be7	-0.12931786
240	0xbde1e32b	-0.11029657
241	0xbcb72fa4	-0.022361584
242	0xbe40a5fe	-0.18813321
243	0x3df5ff7a	0.12011619
244	0x3e684095	0.22680886
245	0x3e4f55ef	0.20247625
246	0x3e339f14	0.17541152
247	0xbd53307c	-0.05155991
248	0x3e9114d4	0.28336203
249	0x3d29c46e	0.041447096
250	0x3e25644f	0.16151546
251	0xbdd50513	-0.104013585
252	0xbdbae729	-0.091261216
253	0xbce322f4	-0.027726628
254	0xbc629e70	-0.01383172
255	0xbd0caa03	-0.034341823

model.bigrill.fwd_rnn.spatial_decoder.lin_in.bias f4 [32]
0	0xbe4958d7	-0.19662796
1	0x3dc6700e	0.096893415
2	0x3d311220	0.043230176
3	0xbda8b8e7	-0.08238392
4	0xbe893741	-0.26799968
5	0x3e826be7	0.25472948
6	0x3e0841c8	0.13306344
7	0xbd5991e2	-0.05311764
8	0x3e993947	0.29926512
9	0xbd87a63d	-0.06623504
10	0x3db20f84	0.086943656
11	0xbd678abf	-0.056528803
12	0x3e695276	0.22785363
13	0x3d298aea	0.041392244
14	0x3e46a805	0.19400032
15	0xbe243ddc	-0.16039222
16	0x3dc1f1d1	0.09469951
17	0x3df1e682	0.11811544
18	0x3d1b4cda	0.03791509
19	0xbd9f2833	-0.07771339
20	0x3e0c2dad	0.13689299
21	0x3e58f521	0.2118726
22	0xbd97f4eb	-0.07419761
23	0xbe2b938b	-0.16755502
24	0x3e295053	0.16534548
25	0x3e27a54d	0.16371651
26	0xbda86360	-0.08222079
27	0x3e047ace	0.12937471
28	0x3e802689	0.250294
29	0xbe022eb5	-0.1271313
30	0x3dad179b	0.08451768
31	0xbe83b5d7	-0.2572467

model.bigrill.fwd_rnn.spatial_decoder.graph_conv.mlp.weight f4 [32, 64, 1, 1]
0	0x3d89e886	0.067338035
1	0xbdddd224	-0.10831097
2	0xbcf09f6c	-0.029372893
3	0x3da6ebf7	0.081504755
4	0xbd31af56	-0.043380104
5	0xbdf0fa2a	-0.11766465
6	0x3dc24d83	0.094874404
7	0xbdd63991	-0.10460199
8	0xbd11d831	-0.035606567
9	0x3da65650	0.081219316
10	0x3d02f056	0.031967483
11	0xbdd405e0	-0.10352683
12	0xbd82f2a1	-0.06393934
13	0xbdec0e82	-0.11526205
14	0xbd1d5d7b	-0.038419228
15	0xbd8def50	-0.06930411
16	0xbe2ba608	-0.16762555
17	0xbdee1b22	-0.11626269
18	0xbb4aa93b	-0.0030923623
19	0x3da2a691	0.07941926
20	0x3db255da	0.08707781
21	0xbdfc4014	-0.123169094
22	0xbb09e7ea	-0.0021042773
23	0x3c9227da	0.017841268
24	0xbd801865	-0.06254653
25	0xbc4d09d9	-0.012514555
26	0x3dfa2f8b	0.12216099
27	0xbe199cb6	-0.15001187
28	0xbb37a8eb	-0.0028024267
29	0x3ca04942	0.019566182
30	0xbe1d6231	-0.15369488
31	0x3dbf34d9	0.09336252
32	0x3cdb311d	0.026756817
33	0xbd5bfc95	-0.053707678
34	0x3da2e3ac	0.07953581
35	0x3d2fc876	0.042915784
36	0x3df0c984	0.11757186
37	0x3d3c6e20	0.04600346
38	0x3dab9382	0.08377744
39	0x3d9df38c	0.077124685
40	0x3d898044	0.06713918
41	0xbc92d87e	-0.017925497
42	0xbd8f0178	-0.06982702
43	0xbdd283fe	-0.10279082
44	0x3e06a6db	0.13149588
45	0xbd1b37c0	-0.037894964
46	0xbccdb8a9	-0.025112467
47	0x3de1765e	0.11008905
48	0x3d4a2c9b	0.049358945
49	0xbda199ca	-0.07890661
50	0x3da72125	0.08160619
51	0x3d1323f6	0.035922967
52	0x3e006e0f	0.12541984
53	0xbdbf196c	-0.09331021
54	0xbe04dfbf	-0.12975977
55	0x3c78ca37	0.0151849305
56	0xbd31dbeb	-0.04342262
57	0xbd5819aa	-0.05275885
58	0x3de28cf1	0.11062039
59	0xbdb0341c	-0.08603689
60	0x3d5697f4	0.052391008
61	0x3df7ddd8	0.1210286
62	0x3d19ca8c	0.03754668
63	0xbc81050d	-0.015749479
64	0xbdb6bbf2	-0.089225665
65	0xbd4653e1	-0.048419837
66	0x3d9202a4	0.0712941
67	0x3d7c13ab	0.061542194
68	0x3d1f9ef2	0.03896994
69	0x3d19a3d0	0.03750974
70	0xbd9d3677	-0.07676404
71	0x3ddb9af2	0.10722913
72	0xbdf02f5e	-0.117277846
73	0xbcbe7fb3	-0.023254251
74	0xbd888b74	-0.066672236
75	0xbde7cb45	-0.113180675
76	0x3d7110ad	0.058853794
77	0xbc721dc5	-0.014777605
78	0x3dbb2e80	0.091397285
79	0xbe05e8ed	-0.13077135
80	0xbe4bdcc7	-0.19908439
81	0xbd971a35	-0.073780455
82	0x3d220433	0.039554786
83	0x3de08c5e	0.10964273
84	0x3c767ed4	0.015044887
85	0x3dc88525	0.0979102
86	0x3e2b23ed	0.16712923
87	0x3cd2ca42	0.02573121
88	0xbde496a7	-0.11161547
89	0xbdc22cd4	-0.094812065
90	0x3da7a0c0	0.081849575
91	0x3c2a7106	0.010402923
92	0xbddf2e05	-0.108974494
93	0x3e2227f5	0.15835555
94	0x3d1acad3	0.037791084
95	0x3de98f3a	0.114042714
96	0xbe0c7414	-0.13716155
97	0x3da01597	0.07816618
98	0xbd24d2dd	-0.040240157
99	0xbdd5f684	-0.1044741
100	0xbcef7e08	-0.029234901
101	0xbc25ba92	-0.010115283
102	0xbda0ee62	-0.07857968
103	0x3e02bd16	0.12767443
104	0xbd03ddb4	-0.032193854
105	0xbd7d30aa	-0.061813988
106	0xbe0b5376	-0.13606057
107	0xbd36a887	-0.044594314
108	0xb9e35fb9	-0.00043368133
109	0xbe058b8f	-0.13041519
110	0x3da0293f	0.07820367
111	0x3e0ed627	0.1394888
112	0x3a138b00	0.00056283176
113	0x3de4a5b6	0.11164419
114	0x3da08169	0.07837183
115	0xbde428cd	-0.11140595
116	0xbd467ae8	-0.048457056
117	0xbd090fa4	-0.03346218
118	0xbcbdbeec	-0.023162328
119	0x3d8662db	0.06561824
120	0x3d464319	0.048403833
121	0x3de30c09	0.1108628
122	0x3d1949cf	0.037423905
123	0x3d3e8d01	0.04652119
124	0xbde9be7a	-0.11413284
125	0x3de5002a	0.11181672
126	0x3ca699e1	0.020337047
127	0xbd98c2da	-0.0745904
128	0x3ddade9d	0.10686991
129	0xbb131ef0	-0.002244886
130	0xbe1b1dc3	-0.15148072
131	0x3db7f7b9	0.08982796
132	0xbbb78853	-0.005600968
133	0xbd58d585	-0.052938003
134	0x3ddf6774	0.10908404
135	0xbd9106b6	-0.07081358
136	0xbde78aee	-0.113057956
137	0x3d9b630c	0.07587251
138	0xbe0e54c5	-0.13899525
139	0xbc97c368	-0.018525794
140	0xbdc34037	-0.095337324
141	0xbd05df1a	-0.03268347
142	0xbdbc10d7	-0.091828994
143	0xbdc91063	-0.09817579
144	0xbd3b05ad	-0.04565971
145	0x3dbd6fac	0.09249815
146	0x3ccca089	0.024978893
147	0x3c98e6a5	0.018664667
148	0xbda63c1b	-0.08116933
149	0xbdb10a25	-0.08644513
150	0xbcd7c017	-0.026336713
151	0x3c25f067	0.010128117
152	0x3d0c3249	0.034227643
153	0xbdabee44	-0.08395055
154	0x3cd49f9f	0.02595502
155	0x3c142e49	0.009044238
156	0xbda81086	-0.082062766
157	0x3e7f0578	0.2490443
158	0xbdfbed5f	-0.12301134
159	0x3dbc3b30	0.091909766
160	0xbd9a97f3	-0.07548513
161	0xbd76a15e	-0.060212485
162	0xbd80d381	-0.06290341
163	0x3bc7dc0f	0.006099231
164	0x3dcf1f40	0.10113382
165	0xbd27e85e	-0.040993087
166	0x3de361ec	0.111026615
167	0x3d30a392	0.043124743
168	0xbbf08c2f	-0.00734093
169	0xbd54b14c	-0.051926896
170	0xbdb5aea9	-0.088712044
171	0x3d6b10bb	0.057389002
172	0x3def1d92	0.11675562
173	0xbc81246a	-0.015764434
174	0xbbcc53d7	-0.0062355804
175	0x3ce1a432	0.027544115
176	0xbc9b5b21	-0.018964352
177	0xbd4354cc	-0.04768829
178	0x3c767213	0.015041846
179	0xbd3f491f	-0.046700593
180	0x3dc57ae1	0.09642578
181	0xbda53155	-0.0806605
182	0x3dfea542	0.12433864
183	0x3d3b7456	0.045765243
184	0xbdc268de	-0.09492658
185	0x3dc94bcc	0.0982891
186	0x3c0aeb51	0.008478955
187	0x3ca5a2cd	0.020219231
188	0x3c731f89	0.014839062
189	0x3d572b9a	0.052531816
190	0x3c5694f2	0.013097035
191	0xbb80d7d2	-0.003931978
192	0xbb5110b2	-0.003190082
193	0x3cf482f8	0.029847607
194	0xbde89561	-0.11356617
195	0xba1e5896	-0.0006040422
196	0xbe3384db	-0.17531149
197	0x3e0b51ae	0.13605377
198	0xbda3adfa	-0.07992168
199	0xbdd2d1ef	-0.10293948
200	0x3d76aa1b	0.06022082
201	0x3d0b537e	0.03401517
202	0x3d5d3fb3	0.054015826
203	0x3dd56ac8	0.104207575
204	0x3c545195	0.012958904
205	0xbd5cb8f2	-0.053887315
206	0xbd676da7	-0.056501057
207	0x3ce0ef7d	0.027457947
208	0x3e091636	0.13387379
209	0x3dfbef75	0.12301532
210	0xbd762efe	-0.06010341
211	0x3d058a97	0.032602873
212	0x3d299be6	0.041408442
213	0x3c2a8d9c	0.010409739
214	0xbdbc2945	-0.09187559
215	0x3c854dcf	0.016272454
216	0x3dedf5f9	0.11619181
217	0x3d4dbce9	0.050228987
218	0xbda1c9f1	-0.078998454
219	0x3e206449	0.15663256
220	0x3dbff789	0.093733855
221	0xbe3ec79e	-0.18630835
222	0x3de5f485	0.11228279
223	0xbd1d82d9	-0.038454864
224	0x3d84e391	0.06488717
225	0xbd385ad4	-0.045008495
226	0xbd75283f	-0.059852835
227	0xbdd46c0d	-0.103721716
228	0xbd61091b	-0.054940324
229	0x3ded270c	0.11579713
230	0x3bac6024	0.0052604843
231	0xbcf4e788	-0.029895559
232	0x3d8fad4a	0.07015474
233	0xbd00508b	-0.03132681
234	0xbd15bec2	-0.036558874
235	0x3d4fc2be	0.05072283
236	0xbd7ed082	-0.062210567
237	0xbc17774e	-0.009244753
238	0x3d932a1b	0.07185765
239	0x3c0fb256	0.008770546
240	0x3e0acd60	0.13554907
241	0xbd566e15	-0.052351076
242	0x3915c4ff	0.00014283134
243	0x3a087186	0.00052049046
244	0xbc9555ed	-0.01822945
245	0x3d448e58	0.047987312
246	0xbdc703c3	-0.09717514
247	0x3d0abdcc	0.03387241
248	0xbc871dca	-0.016493697
249	0x3d89d15f	0.067293875
250	0xbdd34cf8	-0.10317415
251	0xbdaae233	-0.08343925
252	0x3cde8a5e	0.027165588
253	0x3cbe03cb	0.023195168
254	0x3bcd8fe6	0.0062732575
255	0xbe1be374	-0.15223485

model.bigrill.fwd_rnn.spatial_decoder.graph_conv.mlp.bias f4 [32]
0	0xbe61b77f	-0.22042654
1	0xbde07419	-0.10959644
2	0xbeaaad95	-0.33335558
3	0x3e6e1a22	0.23252156
4	0xbe48707d	-0.19574161
5	0x3e55e7e0	0.20889235
6	0x3e373b4c	0.17893714
7	0xbe874c25	-0.2642528
8	0x3dba2828	0.090896904
9	0xbbc9956d	-0.006151846
10	0xbe31795e	-0.17331454
11	0xbda751fe	-0.08169936
12	0x3d480f19	0.048842523
13	0xbe15c91a	-0.14627495
14	0x3e267793	0.16256551
15	0x3ef3ddfa	0.47630292
16	0xbda88533	-0.08228531
17	0x3e13d543	0.14436822
18	0xbe2021db	-0.15637915
19	0x3df51093	0.11966052
20	0x3e9a2481	0.30105975
21	0x3dc4696e	0.095904216
22	0xbe301fa8	-0.17199576
23	0xbe31fee5	-0.17382391
24	0x3e018795	0.12649377
25	0x3e0ad00c	0.13555926
26	0xbe4c6393	-0.1995986
27	0x3e856866	0.26056212
28	0x3def7fb1	0.11694277
29	0x3da3bc06	0.07994847
30	0x3dd39af7	0.103322916
31	0x3e2e3c9e	0.17015311

model.bigrill.fwd_rnn.spatial_decoder.lin_out.weight f4 [32, 64, 1]
0	0x3d961f8d	0.073302366
1	0x3db6a763	0.08918645
2	0x3c0fd27b	0.00877821
3	0xbdd00c4c	-0.101585954
4	0x3c8a857e	0.016909357
5	0xbdaa0bf0	-0.08303058
6	0xbd615e38	-0.055021495
7	0x3d751387	0.059833076
8	0x3d5bc1ba	0.05365155
9	0xbd2f536e	-0.042804174
10	0xbd28bf17	-0.041197862
11	0x3debb8dd	0.11509869
12	0x3d750bba	0.059825636
13	0x3dda68d9	0.10664529
14	0xbddcb5a5	-0.107768334
15	0x3cf3b942	0.029751424
16	0x3dd13217	0.10214632
17	0xbd8f9368	-0.070105374
18	0x3dd75df4	0.10515967
19	0xbde4a2a0	-0.11163831
20	0xbe1fcaf6	-0.15604767
21	0xbcaddf51	-0.02122465
22	0x3d33ba5e	0.043878905
23	0xbc864788	-0.01639153
24	0xbde010b4	-0.10940686
25	0xbdefe9a1	-0.11714483
26	0x3ca63bf7	0.020292265
27	0xbc2e7b80	-0.010649562
28	0xbc0da64c	-0.008645605
29	0xbd15ded3	-0.036589455
30	0x3d60e83d	0.05490898
31	0xbe1353a7	-0.1438738
32	0xbd5fb19b	-0.054612737
33	0x3eb96862	0.3621245
34	0xbdd1dd4b	-0.102472864
35	0xbed736b8	-0.42033935
36	0x3dfc6a3e	0.123249516
37	0x3e40aacb	0.18815152
38	0x3ef8d5a8	0.48600507
39	0x3e01d045	0.12677105
40	0xbe8e6aa3	-0.27815732
41	0x3e7bd9ac	0.24594754
42	0x3e8f4699	0.2798355
43	0xbe02a1ef	-0.12757085
44	0xbe31198e	-0.17294905
45	0xbe24c30a	-0.16090026
46	0xbe27218e	-0.16321394
47	0xbe4122a6	-0.18860874
48	0xbe6bf439	-0.23042382
49	0xbe9187ae	-0.28423828
50	0x3e461956	0.19345602
51	0xbde9c465	-0.114144124
52	0x3ea72d1a	0.32651597
53	0x3e76dd35	0.24107821
54	0xbe89fa86	-0.26948947
55	0xbd473df8	-0.048643082
56	0x3ed49c70	0.41525602
57	0x3d914386	0.07092957
58	0xbe86da9c	-0.2633866
59	0x3e11365e	0.14180896
60	0x3e9c9a9c	0.30586708
61	0xbf0689fb	-0.5255429
62	0xbe9bb20d	-0.3040928
63	0x3da27ff9	0.07934565
64	0xbdf978d2	-0.12181248
65	0xbdb0532f	-0.08609616
66	0x3d70f3df	0.058826324
67	0x3d709a83	0.058741104
68	0xbbc27b94	-0.005935142
69	0x3ccab9c0	0.024746776
70	0xbd88b9b2	-0.066760436
71	0x3d613b81	0.054988388
72	0xbe11c0da	-0.14233723
73	0xbde5d113	-0.11221518
74	0x3b6f2400	0.0036489964
75	0xbd1c9b99	-0.038234327
76	0x3da48f5c	0.08035156
77	0xbde744d1	-0.112924226
78	0x3cdcc389	0.026948707
79	0x3d859fe8	0.0652464
80	0x3d8937a3	0.06700065
81	0x3bf7cdb1	0.007562362
82	0xbd0784d5	-0.033085663
83	0x3cc19c6f	0.023634164
84	0xbdffbb69	-0.124869175
85	0xbdb65b9b	-0.08904191
86	0x3d673660	0.05644834
87	0x3d501041	0.05079675
88	0xbd365c45	-0.04452159
89	0xbe070bfd	-0.13188167
90	0x3d1412b9	0.036150668
91	0x3d830497	0.0639736
92	0xbcae152c	-0.02125033
93	0xbd2b475e	-0.041816108
94	0xbdfb943d	-0.122841336
95	0xbd71f798	-0.059074014
96	0x3dd71f3a	0.10504003
97	0xbf115a01	-0.5677796
98	0x3e4329d2	0.19058922
99	0x3e897d79	0.2685354
100	0xb90009fe	-0.00012210754
101	0xbdd85d22	-0.10564639
102	0xbeb1aaf5	-0.34700742
103	0xbe1ef16c	-0.15521783
104	0x3db91b02	0.090383545
105	0xbc59ef46	-0.013301676
106	0xbd91274d	-0.07087574
107	0x3e090b87	0.13383304
108	0x3d2173c6	0.03941705
109	0x3e54e5c9	0.20790781
110	0x3d85e8be	0.06538533
111	0x3e0aa6eb	0.13540237
112	0x3c1f4037	0.0097199
113	0x3e6662de	0.22498652
114	0xbe402be5	-0.18766744
115	0x3d93f78f	0.072249524
116	0xbc4a0b65	-0.012331818
117	0xbcd4b352	-0.025964413
118	0xbb8974c2	-0.004194827
119	0x3e009c6b	0.12559669
120	0xbed1126a	-0.4083436
121	0x3e0eeec0	0.13958263
122	0x3e80bb0d	0.25142708
123	0xbddafc87	-0.10692697
124	0xbea9e294	-0.33180678
125	0x3ed1c0a9	0.409673
126	0x3ecf4059	0.4047878
127	0xbdbd01ba	-0.09228845
128	0x3d4b82b7	0.049685206
129	0x3e10873a	0.14114085
130	0x3d92bf38	0.07165378
131	0xbde5d236	-0.11221735
132	0xbc477313	-0.012173432
133	0xbdf0a5bc	-0.11750361
134	0xbe1f7d47	-0.15575133
135	0xbd20bfcf	-0.039245423
136	0x3d4c5b20	0.04989159
137	0xbdb03e51	-0.08605636
138	0xbd5e67e5	-0.0542983
139	0x3d32b638	0.04363081
140	0xbd3700f9	-0.044678662
141	0x3e3beded	0.1835248
142	0xbdec51e9	-0.115390606
143	0xbd6890bc	-0.056778654
144	0x3dfb29c5	0.12263826
145	0x3c76279f	0.015024095
146	0x3dc44115	0.09582726
147	0x3cb99530	0.022654146
148	0x3dc27f34	0.09496918
149	0xbd8ed40e	-0.0697404
150	0x3d0c1f04	0.034209266
151	0x3dec8b9b	0.11550065
152	0xbe0fbd8e	-0.14037153
153	0xbc7f712d	-0.015590948
154	0x3dfd6f26	0.123747155
155	0x3d6de7e0	0.05808246
156	0xbd219444	-0.039448038
157	0x3dd1c96a	0.10243495
158	0x3d8347c2	0.06410171
159	0xbd98f761	-0.07469059
160	0xbd103ec4	-0.035216108
161	0x3ebf3486	0.3734476
162	0xbeac6ff4	-0.33679163
163	0xbea3ef74	-0.32018626
164	0x3e04e914	0.12979537
165	0x3ed36882	0.4129067
166	0x3f03ef18	0.51536703
167	0x3e76331e	0.24042937
168	0xbe6705c8	-0.22560799
169	0x3eaad32c	0.33364236
170	0x3e82d501	0.25553134
171	0xbe34514b	-0.17609136
172	0xbdfcadf1	-0.12337864
173	0xbd91a791	-0.07112039
174	0xbeb7af98	-0.35876155
175	0xbe380665	-0.1797119
176	0xbeae4877	-0.3403966
177	0xbee1819a	-0.4404419
178	0x3de8558f	0.11344444
179	0xbd7449b0	-0.059640586
180	0x3dce3850	0.100693345
181	0x3e86886a	0.2627595
182	0xbe419fef	-0.18908666
183	0xbd78961c	-0.06069003
184	0x3f057e0f	0.52145475
185	0xbe325378	-0.17414653
186	0xbe998be0	-0.2998953
187	0x3e0e51c5	0.1389838
188	0x3ea79857	0.32733414
189	0xbf1090bb	-0.5647084
190	0xbefaa100	-0.48950958
191	0x3dde5f30	0.10857999
192	0x3e23465c	0.15944809
193	0xbcc8f720	-0.0245319
194	0x3e413f0d	0.18871708
195	0xbe12c699	-0.14333571
196	0x3d2fbda6	0.042905472
197	0xbdfe758e	-0.124247655
198	0xbc9db37d	-0.019250626
199	0x3d8889e9	0.06666929
200	0xbdf4d0c8	-0.11953884
201	0x3e1663ff	0.14686583
202	0xbc904551	-0.017611178
203	0x3d6c7a5e	0.057733886
204	0xbd67ff98	-0.056640238
205	0x3c94e0d1	0.018173607
206	0x3d6bc7fe	0.057563774
207	0xbdf2cf9f	-0.11856007
208	0xbccffa7a	-0.025387991
209	0xbe020c39	-0.12699975
210	0xbd9b5734	-0.07584992
211	0xbd4ae1cd	-0.049531747
212	0x3d275786	0.040854953
213	0xbc86cac9	-0.016454117
214	0x3e76aaf7	0.24088655
215	0xbd8bfa07	-0.06834798
216	0xbe14ad6f	-0.14519285
217	0x3d667eac	0.056273147
218	0x3b9f855a	0.0048681917
219	0xbe31e629	-0.17372955
220	0xbcf3a79e	-0.029743012
221	0xbce461cb	-0.027878663
222	0xbd8450a1	-0.06460691
223	0xbe094c36	-0.13407978
224	0xbdd44321	-0.10364366
225	0x3ee1bcf9	0.44089487
226	0xbe9b8e97	-0.30382225
227	0xbef349b7	-0.47517177
228	0x3ea1bf6a	0.3159135
229	0x3eb93fbe	0.36181444
230	0x3ee35995	0.44404283
231	0x3e6ac042	0.22924903
232	0xbe1284bc	-0.14308447
233	0x3e8321e6	0.256118
234	0x3d912ddc	0.07088825
235	0xbc02584e	-0.007955624
236	0xbd9980e1	-0.07495285
237	0xbe8ab8e5	-0.27094188
238	0xbe4c019a	-0.19922486
239	0xbe7a147a	-0.24421874
240	0xbe9f2df1	-0.31089738
241	0xbeabe643	-0.33574113
242	0x3dc09664	0.09403685
243	0x3bccfe40	0.006255895
244	0x3e198455	0.14991887
245	0x3dc5482a	0.09632905
246	0xbe8f7898	-0.28021693
247	0x3d57e925	0.05271258
248	0x3f0e89ac	0.5567882
249	0xbdde5375	-0.10855762
250	0xbea4420b	-0.32081637
251	0x3e63e4d8	0.22255266
252	0x3e6e4683	0.23269086
253	0xbf107e93	-0.56443137
254	0xbec98fdf	-0.39367577
255	0x3e641c9e	0.22276542
