logs/discharge_point/grin/2023-10-26_16-42-18_902729059/epoch=0-step=87.ckpt (torch, 707571 bytes, 102 tensors)

model.bigrill.emb f4 [8, 20]
000000 be 4a de bc a5 50 02 3f d8 ca 06 bd 2d cf 1e 3e
       -0.02713525 0.50904304 -0.03290829 0.15508719
000010 41 59 80 3e 9e d5 39 3f 22 5a a7 3e 26 37 a6 3e
       0.25068095 0.7259158 0.32685953 0.3246395
000020 af 04 5d bf 33 4f 98 be 81 9a 1d 3d 70 56 07 3e
       -0.8633527 -0.29747924 0.038477425 0.13216567
000030 82 82 15 bf d6 b8 0c 3f a0 3f 80 3f 37 b8 09 bf
       -0.58402264 0.5496954 1.0019417 -0.53796715
000040 a0 82 d1 3e 88 5c bf 3e cd 46 37 3d d6 1d eb 3e
       0.4091997 0.37375283 0.044745255 0.459212
000050 f6 af 4d 3e f7 b9 46 3d a5 1d 17 bf 7d 0e 9b 3d
       0.20086655 0.048517194 -0.5902961 0.07571123
000060 80 ad a5 be 54 45 3b 3e b6 de e8 bd 9e e3 7f bd
       -0.32358932 0.18288165 -0.11370604 -0.062472932
000070 16 1f 8d 3e 79 17 8e be 64 f6 5c bf a4 8f 82 3f
       0.2756278 -0.27752283 -0.8631346 1.0200086
000080 76 32 0f bf 88 b9 8f bd ed 32 83 be e2 5c 81 3e
       -0.5593637 -0.07017809 -0.2562479 0.25266176
000090 d5 af 59 be 28 b0 a0 bd f2 da c9 3c 98 1d 1c bf
       -0.21258481 -0.07846099 0.024640534 -0.60982656
0000a0 e2 4d 46 3e 4b 9f b0 be bd 8e 2e 3f e3 5e dd bd
       0.19365647 -0.3449653 0.6818655 -0.10809114
0000b0 6c b6 a0 be 74 4b 17 bf 41 94 7b be f8 94 ab 3c
       -0.31389177 -0.5909951 -0.24568273 0.020945057
0000c0 c9 80 44 3d 7e 7a 1c bf 3f 6b 94 bc 55 d8 4b 3d
       0.04797438 -0.6112441 -0.018117545 0.049766857
0000d0 c2 bd 2a 3d fa eb b3 bc 26 bd 9e bd 60 b5 0c be
       0.041684873 -0.021963108 -0.07750921 -0.13741064
0000e0 72 1c ce bd 90 3a 0b bf ff 27 8d be e8 40 89 3e
       -0.10064019 -0.54386234 -0.27569577 0.26807332
0000f0 56 7d 88 be 0f a5 03 3f d0 fc 8d bd 3a e2 d8 3e
       -0.26658124 0.51423734 -0.06932986 0.42360097
000100 16 84 8a 3e 4d cd b5 3d 55 05 52 be 5b 3d 26 3f
       0.270539 0.08877049 -0.20509847 0.6493737
000110 7c ce f4 be e6 d9 70 be 92 9d 06 3e 56 42 54 3e
       -0.47813785 -0.23520622 0.13146046 0.2072843
000120 59 a0 10 bd d5 ca bf 3e 81 88 e2 be 9a 63 a2 bd
       -0.03530917 0.37459436 -0.4424477 -0.07929154
000130 c6 26 a9 3d 7e 35 71 bc 3d 65 70 3e 5a 69 25 3f
       0.082593486 -0.014722226 0.2347612 0.6461388
000140 f5 d8 56 3f 54 97 fe 3d 42 99 9d 3e 66 46 10 3e
       0.839248 0.12431207 0.3078099 0.14089355
000150 2f c0 bc 3d 9d f1 86 3d 19 b2 0a bf 9b ee 84 3e
       0.092163436 0.06589053 -0.54178005 0.25963292
000160 27 a2 e3 bd 0d 8b 3a 3e e2 d6 f5 3d 88 8d 9e 3d
       -0.111149125 0.18217106 0.12003876 0.07741839
000170 09 5b cc 3c 30 ae a8 3e 5d 92 2b 3e 37 30 42 3d
       0.024945753 0.32945395 0.16755052 0.047409263
000180 0c 59 7e 3e c1 d7 59 be 30 90 a3 be 96 78 88 3e
       0.24838656 -0.2127371 -0.31945944 0.266545
000190 cd 42 6d bd db 2b 07 be 76 1c 2c 3e 47 87 3a 3f
       -0.057925034 -0.13200323 0.16807732 0.72862667
0001a0 60 11 09 be 52 ca 99 bd 80 48 56 3e 58 86 cf bd
       -0.13385534 -0.07509293 0.20926094 -0.10133046
0001b0 52 ab 1d be 75 5b b9 3e 77 ba ff be 81 77 cd be
       -0.15397385 0.3620259 -0.4994695 -0.40130237
0001c0 a0 86 c3 3e 1f 46 e4 bd 72 13 c9 bb 25 18 59 3d
       0.38188648 -0.11146187 -0.0061363513 0.05300154
0001d0 72 d0 89 3e 92 6d c3 be bf 1a 4d be 82 b8 46 be
       0.26916844 -0.38169533 -0.20029734 -0.19406322
0001e0 7d 2b dc 3e a2 d7 90 3e 62 48 fb 3c ba 6a a2 3e
       0.4300193 0.28289515 0.030674163 0.3172205
0001f0 2f d1 ab be 4e 0d 82 bd f3 29 99 bd 47 60 41 bd
       -0.33558032 -0.06350194 -0.07478704 -0.047210958
000200 ae 7c ba 3e 2e cd 9a be d0 ea 95 3c 72 7c 05 be
       0.36423248 -0.30234665 0.018300444 -0.13035753
000210 df 2b 2d 3e 8e 00 e3 bc 68 6d 96 3e 24 46 05 bd
       0.16911267 -0.027710225 0.29380345 -0.032537594
000220 66 dc 0b 3e 86 08 3f 3d c2 1c a1 bd 07 a0 2a bf
       0.13658294 0.046638988 -0.07866813 -0.6665043
000230 11 65 d7 bd 95 19 b7 3e 00 80 d8 3d ae 2e 1b 3b
       -0.10517324 0.35761705 0.10571289 0.0023678946
000240 22 18 88 be 32 21 4b 3e 83 fb ee be f7 ce 24 3f
       -0.26580912 0.19836882 -0.46676263 0.64378303
000250 b4 99 65 be 0e e3 76 bd 62 c8 15 bd ab 29 1a bf
       -0.22421914 -0.06027513 -0.036568053 -0.6021983
000260 3b 7a de 3e 60 41 35 3f 18 07 00 bf 38 98 16 3e
       0.4345263 0.7080288 -0.50010824 0.14706504
000270 a8 77 6a 3e b4 f6 be 3c e0 64 7d be fa ad 13 be
       0.22897208 0.023310997 -0.24745512 -0.14421836

model.bigrill.fwd_rnn.cells.0.forget_gate.mlp.weight f4 [32, 170, 1, 1]
000000 6b f5 87 bd ff b6 b8 bb 3f 30 2b bd ce e4 1b 3d
       -0.06638607 -0.005637049 -0.041794058 0.038060002
000010 ea a1 9b 3d 8f 90 0f bd 3b 1b 2b 3d 81 41 42 bd
       0.07599242 -0.03504997 0.041774016 -0.04742575
000020 bd b5 62 3d de 32 0a bd 1a 4b 96 3d 7c 06 64 3d
       0.0553491 -0.033739917 0.07338543 0.055670246
000030 ec 1b eb 3c 7e 5b 67 bd 1f 5f 04 3b 78 5c 85 3c
       0.028699838 -0.056483738 0.0020198298 0.016279444
000040 72 46 81 bc 72 0f de 39 88 d5 95 bb 51 d1 6d 3d
       -0.015780661 0.00042354647 -0.004572574 0.058060948
000050 1d 55 04 bc 4e 6c 27 bc b4 02 77 bd 7d 77 06 3d
       -0.008076933 -0.010218693 -0.060305312 0.032828797
000060 00 3f 64 3c aa a8 f1 3c f2 09 ea 3c e8 a0 4e 3d
       0.013931036 0.02949937 0.028569195 0.05044642
000070 fc 11 81 bd 58 24 aa bc 39 b1 1a 3d 9d a2 5d 3d
       -0.06302258 -0.020769283 0.03776667 0.05411016
000080 c5 d9 8d bd 58 11 30 bd 9a 12 53 bc 7c da 51 3d
       -0.06926302 -0.04298529 -0.012882853 0.051233754
000090 1f 12 61 bd 88 78 2d bd 25 cb 31 3d 8d 2e 93 bd
       -0.054948922 -0.042351276 0.043406624 -0.07186613
0000a0 d0 72 84 bc 65 fb 7e bd c3 02 2a bd 92 9a 81 bd
       -0.016168028 -0.062251467 -0.04150654 -0.0632831
0000b0 37 69 e2 bc f5 69 33 bd 9f 92 d4 bb f9 58 68 bd
       -0.027638061 -0.04380222 -0.006487205 -0.056725476
0000c0 44 70 19 3c f5 93 58 bd cb b8 85 3d a7 37 98 bc
       0.009365145 -0.052875478 0.06529387 -0.018581225
0000d0 df c1 c4 3c aa 47 39 bd 01 63 9c bd d2 a4 96 3d
       0.024018226 -0.04523436 -0.07636071 0.07355656
0000e0 78 66 d3 bc e8 48 18 bc 52 9a 34 3d 6e 6b e3 bc
       -0.025805697 -0.009294726 0.044092484 -0.027761187
0000f0 9b 70 8f bd 0a ca 1c ba 31 39 0b 3d d4 bf 97 3d
       -0.070039 -0.0005981034 0.03399009 0.07409635
000100 3b 60 8f 3d 96 99 90 3d 00 2f 3a 3c 19 fa 61 3d
       0.070007764 0.07060544 0.011363745 0.055170152
000110 24 5a e2 bc 50 95 b1 bb 41 77 8a 3d 5c a0 1a 3d
       -0.027630873 -0.0054194108 0.06761027 0.037750587
000120 16 35 30 bd 66 56 19 bd 81 12 ef 3c dc 19 70 bd
       -0.043019377 -0.03743591 0.029183628 -0.05861841
000130 1a eb 98 bc f7 a4 db 3a 12 c7 89 3c 70 4c 3e bd
       -0.018666793 0.0016757537 0.016818557 -0.046459615
000140 fc 09 28 3d b0 40 e4 3b 21 9e 3b bd 7b 60 81 bd
       0.041025147 0.006965719 -0.0458051 -0.0631723
000150 9d 99 72 bd 3b 8b 09 bd cf cd 67 3d 0e 1d 40 3d
       -0.05922853 -0.033580046 0.05659276 0.04690271
000160 6b f0 2b bd 15 7f c2 bc 27 7b 4e 3c 16 5b 72 3d
       -0.041977327 -0.023742238 0.012602604 0.059168898
000170 02 69 7d bd d7 c4 9a bd e2 de 5c bc d2 07 3d 3d
       -0.06186772 -0.075570755 -0.013480874 0.046150036
000180 6a 0b 5a 3d 84 ab 39 bd da c5 1c 3d 42 55 58 3d
       0.05323354 -0.045329586 0.038274623 0.052815683
000190 bd b0 88 bc 4f 33 d7 3c a6 10 6b bc f1 69 45 bd
       -0.016685838 0.026269583 -0.014347231 -0.048196737
0001a0 e1 4a 0e bd d3 e7 38 3d 7f e7 01 3d ca d3 8b bb
       -0.03473938 0.04514296 0.031714913 -0.0042671906
0001b0 30 50 80 3d f0 e6 3f bd 92 1e 29 bd 27 f2 1f 3c
       0.062652946 -0.0468511 -0.04128892 0.009762323
0001c0 7d 52 a5 3c 9b 01 6d bc 3d cf 80 bd 9a 2d 70 bd
       0.020180935 -0.014465715 -0.062895276 -0.05863724
0001d0 ed 69 fd bc b0 93 12 bd f8 25 5f 3c 81 0e 4c bd
       -0.030934298 -0.035785377 0.013619892 -0.04981852
0001e0 08 a8 0a 3d 92 6f 73 bd 24 60 9a bd f7 ec 75 3d
       0.033851653 -0.059432574 -0.075378686 0.06004044
0001f0 94 27 c7 3c 82 4f 0b bd 4a 02 8f bd 17 22 3d bd
       0.024310865 -0.03401137 -0.069828585 -0.04617509
000200 d0 86 0d 3b f8 b7 78 bd 63 9a 3d 3d bf 1b 97 3d
       0.0021595247 -0.06072232 0.046289813 0.07378339
000210 00 a4 a5 bc 28 ba 8c 3d f4 e8 9a 3d 68 9e 4c 3c
       -0.020219803 0.06871444 0.075639635 0.012488939
000220 4e e5 22 bd 60 b0 33 3c 6a 9b 4c 3a ce be 4d 3d
       -0.039769463 0.010967344 0.0007805141 0.050230794
000230 6e 00 6b bc 5a ab 9c 3d c6 39 3e 3d 79 f7 aa 3b
       -0.014343364 0.0764987 0.046441816 0.0052174893
000240 a2 0c 7a 3d b3 0c 57 3d a0 22 da 3c a6 ec 25 bd
       0.061047204 0.052502345 0.026627839 -0.04050889
000250 b6 e6 6e bd 2b c5 10 3d fc 3e ff bc d3 bc 3a bd
       -0.05832549 0.035344284 -0.031157963 -0.045590233
000260 02 29 ce 38 7f a8 02 bd 08 f2 8d bd 57 47 ad 3b
       9.830484e-05 -0.03189897 -0.069309294 0.0052880454
000270 6b a7 86 bd d6 b9 0a bd fe 97 b5 bc f2 35 63 bd
       -0.06574901 -0.033868633 -0.022167202 -0.055471368
000280 87 54 8c 3c 44 f3 3c 3d f9 69 23 bd 64 85 2f 3d
       0.01713015 0.046130434 -0.039895985 0.04285182
000290 33 29 08 bd 54 4a 82 bd 70 96 7f 3d b2 53 66 bc
       -0.033242416 -0.06361833 0.062399328 -0.01405804
0002a0 1a 71 b6 3a 42 b9 b5 3c 47 02 84 3d 7f f3 37 3d
       0.0013919205 0.022183064 0.06445747 0.04490995
0002b0 30 9f 1f 3d a0 a6 02 bd 37 45 f6 bb b6 f9 74 3d
       0.038970172 -0.031897187 -0.0075155753 0.059808455
0002c0 93 c3 af bc 9b 11 8f 3d 1b 72 35 bd b3 7b 57 3d
       -0.021455562 0.0698578 -0.044298273 0.052608203
0002d0 ea 42 9c 3d 73 d4 2d 3d d4 0c 69 bd 66 a1 3b bd
       0.0762995 0.042438935 -0.056897 -0.04580822
0002e0 bc 65 c8 3c 6b 10 89 3b 26 60 77 bc d7 4e da 3c
       0.024462573 0.0041828654 -0.015098607 0.026648922
0002f0 0f 6f 85 bd 34 1e 73 bd 72 4b 8f 3d 57 cc 1f bc
       -0.06515323 -0.059354976 0.06996812 -0.009753308
000300 ac a5 5a bd a1 d2 be bc 60 7f 0d 3c 60 2f 2e 3d
       -0.053380653 -0.023293795 0.008636326 0.04252565
000310 60 78 7d bd 8e 14 52 3d 6e 6e 0f bd 1a 89 54 bd
       -0.061882377 0.051289134 -0.035017423 -0.051888563
000320 29 53 59 3d 6c 5e 74 3b 8d 3d c7 bb fd 19 68 bd
       0.053057823 0.0037287725 -0.0060803355 -0.05666541
000330 6b 76 86 3d a2 02 51 bd 1a cc 72 bd 19 32 4b bd
       0.06565555 -0.0510279 -0.059276678 -0.049608324
000340 ab 0a 2f bd 63 48 86 bd 57 b7 9a bd 64 15 8e bd
       -0.042734783 -0.065567754 -0.075545006 -0.06937674
000350 06 77 d2 bc 2f d1 94 bd 7b 0e d6 bc a5 56 5f bd
       -0.02569152 -0.07266461 -0.026129952 -0.05452599
000360 ff 90 c1 ba b6 9e 66 bd 24 b4 e6 bb c8 7e 3e bc
       -0.0014767944 -0.056303702 -0.0070405174 -0.011626907
000370 8b b3 a0 bc 77 2e b4 bc a2 fe 41 3d c0 24 6a bd
       -0.019616863 -0.021994812 0.047361977 -0.057163954
000380 b1 89 53 bd 6c a1 a6 bc 50 81 c1 3c 39 71 8c 3d
       -0.051644985 -0.020340644 0.023621231 0.06857533
000390 79 44 42 3d 3c 13 ca 3c d3 92 40 bc fb 3b d6 bc
       0.047428582 0.024667375 -0.011753756 -0.026151648
0003a0 41 6b fc 3a c4 71 df 3c ca a3 d6 bc d6 e3 32 bd
       0.0019258038 0.027275927 -0.026201148 -0.043674313
0003b0 0f d5 90 bd 89 01 6a 3d 19 23 01 3d 12 68 ed 3c
       -0.07071888 0.05713037 0.031527612 0.028980289
0003c0 c8 b5 53 bd ff 85 cf bc bf 25 b9 bb 91 1a 85 bb
       -0.051687032 -0.025332449 -0.0056502516 -0.004062005
0003d0 1c 61 ed bc 3e 06 55 bd 46 58 5f bd 3a 53 67 bd
       -0.02897697 -0.052007906 -0.054527543 -0.056475855
0003e0 8b bc 9f 3c d1 04 9c 3c 11 26 95 3d 97 d5 52 3c
       0.019499084 0.019045265 0.07282651 0.012868307
0003f0 dd ce 88 3c 96 1e 1f bb a4 04 5b 3d 9a 10 98 3d
       0.016700203 -0.0024279705 0.053471223 0.074250415

model.bigrill.fwd_rnn.cells.0.forget_gate.mlp.bias f4 [32]
000000 34 46 91 3d 47 1a 81 3d 90 eb 98 bc 0e f8 5a 3c
       0.07093468 0.0630384 -0.018667012 0.013364805
000010 e0 7c cb bb e0 d9 ef bc 3e 0d 2d bd e0 aa 84 3d
       -0.0062099546 -0.029278696 -0.042248957 0.06477904
000020 79 58 02 bd 3b b1 28 3d e5 1b 45 3d 25 3e f2 3c
       -0.031822655 0.041184645 0.048122305 0.029570648
000030 16 1e 1f 3d fa 74 09 3d da 35 50 bd a0 68 db 3c
       0.03884705 0.033558823 -0.050832607 0.026783288
000040 bf 8f 01 3c 49 8a 41 3c 63 6b 47 bd 36 49 d0 bc
       0.007907807 0.011812755 -0.048686396 -0.025425535
000050 54 f6 6e 3d 25 5a c0 3c 55 b8 1c 3d 5a d0 57 3d
       0.058340386 0.023480484 0.03826173 0.052688934
000060 13 4e 03 3d 91 b5 63 bd 3d 05 28 3a 1f 7c b4 bb
       0.03205688 -0.055593077 0.0006409472 -0.0055079604
000070 90 09 bc 3b cc 43 83 3d e0 05 3a bd ab 1a 57 bd
       0.0057384446 0.064094156 -0.04541576 -0.052515667

model.bigrill.fwd_rnn.cells.0.update_gate.mlp.weight f4 [32, 170, 1, 1]
000000 56 ab cb bc 2a c1 b1 3c 4d 69 a6 3b 6b b3 f4 bc
       -0.024861973 0.021698553 0.005078471 -0.02987071
000010 94 2c a6 bc 9e d3 02 3d a9 d7 d5 bb 58 22 94 3d
       -0.020284928 0.031940095 -0.006525953 0.07233113
000020 38 d0 49 bc 3f 50 5c 3d 3d 30 51 3d 9b aa 8d bd
       -0.01231771 0.053787466 0.051071394 -0.06917306
000030 4a e7 25 3d bb 9b dd 3c d0 15 d8 3c 8b 7b 93 3d
       0.040503778 0.027051797 0.026377589 0.07201298
000040 c7 b5 fa bc 38 39 ca 3c 2a eb 62 3d 75 1c 72 bd
       -0.030604256 0.024685487 0.05540005 -0.05910917
000050 59 36 0f 3d 01 fd 8e 3d 88 1c 7d bd 13 c9 25 bd
       0.03496394 0.069818504 -0.061794788 -0.040474962
000060 89 6f 87 3d ca a6 c8 3c c6 1a ee 3c 4f 4b 8e 3b
       0.066130705 0.024493594 0.029065501 0.0043424736
000070 da 60 3c 3d e7 f1 a8 bc fe 86 b4 3c 51 ab 94 bd
       0.045990802 -0.02062316 0.022037026 -0.072592385
000080 be 50 e6 3b ac 62 9c bd 5a 52 32 bd 13 71 06 3d
       0.007028668 -0.07636008 -0.043535568 0.03282268
000090 17 51 47 3d 9d 9c 81 3c 4e 89 24 3d 36 68 97 3d
       0.048661318 0.01582175 0.040170006 0.073929235
0000a0 9c 98 9c bd 34 65 75 3d c0 68 22 3d 6d 60 83 bd
       -0.076462954 0.059910968 0.03965068 -0.06414876
0000b0 ad c1 0f bd 10 1b ee bc 35 b1 81 bc 28 51 e7 bc
       -0.035096813 -0.029065639 -0.01583157 -0.02823694
0000c0 bc 65 a9 3c bc 0e 9e bc ab 43 f5 bc 86 d9 80 3d
       0.020678394 -0.019294135 -0.029939493 0.06291489
0000d0 8f 21 86 bb 94 22 9b bc 2a d9 d4 3c e2 c7 16 3d
       -0.004093356 -0.018937387 0.025982458 0.036811717
0000e0 f9 58 d6 ba 05 02 b1 3c ae 90 27 bd 54 91 91 3d
       -0.001635342 0.021607408 -0.04090946 0.07107797
0000f0 50 25 81 bc 88 c5 49 bd c9 c1 39 bc 15 f3 25 3d
       -0.015764862 -0.049260646 -0.011337706 0.040515024
000100 a1 59 46 bd f3 9c 49 bc be 75 4b 3d 02 4c f2 3c
       -0.04842532 -0.012305486 0.049672835 0.029577259
000110 96 df c5 3a b5 a1 58 ba 8c 30 2f bc 7a ef 85 3c
       0.0015096541 -0.00082638423 -0.010692727 0.016349543
000120 73 30 14 3d bc fb 04 bb 29 43 c8 3c 1f 20 b4 3c
       0.036179017 -0.0020291647 0.024446087 0.021987973
000130 19 4f 97 bd 16 23 4b 3d 56 de 94 bb 9e 62 86 3d
       -0.073881336 0.049594007 -0.004543106 0.065617785
000140 70 72 23 bd 67 19 2f 3d f4 ae 15 bc ed 55 83 3d
       -0.039904058 0.042748835 -0.00913595 0.064128734
000150 4f 12 66 bb 32 76 eb 3c 3e 35 14 3d 7a 63 05 3d
       -0.0035106128 0.028742883 0.03618359 0.03256557
000160 e0 97 8d 3d d2 c4 af 3c 49 48 84 3d 4c ba 44 bd
       0.069137335 0.021456156 0.064591 -0.04802923
000170 ba 87 85 3d 1c c3 50 3d e7 1e 0b 3c 3d 75 92 ba
       0.065200284 0.05096732 0.008491254 -0.0011173856
000180 18 27 89 3d 98 f7 55 bd 43 17 ae bc 21 f8 77 3d
       0.0669691 -0.052238077 -0.021251326 0.06053937
000190 ea fb d9 bc 4e f8 47 3d 1c aa ff bc ca 68 73 bd
       -0.02660938 0.048820786 -0.031209044 -0.059426107
0001a0 1d a4 75 bc c5 61 7b 3c b2 44 22 3d 2d 3a f2 bc
       -0.014992741 0.015343134 0.039616294 -0.029568756
0001b0 d3 31 21 3d 4f 74 07 3d 08 d1 4e 3d 96 81 6b 3a
       0.039354157 0.033069905 0.050492316 0.00089838484
0001c0 0b 24 9a bb 0a da d8 3c 1b bd 35 3d 19 64 a7 bc
       -0.0047040037 0.026471157 0.0443698 -0.020433472
0001d0 91 55 bc 3b d8 f5 f0 bb 4a 2b 2b 3d 50 b3 2e 3d
       0.005747505 -0.0073535256 0.04178933 0.042651474
0001e0 e2 cf 43 3d a5 35 26 bc 47 0a 3e bb 9f 13 31 bd
       0.047805674 -0.010144626 -0.0028997825 -0.043231603
0001f0 1a 76 95 bc ce cf 65 3d 70 a5 81 3d 2c 28 25 bd
       -0.018244792 0.05610638 0.06330383 -0.040321514
000200 03 5b b6 3a 36 6e d4 3c 5f e8 60 3c e0 47 7d 3c
       0.0013912622 0.025931459 0.013727277 0.015459031
000210 4c b2 dd bc 81 c7 18 3d 3c d0 4b bd 05 8e 18 3d
       -0.027062558 0.037299637 -0.049759135 0.037244815
000220 60 98 26 3d 9d 7d 31 3d 06 03 91 bb ad 3e 73 bd
       0.04067266 0.043332685 -0.0044254092 -0.059385944
000230 27 42 3e 3d b0 94 59 bd e1 ce 35 bd b0 7b 2b 3d
       0.046449807 -0.053120315 -0.04438675 0.041866004
000240 0e b5 f0 3c 55 9d 60 3d b6 98 3d 3d 96 a5 43 3d
       0.029383209 0.054837544 0.046288215 0.047765337
000250 e0 2c 18 3d 5d 7b a0 bc ff 03 9e 3c 5f 86 6c 3d
       0.03715217 -0.019590074 0.019289015 0.057745334
000260 35 9d 8f bd 4c 81 5f bd 53 d7 85 bd ba ba 2f bd
       -0.07012407 -0.054566666 -0.065352105 -0.042902686
000270 99 d9 e4 3c ff 5a 42 3d ba a6 1e 3d 63 cc 9a 3d
       0.02793579 0.047450062 0.03873322 0.07558515
000280 e3 50 1e bd 4f 1e 9d bc ad d6 50 3c b8 0a 07 bc
       -0.03865136 -0.019179491 0.012746495 -0.008242302
000290 d7 de 46 bd 2e 17 07 3d 01 f7 4d bc d2 5c e9 3c
       -0.04855236 0.03298109 -0.012571097 0.028486643
0002a0 88 46 c9 3c d1 93 7b 3c 6b 03 3d 3d d9 6f ab 3c
       0.024569765 0.015355066 0.046145838 0.020927357
0002b0 0d 39 f1 3c 44 ed 82 3d 91 e4 86 3d 81 76 21 bc
       0.02944615 0.06392911 0.06586564 -0.009854914
0002c0 05 a8 9a bd ec 91 98 bd a2 ee 69 3d 4b fc 82 3d
       -0.075515784 -0.074497074 0.057112344 0.06395777
0002d0 e4 30 81 bd 59 1a 96 bd c6 8c 74 bd 65 ff 1a 3b
       -0.06308153 -0.07329244 -0.059704565 0.0023650762
0002e0 75 af 93 bd 27 4c 5b bd 2b 4f 5a 3c be 3b 8c 3d
       -0.072112 -0.05353942 0.013324539 0.068473324
0002f0 91 88 7a 3d 92 57 25 3d da 1f d3 bc 10 68 2b 3c
       0.061165396 0.040366717 -0.025772024 0.010461822
000300 2c 9c 8d 3c 27 4d 59 3d 2a bf 07 3d c2 7d 3c bc
       0.017286383 0.053052094 0.033141293 -0.011504592
000310 5c 42 ff 3c c9 6f 52 bd 23 2c 3b 3d 95 7a 3f 3d
       0.031159572 -0.051376138 0.04569639 0.046747763
000320 41 97 4c 3d 8f dc 10 3c 38 ec 7b 3d 4a 7e 83 bd
       0.049948934 0.008841648 0.061504573 -0.06420572
000330 bf 13 48 bd eb f5 d8 bc 85 e5 12 3b 51 cd 66 3d
       -0.048846956 -0.02648445 0.0022414636 0.05634815
000340 1b 6d 98 bd b7 46 85 bd 02 7b f4 bc 5f 8b bc 3c
       -0.07442685 -0.065076284 -0.029843811 0.023015676
000350 81 f4 29 3c 0f a1 9a 3c 31 d8 3f 3d 45 ef 88 bd
       0.010373236 0.018875627 0.046837036 -0.06686262
000360 75 e6 83 bc c3 75 22 3d 03 a1 29 3d 6c 5f 28 bd
       -0.016101101 0.039663088 0.04141332 -0.041106626
000370 94 d7 84 3d 10 9d 2c 3d da ad e0 3c a9 8e 23 3d
       0.06486431 0.042141974 0.027426649 0.039930973
000380 0d 7d 18 3d 29 fd ba bc 60 11 81 3d 0f ae 8c bd
       0.037228633 -0.022825794 0.06302142 -0.068691365
000390 6b ea 17 3c 0b f2 8b 3d 21 3a 97 3d dd d9 b4 bc
       0.009272198 0.068332754 0.07384134 -0.022076542
0003a0 d3 9c 60 bc b1 11 87 3d d0 5e 2e 3d db 2e 59 bd
       -0.013709265 0.06595171 0.04257089 -0.0530232
0003b0 1c 4b 31 bc 3d 3e ac bc e0 b9 93 3d a6 6f 5a 3c
       -0.01082113 -0.021025771 0.07213187 0.013332283
0003c0 e1 f3 b1 3c ac 84 2e bd 22 14 75 bd cc d0 cc bc
       0.021722736 -0.042606995 -0.059833653 -0.025001906
0003d0 eb 2e 10 3c d0 16 96 bd a8 44 97 bc 20 a8 8b bd
       0.008800249 -0.0732857 -0.018465355 -0.06819177
0003e0 b5 c0 6b 3c ad 29 96 bd 65 ab 1b 3d f4 bb 8f bc
       0.014389207 -0.07332168 0.03800525 -0.017545678
0003f0 58 22 53 bd ad 7f 31 3d 71 e7 69 bd 54 10 72 bd
       -0.051546425 0.04333465 -0.057105485 -0.059097603

model.bigrill.fwd_rnn.cells.0.update_gate.mlp.bias f4 [32]
000000 19 49 73 3d 36 53 a6 bb e2 5a 91 bd b1 0b 54 bd
       0.059395883 -0.0050758375 -0.07097413 -0.051768962
000010 a3 24 3c 3d 25 98 35 3d 73 db 82 bd e7 09 57 bd
       0.045933377 0.04433455 -0.06389513 -0.052499678
000020 64 ca 95 3c db 49 2c bd 39 9a b7 3c e0 d1 91 3c
       0.018284984 -0.04206262 0.022412406 0.017800272
000030 98 eb 4a bd 19 7d 65 3c 1d f5 db bb c4 23 8c 3d
       -0.049541086 0.014006876 -0.0067125694 0.06842759
000040 6f cd d0 bc 37 a9 88 bd e4 cb 3f bd 3f fa 5c 3d
       -0.025488583 -0.066729 -0.046825305 0.05394959
000050 1e 18 2c bc 43 b5 8e bd 19 e1 14 bc df 54 26 bd
       -0.010503797 -0.06968167 -0.009086871 -0.040608283
000060 60 0a 6d bd 13 2f c7 3c 86 16 80 3d 75 05 2d bb
       -0.057871222 0.024314439 0.06254296 -0.0026400958
000070 a2 a3 4d 3c df 4c 7b 3b ba 4c 95 3d c7 54 c3 bc
       0.01255122 0.003834538 0.07290025 -0.023844136

model.bigrill.fwd_rnn.cells.0.c_gate.mlp.weight f4 [32, 170, 1, 1]
000000 37 97 7d bd c0 87 12 3d c8 b9 1f bc 99 e8 96 3d
       -0.061911788 0.035773993 -0.009748884 0.07368583
000010 eb 97 8a 3d e3 ec 8c bd b0 99 2c 3d 19 e1 97 bc
       0.06767257 -0.0688112 0.042138755 -0.018539952
000020 65 b6 30 3c 53 88 54 bd f1 7c 8c bd 13 b6 83 3d
       0.010785674 -0.05188782 -0.06859768 0.06431212
000030 ca 86 6a bb 85 39 7f 3d fa 9d 30 3d 81 6d 99 3b
       -0.0035785907 0.062310714 0.04311941 0.0046822433
000040 f6 c2 ec bc 62 1a bb 3c 11 c7 c7 ba 21 80 2f 3d
       -0.028901558 0.022839729 -0.0015241822 0.042846803
000050 5c a1 07 3d a8 3e 26 3d d6 06 a7 bc 55 05 6f 3d
       0.03311287 0.040587097 -0.020389002 0.058354694
000060 ea 14 84 bd 4c 9f 35 3d 68 73 96 3d 3a 2f 33 3d
       -0.064493015 0.04434137 0.07346231 0.04374621
000070 8d fc 0f 3d 6f 93 4e 3d f4 57 05 bd 54 b6 33 bd
       0.03515296 0.050433572 -0.03255458 -0.043875054
000080 38 5a 00 bd 54 42 99 3d 22 5b e6 3c 3f d7 90 bd
       -0.03133604 0.07483354 0.028119627 -0.07072305
000090 9e 79 59 3d 06 38 b2 bc b3 2e 90 bd bc bf 94 3c
       0.0530945 -0.02175523 -0.07040157 0.018157832
0000a0 38 ca 60 bd fd 10 87 bd 30 3a 39 3c 99 57 27 bb
       -0.05488035 -0.06595037 0.011305377 -0.002553439
0000b0 24 1e 93 bd 6c ec 91 bd d2 ff 87 bd 0e 41 84 bd
       -0.07183483 -0.07125172 -0.06640591 -0.06457721
0000c0 c3 be 2c bd f0 14 7d 3d c3 76 35 3a c4 91 a2 3c
       -0.042174112 0.061787546 0.0006922299 0.019844897
0000d0 24 fe 7a 3d f5 0e 7b bd c9 46 e7 bb 2f f6 06 3d
       0.061277524 -0.06129356 -0.007057999 0.032949623
0000e0 eb 5f 91 3d c1 1f f5 3c 64 53 30 bd b5 f2 8c 3d
       0.07098373 0.029922368 -0.043048277 0.0688223
0000f0 a5 a0 a5 bc e5 d6 cc bc ce fc 85 bd 6b 75 c5 bc
       -0.020218203 -0.025004813 -0.06542359 -0.02410384
000100 7e df 46 bd 97 ec 8d bd 8e c6 c9 3c 80 c2 23 3d
       -0.048552983 -0.069298916 0.024630811 0.03998041
000110 2d d8 65 bd 59 46 d1 3a c9 42 cd 3c a0 fb fe bc
       -0.056114364 0.00159664 0.02505626 -0.031125844
000120 e7 72 41 bd b6 bb 17 bb cf e3 36 bd 96 c4 4d 3d
       -0.04722872 -0.0023152656 -0.04465085 0.050236307
000130 5f d7 57 bd ed ac d1 3c b1 0a 98 3d ca 1d 02 bc
       -0.05269563 0.025595153 0.07423914 -0.007941673
000140 2b cd 9a 3d a6 30 42 3d f3 29 99 bd ed 36 61 3d
       0.07558664 0.047409676 -0.07478704 0.054984022
000150 4a 00 0e 3d dc 08 58 3d 3d 05 08 3d 2e 39 8e bd
       0.034668244 0.052742824 0.03320812 -0.069445
000160 8c 55 84 3d cd 8b a2 3c 82 1d 12 3d 25 e7 99 3c
       0.06461629 0.019842053 0.035672672 0.018786976
000170 bf a5 d9 3c 59 38 76 bd ba fc 5b 3d 4e 7b 23 bd
       0.026568292 -0.06011233 0.053707816 -0.039912514
000180 44 44 e2 bc 47 9d 4a bd 7a e0 57 bd d4 54 d6 bc
       -0.027620442 -0.049466398 -0.052704312 -0.026163496
000190 4d db 51 bd c6 42 81 bd 2e ac 73 3c 09 71 92 bd
       -0.051234532 -0.06311564 0.014872594 -0.07150466
0001a0 00 ee bc bc 70 2a 80 bc df bd 27 3c 95 45 8a 3b
       -0.023062706 -0.015645236 0.01023814 0.0042197206
0001b0 42 b6 49 3c 87 c7 81 bd c1 4c 3b bd 87 64 35 bd
       0.01231152 -0.06336885 -0.045727495 -0.044285323
0001c0 71 18 62 bd 51 db 3f 3d 0f 74 8e bd 66 29 96 bc
       -0.05519909 0.046840016 -0.0695573 -0.018330287
0001d0 af 0b c9 3c a5 de 88 3a e6 9c 29 3d ba fa 83 3d
       0.024541704 0.001044233 0.041409396 0.06444307
0001e0 d0 b7 3e 3d 41 ae 07 3d 6a 02 2f ba cd 85 91 3d
       0.046562016 0.033125166 -0.000667608 0.071055986
0001f0 43 4a 1f 3c 7d 38 9a 3d 65 09 16 bd 4b 10 3d bd
       0.009722295 0.075303055 -0.036630053 -0.046158116
000200 d4 47 56 3d 63 3f 98 3d bb 07 7c 3d 15 9d 6b bd
       0.052314594 0.07433965 0.06153081 -0.057522852
000210 d0 3c f0 3c 1a 9d 54 bd fb 36 80 3d 47 ab 0e bd
       0.029325873 -0.051907636 0.06260487 -0.03483131
000220 4b 17 2f 3d d7 df 2a 3d 0d 89 ce bc 3a 94 33 bc
       0.042746823 0.041717377 -0.025211835 -0.010960633
000230 84 de 1b bd 65 a4 2b 3d 27 29 96 3d e8 96 8c 39
       -0.038054004 0.041904826 0.07332068 0.00026815315
000240 ae a8 83 3c 9b ea 47 3d 99 b1 6b bc 6f 81 88 bd
       0.016071644 0.04880772 -0.014385604 -0.066653125
000250 05 68 8b bd 9f b4 78 bd fd 78 72 bd 4a cc 0c bc
       -0.068069495 -0.06071913 -0.059197415 -0.008593628
000260 6b 50 3c bd 57 b8 0a 3d b7 5d 0e 3c 5c 85 83 3c
       -0.04597513 0.033867206 0.008689336 0.016054802
000270 f6 cf 9c 3d 3f b9 00 bd 01 23 3b 3d 8c 08 8a 3d
       0.07656853 -0.031426664 0.04568768 0.067399114
000280 7d 46 e8 bc 89 25 90 bd ba 79 86 3d 63 35 5c bc
       -0.028353924 -0.07038409 0.06566186 -0.013440463
000290 be 6f 8e 3d e5 46 9b bc 6a e1 9a bd c7 af 8a bd
       0.06954907 -0.018954704 -0.075625256 -0.06771808
0002a0 92 96 0c bd 08 37 93 3d 1c 36 86 3d d7 c2 39 bd
       -0.034323283 0.07188231 0.06553289 -0.04535183
0002b0 d8 34 ca 3b b7 a6 ce bc 4a 39 4e 3d cd 0d 9a 3d
       0.0061708502 -0.02522598 0.050347604 0.075221635
0002c0 b0 5f 0a bd 5d 0e d3 bc 80 14 22 3c 16 41 04 3d
       -0.03378266 -0.025763685 0.009892583 0.032288633
0002d0 3b 34 84 bd b7 f4 54 bd 49 75 b2 3c 16 b0 27 3d
       -0.06455275 -0.05199119 0.021784442 0.040939413
0002e0 09 0c e7 3c 61 ac 62 3d bf 3c 2a 3d dc a2 76 bb
       0.028203981 0.055340175 0.04156184 -0.0037633693
0002f0 fc 99 d1 3c b0 79 85 3d 88 a1 0f 3b 98 51 5d 3d
       0.02558612 0.06517351 0.0021916348 0.054032892
000300 80 f2 42 3d fe 01 4c bd 49 42 3b 3d d7 a4 66 3c
       0.047594547 -0.049806587 0.04571751 0.014077387
000310 ac 1d 4c bd 15 a4 80 3d 99 2f f4 3c 78 30 57 bd
       -0.049832985 0.06281296 0.029807853 -0.052536458
000320 3b a8 17 3d 5e 7d 1d bd b6 0c 8f 3d 7e af 8b bd
       0.03702567 -0.038449638 0.06984846 -0.06820582
000330 76 e2 54 3d d5 d6 2e 3d 67 d3 24 3d 90 b5 81 3d
       0.051973782 0.04268535 0.04024067 0.063334584
000340 dc 68 48 bc 59 28 c3 3c eb 70 6c 3d 83 7a 46 ba
       -0.012232032 0.02382295 0.057724874 -0.0007571356
000350 d2 96 8f 3d 88 48 9b 3d eb a1 36 bc 4e 5c 21 3d
       0.070111886 0.075821936 -0.011147003 0.03939467
000360 b6 ea 1b bd 28 a5 69 3d da 6a 64 3d 6b a3 d7 3c
       -0.038065635 0.05704227 0.055765964 0.026323041
000370 40 c2 88 bd e3 89 34 bc 8c bd 5b bc a9 8c 27 3d
       -0.06677675 -0.011019203 -0.013411891 0.04090563
000380 18 f7 95 bd a9 cb 0b 3d d6 71 87 3c 7d 14 9a bd
       -0.0732252 0.034129772 0.016533773 -0.07523439
000390 45 2e d3 3c 78 8b 9a 3d ce a2 66 39 b4 0b 71 bc
       0.025778899 0.07546133 0.00021995159 -0.014712263
0003a0 29 48 84 3d d5 9d d5 3c 16 25 9f bc a7 86 5e 3d
       0.06459076 0.026076237 -0.019426864 0.054327633
0003b0 cd 76 dd 3c 20 af 97 3d bc 62 40 3c ca 4c 68 bd
       0.027034188 0.07406449 0.01174229 -0.056713857
0003c0 3b 90 9b 3d ed 10 6b bd 93 23 32 3d 36 10 6f 3d
       0.07595869 -0.05738919 0.043490957 0.05836507
0003d0 02 be 47 3d 07 37 3d bd 5c 47 6d 3c 18 81 51 bb
       0.04876519 -0.046195056 0.014482345 -0.0031967815
0003e0 f7 55 8f bc e0 bb 86 3c 82 aa aa bc c2 cd 49 bd
       -0.017497046 0.016447008 -0.020833258 -0.04926849
0003f0 3f 85 03 3d c5 fe 28 3c 69 db 2a bd 48 e9 fa 3c
       0.032109495 0.010314648 -0.041713152 0.030628815

model.bigrill.fwd_rnn.cells.0.c_gate.mlp.bias f4 [32]
000000 6d a0 7c bd 80 75 08 bd 2b 89 8c 3d 85 8d d7 3b
       -0.06167643 -0.03331518 0.068621 0.0065781497
000010 6c 2a 74 3c a5 e8 17 bd fc 00 9c bd 7d 11 3b bd
       0.014902692 -0.0370871 -0.07617375 -0.045670975
000020 e5 b2 96 3d c5 fb 9d 3c 8d 9b 82 bd 52 d1 2e bd
       0.0735834 0.019285092 -0.06377325 -0.042680092
000030 e4 26 d9 3c a0 af 99 3d a9 09 60 3d de 88 41 bd
       0.026507802 0.07504201 0.054696713 -0.047249667
000040 ed 08 94 bd 7d 2c 86 3d 5a d8 05 3d 2b 88 6a bd
       -0.07228265 0.06551454 0.032677032 -0.057258766
000050 3a 8d 2a bd 1e f2 82 3d d6 ca 33 3d 2b fa 1c 3c
       -0.04163859 0.063938364 0.04389461 0.009581129
000060 42 b2 23 bd b7 a5 14 bd 27 c5 34 bd cf 52 ce bb
       -0.03996492 -0.03629085 -0.04413333 -0.0062964926
000070 78 05 ba bc f1 ad 4d bd 1a 4a 3c bc 45 a7 80 bd
       -0.022707686 -0.05021471 -0.011492277 -0.06281904

model.bigrill.fwd_rnn.first_stage.weight f4 [1, 32, 1]
000000 02 00 00 3e bc 99 12 3e 26 e8 02 be 2f 52 2f be
       0.12500003 0.14316458 -0.1278387 -0.17121194
000010 14 ed 03 3e 5e a2 d7 3c a1 c9 c1 bd 24 97 98 3c
       0.12883407 0.02632254 -0.09462286 0.018626757
000020 43 54 dc bd 33 45 88 bc 61 38 01 bd 59 6a 90 bd
       -0.10758259 -0.01663456 -0.031547908 -0.07051534
000030 c2 62 1f 3d aa e4 c5 3d db e8 a5 3c ec b6 29 3e
       0.038912542 0.09662755 0.020252636 0.16573685
000040 eb 33 95 bc 64 f3 31 be 88 b3 02 3e f4 33 20 3e
       -0.018213233 -0.17378002 0.12763798 0.15644819
000050 94 75 0e be 13 84 8f 3c a8 b0 fa bc 31 88 77 bd
       -0.1391204 0.017519033 -0.030601814 -0.060432617
000060 34 2e 29 3c 96 5f 26 be 27 72 4a bd d5 5d d3 3d
       0.010325957 -0.162474 -0.04942527 0.103206314
000070 83 bd 05 3d bb 1c 0e 3e e7 2e 76 bd 6e c1 2e 3d
       0.032651436 0.13878147 -0.060103323 0.042664938

model.bigrill.fwd_rnn.spatial_decoder.lin_in.weight f4 [32, 34, 1]
000000 6f 88 18 3e fe 7d 0c 3e bf e2 f3 bc 7f 62 d9 3d
       0.14895795 0.13719937 -0.029771207 0.1061449
000010 4d df 0a be 87 90 fb 3d b3 a4 11 3e bd 68 b4 bb
       -0.13561745 0.12283426 0.14222984 -0.00550565
000020 13 ba 07 3e 59 87 9b 3d 32 36 0a be 93 4e 16 3e
       0.13254575 0.07594175 -0.13497236 0.14678411
000030 18 25 c0 3d a7 9a d7 3d 35 e2 17 3e 61 00 e3 3c
       0.09382075 0.105275445 0.14832385 0.027710142
000040 04 2b 2e be 98 ad 03 3e a3 19 b9 3d 60 72 d3 3d
       -0.17008597 0.1285919 0.09038093 0.1032455
000050 71 53 53 bd 55 c9 81 bd 75 24 b8 bc f9 49 a2 3d
       -0.051593248 -0.06337229 -0.022478322 0.079242654
000060 3c b2 ac bd 56 f5 17 be 3f cd c9 3c a8 af f5 3d
       -0.08432433 -0.14839682 0.024634002 0.119963944
000070 6a a7 e9 bd f8 55 bb 3d cf 84 1e bd 7d 63 26 be
       -0.11408885 0.091472566 -0.038700875 -0.1624889
000080 48 d0 11 3e 7b 99 dd 3d 28 c8 10 3e ea ae c0 3d
       0.14239609 0.1082029 0.14138854 0.09408362
000090 ec 41 f3 3d e9 1c d6 3d 42 8e a6 bd fc 57 c9 bc
       0.11877808 0.10454733 -0.08132602 -0.024578087
0000a0 66 3a f3 bd d1 fb d2 bd 4f 99 c5 bd 54 9a a7 bc
       -0.11876373 -0.103019364 -0.09648382 -0.020459332
0000b0 01 49 1d be f0 c1 09 3d 21 0f 97 bc 32 35 e4 bd
       -0.1535988 0.03363222 -0.018439831 -0.11142959
0000c0 f5 67 02 be 9f db 50 bd c3 a2 1e 3e 5f eb 8a bd
       -0.12734969 -0.050990697 0.15491776 -0.06783175
0000d0 66 03 09 be a3 4a 26 be f1 53 ec bc b3 61 1e be
       -0.13380203 -0.16239409 -0.02884862 -0.15466957
0000e0 63 50 34 3d 69 a8 8c 3d 17 c1 7d 3d 72 04 f4 bc
       0.044021975 0.06868059 0.061951723 -0.029787276
0000f0 a0 7c b0 3d 23 2f 1b be 68 59 a7 3d 6d cd ec 3d
       0.0861752 -0.151547 0.0817135 0.11562619
000100 25 49 0b 3e b5 79 a3 bd fa 82 f4 3d dd 35 0d 3e
       0.13602121 -0.07982198 0.11939044 0.13790078
000110 4e ef 5b bd 26 d5 f4 bd d5 69 af 3d fa 2b c5 3c
       -0.053695016 -0.11954717 0.08565108 0.024068821
000120 9d 4d 03 bd 3b 34 c0 3c 7b 62 39 3d bf 1f a6 bd
       -0.03205644 0.023462405 0.045259934 -0.08111524
000130 4c 5c d8 3c 15 1e 03 3e 42 37 0b be 7a ce 8f 3d
       0.026411198 0.12804444 -0.13595298 0.07021804
000140 bc 4c fc bd a3 ff 93 bd ee dc e6 3d f4 d5 5d bd
       -0.123193234 -0.07226493 0.11272608 -0.05415912
000150 f4 61 29 be b4 d6 2b be 12 77 f9 3d 8e ce fd 3c
       -0.16541272 -0.16781121 0.12180914 0.030982282
000160 5e 11 28 be 85 a9 bd 3d 06 76 fa 3d 04 76 3a 3d
       -0.16412875 0.09260849 0.122295424 0.045522705
000170 85 0d 0d 3e 20 34 3c 3a 50 69 24 3e 28 19 8c ba
       0.13774689 0.0007179398 0.16055799 -0.001068865
000180 e2 26 11 be c9 e6 b3 3c 2d 18 42 3d a3 a6 e3 bd
       -0.14174989 0.021960633 0.047386337 -0.11115768
000190 9f 1b ee 3d f0 24 2b 3d 96 c9 22 be b0 a4 82 3d
       0.11626362 0.041783273 -0.15897211 0.06379068
0001a0 9a e3 22 3d 5c 1b 03 be 89 ea b7 bc 38 1b bd 3c
       0.03976784 -0.12803406 -0.022450702 0.023084268
0001b0 e4 55 9b 3d 82 66 e3 3d d7 78 ad 3d 88 a6 90 3d
       0.07584742 0.11103536 0.08470314 0.07063013
0001c0 db 47 1c 3d be 51 c6 3d d1 7e 97 3d 64 54 20 bd
       0.038154464 0.0968356 0.07397235 -0.03914298
0001d0 70 4d 31 bd a3 ef 83 3d f9 20 ee 3d 18 da f0 bd
       -0.04328674 0.064421915 0.11627383 -0.11760348
0001e0 86 10 f4 3d af 54 02 be e7 be a7 3b 46 a7 19 be
       0.11917214 -0.12727617 0.005119193 -0.15005216
0001f0 65 ac c4 bd 04 dd 9a 3d 07 24 28 be f9 80 b4 3d
       -0.09603194 0.07561687 -0.16419993 0.08813662
000200 57 8e e3 3c 63 54 c3 3d f8 62 7f bd 16 81 83 bc
       0.027777834 0.0953758 -0.062350243 -0.016052764
000210 64 6b 9d 3d 61 49 72 bd 70 05 94 3d 5e 3c 5b 3c
       0.07686499 -0.05915201 0.072275996 0.013381092
000220 93 2d 1d 3d e9 2c d3 3d dc 1c a3 3d 2e 4e 26 bd
       0.03837354 0.103113 0.07964489 -0.0406019
000230 c1 de 07 be b0 08 3b bb 49 c0 27 3e 12 2d 15 3d
       -0.13268568 -0.0028539114 0.16381945 0.036419936
000240 ff cd 2b be 1f 61 f0 3a 5a bc fa bd 02 69 95 bd
       -0.167778 0.0018339491 -0.122429565 -0.07295419
000250 ee f6 63 bd 57 60 c3 bd 85 35 37 3c 69 e3 26 3e
       -0.055655412 -0.0953986 0.011182194 0.16297688
000260 65 7e 1b be 89 ae 6c 3d 87 ee d5 3d fc 2c 25 3e
       -0.15184934 0.057783637 0.10445886 0.16130441
000270 51 a0 53 bd 09 d7 fe bd 9b 93 b2 3c 8b c0 76 bd
       -0.05166656 -0.124433585 0.0217989 -0.060242217
000280 07 8b a3 bd 77 e4 0e be 99 fa dc 3d 42 af 08 be
       -0.07985502 -0.1395434 0.10789985 -0.13348106
000290 2d 7b e4 bd e9 b6 0a be 73 1c c3 3d 48 c2 af bd
       -0.111563064 -0.13546337 0.09526911 -0.08581978
0002a0 5e 2d 1e 3d 58 b2 af bd ee 0c f1 bd 78 45 7a 3c
       0.038617484 -0.08578938 -0.11770044 0.015275352
0002b0 6d 71 ab 3d fd 09 13 3d 47 40 66 bd cd cb 63 bd
       0.083712436 0.035898197 -0.056213643 -0.05561428
0002c0 c8 83 82 3c c5 9e fb bd fb ec c8 bd ab 6f 83 bd
       0.015931979 -0.12286142 -0.098108254 -0.06417783
0002d0 76 93 a3 3d 7a c9 eb 3d 4b f0 13 3e ce 48 94 3d
       0.0798711 0.11513038 0.14447133 0.07240449
0002e0 41 d6 80 3d 93 8b 50 3d e0 be 0e 3d ea 72 e4 bd
       0.06290866 0.05091436 0.03485 -0.111547306
0002f0 96 84 10 3e 68 26 c3 3d 6e ac 1d be 72 a8 6c 3d
       0.14113078 0.0952881 -0.15397808 0.05777783
000300 25 19 26 3e af fc 4d bd bc d5 27 3d ca d3 96 bd
       0.1622053 -0.050289806 0.040975317 -0.07364614
000310 ab 6d e3 bc a5 90 f4 3b cd 1f 32 3d e7 2c ac bd
       -0.027762255 0.007463532 0.04348736 -0.08407002
000320 48 c4 1b be 9c 0c ec bd f2 67 c2 3d b2 13 86 bd
       -0.15211594 -0.115258425 0.09492482 -0.06546725
000330 16 69 db bc f3 af 06 3e f6 20 41 bd c8 45 2b be
       -0.026783507 0.13153057 -0.047150575 -0.16725838
000340 db 54 ad bc 32 9b 80 3d 1f c2 36 3d 99 98 89 bd
       -0.021158626 0.06279601 0.044618722 -0.06718559
000350 a3 16 77 3d d3 f6 d7 bd 58 15 0f 3e 81 ca 15 be
       0.060324322 -0.10545125 0.13972986 -0.1462803
000360 9e e3 d0 3d 6a be 36 3d 29 fc 0d 3e 91 4a d5 3d
       0.101996645 0.044615187 0.13865723 0.10414613
000370 e0 dd b4 bb 8a 70 b3 3c d3 72 a5 3d 6c 14 b1 bd
       -0.0055196136 0.021904249 0.080785416 -0.08646473
000380 1d a0 05 be 04 74 c2 3d 0a d0 37 bc 56 c0 2a be
       -0.1304936 0.094947845 -0.011219034 -0.16674933
000390 d0 47 5a 3d 0f d4 98 bc 23 28 44 bd ef b3 62 3d
       0.053291142 -0.018655805 -0.04788984 0.05534738
0003a0 05 ff 85 3d 0a d0 2a be 43 2f 2e bc a3 81 84 bd
       0.06542782 -0.16680923 -0.010631385 -0.06470039
0003b0 fa dc a7 3d 46 95 86 3d 0a 09 88 bd b8 36 96 bd
       0.08196445 0.065714404 -0.06642349 -0.073346555
0003c0 ed 3d ef bd 03 f8 01 3e d0 fd aa 3d cb 67 24 3e
       -0.11681733 0.12692265 0.08349192 0.16055219
0003d0 b8 e7 bf bd 56 31 8c 3d 82 c5 3b 3d 10 04 b2 3d
       -0.09370369 0.068453476 0.045842655 0.08692181
0003e0 23 49 01 be 2e bc fa 3d 56 f5 93 3d 7e 9e 17 be
       -0.12625556 0.12242924 0.072245285 -0.14806554
0003f0 f5 8c e6 bd 81 f9 38 bc d1 42 80 bd 16 c8 11 3e
       -0.11257354 -0.011289955 -0.06262744 0.14236483

model.bigrill.fwd_rnn.spatial_decoder.lin_in.bias f4 [32]
000000 43 7d ea bc 7a d1 96 bd 20 a7 05 bd df 68 a9 3d
       -0.028624183 -0.07364173 -0.032630086 0.08271956
000010 af 96 30 3c b1 00 03 3e ef d9 ac bd 7b 10 a5 3c
       0.010778113 0.12793233 -0.08440005 0.02014946
000020 16 19 aa bd bc b8 95 3d 50 f4 19 3e 79 db b2 3d
       -0.08305566 0.07310626 0.15034604 0.08733267
000030 2c 97 8b bd e2 7f c5 3c 13 97 b6 bd 17 61 e2 3d
       -0.06815943 0.02410883 -0.08915534 0.11053675
000040 8d 17 d4 3c c3 51 2a 3e 4f 8b 8e bd 96 59 29 be
       0.025890136 0.16632752 -0.06960165 -0.1653808
000050 0a e6 3d 3d a7 15 0a bd 5e 6d 92 bd e7 4c 07 bd
       0.04636196 -0.033712056 -0.071497664 -0.033032324
000060 6b 8f e5 bb 90 46 81 bd a9 d7 91 bd 3e a5 11 3e
       -0.007005622 -0.06312287 -0.07121212 0.14223191
000070 e7 56 92 3d 91 54 50 bd 5c 95 f6 bd 71 f1 00 be
       0.071454816 -0.0508619 -0.12040207 -0.12592103

model.bigrill.fwd_rnn.spatial_decoder.graph_conv.mlp.weight f4 [32, 64, 1, 1]
000000 fc 33 b3 bd 20 fe 0d bd 40 83 e2 bb 14 00 17 bd
       -0.087501496 -0.03466618 -0.006912619 -0.03686531
000010 80 62 4a bd e4 4d 71 bd 64 d8 35 bd d0 24 a5 bd
       -0.049410343 -0.058912173 -0.04439582 -0.08063662
000020 f8 4a 09 bd 98 6d c9 3d 4c fc 52 3d c0 3c db 3c
       -0.03351876 0.098353565 0.05151014 0.026762366
000030 dc 13 75 bd 96 d1 ea bd 00 cd 1d 3a 48 23 6a bd
       -0.059833393 -0.114657566 0.0006019622 -0.057162553
000040 90 4d 68 3c d8 b9 75 3d 94 90 dd bd 32 4c 9e bd
       0.014178649 0.059991688 -0.10818592 -0.07729377
000050 f0 2f 0c 3c 14 34 07 3d f4 65 c6 bd 64 cb ed bd
       0.008556351 0.03300865 -0.09687415 -0.11611059
000060 7a df 9e bd 5e 78 b5 bd b8 b0 dd 3c 90 34 3a bd
       -0.077574685 -0.08860849 0.027061805 -0.045460284
000070 f8 68 75 bd d8 17 5f bd 70 4c 46 3c 9c c8 98 3d
       -0.05991456 -0.0544661 0.012103185 0.07460138
000080 c8 56 3b 3d c0 e4 cf bd 38 0f 0d 3d b0 6d da 3c
       0.045737058 -0.101510525 0.03443834 0.026663631
000090 00 e0 ba 39 48 90 ec 3d dc f2 99 3d 4c 95 95 3d
       0.00035643578 0.11550957 0.07517025 0.07303867
0000a0 10 86 41 bd 52 ad 82 bd 50 10 7e bc 12 c3 ac bd
       -0.047246993 -0.063807145 -0.015506819 -0.08435644
0000b0 02 76 cc bd ec 7c 68 3d 64 28 ba bd 00 43 91 3a
       -0.09983446 0.05675976 -0.09089735 0.001108259
0000c0 46 f8 96 bd 54 2b b8 bd 3e d2 80 bd da 4a de 3d
       -0.07371573 -0.08992639 -0.062901005 0.108541206
0000d0 92 42 fe 3d d8 f4 bc bc e0 49 9f 3b 10 f2 2e 3c
       0.12415041 -0.02306597 0.0048611015 0.010677829
0000e0 b6 2e b7 3d 06 2b a8 bd e4 94 3a bd ec b6 43 bd
       0.08944456 -0.08211331 -0.04555215 -0.04778187
0000f0 68 44 1e bd 2a 58 b6 bd 2a b2 8f 3d ca 16 b1 3d
       -0.038639456 -0.08903535 0.07016404 0.08646925
000100 dc 69 31 3d 1a 88 e9 bd 3c 18 b1 bd 98 56 ce bd
       0.043313846 -0.114029124 -0.086472005 -0.1007511
000110 aa 53 e9 3d 00 2c 79 b9 92 6a cb 3d a0 d1 03 bd
       0.11392911 -0.00023762882 0.09932436 -0.032182336
000120 60 30 91 3d a2 85 ee 3d 00 47 d8 bc 86 11 d7 3d
       0.07089305 0.11646582 -0.026401043 0.10501389
000130 00 e0 b1 b9 d6 37 84 bd 54 99 b5 bd 40 b4 03 3b
       -0.00033926964 -0.06455962 -0.08867136 0.002009645
000140 68 1f 81 bd 94 80 6c 3d 00 78 bc bc 04 9c 64 bd
       -0.063048184 0.05773981 -0.02300644 -0.05581285
000150 f0 df c0 3d 0c a2 ec bd 52 5b af 3d 14 80 c0 bd
       0.09417713 -0.115543455 0.0856234 -0.09399429
000160 40 f0 39 3c e0 11 91 bb 70 70 97 3c 60 a0 a3 3d
       0.011348784 -0.0044271797 0.018486232 0.079895735
000170 5c 40 a3 3d 58 03 a1 bc 00 61 31 3a a0 79 f7 bc
       0.0797126 -0.019654915 0.0006766468 -0.030209363
000180 74 84 97 bd 8c 2d 5a 3d 00 0d 09 ba 30 7f 10 3c
       -0.0739831 0.053266093 -0.00052280724 0.008819386
000190 18 22 c9 bd ca eb d8 bd c8 6d 6b bd a4 90 4d 3d
       -0.09820956 -0.10591848 -0.057477742 0.05018677
0001a0 5a cc a1 bd d6 b2 b7 bd d8 6d a3 bc 8a d1 83 3d
       -0.07900305 -0.08969657 -0.019949839 0.06436451
0001b0 38 01 f1 bd be 45 b4 bd c8 c8 e5 bd 70 75 bb 3c
       -0.117678106 -0.08802365 -0.112199366 0.022883147
0001c0 60 4a cd 3b 96 e0 f3 bd 28 10 d6 3c a6 62 8f bd
       0.0062649697 -0.11908071 0.02613075 -0.070012376
0001d0 18 f1 3e 3d c0 ce e3 3c 00 03 55 bb 14 c7 7f 3d
       0.046616644 0.027808547 -0.003250301 0.062445715
0001e0 72 23 e5 bd 9c f4 b5 bd 30 26 87 bd a2 a6 b7 3d
       -0.11188401 -0.08884546 -0.065990806 0.089673296
0001f0 20 a4 03 bc e8 1d 1a 3d 18 b0 ee 3d a0 ae c2 bb
       -0.008034736 0.037626177 0.11654681 -0.005941227
000200 56 49 a7 bd 88 3e 92 3c d6 89 97 bd 28 7e fe bc
       -0.081682846 0.017852083 -0.07399337 -0.031066015
000210 88 fc e1 bd b8 79 e6 3c 10 84 21 bc 98 0e e5 3d
       -0.11034495 0.028134212 -0.009858146 0.11184424
000220 58 ab ea bd ee 57 d0 3d 40 d4 c2 3c ec c7 c1 3d
       -0.114584625 0.10173021 0.02378285 0.0946196
000230 52 a0 b0 bd d0 0f 39 3d 08 54 97 3c 24 0d ba 3d
       -0.08624329 0.045181096 0.018472686 0.090845376
000240 ea 5b bb bd e0 67 48 bc 30 23 9c 3d fa b1 b3 bd
       -0.091483906 -0.012231797 0.07623899 -0.08774181
000250 72 04 b0 bd 48 06 b5 3c 82 0c 9e bd fc 49 96 3d
       -0.08594598 0.022097722 -0.077172294 0.0733833
000260 80 1d dd bd 14 9e f7 bd 90 c7 54 3c 5c 1d 8d 3d
       -0.10796642 -0.12090698 0.0129870325 0.068903655
000270 82 de d2 3d 28 ff c2 bd 08 98 a4 3c e8 32 da bc
       0.10296346 -0.095213234 0.020092025 -0.026635602
000280 e0 a5 b7 bb ca d2 db bd 1c 46 66 3d 80 4f f3 bb
       -0.0056044906 -0.10733564 0.056219205 -0.0074252486
000290 80 41 aa 3d d6 80 9d bd 30 0a 70 bc 92 13 cd bd
       0.083132744 -0.07690589 -0.014650866 -0.10013498
0002a0 b0 9b d4 bc e0 62 f0 3d 16 03 c0 3d 72 d3 8d bd
       -0.025953144 0.11737609 0.093755886 -0.069250956
0002b0 c4 12 0b 3d 82 e1 f2 bd 68 e7 ef bc 00 bd ea 3a
       0.033953443 -0.118594185 -0.029285148 0.001790911
0002c0 80 77 b6 3c 48 57 73 bd 70 c2 88 bc 20 9b 10 3c
       0.022273779 -0.05940941 -0.016694278 0.008826047
0002d0 26 68 fd bd 54 83 39 3d c2 1b d6 3d f0 47 a6 bd
       -0.1237338 0.04529126 0.10454513 -0.0811919
0002e0 e0 13 e6 bb 9c 53 29 3d e0 09 4c bd 94 43 c0 bd
       -0.0070214123 0.0413395 -0.049814105 -0.093878895
0002f0 b6 cb c7 3d ca c7 ed 3d 28 eb 9e 3d 0c e8 37 3d
       0.09755652 0.11610372 0.07759696 0.04489903
000300 80 4a f0 3b e4 cd d6 bd b8 6b 3f 3d f6 00 cf 3d
       0.0073331 -0.10488489 0.046733588 0.10107605
000310 f0 ef 66 3c dc 53 09 bd 90 f8 6f bd ca ea a3 3d
       0.0140952915 -0.03352724 -0.058586657 0.08003767
000320 f6 c0 9d bd 30 5c 0a bc ae 65 ab 3d 10 83 1f bc
       -0.0770282 -0.008444831 0.08369003 -0.009735838
000330 e0 2f d1 bb 98 43 46 3d f8 03 a0 bd e4 56 b3 bd
       -0.006383881 0.048404306 -0.07813257 -0.087568074
000340 40 4e 5b 3c b2 4f a3 bd c0 37 a9 3c 28 8e 8b bc
       0.0133853555 -0.07974185 0.020656466 -0.017035559
000350 0e 7b 83 3d 5a 94 b0 3d 8e a5 ae 3d 50 66 ed 3c
       0.06419955 0.08622046 0.08527671 0.02897945
000360 e0 cc 0b bd c8 58 6a 3d ec ef 28 3d a4 cc ec 3d
       -0.03413093 0.057213575 0.041244432 0.115624696
000370 b8 6c 8c bd 48 93 ab bd 20 32 a2 3d 4e ff 9d bd
       -0.06856674 -0.08377701 0.07919717 -0.07714711
000380 fc ea dd 3d 0c e4 bd 3d c8 33 b5 bd 80 aa b3 3c
       0.10835835 0.09272012 -0.08847767 0.021931887
000390 76 fb 8e 3d 9e bb 81 bd 00 23 75 3b f0 26 c1 3d
       0.06981556 -0.06334613 0.0037404895 0.09431255
0003a0 10 58 ac 3d 4a 9c b2 bd 1e e0 8c 3d 40 75 52 3b
       0.08415234 -0.08721216 0.068786845 0.0032113343
0003b0 30 a2 82 3c 1c 51 4f 3d 00 38 83 39 18 96 7e bd
       0.015946478 0.05061446 0.0002502799 -0.06215486
0003c0 90 f2 f6 bc 4c d6 ba 3d 80 20 3a 3c 4e 9b 8f bd
       -0.03014496 0.09122905 0.011360288 -0.07012044
0003d0 c0 4b c0 3b 18 b1 67 bd 98 79 1d 3d e8 e6 bf bd
       0.005868405 -0.056565374 0.03844604 -0.09370214
0003e0 62 2d ef bd e6 2e fc bd da fd e0 bd 18 c7 24 bd
       -0.11678578 -0.12313633 -0.10985918 -0.040228933
0003f0 3e 10 c6 bd f8 2e f3 bc 4e 04 8b bd 78 be d6 bd
       -0.09671067 -0.029685482 -0.067879304 -0.10485548

model.bigrill.fwd_rnn.spatial_decoder.graph_conv.mlp.bias f4 [32]
000000 20 72 c7 bb fc 89 b3 3d 80 fb f9 ba 70 9a ca 3d
       -0.006086603 0.08766553 -0.0019072145 0.09892738
000010 d2 78 e7 bd e0 91 ae 3b 1c 6b 4a bd 7c 46 a3 3d
       -0.113023415 0.0053274482 -0.049418554 0.07972428
000020 e2 96 84 3d e0 1b a4 bc 5a eb 8c bd 04 f9 db 3d
       0.06474091 -0.020032823 -0.06880827 0.10740855
000030 04 cf 85 bd c0 a5 9d bd c8 09 d8 bd 20 f7 c9 bd
       -0.06533626 -0.0769763 -0.105487406 -0.098615885
000040 38 35 90 3d ee 0f 95 3d 58 0d a9 bc 14 bf ed bd
       0.07041401 0.07278429 -0.020636246 -0.11608711
000050 74 76 58 bd e0 29 59 bd 60 2b f5 3d d8 d4 e6 3c
       -0.05284734 -0.05301845 0.11971164 0.028177664
000060 cc a4 ce bd 60 29 3b bd ba f0 fb 3d c0 65 92 bb
       -0.10090026 -0.045693755 0.12301774 -0.004467696
000070 58 b8 86 bc 08 63 42 3d 94 c4 3b 3d f8 af 01 bd
       -0.016445324 0.047457725 0.04584177 -0.031661958
