logs/discharge_point/grin/2023-11-16_21-45-01_979391555/epoch=21-step=1914.ckpt (torch, 708068 bytes, 102 tensors)

model.bigrill.emb f4 [8, 20]
0	0xbec97429	-0.39346436
1	0xbeaf026a	-0.3418153
2	0xbee0f740	-0.43938637
3	0x3e593e41	0.21215154
4	0xbee3f762	-0.44524676
5	0xbda540d2	-0.08069004
6	0xbe806a59	-0.25081137
7	0x3e00c01f	0.12573288
8	0xbdbbcc87	-0.0916987
9	0xbf12b4b0	-0.5730696
10	0x3e8a9b61	0.2707167
11	0x3ed10148	0.4082129
12	0x3ea6db17	0.32589027
13	0xbeb4bfbf	-0.3530254
14	0xbe9306dd	-0.28716174
15	0xbe712e28	-0.23552763
16	0xbd843be8	-0.06456739
17	0x3f0e46bf	0.555767
18	0x3e966579	0.29374292
19	0x3e20ce1d	0.15703626
20	0x3e719283	0.23591046
21	0xbe88ab83	-0.26693353
22	0xbe0adc1e	-0.1356053
23	0xbf26d0d1	-0.6516238
24	0xbe64428b	-0.22291009
25	0x3df114ee	0.1177157
26	0x3e67026b	0.22559516
27	0xbe846839	-0.25860766
28	0xbedc0580	-0.42972946
29	0xbe7fe824	-0.24990898
30	0xbf1e9cb5	-0.61957866
31	0xbe1884b1	-0.14894368
32	0x3ecbd940	0.39814186
33	0xbe347ab2	-0.1762493
34	0xbe412571	-0.18861939
35	0x3d44210b	0.047883075
36	0xbe6079dc	-0.21921486
37	0x3eb8b230	0.36073446
38	0x3eff579e	0.49871534
39	0xbf3b8cdd	-0.73261815
40	0x3e96c244	0.29445088
41	0x3d442ea3	0.04789604
42	0xbe262acb	-0.16227262
43	0x3ee2c1b4	0.4428841
44	0x3f61a5f4	0.8814385
45	0x3d8450ff	0.06460761
46	0x3eecf008	0.4627688
47	0x3e791e88	0.24328053
48	0xbeb67af7	-0.3564069
49	0x3e902171	0.28150514
50	0xbe3978eb	-0.18112533
51	0xbde60651	-0.112316735
52	0xbccab8fb	-0.024746409
53	0xbed4e729	-0.4158261
54	0x3f471560	0.7776699
55	0xbd0af0d3	-0.033921074
56	0xbe0de9e3	-0.13858752
57	0x3d1d81ea	0.038453974
58	0xbeae2f18	-0.34020305
59	0x3eedb614	0.46427977
60	0xbd19342d	-0.037403274
61	0x3eedc1f7	0.46437046
62	0xbcbc7580	-0.023005247
63	0x3e42e633	0.19033127
64	0xbe38b650	-0.18038297
65	0xbef00240	-0.46876717
66	0x3e808fc4	0.25109684
67	0xbef1ac53	-0.47201785
68	0x3e591deb	0.21202819
69	0xbeb70f8b	-0.35754046
70	0xbdb178d4	-0.08665624
71	0xbed4bed1	-0.4155183
72	0x3ee54785	0.44781128
73	0x3e2d968f	0.16951965
74	0x3e566a11	0.20938899
75	0xbd71d042	-0.0590365
76	0x3f0414ba	0.51594126
77	0x3d35b179	0.044358704
78	0xbf7fb83e	-0.99890506
79	0x3e75c5d4	0.24001247
80	0x3e875a01	0.26435855
81	0xbf3c78e6	-0.73621976
82	0x3ce202ff	0.02758932
83	0xbd5b72bf	-0.053576227
84	0xbed24572	-0.41068608
85	0xbeeb823f	-0.45997807
86	0xbd455aa2	-0.048182137
87	0x3f3d9ec3	0.74070376
88	0xbf45fdb7	-0.77340263
89	0xbf5186a7	-0.8184609
90	0xbe62640d	-0.22108479
91	0xbe82784b	-0.254824
92	0xbe253672	-0.1613405
93	0xbeb5b45b	-0.35489163
94	0xbebbe541	-0.36698344
95	0xbea2316c	-0.3167833
96	0xbe1f3199	-0.15546264
97	0xbe07f64d	-0.1327755
98	0x3e43df7f	0.19128226
99	0xbf07d989	-0.5306631
100	0xbf1cbce2	-0.6122571
101	0x3d78b6de	0.06072127
102	0xbdd2c499	-0.10291404
103	0xbeb34e6c	-0.3502077
104	0xbf0528d9	-0.52015454
105	0xbc9def7c	-0.019279234
106	0x3eb8aca6	0.3606922
107	0x3ed5fa87	0.417927
108	0xbe007965	-0.12546308
109	0xbe8bc608	-0.27299523
110	0xbe91c083	-0.28467187
111	0x3ce84d16	0.02835707
112	0xbdc9d765	-0.09855536
113	0xbe9fc059	-0.31201437
114	0xbe3a3ecf	-0.18188022
115	0xbe9f7fcc	-0.3115219
116	0xbe4cdef6	-0.20006928
117	0x3e8a0bab	0.26962027
118	0xbdf3e8c1	-0.11909629
119	0xbf28ee6b	-0.65988797
120	0x3d16ba5a	0.036798812
121	0x3e5fe2b5	0.21863826
122	0xbda04dec	-0.078273624
123	0xbdf3f11c	-0.11911222
124	0x3dd2231d	0.102606036
125	0x3d50e547	0.050999906
126	0x3e11616c	0.1419732
127	0x3e27a559	0.16371669
128	0x3eba2176	0.36353654
129	0xbe687183	-0.22699551
130	0x3e9e0bdb	0.3086842
131	0x3e653681	0.22384073
132	0x3eb86db6	0.36021203
133	0xbd251bd3	-0.04030974
134	0xbcaf57aa	-0.021404106
135	0x3e861a59	0.26191977
136	0xbe778f9a	-0.24175873
137	0xbd9260dc	-0.07147381
138	0x3f0206ba	0.50791514
139	0x3e81d13b	0.25354943
140	0xbea0b36a	-0.31386882
141	0x3f148c8f	0.58026975
142	0x3effea5b	0.49983487
143	0x3e8c8d38	0.2745149
144	0x3e6078e9	0.21921124
145	0xbe4cb992	-0.19992664
146	0xbd2df6b6	-0.04247161
147	0xbe94e682	-0.29082114
148	0x3e60967e	0.21932408
149	0x3ef9cde6	0.487899
150	0xbf262bd1	-0.6491061
151	0x3d177c6f	0.036983903
152	0x3d8c824c	0.0686079
153	0x3ec0d5c6	0.37663096
154	0x3ed821f3	0.422134
155	0x3f2a2810	0.6646738
156	0x3e7802dc	0.24219841
157	0xbd7878ca	-0.06066207
158	0xbc1b8a0c	-0.009493362
159	0x3d7a702a	0.061142124

model.bigrill.fwd_rnn.cells.0.forget_gate.mlp.weight f4 [32, 170, 1, 1]
0	0x3dc430fe	0.09579657
1	0xbd93cd60	-0.072169065
2	0xbe87d7c3	-0.265318
3	0x3eb7ca68	0.3589661
4	0x3e203529	0.15645279
5	0xbc084ea4	-0.008319531
6	0x3e51eb37	0.20499884
7	0xbda8a86d	-0.0823525
8	0x3e6315bc	0.2217626
9	0xbe731ede	-0.23742244
10	0x3d3fa23c	0.046785578
11	0xbde67e17	-0.112545185
12	0x3e8cc2f6	0.27492493
13	0x3de0d230	0.1097759
14	0xbe354b96	-0.17704615
15	0xbdf316c5	-0.11869577
16	0x3d786b7e	0.060649388
17	0xbe1e0781	-0.1543255
18	0x3e5d4a78	0.21610439
19	0x3e404eeb	0.18780105
20	0xbd4495c7	-0.0479944
21	0xbd56e992	-0.052468844
22	0xbc6000c5	-0.0136720585
23	0x3d3e1d85	0.04641487
24	0xbd915688	-0.07096583
25	0x3d366707	0.04453185
26	0x3d465013	0.04841621
27	0xbdda1922	-0.10649325
28	0xbdfd6aef	-0.123739116
29	0x3e7c793e	0.24655625
30	0x3e422328	0.18958724
31	0xbd22210c	-0.039582297
32	0x3c7fa69a	0.015603686
33	0xbe4c3c8e	-0.19944975
34	0x3e112621	0.14174701
35	0xbe4804a2	-0.19533017
36	0xbd5915ca	-0.052999295
37	0x3d454a3f	0.04816651
38	0x3dad7814	0.08470169
39	0x3e1267eb	0.14297454
40	0x3e9ad8a4	0.3024341
41	0xbdea68a1	-0.11445738
42	0x3e355037	0.17706381
43	0xbe06fb12	-0.13181713
44	0xbcc31d21	-0.0238176
45	0x3c1f3c45	0.009718959
46	0x3e8142d3	0.25246295
47	0xbb20a126	-0.0024510114
48	0xbd572e2d	-0.05253427
49	0xbe4048a1	-0.18777706
50	0xbb5a98c0	-0.0033355206
51	0xbe1908ef	-0.14944814
52	0x3dc07993	0.093981884
53	0x3d083300	0.033251762
54	0xbe129499	-0.14314498
55	0x3dc62b8e	0.09676276
56	0x3d6eff45	0.058348913
57	0x3e01c296	0.12671885
58	0x3d4a5498	0.04939708
59	0x3de1d2a8	0.110265076
60	0x3dbd0f3d	0.09231422
61	0xbd69c86b	-0.0570759
62	0xbd850aac	-0.06496176
63	0x3e0e5529	0.13899674
64	0x3dd6be3c	0.10485503
65	0x3c1e41b8	0.009659223
66	0xbdc45376	-0.095862314
67	0xbe172f42	-0.14764121
68	0x3d9ab6ef	0.07554423
69	0xbda68b14	-0.08131996
70	0x3cecdb15	0.02891306
71	0x3d2af063	0.041733157
72	0x3e0683b7	0.13136183
73	0xbd68c94d	-0.0568326
74	0x3cb66983	0.022267109
75	0xbd89b0a0	-0.06723142
76	0x3da59fa7	0.08087092
77	0xbe424d32	-0.1897476
78	0xbd6c5573	-0.05769868
79	0x3cf2f53d	0.029657954
80	0x3d85cfa9	0.06533749
81	0x3dcc6d7d	0.09981821
82	0xbd8984cc	-0.06714782
83	0xbda7f464	-0.08200911
84	0xbd5e418f	-0.05426174
85	0xbe12336c	-0.14277428
86	0x3da74494	0.08167377
87	0x3d7e38a5	0.06206574
88	0xbe2014a8	-0.1563288
89	0x3cff7702	0.031184677
90	0x3c9b4597	0.018954081
91	0x3d8a2dd6	0.06747024
92	0x3d0b6984	0.034036174
93	0x3ca65e3e	0.02030861
94	0x3de40208	0.111332
95	0xbe103541	-0.14082815
96	0x3dab4b78	0.08364004
97	0x3d0c5a63	0.034265887
98	0x3d907974	0.07054415
99	0x3b359d3d	0.002771213
100	0xbd85eb2c	-0.06538996
101	0xbdc46cdb	-0.09591075
102	0x3e179544	0.14803034
103	0xbc0f5412	-0.008748071
104	0xbe46cffa	-0.19415274
105	0x3d423d67	0.04742184
106	0x3d918de5	0.07107142
107	0x3e134bde	0.1438441
108	0x3e0ddc58	0.13853586
109	0xbe2b619b	-0.16736452
110	0x3d932b56	0.07186
111	0xbd0c7382	-0.034289844
112	0x3d330599	0.04370651
113	0x3e29102b	0.16510074
114	0x3db00eec	0.08596596
115	0x3d2b25c4	0.041784063
116	0xbe2ae348	-0.16688263
117	0xbd7e10d9	-0.062027786
118	0x3b88bcc7	0.0041728946
119	0xbb78f22d	-0.0037986145
120	0x3d125e2c	0.03573434
121	0x3d9e459d	0.077281214
122	0x3c15b535	0.009137441
123	0xbe081ae9	-0.13291515
124	0x3d2dbcb8	0.042416304
125	0xbd4a63bb	-0.049411517
126	0xbe0d30b9	-0.13788117
127	0x3dca69c2	0.09883453
128	0x3d4bd2b1	0.049761478
129	0x3d0b6116	0.034028135
130	0x3c8aaa10	0.016926795
131	0x3deb868b	0.115002714
132	0x3e0a9a5a	0.13535443
133	0xbdbb870c	-0.091566175
134	0xbe1b6e87	-0.15178882
135	0xbdc7abcd	-0.09749565
136	0x3e0fe532	0.14052275
137	0xbd1989bf	-0.03748488
138	0xbe33edb8	-0.17571151
139	0x3e8c5790	0.27410555
140	0x3ca0ef91	0.019645484
141	0x3ceffb48	0.029294625
142	0x3e1b386b	0.1515824
143	0xbd47debf	-0.04879641
144	0x3e17d4fb	0.1482734
145	0xbc8bd9ea	-0.017071683
146	0x3cb4e99c	0.02208405
147	0x3d755770	0.05989784
148	0x3e20fd78	0.1572169
149	0x3dd0b103	0.10190012
150	0xbe1667ec	-0.1468808
151	0xbe478db5	-0.1948765
152	0x3e9c52d0	0.3053193
153	0xbdde7896	-0.10862844
154	0x3d708524	0.058720723
155	0x3e0a4ed5	0.13506635
156	0x3d35ec6d	0.044414926
157	0xbd6b24f5	-0.05740829
158	0x3d1dbd7f	0.038510796
159	0x3c4138cc	0.011793327
160	0xbce75f40	-0.02824366
161	0x3c8a9b62	0.016919795
162	0x3d2b649a	0.041843988
163	0x3d21846b	0.039432924
164	0xbbd23553	-0.006415048
165	0x3df60217	0.12012117
166	0x3e6f8b72	0.23393038
167	0xbe2c052a	-0.16798845
168	0xbe3bc28b	-0.18335931
169	0xbe472951	-0.19449355
170	0x3e452769	0.19253315
171	0xbe59eb6c	-0.21281213
172	0xbe47179d	-0.19442602
173	0x3d9a2e18	0.07528323
174	0x3db5fceb	0.08886131
175	0x3e03a7c5	0.12856968
176	0x3e190d56	0.14946494
177	0x3c1aa895	0.009439607
178	0x3d3ba3f7	0.045810666
179	0xbe3ff55c	-0.18745941
180	0x3d67c52c	0.056584522
181	0xbd8d89d9	-0.06911058
182	0x3df27dc2	0.11840393
183	0xbc1d81ef	-0.009613498
184	0xbe347994	-0.17624503
185	0x3c832799	0.016010093
186	0x3d3ce1a7	0.046113636
187	0xbd0f6859	-0.035011623
188	0x3d68c0f8	0.056824654
189	0x3dec5b37	0.11540835
190	0x3d16abe2	0.036785014
191	0x3dc21837	0.09477275
192	0xbc6a3187	-0.014294035
193	0x3cb4b983	0.022061115
194	0x3d5ff789	0.054679427
195	0xba8caa3a	-0.0010731884
196	0x3dbb02cb	0.09131392
197	0xbd70e325	-0.058810372
198	0xbe0e1ca9	-0.1387812
199	0x3de805f9	0.11329264
200	0x3e25d0bf	0.16192912
201	0x3dadec4d	0.084923364
202	0x3ba3a28b	0.004993742
203	0xbe232d4a	-0.15935245
204	0x3dd680a4	0.10473755
205	0xbdd55f3a	-0.10418554
206	0x3bf79c54	0.0075564776
207	0x3ca31ec6	0.019912135
208	0x3d5a9c53	0.05337174
209	0x3daafee6	0.08349399
210	0x3e1b214e	0.15149423
211	0xbdd0f2ee	-0.10202585
212	0xbd573466	-0.052540205
213	0xbe16ee6a	-0.14739385
214	0x3df7ae0b	0.12093743
215	0x3d8ccd38	0.0687508
216	0x3d75a2c9	0.059969697
217	0xbd07962c	-0.0331022
218	0xbdc78040	-0.097412586
219	0xbd8ab510	-0.06772816
220	0x3dd3f5a0	0.103495836
221	0x3d0e8f8e	0.034804873
222	0xbd127b33	-0.035762023
223	0xbda968b8	-0.08271927
224	0xbdc81813	-0.09770217
225	0x3df16b52	0.11788048
226	0x3e1d08e1	0.15335418
227	0xbd72618e	-0.059175067
228	0xbdd4b1fa	-0.10385509
229	0xbd028911	-0.031868998
230	0x3cb709fe	0.022343632
231	0x3d9b7b6d	0.07591901
232	0xbd9407c6	-0.07228045
233	0x3be984fa	0.0071264477
234	0x3d09a26a	0.033602156
235	0xbdf276ca	-0.118390635
236	0xbe0e25d6	-0.13881621
237	0xbd9c65f3	-0.07636633
238	0x3bf56399	0.0074886796
239	0xbdd14f2c	-0.10220179
240	0x3c2e9282	0.010655047
241	0x3e3ca1a5	0.18421037
242	0x3ddaaba7	0.10677271
243	0x3e63b731	0.2223785
244	0x3dbe203b	0.09283491
245	0x3a3fd3d6	0.0007317638
246	0xbd99a469	-0.07502062
247	0xbdeb5a1c	-0.114917964
248	0x3df51ae9	0.11968023
249	0x3e1172f9	0.14204015
250	0x3d4ab869	0.049492273
251	0xbdcdec85	-0.10054878
252	0xbe134ab6	-0.14383969
253	0xbe4711c3	-0.1944037
254	0x3e1d4421	0.1535802
255	0x3d266411	0.040622775

model.bigrill.fwd_rnn.cells.0.forget_gate.mlp.bias f4 [32]
0	0xbcd06839	-0.025440322
1	0xbe55803e	-0.20849702
2	0xbd8b6a04	-0.0680733
3	0x3ddedf2d	0.10882411
4	0xbc7b5c3e	-0.0153418165
5	0x3cff6989	0.031178253
6	0x3e789326	0.24274883
7	0xbe4d454e	-0.20045969
8	0xbd6d649a	-0.05795727
9	0x3e1de357	0.15418755
10	0x3db0d99b	0.08635255
11	0x3e3ca8ef	0.18423818
12	0x3d4a8775	0.04944559
13	0xbd9b9904	-0.07597545
14	0xbd8de76b	-0.06928905
15	0xbc2027cd	-0.009775114
16	0x3dc02830	0.09382665
17	0xbdce5365	-0.100745
18	0x3d1290cf	0.03578263
19	0xbdf151cd	-0.117831804
20	0xbd902adc	-0.07039425
21	0xbd59c95e	-0.053170554
22	0x3c9125ca	0.017718215
23	0xbcbbd583	-0.022928959
24	0xbdc21a16	-0.09477632
25	0x3db63701	0.0889721
26	0xbdf185e5	-0.117931165
27	0x3c867d51	0.016417177
28	0x3dfd0177	0.12353795
29	0x3e19d714	0.15023452
30	0xbc33bb3e	-0.010969935
31	0xbcb63e01	-0.022246363

model.bigrill.fwd_rnn.cells.0.update_gate.mlp.weight f4 [32, 170, 1, 1]
0	0x3ce3c890	0.027805597
1	0xbda7cb23	-0.08193042
2	0x3f546730	0.8296995
3	0xbd6d2f77	-0.057906594
4	0x3e490c58	0.19633615
5	0x3cd0b4e1	0.025476875
6	0x3e1a1918	0.15048635
7	0x3e0a2a26	0.13492641
8	0x3cd0e634	0.025500394
9	0x3d29d2f0	0.04146093
10	0x3d582ccc	0.052777097
11	0x3d02949e	0.031880014
12	0xbdc40120	-0.09570527
13	0xbcfeed0b	-0.03111889
14	0xbd3a1e5b	-0.045439105
15	0x3df38e34	0.118923575
16	0xbd57fa9f	-0.052729245
17	0x3e5c59e9	0.21518673
18	0xbe3869ca	-0.18009105
19	0xbe41df5d	-0.18932863
20	0x3da358d9	0.07975931
21	0xbdb92747	-0.09040695
22	0x3e32c51d	0.17458005
23	0xbcdbd4bf	-0.026834844
24	0xbd10fb0d	-0.03539567
25	0xbda6cdd0	-0.08144724
26	0x3ce76bf1	0.028249713
27	0x3e90d987	0.2829096
28	0x3ec9ad56	0.39390057
29	0xbe633496	-0.22188029
30	0xbd9e066a	-0.07716067
31	0xbd396676	-0.04526373
32	0x3c584b4e	0.013201548
33	0xbdb29012	-0.087188855
34	0x3c1509ac	0.009096544
35	0xbd9e192a	-0.077196434
36	0x3e607243	0.21918587
37	0x3e08fbbc	0.13377279
38	0x3c7e57f3	0.015523898
39	0x3dabc4b5	0.08387128
40	0x3da47990	0.08030999
41	0x3cee8bb0	0.029119343
42	0x3d55cc7d	0.05219697
43	0x3da6b7de	0.08140539
44	0x3d5a55b8	0.053304404
45	0xbb073cf7	-0.0020635703
46	0x3ccfd177	0.025368435
47	0x3da8ea46	0.08247809
48	0xbe118c8d	-0.14213772
49	0x3e02f7c4	0.12789828
50	0xbe355d84	-0.17711455
51	0x3de82027	0.113342576
52	0x3ccc1c21	0.024915757
53	0xbe295340	-0.16535664
54	0x3e313a5f	0.17307423
55	0xbdeb4718	-0.114881694
56	0xbcbffd2e	-0.023436155
57	0x3b6e5815	0.003636842
58	0xbe19efec	-0.15032929
59	0x3ce7a6c4	0.028277762
60	0x3c4eff61	0.012634129
61	0x3e587d7e	0.21141621
62	0x3e90fc8f	0.28317687
63	0x3a8f999a	0.0010955811
64	0xbcf68236	-0.030091386
65	0xbc6e87a6	-0.014558708
66	0xbc37844d	-0.011200977
67	0xbd0388d7	-0.032112923
68	0xba322dc5	-0.00067969813
69	0xbc0ce23b	-0.008598859
70	0xbe888fc4	-0.26672184
71	0x3e4c5327	0.19953595
72	0x3de393bd	0.11112163
73	0x3d2f116f	0.042741235
74	0x3dbb8e78	0.09158033
75	0x3d8fa170	0.07013214
76	0x3e08cf1f	0.1336026
77	0x3cc299e9	0.02375503
78	0x3d80b3c5	0.06284288
79	0xbd9e06d2	-0.077161446
80	0x3e138654	0.14406711
81	0x3d9e9c7b	0.0774469
82	0xbe3cfab8	-0.18455017
83	0xbb3857d4	-0.0028128522
84	0xbd9bba87	-0.07603937
85	0xbcf9b2bb	-0.030480733
86	0x3d8aa594	0.06769863
87	0x3c0653b2	0.008198665
88	0x3daf19d1	0.08549846
89	0xbe01540f	-0.12629722
90	0x3d088e15	0.033338625
91	0x3d5709cd	0.05249958
92	0xbc79944d	-0.015233112
93	0x3bbd6240	0.0057795346
94	0xbdaffe01	-0.08593369
95	0xbbb32b9f	-0.0054678465
96	0x3dc668ab	0.096879326
97	0x3e079913	0.13241987
98	0x3c68c2d1	0.014206604
99	0x3df60da6	0.12014322
100	0xbd94455a	-0.0723979
101	0x3c352a0d	0.011057389
102	0x3b999598	0.0046870224
103	0xbe0bd507	-0.13655482
104	0x3d985276	0.07437603
105	0x3cd7d97b	0.02634882
106	0xbbbbd166	-0.0057317493
107	0x3c864a43	0.016392833
108	0xbcbc4750	-0.022983223
109	0xbe0f2ce9	-0.13981976
110	0x3d8da025	0.06915311
111	0x3e02e400	0.12782288
112	0x3d751406	0.05983355
113	0xbd8a51de	-0.06753896
114	0x3d85cdd9	0.06533403
115	0x3de73c6b	0.11290821
116	0x3d27d866	0.040977858
117	0xbe8579cf	-0.26069495
118	0xbde366e7	-0.111036114
119	0xbc8a5bde	-0.016889509
120	0xbd28fe86	-0.041258357
121	0x3d19d87f	0.037559982
122	0xbd9be039	-0.076111265
123	0xbe45e6d1	-0.1932633
124	0xbbc6fa46	-0.0060723154
125	0x3d486fe1	0.04893482
126	0x3dd41e2b	0.103573166
127	0x3d79a5ce	0.06094914
128	0x3e0676b9	0.13131227
129	0xbe1121ba	-0.14173022
130	0x3d9d28ef	0.07673823
131	0x3c927667	0.017878724
132	0x3dc04012	0.093872204
133	0x3d9557aa	0.07292111
134	0xbc263ddb	-0.010146583
135	0x3e07ed48	0.1327411
136	0xbeb945fb	-0.36186203
137	0xbe69031a	-0.2275509
138	0xbeb0491d	-0.3443078
139	0x3dcfa07e	0.10138033
140	0x3e711760	0.23544073
141	0x3ecb5801	0.3971558
142	0x3e694f8f	0.22784255
143	0x3e93d964	0.28876793
144	0xbe880067	-0.26562807
145	0xbed41b87	-0.41427252
146	0x3eaa3ce1	0.33249572
147	0x3ec54c5b	0.38534817
148	0xbe90362f	-0.2816634
149	0xbe68fc14	-0.2275241
150	0xbf02aa64	-0.51041245
151	0x3eadf169	0.33973244
152	0x3e28de2a	0.16490999
153	0x3e80e91a	0.25177842
154	0xbe991862	-0.29901415
155	0x3ba0703e	0.004896193
156	0x3ea09aa6	0.31367987
157	0x3e7c50ca	0.24640194
158	0x3ea26288	0.31715798
159	0xbe5b419c	-0.21411747
160	0xbeae6946	-0.34064692
161	0xbe541f35	-0.2071503
162	0xbf040196	-0.5156492
163	0x3d9afc05	0.075676
164	0x3e524a7a	0.20536223
165	0x3c4b4a63	0.012407872
166	0xbe351f4a	-0.17687717
167	0xbe1346b6	-0.14382443
168	0xbe8ab3a6	-0.27090186
169	0xbe9e29b8	-0.30891204
170	0x3b9a42f6	0.0047076894
171	0x3dd78200	0.105228424
172	0x3e0bd656	0.13655981
173	0xbee7be55	-0.452624
174	0xbb3e0d9e	-0.0028999816
175	0xbde0424a	-0.10950144
176	0x3e8025cc	0.25028837
177	0x3e535bfe	0.20640561
178	0x3e37073d	0.17873855
179	0x3e022315	0.12708695
180	0x3d6879f5	0.056756932
181	0x3e01ccb3	0.12675743
182	0xbb0fcf0e	-0.0021943483
183	0x3e84f440	0.25967598
184	0x3c4f124b	0.012638639
185	0x3ec0a27b	0.37623963
186	0x3d1db96c	0.03850691
187	0x3e946787	0.28985235
188	0xbc9b5749	-0.01896252
189	0xbeb2d563	-0.34928426
190	0x3e577831	0.21041943
191	0xbe0f2504	-0.13978964
192	0x3dbe9dbb	0.093074284
193	0xbe8805be	-0.2656688
194	0xbe4633f7	-0.1935576
195	0xbe21e021	-0.15808155
196	0xbe4cbd57	-0.19994102
197	0x3eabaae8	0.3352883
198	0x3eabc5de	0.33549398
199	0xbe67f23d	-0.22651
200	0xbddc7ee3	-0.10766389
201	0x3af9d7d1	0.0019061511
202	0xbd29da2b	-0.041467827
203	0xbc99aeef	-0.018760173
204	0x3c59fa63	0.013304326
205	0x3e01cc6e	0.1267564
206	0xbe115d5e	-0.14195773
207	0xbdd39c2c	-0.10332522
208	0xbd7278e7	-0.059197333
209	0x3dc77913	0.0973989
210	0x3dec5922	0.11540438
211	0x3e5830f6	0.21112427
212	0x3e57f90f	0.21091102
213	0x3e4cee01	0.20012666
214	0x3e7f7052	0.2494519
215	0x3d603445	0.054737348
216	0x3db91280	0.09036732
217	0x3dfe7942	0.12425472
218	0x3e05c1aa	0.13062158
219	0x3ea53ebb	0.32274422
220	0xbe0bb988	-0.13644993
221	0x3e7848de	0.24246547
222	0xba9a04e8	-0.001175073
223	0xbc83a2ee	-0.016068902
224	0x3ec79962	0.3898421
225	0xbe7c1898	-0.24618757
226	0x3e5a01ee	0.21289799
227	0xbe834ceb	-0.2564462
228	0xbee79167	-0.4522812
229	0xbd89233a	-0.06696172
230	0xbe15a61a	-0.14614144
231	0x3e8a24b2	0.2698112
232	0x3eba2434	0.36355746
233	0x3e9807cd	0.29693452
234	0xbe5e6267	-0.21717225
235	0x3c38131c	0.011235025
236	0xbe33d7ca	-0.17562786
237	0xbe4ea616	-0.20180544
238	0xbb46f191	-0.0030356387
239	0x3e173409	0.14765944
240	0xbe56f57d	-0.20992084
241	0xbe17b6d8	-0.14815843
242	0xbe2c9489	-0.16853537
243	0x3d485e61	0.04891813
244	0x3e48a34b	0.19593541
245	0xbe2df23e	-0.1698694
246	0x3d7f7d23	0.0623752
247	0x3dd54ad6	0.104146644
248	0x3dddfa1d	0.10838721
249	0xbd041ebe	-0.03225588
250	0x3c9d5de9	0.019209819
251	0x3e18d31e	0.14924285
252	0x3deaaf37	0.11459201
253	0x3e980b46	0.296961
254	0xbde2e12c	-0.110781044
255	0xbda52b10	-0.08064854

model.bigrill.fwd_rnn.cells.0.update_gate.mlp.bias f4 [32]
0	0x3d102f4c	0.035201356
1	0x3e958812	0.29205376
2	0x3d9118f4	0.070848376
3	0x3b9a3073	0.0047054826
4	0x3d20ca5e	0.039255492
5	0xbcd5f09d	-0.02611571
6	0xbe369636	-0.17830738
7	0x3e0e51d8	0.13898408
8	0x3d095788	0.033530742
9	0xbd1109f4	-0.035409883
10	0xbe18b9c1	-0.1491461
11	0xbdbed1ba	-0.09317346
12	0x3d8163ac	0.06317839
13	0x3e76d972	0.24106386
14	0x3c898477	0.016786797
15	0x3e41d6f3	0.18929653
16	0x3dd5165b	0.104046546
17	0x3e38805c	0.18017715
18	0xbc75041c	-0.014954593
19	0xbc967435	-0.018365959
20	0x3ca83aa8	0.020535782
21	0x3e18ef46	0.14935026
22	0x3d5c45ad	0.053777386
23	0x3d0d9255	0.03456338
24	0xbd4933f2	-0.049121805
25	0x3e63f517	0.22261463
26	0x3e126459	0.14296092
27	0x3e288281	0.16456033
28	0x3d761f26	0.0600883
29	0xbda88ef5	-0.08230392
30	0xbca427bd	-0.02003848
31	0xbd4dea64	-0.05027236

model.bigrill.fwd_rnn.cells.0.c_gate.mlp.weight f4 [32, 170, 1, 1]
0	0xbd7baaed	-0.061442304
1	0x3d90cda4	0.07070473
2	0x3dd8f5e3	0.10593774
3	0x3dcf9a05	0.10136799
4	0xbc34785b	-0.011015023
5	0xbda481df	-0.080325834
6	0xbcf89797	-0.030345721
7	0x3cbb66e7	0.022876216
8	0x3d685d8c	0.05672984
9	0xbd0d6880	-0.034523487
10	0x3bb48e47	0.005510125
11	0xbde0a9f6	-0.109699175
12	0x3e1c9de3	0.15294604
13	0x3dda6c5f	0.106652014
14	0x3de0e726	0.10981588
15	0xbba8e393	-0.005154082
16	0xbd172baf	-0.036906894
17	0xbe020d85	-0.1270047
18	0x3d9a44d2	0.07532658
19	0x3dbbc578	0.091685236
20	0x3d3beaeb	0.045878332
21	0xbe0d8d97	-0.13823543
22	0xbd302b54	-0.04301007
23	0x3da61636	0.08109705
24	0x3dff0085	0.12451271
25	0xbca10fab	-0.019660791
26	0xbdcb50a1	-0.09927488
27	0xbd62554d	-0.05525713
28	0xbdbf444c	-0.093391985
29	0x3e5eb772	0.21749666
30	0xbd4e7bb3	-0.050410938
31	0x3d10dd52	0.035367317
32	0x3d05e5b5	0.03268977
33	0x3d7448c2	0.0596397
34	0xbaaf897c	-0.0013392414
35	0x3c95ff06	0.018310081
36	0xbd270e5e	-0.040785186
37	0x3c7072ce	0.014675809
38	0xbc06e916	-0.008234283
39	0xbd54671d	-0.05185615
40	0xbcd831d1	-0.026390942
41	0x3d8f03b9	0.06983132
42	0xbd10bd74	-0.035336927
43	0xbd3c3683	-0.045950424
44	0xbe3f87d5	-0.1870416
45	0xbe2e1353	-0.16999559
46	0x3d26ee4c	0.0407546
47	0x3b695ffc	0.003561019
48	0xbd206a46	-0.03916385
49	0x3cebecfe	0.02879953
50	0xbdd995a0	-0.10624242
51	0xbda025ce	-0.07819711
52	0x3e880955	0.2656962
53	0x3d1f202d	0.038849045
54	0xbdbf16bf	-0.0933051
55	0xbd6b7a76	-0.057489835
56	0xbe4bb9d6	-0.1989511
57	0x3c7bcc98	0.015368603
58	0x3e11161c	0.1416859
59	0x3d1ab52f	0.037770446
60	0x3cc114bc	0.023569457
61	0xbdedcfb9	-0.116118856
62	0xbdb524ff	-0.08844947
63	0x3e04df48	0.129758
64	0x3cf25bf0	0.029584855
65	0x3e527495	0.20552285
66	0x3dc2d6b0	0.09513605
67	0x3d7c3b09	0.061579738
68	0xba5e26f1	-0.00084744307
69	0x3d544a8f	0.051828917
70	0xbc004b45	-0.007830446
71	0x3c85d73e	0.016337987
72	0x3d8780d0	0.06616366
73	0xbd4459b9	-0.04793713
74	0x3cbc386e	0.022976127
75	0x3da4ee1f	0.080532305
76	0xbdcd4b92	-0.100241795
77	0x3d58a240	0.05288911
78	0xbd6d95fe	-0.05800437
79	0xbdb4bd2f	-0.088251464
80	0x3d4e230b	0.05032639
81	0x3dbe432d	0.092901565
82	0xbd1504db	-0.036381584
83	0x3be00982	0.006837071
84	0xbd98e018	-0.074646175
85	0xbd899c8e	-0.067193136
86	0x3ddf3304	0.10898402
87	0x3d032b0e	0.032023482
88	0x3d84eb3b	0.06490179
89	0xbbd7b9da	-0.0065834345
90	0x3d62c1f4	0.05536075
91	0x3c7f8543	0.015595737
92	0x3c4e52f0	0.012593016
93	0xbcf099cb	-0.02937021
94	0xbd8703ef	-0.06592547
95	0xbbd5e3f8	-0.00652742
96	0x3d4cf03d	0.050033797
97	0x3c8d4bed	0.017248118
98	0xbde211b3	-0.11038532
99	0x3dad859e	0.08472751
100	0x3d63505a	0.05549655
101	0xbb9e4737	-0.004830267
102	0xbb9b3eef	-0.004737727
103	0x3d82424d	0.06360302
104	0xbd1912fe	-0.037371628
105	0x3d652555	0.055943806
106	0x3d6a3baf	0.057185825
107	0xbe3138f5	-0.17306884
108	0x3dd2c39d	0.102912165
109	0x3d81eee3	0.06344392
110	0x3d29cb99	0.04145393
111	0xbe6d41b6	-0.23169598
112	0xbd075f39	-0.033049796
113	0xbe267b11	-0.16257884
114	0xbc85a51f	-0.016314087
115	0x3d70a910	0.05875498
116	0x3e0595a5	0.13045366
117	0xbc47e06d	-0.012199503
118	0xbdb974c6	-0.09055476
119	0xbd0e3b2e	-0.034724407
120	0x3d649dca	0.055814542
121	0xbccc2aeb	-0.024922809
122	0xbd90c8d6	-0.070695564
123	0x3b8406c7	0.0040291282
124	0xbd622b91	-0.05521733
125	0x3e09d967	0.13461839
126	0x3d991834	0.074753195
127	0x3d19c1af	0.037538227
128	0x3d4c8a94	0.049936846
129	0x3d19d769	0.037558947
130	0x3d0702fd	0.032961834
131	0x3dd6dfb8	0.1049189
132	0xbdd5d055	-0.10440127
133	0x3d8f1437	0.069862776
134	0x3dd899e3	0.105762266
135	0xbd84f474	-0.06491938
136	0xbbb01d43	-0.005374582
137	0x3c8916ec	0.016734563
138	0xbc69527c	-0.014240857
139	0x3d3ba3e0	0.04581058
140	0xbde52a66	-0.111897275
141	0x3bf58db4	0.007493699
142	0xbd188cc0	-0.037243605
143	0x3d7c010e	0.061524443
144	0x3d5d8c72	0.054089017
145	0x3c46a284	0.012123708
146	0xbd983cce	-0.074334726
147	0xbde86e67	-0.113491826
148	0x3e5420c6	0.20715627
149	0x3d9dd597	0.07706755
150	0x3cd5a6a7	0.026080443
151	0xbdccc72b	-0.09998926
152	0xbc6bbcaa	-0.014388243
153	0x3d1e74b4	0.038685516
154	0x3e31daec	0.17368668
155	0xbcc4417b	-0.023957005
156	0xbdd7fd56	-0.10546367
157	0xbc3187fd	-0.010835645
158	0xbbf74c41	-0.007546932
159	0x3d80954d	0.06278477
160	0x3d9feb23	0.07808521
161	0x3c6b7c23	0.014372858
162	0x3de882ea	0.11353095
163	0xbd9aaa28	-0.07551986
164	0x3d9d5c5e	0.07683633
165	0xbd9810f8	-0.074251115
166	0xbe1b6218	-0.15174139
167	0x3d481379	0.048846696
168	0x3de5c02f	0.11218297
169	0xbd298f0e	-0.041396193
170	0x3d8b8eac	0.06814322
171	0xbda6bf32	-0.08141936
172	0xbd98d047	-0.07461601
173	0xbe10178e	-0.14071485
174	0x3dd5d7b2	0.10441531
175	0x3daeca1d	0.08534644
176	0x3d8c5f88	0.06854159
177	0x3d85dbc7	0.0653606
178	0xbe6f9753	-0.2339757
179	0x3da8b39f	0.08237385
180	0x3d9981f7	0.07495492
181	0x3d6d5212	0.057939596
182	0xbda95d45	-0.08269743
183	0xbe3a9d83	-0.18224148
184	0xbdb9cf08	-0.09072691
185	0xbb88a29a	-0.0041697742
186	0x3d55abb6	0.05216571
187	0x3daf6565	0.08564261
188	0xbd6a2565	-0.05716457
189	0xbe04f6c8	-0.12984765
190	0x3da4e210	0.080509305
191	0xbb914b1d	-0.004434003
192	0x3ce90e30	0.028449148
193	0x3d4256ce	0.047446065
194	0xbd457bd8	-0.04821381
195	0x3c072661	0.008248896
196	0x3c96a5a0	0.018389523
197	0x3e564dcb	0.20928113
198	0x3d347f0c	0.044066474
199	0xbea675fb	-0.32511887
200	0xbc90f01f	-0.017692624
201	0xbe198465	-0.14991911
202	0xbd71c41c	-0.059024915
203	0xbdf3ede4	-0.119106084
204	0xbb52411f	-0.0032082272
205	0xbd513583	-0.051076423
206	0xbd4ac5ac	-0.04950492
207	0xbdb53ed9	-0.08849878
208	0xbd773e91	-0.060362402
209	0x3ddfe0f4	0.10931578
210	0x3d45efc9	0.04832438
211	0x3d4b3d9e	0.04961931
212	0xbd692f36	-0.05692979
213	0x3e27561f	0.16341446
214	0x3d7b08b8	0.06128761
215	0x3e91a089	0.2844279
216	0xbc8aec3e	-0.016958352
217	0xbdcc33ae	-0.099707946
218	0x3cb1256d	0.021624291
219	0xbc731741	-0.014837087
220	0x3e1be15e	0.1522269
221	0x3d991ce4	0.074762136
222	0xbe84c8a5	-0.2593433
223	0x3d9e350f	0.07724964
224	0x3bed5aca	0.007243489
225	0x3dedeb30	0.11617124
226	0x3e2ea58a	0.17055336
227	0xbe1a7637	-0.15084158
228	0xbdf91122	-0.12161471
229	0xbd9923f3	-0.0747756
230	0xbd8a785a	-0.067612365
231	0x3df2a0b1	0.11847056
232	0x3d681d68	0.05666867
233	0xb9a77029	-0.00031936288
234	0x3ccb96bd	0.024852151
235	0xbe278793	-0.16360311
236	0xbe555278	-0.2083224
237	0xbe207008	-0.15667737
238	0xb93592a0	-0.00017316127
239	0xbd71c9b8	-0.059030265
240	0x3d0e4798	0.034736246
241	0xbd79e610	-0.06101042
242	0x3d07dd31	0.03316993
243	0x3e3825d0	0.17983174
244	0xbdb27b9d	-0.087149836
245	0xbd5e6230	-0.054292858
246	0x3d8e3ec4	0.06945565
247	0xbd278d56	-0.040906273
248	0x3dc6f035	0.097137846
249	0x3df3dfdf	0.119079344
250	0xbd38c98b	-0.04511408
251	0xbdbae1c7	-0.09125095
252	0x3c84c2cf	0.016206173
253	0xbc1e8e92	-0.009677546
254	0x3db859be	0.09001492
255	0xbc750edf	-0.014957159

model.bigrill.fwd_rnn.cells.0.c_gate.mlp.bias f4 [32]
0	0x3e37b7be	0.17941186
1	0xbd8e0bf0	-0.06935871
2	0xbe102392	-0.14076069
3	0xbe004273	-0.12525348
4	0xbe391725	-0.18075235
5	0x3e04959f	0.12947701
6	0xbde0bf24	-0.10973957
7	0x3d352937	0.04422876
8	0x3da5fe0f	0.081050985
9	0x3c8bb5a9	0.017054396
10	0xbd31adef	-0.043378767
11	0xbd7ea22d	-0.06216638
12	0x3e510a02	0.20413974
13	0x3e08b4bb	0.13350193
14	0x3ca6bb06	0.020352852
15	0x3c25a598	0.010110281
16	0xbe1e46e7	-0.15456735
17	0xbdd4d220	-0.10391641
18	0xbc8e52aa	-0.017373402
19	0x3d0d1687	0.034445312
20	0x3e1c7dac	0.15282315
21	0xbda00e01	-0.07815171
22	0x3ad4ee80	0.0016245395
23	0xbe0be045	-0.13659771
24	0xbe53ed3e	-0.2069597
25	0xbd4c2d43	-0.049847852
26	0x3dfc5755	0.12321345
27	0xbdec3c02	-0.11534883
28	0xbe091086	-0.1338521
29	0xbd272184	-0.040803447
30	0x3c979e6e	0.018508162
31	0x3e64a320	0.22327852

model.bigrill.fwd_rnn.first_stage.weight f4 [1, 32, 1]
0	0xbe66c054	-0.22534305
1	0x3e42c821	0.19021656
2	0xbe9da3e6	-0.30789107
3	0xbf49e00b	-0.7885749
4	0xbf0a1ac1	-0.53947073
5	0xbf7b4a98	-0.98160696
6	0x3f509bc8	0.81487703
7	0x3e28c890	0.16482759
8	0xbf492d8d	-0.7858513
9	0xbf3b07a5	-0.7305854
10	0x3f255c3f	0.6459388
11	0x3f60c4be	0.87800205
12	0x3edb4a29	0.42830017
13	0xbf5c1788	-0.85973406
14	0xbf3d941a	-0.7405411
15	0xbf183258	-0.5945182
16	0x3f418b7c	0.7560346
17	0x3f166657	0.5874991
18	0xbf28b27d	-0.6589735
19	0xbf389df0	-0.72115993
20	0xbf14cb16	-0.58122385
21	0x3f32b9a7	0.69814533
22	0x3f383df5	0.7196954
23	0x3f47d56e	0.7806004
24	0x3f68014b	0.9062697
25	0xbf07d4bc	-0.5305898
26	0xbf2c1f1b	-0.67234963
27	0x3e4bf8d5	0.1991914
28	0x3f5cc036	0.8623079
29	0x3f318c4c	0.693547
30	0x3f35469b	0.7081086
31	0x3edea640	0.43486214

model.bigrill.fwd_rnn.spatial_decoder.lin_in.weight f4 [32, 34, 1]
0	0xbe0fcd51	-0.14043166
1	0x3d8a907b	0.06765839
2	0xbdfe2c5e	-0.12410806
3	0x3e1a718f	0.15082382
4	0xbe9c6057	-0.3054225
5	0x3e1e93f1	0.15486123
6	0xbeb1f9bb	-0.34760842
7	0x3e0bd741	0.13656332
8	0xbd0264cc	-0.03183441
9	0x3e1e3064	0.15448147
10	0x3cb28bc0	0.021795154
11	0xbc0a63c6	-0.008446639
12	0x3d16ec51	0.036846463
13	0x3e2d9beb	0.16954009
14	0xbe13ec8d	-0.14445706
15	0xbd803b23	-0.062612794
16	0x3e287eb8	0.1645459
17	0x3cfe9cb7	0.031080587
18	0xbe443899	-0.19162215
19	0xbe481779	-0.19540204
20	0x3dd1e691	0.10249055
21	0x3e47db14	0.19517165
22	0x3d882663	0.06647947
23	0x3c962dcc	0.018332385
24	0xbe5f7297	-0.21821056
25	0xbe83fadf	-0.25777337
26	0x3d31a572	0.04337067
27	0xbe042fb3	-0.12908821
28	0x3e246bbc	0.16056722
29	0xbca79af6	-0.020459633
30	0xbdd370a0	-0.10324216
31	0xbdce7e10	-0.10082638
32	0x3d80eafc	0.0629482
33	0xbcd4a3e3	-0.025957054
34	0xbe0072e1	-0.12543823
35	0xbd85ada1	-0.06527258
36	0xbd8d8ffd	-0.06912229
37	0x3dbb6adf	0.091512434
38	0x3dad42f8	0.08460039
39	0xbe42ce1d	-0.19023938
40	0x3e91a98e	0.28449672
41	0xbe2e6994	-0.17032462
42	0xbe37a12d	-0.17932577
43	0xbda875f9	-0.082256265
44	0xbcdc2256	-0.026871841
45	0xbe6f7923	-0.23386054
46	0xbd2f82af	-0.04284924
47	0xbdb848d5	-0.089982666
48	0x3dd2f2f7	0.10300248
49	0x3d40b2cd	0.047045518
50	0xbd8ca544	-0.068674594
51	0xbdcd80d0	-0.10034335
52	0x3e5c3ac0	0.21506786
53	0x3d747b2b	0.059687775
54	0xbdaa893a	-0.08326955
55	0xbdab8e69	-0.08376772
56	0xbd0df42e	-0.034656696
57	0xbbd535e5	-0.006506669
58	0x3d05490c	0.032540366
59	0x3e5aa032	0.21350172
60	0xbe19a65e	-0.1500487
61	0x3e0a973c	0.13534254
62	0xbdf934cd	-0.12168274
63	0x3e3d0019	0.18457069
64	0x3dfe1d2a	0.12407906
65	0xbc6288fd	-0.013826606
66	0x3d35fa69	0.044428263
67	0x3e38a26b	0.18030708
68	0xbde9c33d	-0.11414192
69	0xbe472e91	-0.19451357
70	0xbc692de0	-0.014232129
71	0xbd865f15	-0.06561104
72	0x3c83831c	0.016053729
73	0x3c1f9264	0.009739492
74	0x3e454778	0.19265544
75	0xbe2ff11a	-0.17181817
76	0x3cac0ef0	0.021003217
77	0xbe91881c	-0.28424156
78	0x3dbaf2c2	0.09128334
79	0xbd78e3f6	-0.060764275
80	0xbd1d2524	-0.0383655
81	0x3e029833	0.12753372
82	0x3d39a3b2	0.045322128
83	0x3d46445b	0.048405033
84	0x3dc4ee97	0.0961582
85	0x3cdb1680	0.026744127
86	0x3ce921e9	0.028458552
87	0xbdff79a5	-0.12474374
88	0x3d52c247	0.05145481
89	0x3e425c8b	0.18980615
90	0xbea92730	-0.3303771
91	0xbd11bb2b	-0.035578888
92	0xbd5a5893	-0.053307127
93	0xbe04c90e	-0.12967321
94	0xbd491953	-0.049096417
95	0xbe100ea8	-0.14068091
96	0x3cc8992a	0.024487097
97	0x3dcd7655	0.10032336
98	0x3e5d6f66	0.21624526
99	0xbd1e62a4	-0.03866829
100	0x3e5e4867	0.21707307
101	0x3d1046b9	0.035223696
102	0x3db942e2	0.0904596
103	0xbec3018e	-0.38087124
104	0x3db39659	0.08768911
105	0xbe1a0b42	-0.15043357
106	0xbdabd94d	-0.08391056
107	0xbdf05d2d	-0.11736522
108	0x3e9f9fc7	0.31176588
109	0xbeb0dfab	-0.34545645
110	0xbd70d076	-0.058792554
111	0xbdc68112	-0.09692587
112	0xbe469506	-0.19392785
113	0xbce66d2a	-0.028128225
114	0x3e0d4bd3	0.13798456
115	0xbd691b2b	-0.056910675
116	0xbe2c3335	-0.16816409
117	0xbcbc6a6c	-0.022999965
118	0xbba9a87d	-0.005177556
119	0xbd33356c	-0.04375212
120	0x3dec1f06	0.11529355
121	0xbd6d208e	-0.057892375
122	0x3d2b139f	0.04176676
123	0x3d65ac67	0.05607262
124	0x3dd7b5f6	0.10532753
125	0xbdc8a9e3	-0.09798028
126	0xbde0a1c3	-0.109683536
127	0x3e867a56	0.2626521
128	0x3e4923fd	0.19642635
129	0x3e44339c	0.19160312
130	0xbe2808db	-0.16409628
131	0x3d8e435a	0.0694644
132	0xbd81f632	-0.06345786
133	0x3e188c53	0.1489728
134	0xbdcae861	-0.09907604
135	0xbd678c75	-0.056530435
136	0xbe13c3a1	-0.14430095
137	0x3db916e0	0.09037566
138	0x3da1d374	0.079016596
139	0x3d83dbc2	0.064384
140	0x3e617a0c	0.22019213
141	0xbe08177f	-0.13290213
142	0x3d0c28a4	0.034218445
143	0xbe0c45ae	-0.13698456
144	0xbdb6d65b	-0.08927604
145	0xbe0034c6	-0.12520131
146	0xbcd3493d	-0.025791759
147	0xbd01b466	-0.031666182
148	0xbe281a97	-0.16416393
149	0xbdb9c9a8	-0.09071666
150	0x3d7bb181	0.061448578
151	0x3e038458	0.12843454
152	0xbe47321a	-0.19452706
153	0xbd5d300c	-0.0540009
154	0xbdad3aa3	-0.0845845
155	0xbe173962	-0.14767984
156	0xbe2da8ed	-0.16958971
157	0xbe106c7c	-0.14103884
158	0xbdd2fcae	-0.10302101
159	0x3e5d6c7e	0.21623418
160	0x3e2637d4	0.16232234
161	0x3e4ecffd	0.20196529
162	0x3e080837	0.13284384
163	0x3c046b66	0.008082246
164	0x3c71cdfe	0.014758585
165	0x3e3fb834	0.18722612
166	0xbd527616	-0.051382147
167	0xbd849023	-0.064728044
168	0xbdc463a3	-0.09589317
169	0x3e0a0e23	0.13481955
170	0xbcf3627a	-0.029710043
171	0xbe12257d	-0.14272113
172	0x3c311834	0.010808993
173	0xbe5dded1	-0.21667029
174	0x3ea29edf	0.31761834
175	0xbe3c211a	-0.18372002
176	0x3e6037d0	0.21896291
177	0xbe7688d3	-0.24075632
178	0xbc186d4c	-0.009303402
179	0xbea27d47	-0.31736204
180	0xbe07b0db	-0.13251059
181	0xbdd0b299	-0.10190315
182	0x3cb4a537	0.022051437
183	0x3df22332	0.11823119
184	0x3e0a0c85	0.13481338
185	0x3d951be6	0.07280712
186	0xbc5697e8	-0.013097741
187	0xbe4fff6e	-0.20312282
188	0x3e3345b5	0.1750706
189	0xbc06d452	-0.008229332
190	0x3d329590	0.043599665
191	0x3b5157bd	0.0031943165
192	0xbde2574e	-0.11051808
193	0x3e15812f	0.14600061
194	0xbd1205a1	-0.0356499
195	0x3d53beea	0.05169574
196	0x3d86a4b9	0.06574387
197	0xbd898355	-0.06714503
198	0xbd9d9ceb	-0.07695945
199	0xbde3bd31	-0.1112007
200	0x3def29e6	0.11677913
201	0x3c5c5290	0.013447419
202	0x3d1544b6	0.03644248
203	0x3e5937b5	0.21212657
204	0x3dc2195c	0.09477493
205	0x3d212e66	0.03935089
206	0x3db472d2	0.08810963
207	0xbce99179	-0.02851175
208	0x3c1453aa	0.00905315
209	0xbd9e03f1	-0.077155955
210	0x3e99afc9	0.30016926
211	0xbe8e621f	-0.27809235
212	0x3d1fe6b7	0.039038386
213	0xbe2756cd	-0.16341706
214	0xbd2d48de	-0.04230582
215	0xbe82b8fe	-0.25531763
216	0x3df82d91	0.12118066
217	0x3d9ceb65	0.076620854
218	0xbe018b4b	-0.12650792
219	0x3debed14	0.115198284
220	0xbd809479	-0.06278319
221	0xbd9084cb	-0.07056578
222	0x3cd6eb58	0.026235268
223	0xbd6543e1	-0.055972937
224	0xbe626921	-0.22110416
225	0x3d50a986	0.05094292
226	0xbc88546d	-0.01664182
227	0x3e4256d9	0.18978442
228	0x3e54311d	0.2072186
229	0x3d63a1fe	0.05557441
230	0xbe44085f	-0.19143818
231	0xbdf489ad	-0.11940322
232	0xbe7ecb4e	-0.24882242
233	0x3d65cf82	0.056106098
234	0x3dcc59a9	0.09978039
235	0x3e66b7d6	0.22531065
236	0x3e5f7b1c	0.21824306
237	0xbd2fcc93	-0.042919707
238	0x3db897e6	0.09013347
239	0xbd3b9a7d	-0.04580163
240	0xbe6bb8b9	-0.23019685
241	0x3df249c3	0.11830475
242	0xbd9fa65b	-0.07795402
243	0xbd430973	-0.047616433
244	0xbde55829	-0.11198456
245	0x3ea9b2d9	0.33144262
246	0x3d8242f6	0.06360428
247	0x3e82f43e	0.25576967
248	0x3db94cd8	0.0904786
249	0x3e6ee380	0.23328972
250	0x3d1c2bb5	0.03812762
251	0xbdc0a67c	-0.094067544
252	0x3d08cdfc	0.033399567
253	0xbe09738e	-0.13422987
254	0x3d5696c3	0.05238987
255	0x3e1b9c2c	0.15196294

model.bigrill.fwd_rnn.spatial_decoder.lin_in.bias f4 [32]
0	0xbd24bac1	-0.040217165
1	0x3d9ac1ae	0.07556473
2	0x3dd33643	0.10313084
3	0xbe353368	-0.17695391
4	0xbd845d47	-0.06463104
5	0x3e7bcae8	0.24589121
6	0x3e4488dc	0.19192833
7	0x3cdf6558	0.027270004
8	0x3e7cd9d9	0.24692477
9	0xbe3b1adc	-0.18271965
10	0xbd326084	-0.043549076
11	0x3c31dc3b	0.01085573
12	0x3d0a2e66	0.033735655
13	0x3e431fde	0.19055125
14	0x3e094dda	0.13408604
15	0x3d09d1c4	0.033647314
16	0xbbb0219d	-0.0053751008
17	0x3db7ef66	0.089812085
18	0xbc34867e	-0.011018394
19	0xbeae81cc	-0.34083402
20	0xbdf21437	-0.11820262
21	0x3e01422b	0.12622897
22	0x3e5a1c3f	0.21299838
23	0xbe9036a8	-0.281667
24	0xbe25f3ba	-0.16206256
25	0xbe785b28	-0.24253523
26	0x3ea146a8	0.3149922
27	0xbda163ea	-0.07880385
28	0x3e0ee5d2	0.13954857
29	0xbd8dc5fa	-0.06922527
30	0xbcbb7d95	-0.02288703
31	0x3da0af89	0.07845981

model.bigrill.fwd_rnn.spatial_decoder.graph_conv.mlp.weight f4 [32, 64, 1, 1]
0	0xbcdc5b4b	-0.026899
1	0x3dc4b5d0	0.096049905
2	0x3d839122	0.06424166
3	0xbd76be7f	-0.060240265
4	0xbdadfb7f	-0.08495235
5	0xbe022144	-0.12708002
6	0x3c552f63	0.013011786
7	0xbc19f49c	-0.009396698
8	0xbc72ced2	-0.014819818
9	0x3c7de9af	0.015497609
10	0xbe3eae67	-0.18621217
11	0x3da3e8a0	0.08003354
12	0x3dc88948	0.09791809
13	0xbc3a3d4c	-0.011367153
14	0x3d62e8b1	0.055397693
15	0x3cbb4d8a	0.022864122
16	0xbc429fe1	-0.011878938
17	0xbe0bcba3	-0.136519
18	0x3c9fab67	0.01949091
19	0x3d240521	0.040043954
20	0xbd9bd9c1	-0.07609893
21	0x3b51fade	0.0032040398
22	0xbdf130f4	-0.11776915
23	0x3e23451f	0.15944336
24	0x3dd8ca54	0.10585466
25	0xbd6dc909	-0.05805305
26	0x3da27359	0.07932157
27	0x3e460886	0.19339189
28	0xbd5c8a81	-0.053843025
29	0xbd69e5ab	-0.057103794
30	0x3c578718	0.013154767
31	0xbdd822e3	-0.10553529
32	0xbd0bec11	-0.034160677
33	0x3cbcd85b	0.023052385
34	0xbda75519	-0.08170528
35	0xbc3bfdb7	-0.011474065
36	0xbdb81ed2	-0.089902535
37	0x3d5353b0	0.051593482
38	0xbe020565	-0.1269737
39	0x3cd24d34	0.025671579
40	0xbcc47a64	-0.023984142
41	0x3d8c9b4a	0.068655565
42	0xbd47d269	-0.048784647
43	0x3d4ce075	0.050018746
44	0x3ddaf958	0.1069209
45	0xbdaa841c	-0.08325979
46	0x3d2c3571	0.042043153
47	0xbde25a45	-0.11052374
48	0x3dcd958c	0.100382894
49	0xbdb5e8fe	-0.0888233
50	0xbe04befd	-0.12963481
51	0xbdf0410a	-0.11731155
52	0xbd5a2caf	-0.05326527
53	0xbddfff15	-0.10937325
54	0x3e0081ce	0.12549517
55	0x3dc900eb	0.09814628
56	0x3dccc385	0.0999823
57	0x3d177fac	0.03698699
58	0xbdf4d4cd	-0.11954651
59	0x3c6dfcb8	0.014525585
60	0x3d8b3a02	0.067981735
61	0xbde4de9c	-0.11175272
62	0x3db3c016	0.08776872
63	0x3d486bbd	0.048930872
64	0xbdeadcec	-0.11467919
65	0x3e052180	0.1300106
66	0xbbec5ceb	-0.007213225
67	0x3d6e971d	0.05824958
68	0x3c746c3e	0.014918385
69	0x3e2c3ab6	0.16819271
70	0x3c29a048	0.010353155
71	0xbd9ef336	-0.077612326
72	0x3cb13679	0.02163242
73	0xbd8fe075	-0.07025234
74	0x3e2a2d8f	0.16618942
75	0x3d4f4e49	0.050611768
76	0xbddf4876	-0.10902493
77	0x3e3d69dd	0.18497415
78	0xbdcebeb6	-0.10094969
79	0x3ce2b3c0	0.027673602
80	0xbd13fd55	-0.036130268
81	0x3d503915	0.050835688
82	0x3dfbd521	0.122965105
83	0x3bfcffab	0.0077209077
84	0x3d8d0276	0.06885235
85	0xbdd52605	-0.10407642
86	0xbd9a592a	-0.07536538
87	0xbc97c3a9	-0.018525915
88	0xbdf148d2	-0.117814675
89	0xbdbdacc7	-0.0926147
90	0xbc2571b7	-0.0100979125
91	0xbe355257	-0.17707191
92	0xba7117ae	-0.0009196949
93	0x3db6adf9	0.089199014
94	0x3dcb0e49	0.09914834
95	0xbd010ec5	-0.031508226
96	0x3dc578b4	0.09642163
97	0x3d943fc9	0.072387286
98	0xbdca755f	-0.09885668
99	0x3df2c33d	0.11853645
100	0x3be5147f	0.0069909687
101	0x3d4eda00	0.05050087
102	0x3d0bb6ea	0.034109987
103	0xbdb61cdb	-0.088922225
104	0x39ad04ef	0.00033000807
105	0xbc60d555	-0.013722737
106	0xbd1205a8	-0.035649925
107	0x3ced2d6b	0.028952321
108	0xbca55724	-0.020183153
109	0xbe01c655	-0.12673314
110	0xbc3c7cb1	-0.011504338
111	0x3d87215a	0.06598158
112	0xbd4c9761	-0.049949054
113	0x3ddd3d4b	0.10802706
114	0x3d94a5e2	0.07258202
115	0x3dce68f6	0.100786135
116	0xbb0f6e1f	-0.0021885706
117	0xbd6f1873	-0.058372926
118	0x3b71753a	0.0036843554
119	0xbc3713de	-0.01117417
120	0xbdda618c	-0.10663137
121	0x3c82cc27	0.015966488
122	0xbdee85b0	-0.116465926
123	0x3cf47052	0.029838715
124	0x3dd66c15	0.10469834
125	0x3c31f9bd	0.010862765
126	0xbe01854b	-0.12648503
127	0x3c3a82e6	0.011383748
128	0xbd5e696a	-0.05429975
129	0xbdd90565	-0.10596732
130	0x3d833cac	0.064080566
131	0xbd98b1e1	-0.07455803
132	0xbc9ae0a4	-0.018905945
133	0xba9ee3f1	-0.0012122375
134	0xbcb4f1a7	-0.022087885
135	0xbd3f4df1	-0.04670519
136	0xbdab0bd3	-0.08351865
137	0x3de8cea0	0.113675356
138	0xbe1b5fbc	-0.15173239
139	0x3cdcf2e6	0.026971292
140	0xbcced210	-0.02524665
141	0xbd7583fa	-0.059940316
142	0xbe0a056d	-0.13478632
143	0x3cc9d462	0.024637405
144	0x3dfb194e	0.12260686
145	0xbbf2d211	-0.007410296
146	0x3dd2161a	0.10258122
147	0x3c9ae9c2	0.018910293
148	0x3d96566b	0.07340702
149	0xbda4a270	-0.08038795
150	0xbe210cc2	-0.15727523
151	0x3da89b5b	0.08232757
152	0x3dc6e207	0.0971108
153	0x3d3837a7	0.04497495
154	0xbd0888d9	-0.033333633
155	0x3e705fb1	0.23474003
156	0x3b8d9973	0.004321271
157	0xbdab604c	-0.083679765
158	0x3e0b68bf	0.13614176
159	0xbdc2b347	-0.09506851
160	0xbd94a0bf	-0.072572224
161	0xbb36fd5a	-0.0027922005
162	0xbc8dd4d9	-0.017313408
163	0xbd1098d1	-0.035301987
164	0x3d35564d	0.044271756
165	0xbe180a71	-0.14847733
166	0xbc2a4d1f	-0.010394364
167	0x3db323c3	0.087470554
168	0xbdfbc522	-0.122934595
169	0x3d5997d3	0.053123306
170	0xbaa252f3	-0.001238434
171	0x3d6f4b3a	0.05842135
172	0xbdbe9f2a	-0.09307702
173	0x3da0f0c3	0.07858422
174	0x3d71f189	0.059068237
175	0x3d2b420c	0.041811034
176	0x3df7ed2a	0.12105782
177	0xbcf19166	-0.029488277
178	0xbd07d747	-0.03316429
179	0x3e0fd24d	0.14045067
180	0x3d21395b	0.03936134
181	0x3d9b4a21	0.07582498
182	0xbdb84631	-0.08997763
183	0x3d06d58a	0.03291849
184	0x3dc2e471	0.09516228
185	0xbcebcf86	-0.028785478
186	0x3d0b6f21	0.034041528
187	0x3e151f27	0.14562665
188	0xbddc0f03	-0.10745051
189	0x3d3b289a	0.045693018
190	0xbcd637c4	-0.026149638
191	0xbd4e963c	-0.050436243
192	0x3c9b571a	0.018962432
193	0x3e0640af	0.13110612
194	0xbcdb8aa2	-0.026799504
195	0x3d3e81ee	0.04651063
196	0x3d7d896e	0.06189864
197	0x3e3a8eee	0.18218586
198	0xbc924bf8	-0.01785849
199	0xbd75b74f	-0.05998927
200	0x3cef3a54	0.029202618
201	0x3c721b79	0.014777058
202	0x3e1202dd	0.14258905
203	0xbdca3a08	-0.0987435
204	0x3d6d9002	0.057998665
205	0xbd00d0d5	-0.031449158
206	0x3e36481d	0.17800947
207	0xbdcffca1	-0.10155607
208	0x3dcb4a98	0.09926337
209	0xbc9bb478	-0.019006953
210	0xbc9ae9f9	-0.018910395
211	0xbd977314	-0.07394996
212	0xbdb455aa	-0.088054016
213	0x3dd845ea	0.1056021
214	0xbd69905c	-0.057022437
215	0xbd56d200	-0.052446365
216	0xbdeae985	-0.114703216
217	0xbdee1987	-0.11625963
218	0xbde04c6c	-0.10952076
219	0xbdd93693	-0.10606112
220	0x3e2527cb	0.16128461
221	0xbc4168e9	-0.011804798
222	0x3c90f73a	0.017696012
223	0x3dcb22e9	0.09918768
224	0x3d0cdb02	0.03438855
225	0xbd9cf5c1	-0.07664061
226	0x3bbf3bd7	0.005835991
227	0xbc856dec	-0.016287766
228	0x3d8daee3	0.069181226
229	0xbd364f67	-0.044509318
230	0xbd59659f	-0.05307543
231	0xbca6dc11	-0.020368608
232	0x3ae87458	0.0017734868
233	0xbdbc0ef5	-0.0918254
234	0x3c9105ca	0.017702956
235	0x3d6dc313	0.058047365
236	0xbda14a6a	-0.078755215
237	0x3df54375	0.11975757
238	0xbd401dd0	-0.04690343
239	0xbdea6e9d	-0.11446879
240	0x3d2a1c44	0.041530862
241	0x3c6de275	0.014519324
242	0xbc501c3b	-0.012702043
243	0xbc08eff8	-0.008357994
244	0xbcb62698	-0.0222352
245	0x3dbe9450	0.09305632
246	0x3d7dac53	0.06193192
247	0xbd0c1535	-0.034199912
248	0xbdc75858	-0.09733647
249	0xbb8c09fd	-0.0042736516
250	0x3d853f85	0.06506256
251	0xbe1bd168	-0.15216601
252	0xbc9e9878	-0.019359812
253	0x3caf8ba7	0.021428896
254	0x3c0e805d	0.008697596
255	0x3d99a244	0.07501653

model.bigrill.fwd_rnn.spatial_decoder.graph_conv.mlp.bias f4 [32]
0	0xbe1c1a6d	-0.15244456
1	0x3e001703	0.12508778
2	0xbe4b62f4	-0.19861966
3	0x3e204838	0.1565255
4	0xbd9f380a	-0.077743605
5	0x3eebe27b	0.46071228
6	0xbe8bfc04	-0.2734071
7	0xbc0aedf7	-0.008479587
8	0x3e24120b	0.16022508
9	0xbe6d9e7f	-0.23204993
10	0xbcd90727	-0.026492668
11	0xbe8bb9ee	-0.2729029
12	0x3e0cbd4f	0.1374409
13	0x3d8e7554	0.06955972
14	0x3df5de04	0.12005237
15	0xbdda9521	-0.10672975
16	0x3d797614	0.060903624
17	0xbe86f4c3	-0.26358613
18	0x3e2e322b	0.17011325
19	0xbe96c19d	-0.2944459
20	0x3e162b18	0.14664876
21	0xbdb3522e	-0.08755909
22	0xbe365abf	-0.17808054
23	0xbe5cbd84	-0.2155667
24	0x3d16e186	0.03683617
25	0x3e24bbe7	0.16087304
26	0xbe8336b0	-0.2562766
27	0xbec7a053	-0.38989505
28	0x3e5f0c52	0.21782044
29	0x3db15a5d	0.086598136
30	0x3e2de842	0.1698313
31	0x3dde45b5	0.10853139

model.bigrill.fwd_rnn.spatial_decoder.lin_out.weight f4 [32, 64, 1]
0	0x3d81a297	0.0632984
1	0x3c13f723	0.00903109
2	0x3e37d63c	0.17952818
3	0x3ccbc136	0.024872404
4	0x3dcc791b	0.099840365
5	0xbdc5472e	-0.09632717
6	0xbc550800	-0.013002396
7	0xbe1748cd	-0.14773865
8	0xbdfd5455	-0.12369601
9	0x3db1c992	0.086810246
10	0x3dd25ff8	0.10272211
11	0x3dc6f68c	0.09714994
12	0xbdfe96c5	-0.12431101
13	0xbdb633b3	-0.088965796
14	0x3c9bf079	0.019035565
15	0x3ce3a470	0.02778837
16	0xbdaaf6b1	-0.08347834
17	0x3dd4d25c	0.10391685
18	0xbd4fbe46	-0.05071857
19	0x3d95b19f	0.07309269
20	0xbd1f5935	-0.038903434
21	0xbdbb3e47	-0.09142738
22	0x3e0bd377	0.13654886
23	0x3e1f5fdd	0.15563913
24	0xbd4a2e58	-0.049360603
25	0xbe33310a	-0.17499176
26	0x3cf06162	0.02934331
27	0x3e44927d	0.19196506
28	0xbdc6d94f	-0.09709417
29	0xbe103e3f	-0.14086245
30	0xbddb64e6	-0.10712604
31	0xbde08f5d	-0.109648444
32	0x3eb4639f	0.35232255
33	0xbf13190d	-0.574601
34	0xbed8bbac	-0.42330682
35	0x3e3b8350	0.1831181
36	0xbe97b265	-0.29628292
37	0xbeb36bc7	-0.35043165
38	0xbd2a9d64	-0.041654006
39	0x3ee32f0f	0.4437184
40	0x3e1bab4a	0.1520206
41	0x3e019ea7	0.12658177
42	0xbd53cec7	-0.05171087
43	0xbdfe9cdc	-0.12432262
44	0x3eb94fbf	0.36193654
45	0x3ebeda92	0.3727613
46	0x3e3f60af	0.18689226
47	0x3e7daf8e	0.24774
48	0xbe458e32	-0.19292524
49	0xbec5cb71	-0.38631776
50	0x3e97017d	0.29493323
51	0x3e07bdd6	0.1325601
52	0x3ce2d4e7	0.02768941
53	0xbda9e1b1	-0.08295
54	0xbe894ca0	-0.26816273
55	0xbdeb0bd2	-0.11476864
56	0x3c305565	0.010762547
57	0x3ebe5e81	0.37181476
58	0x3e1e4384	0.15455443
59	0xbeb5d830	-0.355165
60	0xbc3adf78	-0.011405818
61	0xbe287860	-0.1645217
62	0xbe101194	-0.14069206
63	0x3f04ff6a	0.5195223
64	0xbc417b2a	-0.01180915
65	0x3db1ee2d	0.086880066
66	0x3db05b74	0.08611193
67	0xbd07a96a	-0.03312055
68	0x3d97b0ff	0.07406806
69	0xbd353276	-0.044237576
70	0xbca04eca	-0.01956882
71	0xbdab9b22	-0.083791986
72	0xbd83cd62	-0.06435658
73	0xbdae735c	-0.08518097
74	0x3d7d955a	0.06191001
75	0xbd0966e1	-0.03354538
76	0x3da7a8fc	0.08186528
77	0x3c4d3f9e	0.012527375
78	0x3d815e03	0.063167594
79	0x3dd6bce5	0.104852475
80	0xbc3386c5	-0.0109574245
81	0x3e036982	0.12833217
82	0xbca49d18	-0.02009444
83	0xbd1a454b	-0.03766374
84	0xbd92f1dc	-0.07175037
85	0x3c90ccce	0.017675783
86	0xbcebcf77	-0.02878545
87	0x3d44e1a0	0.048066735
88	0x3dc36fd2	0.095428124
89	0x3d49855e	0.049199454
90	0x3dd1de3f	0.10247468
91	0xbc225af3	-0.009909379
92	0xbd98a809	-0.07453925
93	0x3d0f0b04	0.034922615
94	0x3d03f113	0.03221233
95	0x3cd880e9	0.026428657
96	0xbec25808	-0.37957788
97	0x3f0ce520	0.55037117
98	0xbcf247b8	-0.029575214
99	0x3d6d22c6	0.05789449
100	0xbe735b80	-0.23765373
101	0x3eb46faf	0.35241458
102	0x3acfce40	0.0015854314
103	0xbebbe4a8	-0.36697888
104	0xbde98a75	-0.11403362
105	0xbe461483	-0.19343762
106	0x3e3dba9c	0.18528217
107	0x3dcba1d7	0.09942978
108	0xbd27a348	-0.0409272
109	0xbe7d8213	-0.2475665
110	0xbe02c707	-0.12771235
111	0xbd9d0abb	-0.07668062
112	0x3dce4e07	0.10073476
113	0x3da053d4	0.07828489
114	0xbde1fd55	-0.110346474
115	0xbda939c3	-0.0826297
116	0xbe60e43d	-0.21962066
117	0xbd880327	-0.06641226
118	0x3e329cfa	0.17442694
119	0x3cd04528	0.025423601
120	0x3e0e8379	0.1391734
121	0xbe16efb3	-0.14739875
122	0xbe3e8873	-0.18606739
123	0x3f0fbd58	0.5614829
124	0x3e170ecb	0.14751737
125	0x3de03c6d	0.10949025
126	0xbc018e4b	-0.00790746
127	0xbe3b1e2d	-0.1827323
128	0xbce9f125	-0.02855737
129	0xbc4cdfd7	-0.012504539
130	0xbded9f8c	-0.11602697
131	0x3d4e9a17	0.05043992
132	0xbdb2aa59	-0.087238975
133	0x3baddbd7	0.005305748
134	0x3d81f31e	0.06345199
135	0x3d24a03d	0.040191878
136	0xbda74c35	-0.08168832
137	0xbbb23927	-0.005438942
138	0xbd407358	-0.046985
139	0x3c48e609	0.012261876
140	0xbdfbb37c	-0.12290093
141	0x3e0f1a70	0.13974929
142	0xbdaf8c39	-0.08571667
143	0x3c810e2f	0.015753834
144	0xbd35c943	-0.04438139
145	0xbb578552	-0.0032885862
146	0x3d44f31e	0.048083417
147	0x3da54926	0.080705926
148	0xbdfdf05a	-0.12399359
149	0x3d54eb72	0.05198235
150	0x3dc40eb9	0.095731206
151	0xbd17fcd1	-0.03710634
152	0x3e03e144	0.12878901
153	0x3ddb103b	0.10696455
154	0xbdda8cd7	-0.10671394
155	0xbd481c91	-0.048855368
156	0xbda3d677	-0.0799989
157	0x3c280395	0.01025476
158	0xbd120e33	-0.035658073
159	0xbda0386f	-0.07823264
160	0xbe51c1e0	-0.20484114
161	0x3e9a50e8	0.30139852
162	0x3df885f1	0.12134922
163	0x3bc12ca3	0.0058952137
164	0x3def337b	0.11679741
165	0x3edad662	0.42741686
166	0x3e29b35b	0.16572325
167	0xbeb6b4f0	-0.3568492
168	0xbd85e332	-0.06537475
169	0xbe07859b	-0.1323456
170	0x3e594c96	0.21220621
171	0x3d953d9b	0.07287141
172	0xbe133779	-0.1437663
173	0xbd44477e	-0.047919743
174	0xbe2b5aee	-0.16733906
175	0xbe7510e6	-0.23932227
176	0xbcb34a16	-0.021885913
177	0x3ddca9d2	0.10774578
178	0xbdaeb711	-0.08531011
179	0xbe31ce40	-0.17363834
180	0x3ae0f944	0.0017164131
181	0xbd4f5989	-0.050622497
182	0x3e00700c	0.12542742
183	0x3e14d8ee	0.14535877
184	0x3df46acc	0.119344324
185	0xbe5a8359	-0.21339168
186	0xbdd8be1d	-0.10583136
187	0x3e922c30	0.28549337
188	0x3db9d54a	0.09073885
189	0x3e424299	0.18970717
190	0x3e34634b	0.17616002
191	0xbe9b002c	-0.3027357
192	0xbd046831	-0.032325927
193	0x3df34228	0.11877853
194	0x3df82307	0.12116056
195	0xbce2476d	-0.02762195
196	0xbdb3218c	-0.08746633
197	0xbb4a618a	-0.0030880892
198	0x3e0043f1	0.12525918
199	0x3dd8d831	0.1058811
200	0x3cdc3d8b	0.026884815
201	0x3d899b17	0.06719034
202	0x3dd6db47	0.104910426
203	0x3e1e5bc8	0.154647
204	0xbe080abd	-0.13285346
205	0x3da844c0	0.08216238
206	0x3d40c8fe	0.04706668
207	0xbca54d28	-0.020178393
208	0x3db40cfa	0.087915376
209	0xbdc3dcb5	-0.09563581
210	0xbd62a5e4	-0.055333987
211	0xbd2f2534	-0.04276009
212	0x3d13231c	0.035922155
213	0x3dc52be0	0.09627509
214	0x3de3aefa	0.111173585
215	0x3d6af2e6	0.057360552
216	0x3cc7fc7e	0.02441239
217	0x3da3c168	0.07995874
218	0xbdc0f377	-0.09421437
219	0x3cca24e9	0.024675803
220	0xbdc4b8c9	-0.096055575
221	0x3d275aca	0.040858068
222	0x3df10a6c	0.11769566
223	0xbccccb31	-0.024999233
224	0xbe95132c	-0.2911619
225	0x3e81b93a	0.2533663
226	0x3e6b1056	0.2295545
227	0xbcc163bb	-0.023607126
228	0x3d3daad6	0.0463055
229	0x3eabd9ef	0.33564708
230	0x3db40c55	0.08791415
231	0xbec0ef22	-0.37682444
232	0xbd8d5965	-0.06901816
233	0xbd9ef087	-0.07760721
234	0x3e906950	0.28205347
235	0xbd8e7d59	-0.06957502
236	0xbd548fb3	-0.051894855
237	0xbe20ed72	-0.15715578
238	0x3d324c32	0.043529697
239	0xbde449c2	-0.11146881
240	0x3e3884f2	0.18019465
241	0x3e72d056	0.23712286
242	0xbd9f389e	-0.07774471
243	0xbc5d1935	-0.013494779
244	0xbe0dd19a	-0.13849488
245	0x3d391062	0.04518164
246	0x3e297196	0.16547236
247	0x3db0e4ba	0.08637376
248	0xbb7051a8	-0.0036669765
249	0xbe5585c5	-0.2085181
250	0xbe1e421a	-0.15454903
251	0x3edcd3c4	0.43130314
252	0x3e035920	0.12826967
253	0x3d07407e	0.03302049
254	0x3d7c7e5a	0.061643936
255	0xbdf632fa	-0.12021442
