logs/discharge_point/grin/2023-10-26_16-18-03_628844222/epoch=38-step=3393.ckpt (torch, 707635 bytes, 102 tensors)

model.bigrill.emb f4 [8, 20]
0	0x3ea3a34b	0.3196052
1	0xbd582b26	-0.052775525
2	0xbeffc0eb	-0.49951872
3	0x3e8861d8	0.2663715
4	0xbd282946	-0.041054986
5	0x3e1bfb2b	0.15232532
6	0x3ec9f94f	0.3944802
7	0x3ee0ffcf	0.43945166
8	0xbe178e73	-0.14800434
9	0x3e12a041	0.14318945
10	0x3e9b9ffc	0.30395496
11	0x3f0d5662	0.55209935
12	0xbe62e59e	-0.22157905
13	0x3ee8ea53	0.45491275
14	0x3ea5a563	0.32352743
15	0xbd7dd41c	-0.06196986
16	0x3e8766e1	0.26445678
17	0x3eff302f	0.4984145
18	0x3ebf2243	0.37330827
19	0x3ef338e9	0.47504357
20	0x3e1c0b7e	0.15238759
21	0xbe7f65d0	-0.24941182
22	0xbc009acf	-0.007849409
23	0xbe1d095f	-0.15335606
24	0xbe9271f6	-0.2860257
25	0xbd184daa	-0.03718344
26	0xbefa6bf4	-0.48910487
27	0xbf865d5a	-1.0497239
28	0x3e8bdf1a	0.2731865
29	0x3f086453	0.5327808
30	0x3eafefbc	0.3436259
31	0xbe1b3ac9	-0.15159144
32	0xbea3fb7d	-0.32027808
33	0x3d9d3fd0	0.07678187
34	0x3d8d69da	0.06904955
35	0x3f17ee5a	0.5934807
36	0x3e8c6324	0.27419388
37	0x3e1e8322	0.1547971
38	0xbf5ad7b4	-0.85485387
39	0x3ee24659	0.44194296
40	0x3f0f6f7e	0.560295
41	0xbf9fe2a1	-1.2491037
42	0xbd848e6a	-0.06472476
43	0x3e79527a	0.24347869
44	0xbf081c81	-0.53168494
45	0xbe6a271b	-0.2286648
46	0xbe0878fc	-0.13327402
47	0x3d125783	0.03572799
48	0x3ee83ed4	0.45360434
49	0xbdf50ccc	-0.119653314
50	0xbdcc034d	-0.09961567
51	0xbcc3966d	-0.02387544
52	0xbdbb9bb1	-0.09160555
53	0xbef99022	-0.48742777
54	0xbe917643	-0.2841054
55	0xbea30adf	-0.3184423
56	0xbf311a6a	-0.6918093
57	0xbee53cd4	-0.4477297
58	0x3e5c162b	0.21492831
59	0xbdee0bb1	-0.11623324
60	0x3d882864	0.06648329
61	0xbc846457	-0.016161127
62	0xbe2d6728	-0.16933882
63	0x3eab6562	0.33475786
64	0x3f263808	0.64929247
65	0x3e622512	0.22084454
66	0xbe456816	-0.19277987
67	0x3d29d6f7	0.041464772
68	0x3e7998ad	0.24374647
69	0xbeb7872c	-0.35845315
70	0xbdc0f154	-0.0942103
71	0xbea80606	-0.32817096
72	0xbd2fa3b7	-0.04288074
73	0x3e347c0c	0.17625445
74	0x3e7d1c63	0.2471786
75	0x3e2ce1f5	0.16883071
76	0x3e6cfc58	0.23143137
77	0xbee46acc	-0.4461273
78	0x3d8db867	0.069199376
79	0x3ef13ad1	0.47115186
80	0xbe0d9f95	-0.13830407
81	0xbf1fd167	-0.624289
82	0xbed625a1	-0.41825584
83	0xbe57da93	-0.21079473
84	0xbe714a35	-0.23563464
85	0xbc915990	-0.017742902
86	0xbe7ea4f7	-0.24867617
87	0x3e1d3d50	0.1535542
88	0xbe71b0cb	-0.23602597
89	0xbe96da36	-0.29463357
90	0xbb3f0453	-0.0029146865
91	0xbe12d6e0	-0.14339781
92	0xbdc78e51	-0.097439416
93	0xbdcc8641	-0.099865444
94	0xbed5491c	-0.4165734
95	0xbe1fbaab	-0.15598552
96	0xbe653cb2	-0.22386435
97	0x3ebc0e86	0.3672983
98	0xbe8f0e0e	-0.2794041
99	0xbf3a8350	-0.72856617
100	0x3e5d234b	0.21595494
101	0xbc36bd45	-0.011153524
102	0xbf566d54	-0.8376057
103	0x3e779de1	0.2418132
104	0xbe8fc76d	-0.28081837
105	0xbe279470	-0.16365218
106	0xbf149b37	-0.5804934
107	0x3e7e9b3b	0.24863903
108	0xbd8e687b	-0.06953522
109	0x3ec312b0	0.38100195
110	0xbee8420b	-0.45362887
111	0x3e6bd4a7	0.23030339
112	0x3e661b5d	0.22471376
113	0x3e469f45	0.19396694
114	0xbd7a7f04	-0.061156288
115	0x3e5bcb4e	0.21464273
116	0x3ea6f1bd	0.32606307
117	0xbe3f847c	-0.18702883
118	0x3f5129a5	0.8170417
119	0xbee314dc	-0.44351852
120	0xbf6a9887	-0.9163899
121	0xbf31fb8b	-0.6952445
122	0xbe819773	-0.2531086
123	0x3f0135bb	0.5047261
124	0xbead3a59	-0.33833578
125	0xbeef5e8b	-0.46751818
126	0xbef400f6	-0.47656983
127	0xbf2a3b1f	-0.6649646
128	0xbdef0d18	-0.11672419
129	0xbe6dcdad	-0.2322299
130	0xbee0db36	-0.43917245
131	0xbe02013e	-0.12695786
132	0xbf194fe1	-0.5988751
133	0xbf2ceae1	-0.67545897
134	0xbf0f13ad	-0.558894
135	0xbe3b3864	-0.1828323
136	0xbe91cf39	-0.2847841
137	0x3d44fdc0	0.048093557
138	0xbec256d0	-0.37956858
139	0xbeb1abf5	-0.34701505
140	0xbc931b88	-0.017957464
141	0xbf7babc8	-0.9830899
142	0xbf4afada	-0.7928902
143	0xbf08de50	-0.5346422
144	0xbf2f9460	-0.6858578
145	0xbeb5bd6f	-0.3549609
146	0xbea0712d	-0.31336346
147	0xbd3273bf	-0.043567415
148	0xbdbab42a	-0.09116395
149	0xbef78677	-0.48344776
150	0xbe8431cd	-0.25819245
151	0xbecfc66c	-0.4058107
152	0xbd067393	-0.032825064
153	0x3cc923c5	0.024553189
154	0xbe26b178	-0.16278636
155	0x3e52d238	0.20588005
156	0xbed2d42e	-0.41177505
157	0xbe6061be	-0.21912286
158	0x3f02f45f	0.5115413
159	0xbf5b6d2a	-0.85713446

model.bigrill.fwd_rnn.cells.0.forget_gate.mlp.weight f4 [32, 170, 1, 1]
0	0x3b5e71c5	0.0033942324
1	0x3d484d7a	0.048902012
2	0xbe1a06fb	-0.15041725
3	0x3e12530e	0.14289495
4	0x3d1e0425	0.03857817
5	0xbd9d59e1	-0.07683159
6	0xbd9de381	-0.077094086
7	0x3dbb00e4	0.09131029
8	0xbd54d731	-0.051963035
9	0x3e17a7f9	0.1481017
10	0x3dd3e3e0	0.10346198
11	0x3dea12e7	0.114293866
12	0xbdac4d66	-0.084132
13	0x3dbf4e45	0.093411006
14	0xbe003628	-0.12520659
15	0x3c58de3b	0.013236578
16	0x3e3342cb	0.17505948
17	0xbbcd1bd6	-0.006259422
18	0xbca1db89	-0.019758003
19	0x3e04f567	0.12984239
20	0xbdb0de8a	-0.08636196
21	0x3c6f71ba	0.014614517
22	0x3d340f5c	0.04395996
23	0x3e0f6ec2	0.14007095
24	0xbdea853e	-0.11451195
25	0xbad2c0c6	-0.001607918
26	0xbd333721	-0.043753747
27	0x3db4c874	0.08827296
28	0x3d57dc54	0.052700356
29	0xbdc921eb	-0.098209225
30	0x3dc1012a	0.0942405
31	0x3dcc9b09	0.09990508
32	0xbd12067e	-0.035650723
33	0x3d4cd1e6	0.050004862
34	0x3a8973d8	0.0010486795
35	0x3c910081	0.017700436
36	0xbad7a8a8	-0.0016453462
37	0x3e00edaf	0.12590669
38	0x3c176658	0.009240709
39	0xbd546033	-0.051849555
40	0x3d69b746	0.05705955
41	0x3d8ac522	0.06775881
42	0xbc9b4985	-0.018955955
43	0x3dc5ee37	0.096645765
44	0x3e22bdc0	0.15892696
45	0x3e11608c	0.14196986
46	0xbe21a0e0	-0.15784025
47	0x3dc102ce	0.09424363
48	0xba8d0ff3	-0.00107622
49	0xbcbecf22	-0.023292128
50	0x3ccc135b	0.024911573
51	0xbe030bb9	-0.1279744
52	0xbdb9c98a	-0.09071644
53	0x3dcdb41b	0.10044118
54	0xbd8bf66b	-0.0683411
55	0x3da93849	0.08262689
56	0x3e01c07a	0.1267108
57	0x3d7b703a	0.061386324
58	0xbdd28e82	-0.102810875
59	0xbcc5d929	-0.024151402
60	0xbdce7084	-0.100800544
61	0x3e3c73e4	0.18403584
62	0x3db83060	0.08993602
63	0xbe1ba208	-0.15198529
64	0x3df133aa	0.11777432
65	0x3d0cbc1d	0.034359086
66	0x3c381e5f	0.01123771
67	0xbd745c95	-0.059658606
68	0xbd113a4b	-0.035455983
69	0x3d024e48	0.031812936
70	0xbd33c75e	-0.043891303
71	0x3ddbf607	0.10740285
72	0x3bfe6662	0.00776367
73	0xbd15484f	-0.036445912
74	0x3c5291c1	0.012852133
75	0x3cb70a7a	0.022343863
76	0xbd4ccfab	-0.050002735
77	0x3d863f54	0.06555048
78	0x3df0f119	0.11764736
79	0x3d5024c0	0.050816298
80	0xbe165be4	-0.14683491
81	0xbaf6f1ca	-0.0018840369
82	0xbc81ad57	-0.015829725
83	0xbdc061e4	-0.09393671
84	0x3bf36c80	0.0074287057
85	0xbe6221f1	-0.2208326
86	0xbb53bde9	-0.003230924
87	0x3d94893c	0.07252738
88	0xbd62e473	-0.055393647
89	0x3c319051	0.01083763
90	0x3d09ccdb	0.03364263
91	0xbc40008e	-0.011718882
92	0x3d1fa7f7	0.038978543
93	0xbdbabbc5	-0.091178454
94	0xbe8d44fa	-0.27591687
95	0x3e0537d6	0.13009581
96	0x3d2949fd	0.041330326
97	0xbdbec76a	-0.09315379
98	0x3c8296b3	0.015941
99	0xbe13a0f0	-0.14416862
100	0xba409d0c	-0.00073476206
101	0xbc4af949	-0.012388536
102	0xbd680c17	-0.056652155
103	0x3e47dbb8	0.1951741
104	0xbd318e4b	-0.04334859
105	0x3e8d1d0a	0.27561218
106	0x3b0396be	0.0020078863
107	0x3cc6e611	0.024279626
108	0xbdfb66e3	-0.122754835
109	0x3dac1e0e	0.0840417
110	0xbc4a7460	-0.0123568475
111	0x3e163591	0.14668871
112	0x3dda9bac	0.10674223
113	0x3e3ef2fa	0.18647376
114	0xbddbfc07	-0.1074143
115	0x3dbdfa07	0.092762046
116	0xbce96634	-0.028491117
117	0x3d076c4f	0.033062275
118	0x3de943a0	0.113898516
119	0xbdf6249f	-0.12018704
120	0xbdc6a4e8	-0.09699422
121	0xbc1f8318	-0.009735845
122	0x3d2ad37c	0.041705593
123	0x3dea2a46	0.11433844
124	0x3c0a994d	0.008459401
125	0x3dacc900	0.08436775
126	0xbd4b626f	-0.04965442
127	0x3dcec790	0.10096657
128	0xbe5e0a76	-0.21683678
129	0x3d936713	0.07197394
130	0x3c286de5	0.010280107
131	0xbcd96b69	-0.026540475
132	0x3dabf2e6	0.083959386
133	0xbe112429	-0.1417395
134	0xbd95dc22	-0.073173776
135	0xbc62f40c	-0.013852131
136	0xbdc34c8c	-0.095360845
137	0x3e2582c9	0.16163172
138	0x3d2e0d48	0.042493135
139	0x3e47b2e7	0.1950184
140	0xbb4d927c	-0.003136783
141	0x3d739092	0.059464045
142	0xbdfb2cfb	-0.12264439
143	0x3ddd9dcb	0.10821112
144	0xbdc8e5b9	-0.09809441
145	0x3d848359	0.06470365
146	0x3e3dbe88	0.18529713
147	0x3e4570bd	0.19281287
148	0xbdb888d9	-0.090104766
149	0x3d394679	0.045233224
150	0x3cfc3e5c	0.030791454
151	0x3dcbcae5	0.099508084
152	0x3e508cb0	0.20366168
153	0xbe84c7ea	-0.25933772
154	0xbdc3aec7	-0.095548205
155	0xbda612c3	-0.08109047
156	0xbd59852d	-0.053105522
157	0x3c689f95	0.014198204
158	0x3e066f67	0.13128434
159	0x3d2275b3	0.039663028
160	0xbd699cd6	-0.057034336
161	0x3ca279dc	0.019833498
162	0xbe5b87b2	-0.21438482
163	0x3c340e0a	0.010989675
164	0x3c858f96	0.016303819
165	0xbd0496ac	-0.032370254
166	0x3d187548	0.037221223
167	0xbd27fcb9	-0.0410125
168	0x3d440187	0.04785302
169	0x3c3ef629	0.011655369
170	0x3d463055	0.048385937
171	0x3c9ca3c9	0.019121068
172	0xbdaf39be	-0.08555935
173	0x3d557a86	0.0521188
174	0xbd943425	-0.07236508
175	0x3d2768d8	0.04087147
176	0xbe2a2a8f	-0.16617797
177	0x3d864256	0.06555621
178	0xbca68739	-0.020328151
179	0x3cc9f06c	0.024650775
180	0x3d428bd2	0.047496624
181	0x3c89c9a3	0.01681978
182	0xbd8e685f	-0.06953501
183	0x3dbee28a	0.09320553
184	0x3c560235	0.01306205
185	0x3cde3429	0.027124481
186	0xbdbe9532	-0.093058005
187	0x3c290959	0.01031717
188	0xbcb2ef25	-0.021842549
189	0x3db9b9f4	0.09068671
190	0xbc595095	-0.013263841
191	0x3d9897db	0.07450839
192	0x3dfbce42	0.122952
193	0xbba53e47	-0.0050428244
194	0x3c3bfc54	0.011473734
195	0xbdde6ecc	-0.108609766
196	0x3df1d0e4	0.11807421
197	0xbd139c99	-0.036038015
198	0x39f95194	0.0004755376
199	0x3d14a894	0.03629358
200	0x3d7e394d	0.062066365
201	0x3d30292e	0.043008022
202	0xbd2757ad	-0.0408551
203	0xbd51b067	-0.05119362
204	0x3e069bc4	0.13145357
205	0x3e2d26a4	0.16909271
206	0x3ca880a5	0.020569155
207	0x3dc715a8	0.097209275
208	0x3bf54327	0.007484812
209	0x3c70d1ca	0.014698455
210	0x3c161410	0.009160057
211	0x3d870ad4	0.06593862
212	0xbdaea558	-0.085276306
213	0x3df6bbec	0.12047562
214	0x3dda1d24	0.106500894
215	0x3da3dc3b	0.0800099
216	0xbd8161b7	-0.06317466
217	0x3db03fa9	0.08605892
218	0xbcf7c568	-0.030245498
219	0xbc07f307	-0.008297688
220	0xbc8c66d5	-0.017138878
221	0x3b608819	0.0034260808
222	0xbdbc252d	-0.09186778
223	0x3dac1c68	0.084038556
224	0xbe07b4e1	-0.13252594
225	0x3db144ab	0.086556755
226	0x3e12758c	0.14302653
227	0x3da8b8cf	0.082383744
228	0xbc9ea0ea	-0.01936384
229	0xbe3115cf	-0.17293476
230	0x3c81a53b	0.015825858
231	0x3d507ffa	0.050903298
232	0x3dda518d	0.10660086
233	0xbd97999c	-0.074023455
234	0x3de353e6	0.11099987
235	0x3d24a08a	0.040192164
236	0x3c74e381	0.014946819
237	0xbda1ca39	-0.07899899
238	0x3e2f8a51	0.17142607
239	0xbc5f711a	-0.013637805
240	0x3c438eb1	0.011935876
241	0x3dadc4b5	0.084847845
242	0xbdd7056a	-0.104990795
243	0x3bdeb84c	0.0067968722
244	0xbd56caba	-0.05243943
245	0x3d4a256b	0.04935209
246	0xbdd4d298	-0.1039173
247	0x3da983a6	0.08277063
248	0xbd062d99	-0.03275833
249	0x3dae2507	0.08503156
250	0x3bc54dbe	0.0060212305
251	0xbd43add5	-0.0477732
252	0xbd7fe4e6	-0.062474154
253	0xbc582dea	-0.0131945405
254	0xbe078f1c	-0.13238186
255	0x3ca22f45	0.01979793

model.bigrill.fwd_rnn.cells.0.forget_gate.mlp.bias f4 [32]
0	0x3e1eec93	0.15519933
1	0xbd6bf3e6	-0.057605647
2	0x3e00e2b6	0.12586483
3	0x3bc7edaf	0.006101332
4	0x3cbd439b	0.023103526
5	0xbe83de07	-0.2575533
6	0x3e18a1da	0.14905491
7	0x3df693ec	0.120399326
8	0x3d8ac411	0.06775678
9	0x3e24099d	0.16019292
10	0xbe04bd78	-0.12962902
11	0x3dbf7e43	0.093502544
12	0xbdabe792	-0.08393778
13	0x3c97b2d8	0.018517897
14	0xbe04488d	-0.12918301
15	0xbe151cee	-0.14561817
16	0x3d93ce3f	0.07217073
17	0xbe11f9f6	-0.14255509
18	0xbcb45a88	-0.022015825
19	0x3da3f8fa	0.08006473
20	0x3debb66e	0.11509405
21	0xbe7da8a2	-0.2477136
22	0xbdb311f1	-0.087436564
23	0x3ddf3eeb	0.109006725
24	0xbe0a0253	-0.13477449
25	0xbd96bdad	-0.073603965
26	0xbd97e2fb	-0.0741634
27	0xbd4efd66	-0.05053463
28	0xbe0ceeaf	-0.13762926
29	0xbd8ef825	-0.069809236
30	0x3df29cac	0.11846289
31	0x3ca9e611	0.020739587

model.bigrill.fwd_rnn.cells.0.update_gate.mlp.weight f4 [32, 170, 1, 1]
0	0xbcd8b16f	-0.026451794
1	0x3e1ae24a	0.15125385
2	0x3bf0134d	0.0073265196
3	0x3c581110	0.013187662
4	0x3d7b89a2	0.061410554
5	0xbda10dd2	-0.07863964
6	0x3d76196d	0.06008284
7	0x3cf2a39d	0.029619033
8	0x3d5d36fb	0.05400751
9	0x3d398b48	0.045298845
10	0x3d45d543	0.048299085
11	0xbc2166c3	-0.00985116
12	0x3d49590a	0.04915718
13	0xbde1ba84	-0.11021903
14	0xbda1d70c	-0.07902345
15	0xbe3db83c	-0.18527311
16	0x3d7910d4	0.060807064
17	0x3cf0b4b2	0.029383037
18	0x3d32d6fe	0.043662064
19	0xbdbda663	-0.092602514
20	0xbd3dc122	-0.046326764
21	0x3d7fc270	0.06244129
22	0xbe5a096c	-0.21292657
23	0x3da1a6c2	0.07893135
24	0x3d271f09	0.04080108
25	0xbe031feb	-0.12805144
26	0xbcf9b464	-0.030481525
27	0x3dbf6a0b	0.09346398
28	0x3c813940	0.01577437
29	0x3db93147	0.09042602
30	0xbd326782	-0.043555744
31	0xbcdc2dcc	-0.026877306
32	0x3dba2054	0.09088197
33	0xbd911660	-0.07084346
34	0xbdb5a18d	-0.08868704
35	0xbd9e4bcf	-0.07729303
36	0x3e568f6c	0.20953149
37	0x3d00635f	0.031344768
38	0x3c6895f1	0.014195905
39	0xbd0a9b9c	-0.033839807
40	0xbd6987a5	-0.057014126
41	0xbd0f6180	-0.035005093
42	0xbd46c673	-0.0485291
43	0xbdc6af9b	-0.09701463
44	0xbbc6067d	-0.006043254
45	0x3d2c5816	0.042076193
46	0x3b91bfa8	0.004447896
47	0xbe01b1a9	-0.12665428
48	0xbbfc8db0	-0.00770732
49	0xbe6fa57d	-0.23402973
50	0xbd7dd1ba	-0.06196759
51	0xbd85d75e	-0.06535219
52	0x3e284586	0.16432771
53	0xbac5527c	-0.001505449
54	0xbdec8a6f	-0.115498416
55	0x3d8f320c	0.069919676
56	0xbdf015f5	-0.11722938
57	0xbde1f844	-0.11033681
58	0x3cf6956e	0.03010055
59	0xbe56bff5	-0.20971663
60	0xbdb807a6	-0.08985834
61	0x3da4d16b	0.08047756
62	0x3d4d147f	0.050068375
63	0xbd679f07	-0.056548145
64	0x3d8ecdd6	0.06972854
65	0xbdb70976	-0.089373514
66	0x3deba187	0.11505418
67	0xbdcd7dca	-0.10033758
68	0xbe29dbe9	-0.16587795
69	0xbdf29217	-0.11844271
70	0x3e0d46a7	0.13796483
71	0xbcb5f652	-0.022212181
72	0x3d9dc36d	0.0770329
73	0xbd0a44d8	-0.03375706
74	0x3c813f44	0.015777238
75	0xbcd64cf6	-0.026159745
76	0x3de74698	0.112927616
77	0xbdc4f98b	-0.09617909
78	0xbd27d087	-0.04097035
79	0xbcfc60c9	-0.03080787
80	0xbdb2253d	-0.08698509
81	0xbe79267d	-0.24331088
82	0x3ce9c6d3	0.02853719
83	0xbe7d57b8	-0.24740493
84	0x3bd53950	0.0065070763
85	0xbd25b30d	-0.04045396
86	0x3e44a488	0.19203389
87	0xbc8aeaae	-0.016957607
88	0xbda99fd6	-0.082824394
89	0x3cf5adfc	0.029990189
90	0xbe49c79f	-0.19705056
91	0x3d88fbbb	0.06688639
92	0xbabf7ba1	-0.0014608988
93	0xbe3163cb	-0.17323224
94	0xbda1b549	-0.078959055
95	0x3d6cadad	0.057782818
96	0x3da8fe2d	0.08251605
97	0x3beb43b9	0.007179704
98	0x3de93251	0.1138655
99	0xbe00b177	-0.12567697
100	0x3d58bc99	0.052914236
101	0xbd7ac061	-0.061218623
102	0xbddba1a8	-0.10724193
103	0x3d74085e	0.059578292
104	0x3ca012e8	0.019540265
105	0xbe19a300	-0.15003586
106	0xbc1eea56	-0.009699425
107	0x3cb583d5	0.022157589
108	0x3c8b5a4d	0.017010832
109	0xbda877f7	-0.082260065
110	0xbbd5126d	-0.0065024407
111	0xbd137449	-0.03599957
112	0xbda2a998	-0.07942504
113	0xbdb4c1d6	-0.08826034
114	0xbb3d02a2	-0.002884068
115	0xbdbe392e	-0.0928825
116	0x3c46a8f8	0.012125246
117	0xbe17aff1	-0.1481321
118	0xbd8237fc	-0.063583344
119	0x3dd179d8	0.10228318
120	0x3e7eb81c	0.2487492
121	0x3cc967c0	0.024585605
122	0xbcf7a5b7	-0.030230386
123	0xbd2e27f2	-0.042518564
124	0xbdf1d9b5	-0.118091024
125	0xbdd57754	-0.10423151
126	0x3db02fbe	0.08602856
127	0xbe53a891	-0.20669772
128	0x3cfacdfc	0.0306158
129	0xbd906f97	-0.07052534
130	0xbd9056a1	-0.07047773
131	0x3dd0feda	0.10204859
132	0xbd3eb0ce	-0.046555333
133	0x3e17636f	0.14784025
134	0x3ea3f303	0.3202134
135	0x3db3c083	0.08776953
136	0xbd9964b1	-0.074899085
137	0xbd18262f	-0.03714579
138	0x3c95c629	0.018282967
139	0xbd698408	-0.05701068
140	0xbd6c4bff	-0.057689663
141	0x3d12bf25	0.03582682
142	0x3d818711	0.0632459
143	0xbdda74a9	-0.106667824
144	0x3e06bf44	0.131589
145	0xbe4bbde0	-0.1989665
146	0x3c859be8	0.016309693
147	0xbd80e68a	-0.06293972
148	0x3d97a529	0.07404549
149	0xbdb2bdfd	-0.08727644
150	0x3d8ff097	0.07028311
151	0xbe65bf0d	-0.22436161
152	0xbda1b53c	-0.07895896
153	0x3e182459	0.14857616
154	0x3e0e49b1	0.13895299
155	0xbdaed1a1	-0.08536077
156	0xbbe9b181	-0.007131756
157	0xbe50386f	-0.20334028
158	0xbd516671	-0.051123086
159	0xbdf61ba6	-0.12016992
160	0x3d7ad1f6	0.06123539
161	0xbd4cdbfd	-0.050014485
162	0x3c8fd0b9	0.017555581
163	0xbe0a8908	-0.13528836
164	0xbe18aa9e	-0.14908835
165	0x3d286318	0.04111013
166	0xbd29a74f	-0.041419324
167	0x3d708560	0.058720946
168	0x3e351954	0.17685443
169	0x3d525a53	0.05135567
170	0xbe06d7e9	-0.131683
171	0x3eb045f4	0.3442837
172	0xbca4b221	-0.02010447
173	0xbe9e7ac6	-0.30953044
174	0xbeb0f023	-0.3455821
175	0x3e42071c	0.18948025
176	0xbb8af0a5	-0.004240113
177	0xbe98b98e	-0.29829067
178	0x3e388b3f	0.18021868
179	0xbc8ea226	-0.017411303
180	0xbe0823d1	-0.13294913
181	0xbcb1da69	-0.021710591
182	0x3e47f959	0.19528712
183	0x3e952cfc	0.29135883
184	0x3e8277c7	0.25482008
185	0x3de121bd	0.10992763
186	0xbeb9f0d8	-0.36316562
187	0x3eb10319	0.34572676
188	0xbe62efd4	-0.221618
189	0xbe234aea	-0.15946546
190	0x3e4f29fe	0.20230862
191	0xbd0898a3	-0.03334869
192	0x3e3e3b86	0.18577394
193	0xbd901037	-0.07034343
194	0xbda43798	-0.08018416
195	0x3e207ba2	0.15672162
196	0x3e880c6e	0.26571983
197	0xbe2587fb	-0.16165154
198	0xbe31aa27	-0.17350064
199	0xbe75b29b	-0.23993914
200	0xbe0742a7	-0.1320902
201	0x3e6eb93d	0.2331285
202	0x3ce4cf25	0.027930805
203	0x3e2914f6	0.16511902
204	0xbbc42137	-0.005985405
205	0x3e78d104	0.24298483
206	0xbda04e4a	-0.078274325
207	0x3d44988d	0.047997046
208	0xbcf258a6	-0.029583286
209	0x3e958640	0.29203987
210	0x3e00b6a6	0.12569675
211	0x3ca5af1a	0.020225096
212	0xbe8fba5f	-0.28071877
213	0x3e804f9e	0.25060743
214	0xbe14d429	-0.14534058
215	0x3e9c2a0c	0.3050083
216	0x3d6970fc	0.056992516
217	0x3dedd3f8	0.116126955
218	0x3e668d43	0.22514825
219	0x3cff35f9	0.031153666
220	0x3caf560c	0.021403335
221	0x3df3965e	0.11893915
222	0xbdf962a0	-0.12177014
223	0xbb3d9db9	-0.0028933121
224	0x3e0f0266	0.13965759
225	0x3d98cc7d	0.07460878
226	0x3e6501cf	0.22363971
227	0x3d9ee959	0.07759351
228	0x3d575a1a	0.052576162
229	0x3bf76938	0.007550385
230	0x3e226d6f	0.15862058
231	0xbd0c4a60	-0.034250617
232	0x3e294923	0.16531806
233	0x3c9e68c9	0.019337075
234	0xbd565b76	-0.052333318
235	0x3da57023	0.08078029
236	0xbe09a84b	-0.13443105
237	0x3e414edb	0.18877737
238	0xbcf1eafd	-0.029530996
239	0x3e64b653	0.22335176
240	0xbe511c67	-0.20420991
241	0x3d93cc6d	0.072167255
242	0xbe988346	-0.29787654
243	0xbd48d3c8	-0.049030095
244	0x3e64ed96	0.22356257
245	0x3dc8c7ef	0.09803759
246	0xbe41ac81	-0.18913461
247	0x3ee51d6e	0.44749016
248	0x3e503522	0.20332769
249	0x3e8ec49f	0.27884385
250	0xbcb993f2	-0.022653554
251	0x3d602a57	0.05472788
252	0x3e259487	0.1616994
253	0x3e043920	0.12912416
254	0xbe8cb141	-0.27478984
255	0xbc7c0a30	-0.015383288

model.bigrill.fwd_rnn.cells.0.update_gate.mlp.bias f4 [32]
0	0xbe005a7a	-0.12534514
1	0x3e075126	0.1321455
2	0x3d63b0cf	0.05558854
3	0x3c085c73	0.008322823
4	0xbd64fa87	-0.055902984
5	0xbd40420e	-0.046937995
6	0xbd9ed42a	-0.07755311
7	0xbd03112c	-0.0319988
8	0x3e23e535	0.16005404
9	0xbd91778e	-0.07102881
10	0xbcbe33fe	-0.023218151
11	0xbdb0e9d6	-0.08638351
12	0x3e20bcd2	0.15697029
13	0xbdeee7ee	-0.11665331
14	0x3e238508	0.15968716
15	0x3e7376b2	0.23775747
16	0xbcbe9ea9	-0.023269014
17	0x3d29ab35	0.04142304
18	0x3e01a7a4	0.12661606
19	0xbe96430b	-0.29348025
20	0x399bdff5	0.00029730765
21	0x3d22d9b6	0.039758407
22	0x3e323a7f	0.17405127
23	0xbde13137	-0.10995715
24	0x3eab66c9	0.33476856
25	0xbcc11290	-0.023568422
26	0x3debda1a	0.11516209
27	0x3d8d245e	0.06891702
28	0x3dc30b13	0.095235966
29	0x3e89c3d3	0.26907215
30	0xbd95e748	-0.07319504
31	0xbdc9ba42	-0.09849979

model.bigrill.fwd_rnn.cells.0.c_gate.mlp.weight f4 [32, 170, 1, 1]
0	0xbb165f7c	-0.0022945097
1	0xbead7f02	-0.33885962
2	0xbe299e4c	-0.16564292
3	0xbd3ac7b3	-0.045600604
4	0xbd85218a	-0.06500538
5	0x3dff1bcc	0.12456474
6	0x3e074c61	0.1321273
7	0xbeab170c	-0.3341602
8	0xbe9ef63a	-0.3104723
9	0xbdbd097e	-0.09230326
10	0xbe01f0dc	-0.12689537
11	0x3e43bb73	0.19114475
12	0x3e1825d3	0.14858179
13	0x3d037585	0.032094497
14	0x3e80aa63	0.25129995
15	0x3e2b4b9d	0.16728063
16	0xbd82f6dd	-0.06394742
17	0x3e5a04f4	0.21290952
18	0xbe7ca138	-0.24670875
19	0xbe509122	-0.20367864
20	0x3dbcac99	0.09212608
21	0x3e29f0d8	0.16595781
22	0x3ddd1af1	0.10796154
23	0xbdee20d1	-0.11627353
24	0x3d316908	0.043313056
25	0x3e88ecf6	0.26743287
26	0x3e0813af	0.13288759
27	0xbe07a2af	-0.13245653
28	0xbea8ce98	-0.3297012
29	0x3d34f883	0.04418231
30	0xbeb4fedc	-0.35350692
31	0x3de3968a	0.111126974
32	0xbddd8e3e	-0.10818146
33	0x3e1b552b	0.15169208
34	0xbca1fc8b	-0.019773742
35	0xbe523523	-0.20528083
36	0xbe012a88	-0.1261388
37	0x3d3961d7	0.045259323
38	0x3d21d347	0.03950813
39	0x3c0ceca9	0.008601346
40	0xbe6fb04b	-0.23407094
41	0x3cea8288	0.028626695
42	0xbe855d95	-0.2604796
43	0x3d030f27	0.031996872
44	0x3cf0ace4	0.029379316
45	0x3dcebe5e	0.100949034
46	0x3a40f3cc	0.00073605473
47	0x3c282680	0.010263085
48	0x3d8387b2	0.06422366
49	0xbd2864ff	-0.041111942
50	0xbce078c0	-0.027401328
51	0xbd940a57	-0.07228535
52	0xbb08acae	-0.0020854878
53	0xbd0f309b	-0.034958463
54	0xbd6d4cbe	-0.057934515
55	0x3e1ae747	0.15127288
56	0x3d9ef687	0.07761865
57	0xbcf8e7b5	-0.030383924
58	0x3d6af7d5	0.057365257
59	0xbcbc76d2	-0.023005877
60	0xbe1c15a8	-0.15242636
61	0x3cd11bdb	0.025525978
62	0xbd387d2e	-0.045041256
63	0x3d66a165	0.05630626
64	0x3d954a11	0.07289518
65	0xbe801786	-0.25017947
66	0xbbbf963d	-0.005846767
67	0xbdab6c7a	-0.083703
68	0xbcb1190c	-0.021618389
69	0xbe206374	-0.15662938
70	0xbe9b7baa	-0.30367786
71	0xbdacb791	-0.0843345
72	0xbd991aef	-0.0747584
73	0x3d429c67	0.04751244
74	0x3cc1d677	0.023661835
75	0xbd818aa1	-0.063252695
76	0xbddfa665	-0.10920409
77	0x3c77ef3d	0.015132722
78	0xbd8305f3	-0.06397619
79	0xbd732be6	-0.059368037
80	0xbdf97915	-0.12181298
81	0x3d564616	0.052312933
82	0xbd9d28f0	-0.07673824
83	0xbde45213	-0.11148467
84	0x3e4b0a00	0.19828033
85	0x3d49d83e	0.04927849
86	0xbd0a44a2	-0.03375686
87	0xbd338ecc	-0.043837354
88	0xbd24ab1b	-0.04020224
89	0x3d6ad726	0.057334088
90	0xbcbeeb4a	-0.023305554
91	0xbca32585	-0.019915352
92	0xbcf42556	-0.02980296
93	0x3c95c896	0.018284123
94	0x3d94c74b	0.072645746
95	0x3d549bc7	0.051906373
96	0xbdd7678f	-0.10517799
97	0x3e01c59a	0.12673035
98	0x3d212560	0.039342284
99	0x3e151791	0.14559771
100	0xbe244fdd	-0.1604609
101	0x3dc4262e	0.09577595
102	0xbd0f2afd	-0.034953106
103	0xbe12a644	-0.14321238
104	0x3cf62f0b	0.030051729
105	0xbc598dc4	-0.013278428
106	0xbd2863ea	-0.04111091
107	0xbd3c3068	-0.0459446
108	0xbcc9ecd7	-0.024649067
109	0x3d86f753	0.06590142
110	0xbdbac77e	-0.09120081
111	0xbd9a97a7	-0.07548457
112	0xbb4d298c	-0.0031305281
113	0xbd7add02	-0.061245926
114	0xbbd2d43c	-0.0064339917
115	0xbd905078	-0.07046598
116	0x3daece92	0.08535494
117	0x3d63dad3	0.05562861
118	0x3b3b0cb7	0.0028541514
119	0xbe186441	-0.14881994
120	0xbd015b34	-0.03158112
121	0xbbe7ee36	-0.0070779575
122	0xbd53bd97	-0.05169448
123	0x3ddb9a4c	0.10722789
124	0x3bb272b8	0.0054458044
125	0x3b4980fd	0.003074705
126	0x3d0aad31	0.033856574
127	0xbd54d8ab	-0.051964443
128	0x3d2c4239	0.042055342
129	0x3da70649	0.08155496
130	0xbc18133a	-0.009281928
131	0xbca3eac8	-0.020009413
132	0x3dcce3c9	0.10004384
133	0x3e4f573d	0.20248123
134	0xbd7e8c9a	-0.062145807
135	0xbd850db1	-0.06496752
136	0x3c3dcd34	0.011584569
137	0xbe4ef5da	-0.20210972
138	0x3d80410c	0.06262407
139	0x3e2323ac	0.15931576
140	0x3d37e343	0.044894468
141	0x3d42242c	0.047397777
142	0xbd5eedd3	-0.054426026
143	0xbe350545	-0.17677791
144	0xbe4c821a	-0.19971505
145	0xbd5e2a00	-0.054239273
146	0x3e74b091	0.2389548
147	0x3d8cd5f7	0.06876748
148	0x3d49f0ac	0.04930179
149	0x3d1df58e	0.038564257
150	0x3cf7df9f	0.030257998
151	0xbd978cea	-0.07399924
152	0x3da029ff	0.0782051
153	0xbe43533f	-0.19074725
154	0xbc9c3cd4	-0.019071974
155	0x3d833794	0.06407085
156	0xbd6f7a4f	-0.058466252
157	0xbe1bc673	-0.15212421
158	0x3d531fba	0.05154393
159	0xbc9c4141	-0.019074084
160	0x3dc73ec4	0.097287685
161	0xbc231fcd	-0.009956312
162	0xbe24721d	-0.16059156
163	0xbe48ea9d	-0.19620748
164	0xbdbac341	-0.09119273
165	0x3ddd68ca	0.108110026
166	0x3e39409d	0.18091054
167	0xbe88eb14	-0.2674185
168	0xbe08a736	-0.13345036
169	0x3cd635e7	0.02614875
170	0x3d1410e0	0.036148906
171	0xbd326e88	-0.043562442
172	0x3dafe184	0.085879356
173	0xbe09e243	-0.13465218
174	0x3dedfcc4	0.11620477
175	0x3d98b0d6	0.07455604
176	0x3dfb05ba	0.12256952
177	0x3d58e2b7	0.052950587
178	0x3d9ee232	0.07757987
179	0xbdb5f363	-0.08884313
180	0x3e39bb47	0.18137847
181	0xbe059e8e	-0.13048765
182	0xbda5d7c6	-0.08097796
183	0xbd9a2eef	-0.07528483
184	0xbcb20001	-0.021728517
185	0xbe403442	-0.18769935
186	0x3de7391f	0.11290192
187	0x3dc0eba2	0.094199434
188	0x3e7be227	0.24597989
189	0xbd59293c	-0.05301784
190	0xbe531b2e	-0.20615837
191	0xbdc835a1	-0.09775854
192	0xbe3bd7fa	-0.18344107
193	0xbd876c3a	-0.066124395
194	0x3e12594c	0.14291877
195	0xbd1fd3c1	-0.039020304
196	0xbe12ee7e	-0.1434879
197	0x3d02027d	0.031740654
198	0xbd089bc9	-0.033351693
199	0x3e0777d8	0.1322931
200	0xbcaaf9f2	-0.020871136
201	0xbe45774d	-0.19283791
202	0x3e084c32	0.13310316
203	0xbda98e01	-0.08279038
204	0x3ba9d2b8	0.0051825903
205	0xbd7928c5	-0.060829896
206	0x3e6e35c7	0.23262702
207	0xbdd2b568	-0.10288507
208	0xbc47c458	-0.012192808
209	0x3d813d6a	0.06310542
210	0x3d9aacce	0.07552491
211	0xbda1070b	-0.078626715
212	0x3df29d4c	0.11846408
213	0xbdfde1a2	-0.12396552
214	0xbe573d74	-0.21019536
215	0xbc4555db	-0.012044395
216	0xbcff8097	-0.031189246
217	0xbe1454dc	-0.14485496
218	0x3c0c5ca7	0.008567012
219	0x3b82a81a	0.0039873244
220	0x3d2850d3	0.041092705
221	0x3c47d89d	0.012197641
222	0x3de4c257	0.1116988
223	0x3a0e11f2	0.0005419544
224	0x3cfea0a9	0.031082468
225	0x3d2fee8e	0.042952113
226	0xbdcbefc3	-0.0995784
227	0xbdc723ca	-0.09723623
228	0xbc96fa89	-0.018430011
229	0xbdeab22c	-0.11459765
230	0x3cc5b229	0.024132805
231	0xbd6b3c6e	-0.057430677
232	0xbe01833a	-0.12647715
233	0x3dcc5c53	0.09978547
234	0xb949aebd	-0.00019233949
235	0x3df3a05d	0.11895821
236	0x3d8e3368	0.06943399
237	0xbd58d913	-0.052941393
238	0xb7a4bba9	-1.963771e-05
239	0xbcfbd64b	-0.030741831
240	0x3ea39bfc	0.31954944
241	0x3c51fd40	0.012816727
242	0xbdad6181	-0.08465863
243	0xbd094710	-0.033515036
244	0xbd4d0c03	-0.050060283
245	0x3d0cfd87	0.03442147
246	0xbcf4d075	-0.029884556
247	0xbdeeefcc	-0.116668314
248	0xbdbd7b7e	-0.0925207
249	0x3dafeb22	0.0858977
250	0xbcc3a6a6	-0.023883175
251	0xbd9aebd0	-0.07564509
252	0x3d10922d	0.035295654
253	0x3c4a41eb	0.012344818
254	0x3e0c8d42	0.1372576
255	0x3d663911	0.056206767

model.bigrill.fwd_rnn.cells.0.c_gate.mlp.bias f4 [32]
0	0xbe07c05e	-0.13256976
1	0xbdc64b68	-0.09682351
2	0xbdb8f801	-0.09031678
3	0x3dfaec50	0.12252104
4	0x3dca4060	0.0987556
5	0xbd3f6ad1	-0.046732727
6	0x3e14b1ab	0.145209
7	0xbe0f06c2	-0.13967422
8	0xbd697254	-0.056993797
9	0xbd928058	-0.07153386
10	0x3e2cf884	0.16891676
11	0x3d7d5904	0.06185247
12	0x3daf05bd	0.08546016
13	0x3ba59156	0.005052726
14	0xbdf0b9f5	-0.117542185
15	0x3db04879	0.08607573
16	0xbc427eb4	-0.011871029
17	0xbe127dc4	-0.14305788
18	0x3dbb0e56	0.09133594
19	0xbe2f0d7f	-0.17094992
20	0x3da20a89	0.07912166
21	0xbd81657e	-0.06318186
22	0x3d71783c	0.058952555
23	0x3e3b0501	0.18263628
24	0x3d940da7	0.072291665
25	0xbe05b20f	-0.13056205
26	0xbe0de782	-0.13857844
27	0x3d64414e	0.055726342
28	0xbe261b3c	-0.16221327
29	0x3d181789	0.03713182
30	0xbd89d7aa	-0.06730588
31	0x3e81c7d3	0.25347766

model.bigrill.fwd_rnn.first_stage.weight f4 [1, 32, 1]
0	0xbf6d6733	-0.92735595
1	0x3e6299d3	0.22128992
2	0xbf35dd74	-0.71041036
3	0xbf84e7bb	-1.0383219
4	0xbf87af80	-1.0600433
5	0x3f679692	0.9046413
6	0xbf8d8c12	-1.1058371
7	0x3f8f0e72	1.1176283
8	0xbe9b07aa	-0.30279285
9	0x3f410b6e	0.75408065
10	0xbf676d2f	-0.90400976
11	0x3f6c716d	0.92360574
12	0xbf53c107	-0.8271641
13	0x3f87a2fc	1.0596614
14	0x3f5cfaab	0.8631999
15	0xbf1f98fc	-0.6234281
16	0xbf878680	-1.0587921
17	0x3f861b31	1.0477048
18	0x3f3ada28	0.7298913
19	0x3f877934	1.0583863
20	0x3f783260	0.96951866
21	0x3f64c001	0.89355475
22	0xbf6951cc	-0.9114044
23	0x3f6b7193	0.91970176
24	0xbf1b3ad1	-0.6063662
25	0x3f5638d0	0.8368044
26	0x3f5a8128	0.85353327
27	0xbf705589	-0.93880516
28	0x3f5a8e1d	0.853731
29	0x3d4e83a0	0.050418496
30	0xbf8bf7ba	-1.0934975
31	0x3f435a5c	0.7630975

model.bigrill.fwd_rnn.spatial_decoder.lin_in.weight f4 [32, 34, 1]
0	0x3dcec34f	0.10095846
1	0xbdf343a6	-0.11878137
2	0xbe00ff8e	-0.12597486
3	0x3e3ce9c8	0.18448555
4	0xbde245ba	-0.110484555
5	0xbe4203c9	-0.18946756
6	0x3cd47469	0.025934415
7	0x3e00300f	0.12518333
8	0xbe121a69	-0.14267887
9	0x3deeafa6	0.11654596
10	0x3d8a7a1b	0.06761571
11	0xbca4bfd4	-0.020111002
12	0xbe1a4751	-0.15066268
13	0x3d3a6abe	0.045511954
14	0xbe2c9faa	-0.16857782
15	0x3e0cbbb8	0.13743484
16	0x3e4ac0c6	0.198001
17	0xbd947ec3	-0.072507404
18	0xbe0cb141	-0.13739492
19	0x3da06756	0.0783221
20	0xbdc13bc5	-0.09435228
21	0xbcb77ce4	-0.02239842
22	0x3e43164b	0.19051473
23	0x3df6e6f9	0.12055773
24	0xbd4715d7	-0.048604812
25	0xbe115c56	-0.1419538
26	0xbd3e30a5	-0.04643311
27	0x3dfe19cd	0.12407265
28	0xbdeaa335	-0.114569105
29	0xbcd2dcc1	-0.02574003
30	0x3cf54d6f	0.02994415
31	0xbd660ee3	-0.05616654
32	0xbd1ca53a	-0.03824351
33	0xbe5b30d6	-0.21405348
34	0xbcd9bb99	-0.026578711
35	0x3dc95748	0.09831101
36	0xbc1f60c3	-0.00972766
37	0x3e86e1c2	0.26344115
38	0xbe52997e	-0.20566365
39	0xbe64e211	-0.22351862
40	0xbd512a7c	-0.051065907
41	0x3e22f62f	0.15914224
42	0x3e2f67a1	0.17129375
43	0x3e589ecb	0.21154325
44	0x3e954c63	0.2915984
45	0x3d148437	0.036258902
46	0x3dc5bba1	0.09654928
47	0x3d0741b1	0.033021633
48	0x3d86f471	0.06589592
49	0xba15adb7	-0.00057097845
50	0x3e586575	0.21132453
51	0x3e08bdda	0.13353673
52	0xbe6937b4	-0.22775155
53	0xbb628af6	-0.003456769
54	0xbcb0696d	-0.021534646
55	0x3ddac483	0.10682013
56	0x3e73b007	0.23797618
57	0x3dea9c2f	0.11455571
58	0xbddd2dd4	-0.10799757
59	0x3db0817d	0.08618448
60	0xbca79f70	-0.020461768
61	0xbdc259c6	-0.09489779
62	0x3e0df9a7	0.13864766
63	0x3d1e13ad	0.038592983
64	0x3d8fa1ad	0.07013259
65	0xbd6d0bc4	-0.05787255
66	0xbdb20849	-0.086929865
67	0xbe4c2d7d	-0.19939227
68	0x3dcf5a9b	0.101247035
69	0xbe63b9da	-0.22238865
70	0x3e3cbb54	0.18430835
71	0x3e7d265b	0.24721663
72	0xba0aa37c	-0.00052886433
73	0x3c8502ea	0.016236741
74	0x3d239c8a	0.03994421
75	0x3dede6cb	0.11616286
76	0x3d64119e	0.055680864
77	0x3d5b9259	0.053606365
78	0x3e80519c	0.25062263
79	0x3e1d0732	0.15334776
80	0x3d088f54	0.033339813
81	0x3e372a86	0.17887315
82	0xbe02d42c	-0.1277625
83	0xbe67da27	-0.22641812
84	0x3e3e4a66	0.18583068
85	0x3d586097	0.05282649
86	0xbe69c6a9	-0.22829689
87	0xbdada34f	-0.08478414
88	0xbe825138	-0.2545259
89	0xbd1efba9	-0.03881422
90	0x3e524fba	0.20538226
91	0xbde946ed	-0.11390481
92	0x3e066fee	0.13128635
93	0xbe29be34	-0.16576463
94	0xbe3ba4aa	-0.18324533
95	0x3d13d088	0.036087543
96	0x3ce66c8b	0.02812793
97	0xbdf1192f	-0.117723815
98	0x3e1ce659	0.15322246
99	0x3b4ef3b4	0.0031578364
100	0x3db50056	0.08837955
101	0xbe2986fd	-0.165554
102	0xbdc47741	-0.095930584
103	0xbd98bbc3	-0.07457688
104	0x3dd9c326	0.10632925
105	0x395ee2e5	0.00021256095
106	0x3d630cb0	0.05543202
107	0xbdd88e64	-0.10574034
108	0xbcf74890	-0.030185968
109	0x3e712a53	0.23551302
110	0x3dcb945d	0.099404074
111	0x3e5540cd	0.20825501
112	0x3e23dd9d	0.16002508
113	0x3dd20960	0.102556944
114	0xbd9a57be	-0.07536267
115	0xbd647f83	-0.055785667
116	0x3d73bbd9	0.059505317
117	0xbdb46840	-0.088089466
118	0x3e2da75e	0.16958377
119	0x3da35ef8	0.07977098
120	0x3dbca380	0.09210873
121	0x3e34b5c2	0.1764746
122	0xbe8e06cc	-0.2773956
123	0xbe00140f	-0.12507652
124	0x3d5ec185	0.054383773
125	0x3d76f82c	0.06029527
126	0xbdf7a0e6	-0.12091236
127	0x3d242d0c	0.040082023
128	0xbbb3bb44	-0.0054849703
129	0xbde58925	-0.11207799
130	0x3d9a1f5e	0.07525514
131	0xbe0c8600	-0.13722992
132	0x3e093690	0.1339972
133	0x3c42d753	0.011892158
134	0xbd3ffa92	-0.04686982
135	0xbdb34978	-0.087542474
136	0x3d850054	0.06494203
137	0x3c89aad5	0.016805092
138	0x3cfc3c6c	0.03079053
139	0xbe74e999	-0.23917235
140	0x3dfaa028	0.12237579
141	0x3e2d85a7	0.16945516
142	0x3e2d8d46	0.16948423
143	0xbe05f6d7	-0.13082443
144	0xbd00d502	-0.03145314
145	0xbd7f03a4	-0.06225933
146	0xbe540bdb	-0.20707648
147	0xbdf0aa40	-0.117512226
148	0x3da5708b	0.080781065
149	0xbdde5b2b	-0.10857233
150	0x3c8f7ce1	0.017515602
151	0x3e47ab3f	0.19498919
152	0xbd0352e4	-0.032061473
153	0xbe49752a	-0.19673601
154	0x3e3536f3	0.17696743
155	0xbdfaa65b	-0.12238761
156	0x3e734d70	0.23760009
157	0x3d8e11c3	0.069369815
158	0x3db40413	0.087898396
159	0xbe3c83fd	-0.18409725
160	0xbdc7a037	-0.097473554
161	0x3ddf37cd	0.10899315
162	0xbe026171	-0.12732483
163	0xbdbe8be1	-0.093040235
164	0x3d63db9a	0.05562935
165	0x3d7819ba	0.06057141
166	0x3e2d2859	0.16909923
167	0xbe0de340	-0.1385622
168	0xbe1d7cae	-0.15379593
169	0x3e106b89	0.14103521
170	0xbcb0c1ea	-0.02157684
171	0xbd8cb3d7	-0.06870239
172	0x3d29069f	0.04126608
173	0xbad28c77	-0.001606359
174	0x3ca3774b	0.019954344
175	0xbcaa63a6	-0.02079947
176	0xbde3ea02	-0.11128618
177	0xbbd3333f	-0.006445318
178	0x3e0e197c	0.13876909
179	0xbdf9712f	-0.12179791
180	0x3ea2c06e	0.31787437
181	0x3e82b7dd	0.25530902
182	0xbdaea234	-0.085270315
183	0x3cc435d5	0.02395145
184	0xbc8ab8a5	-0.016933748
185	0xbd87c47b	-0.066292726
186	0x3e48fc0a	0.19627395
187	0x3e81369e	0.25236982
188	0xbd66c051	-0.05633575
189	0x3e487506	0.19575891
190	0xbd378f04	-0.044814125
191	0xbd48477a	-0.04889629
192	0xbd29bff2	-0.04144282
193	0x3e141c35	0.14463885
194	0xbdd80440	-0.105476856
195	0xbde14d97	-0.11001127
196	0x3e00438c	0.12525767
197	0xbe055d18	-0.13023794
198	0x3d9cc264	0.076542646
199	0xbd9be3ba	-0.07611795
200	0x3e10314f	0.1408131
201	0xbd9fae17	-0.07796877
202	0x3e2e6284	0.17029768
203	0xbd1d1a4d	-0.03835516
204	0x3dc12895	0.094315685
205	0xbd838210	-0.06421292
206	0xbe595b55	-0.21226247
207	0xbc3b8c4b	-0.011447023
208	0xbd8ee3d4	-0.069770485
209	0x3d265d76	0.040616475
210	0x3a5fc79d	0.00085365196
211	0x3df22ddb	0.118251525
212	0x3e0934ac	0.13398999
213	0x3e41a5b8	0.18910873
214	0x3e96bae1	0.29439452
215	0x3e2d05d9	0.16896762
216	0x3ddde167	0.10834008
217	0x3e21e1ed	0.1580884
218	0x3cfb8a54	0.030705608
219	0x3d87d84c	0.06633052
220	0xbbe4319d	-0.006963922
221	0xbd1ded6f	-0.038556512
222	0xbde29c0b	-0.11064919
223	0x3e3a8d53	0.18217973
224	0xbdce61ad	-0.10077224
225	0xbe22a7c2	-0.15884307
226	0x3e5e1588	0.21687901
227	0x3d7f02bf	0.06225848
228	0xbd1ec989	-0.038766418
229	0x3d34face	0.0441845
230	0x3dd6d963	0.10490682
231	0x3df832fd	0.121191
232	0xbdc0ae82	-0.09408285
233	0xbe42f953	-0.19040422
234	0xbd610196	-0.054933153
235	0x3e319359	0.17341365
236	0xbe12ef59	-0.14349116
237	0x3d67d58d	0.056600142
238	0xbcc59f43	-0.024123793
239	0x3e3f2f9b	0.18670504
240	0xbe1195ff	-0.14217375
241	0x3e147362	0.1449714
242	0x3db1cff9	0.08682246
243	0x3d39128a	0.045183696
244	0xbd1df81d	-0.038566697
245	0xbdba0a20	-0.090839624
246	0xbd04383a	-0.032280184
247	0x3beb4b1c	0.0071805846
248	0x3d883620	0.066509485
249	0x3dc6f9eb	0.09715637
250	0xbe052987	-0.13004123
251	0x3da92d68	0.08260614
252	0x3e5b88f7	0.21438967
253	0xbdbbf3c8	-0.09177357
254	0x3e620fc2	0.22076324
255	0x3e0c61c2	0.13709167

model.bigrill.fwd_rnn.spatial_decoder.lin_in.bias f4 [32]
0	0xbd64ab58	-0.05582747
1	0x3e4d9e17	0.20079838
2	0xbe242fd7	-0.16033874
3	0x3e2f4901	0.17117693
4	0xbde5bd7a	-0.112177804
5	0x3b0abec4	0.0021170834
6	0x3e430604	0.19045264
7	0x3df7f902	0.12108041
8	0xbe5e070b	-0.21682374
9	0x3e7623e3	0.24037127
10	0x3e6ae302	0.22938159
11	0x3e1eff3f	0.15527056
12	0xbe3749dc	-0.17899269
13	0x3b8a83d4	0.004227141
14	0xbe5ff247	-0.21869765
15	0xbe4d09d1	-0.20023276
16	0x3d8b821b	0.06811925
17	0xbd75634e	-0.059909157
18	0xbdcad47e	-0.09903811
19	0x3db7a62e	0.08967243
20	0x3ceee084	0.029159792
21	0xbe1cdaf5	-0.153179
22	0x3ea16872	0.31524998
23	0x3c1346ab	0.0089890165
24	0x3dc14e56	0.094387695
25	0xbe3878ef	-0.18014883
26	0x3df8a772	0.12141313
27	0xbe37ddd7	-0.17955719
28	0x3c69aff2	0.01426314
29	0xbe7fd9f3	-0.24985485
30	0xbe2c0b43	-0.16801171
31	0xbda6a049	-0.08136041

model.bigrill.fwd_rnn.spatial_decoder.graph_conv.mlp.weight f4 [32, 64, 1, 1]
0	0xbd8cbb18	-0.06871623
1	0xbe03608e	-0.12829801
2	0x3dd69394	0.10477367
3	0xbdb5f673	-0.08884897
4	0x3dc22ab4	0.09480801
5	0xbca81154	-0.020516075
6	0xbdb945fc	-0.090465516
7	0x3df4a654	0.11945787
8	0x3dd25052	0.10269226
9	0xbdf35f34	-0.11883393
10	0xbd331e9d	-0.043730367
11	0xbd95447a	-0.072884515
12	0xbcc2bdf4	-0.023772217
13	0xbe2fc6c3	-0.17165665
14	0x3e055e8e	0.13024351
15	0x3d444f60	0.04792726
16	0xbde1c1f5	-0.110233225
17	0x3dcc7c00	0.099845886
18	0x3d749d04	0.059720054
19	0xbda080c1	-0.07837058
20	0xbdd4e4ea	-0.103952244
21	0x3bb5b7dd	0.0055456
22	0xbcdbff30	-0.026855081
23	0xbdd2af84	-0.10287383
24	0x3ca4723c	0.020074002
25	0x3d898d3e	0.06716393
26	0xbdd60e9b	-0.104520045
27	0x3dd3d189	0.103427
28	0xbd5c6cad	-0.05381458
29	0x3e283803	0.16427617
30	0x3db14dbe	0.08657406
31	0x3d440db0	0.047864616
32	0xbd9dbf32	-0.07702483
33	0xbc4cc4b2	-0.012498068
34	0xbdc25c5b	-0.09490272
35	0x3d205e59	0.039152477
36	0xbd75ab4f	-0.059977826
37	0xbd30118c	-0.042985484
38	0x3c06e34c	0.008232903
39	0x3d03fde5	0.032224555
40	0xbdda36f1	-0.106550105
41	0xbd613e90	-0.054991305
42	0x3d867037	0.06564372
43	0xbc019f0f	-0.007911458
44	0x3d4958f3	0.049157094
45	0xbdead306	-0.11466031
46	0xbdf4e6b7	-0.11958068
47	0xbd20c154	-0.039246872
48	0x3d1d52f2	0.03840918
49	0x3ddead38	0.108728826
50	0xbc86939c	-0.016427808
51	0x3d1f55b2	0.038900085
52	0x3b980c8f	0.004640169
53	0xb9ec6b46	-0.00045093353
54	0x3d9fdc2e	0.07805668
55	0x3be7857e	0.007065474
56	0x3de080a8	0.10962039
57	0x3db0f6be	0.08640812
58	0xbcdf79af	-0.027279703
59	0x3c9f1552	0.019419346
60	0x3e059c59	0.13047923
61	0xbd213991	-0.03936154
62	0x3d0f80a8	0.035034806
63	0xba330a86	-0.0006829876
64	0x3d55936b	0.05214254
65	0x3cafaa85	0.021443615
66	0xbe1a41e9	-0.15064205
67	0x3dea489c	0.114396304
68	0x3d2160f6	0.03939911
69	0xbcdced2d	-0.026968563
70	0x3e0a3fe5	0.13500936
71	0x3dccffdd	0.100097395
72	0xbe50dbca	-0.20396343
73	0x3e08560f	0.13314079
74	0xbe03b2d6	-0.12861189
75	0xbd0f70ad	-0.035019565
76	0x3cc2bdbf	0.023772119
77	0xbd5e8eba	-0.054335333
78	0x3d9f8e8d	0.07790861
79	0x3da37ef3	0.07983198
80	0xbc571d39	-0.013129526
81	0xbe214454	-0.15748721
82	0xbdc7444d	-0.09729824
83	0xbd65dfcc	-0.056121632
84	0x3c8005a9	0.015627699
85	0xbda4a1cd	-0.080386735
86	0x3deeb13e	0.116549
87	0x3ced1912	0.028942619
88	0xbdbdcd42	-0.092676654
89	0x3ad0cd80	0.0015930384
90	0xbd3601e5	-0.0444354
91	0xbdb9badf	-0.09068846
92	0xbd37e688	-0.044897586
93	0xbd865736	-0.06559603
94	0xbda27f3d	-0.07934425
95	0x3d1fd381	0.039020065
96	0xbd3fdcf6	-0.046841584
97	0x3dab66e8	0.08369237
98	0xbd222f00	-0.039595604
99	0x3d26007f	0.040527817
100	0xbda011e8	-0.07815915
101	0xbbb9000c	-0.0056457575
102	0x3dcff8b6	0.1015486
103	0xbd23e2e6	-0.04001131
104	0xbdb90e5f	-0.09035944
105	0x3da15cef	0.07879054
106	0x3ddd4f8a	0.108061865
107	0xbdf45adb	-0.11931392
108	0xbd825b1e	-0.063650355
109	0x3e32ebde	0.17472789
110	0x3c45219b	0.012031938
111	0x3db405ce	0.0879017
112	0xbdb4a4f9	-0.088205285
113	0x3e01e7db	0.12686102
114	0xbde90b96	-0.11379163
115	0x3d874bd3	0.06606259
116	0x3defa484	0.11701301
117	0xbe2bd229	-0.16779388
118	0x3e2f2995	0.17105706
119	0x3d8d7025	0.069061555
120	0x3cf97fc9	0.03045644
121	0xbdfbe8a2	-0.123002306
122	0x3d23dce9	0.0400056
123	0x3b6d461f	0.0036205126
124	0x3dbc2ff6	0.09188835
125	0xbe360467	-0.17775117
126	0x3db80e3f	0.08987092
127	0xbe15b14f	-0.14618419
128	0xbd7e6d65	-0.062116046
129	0xbce59117	-0.028023286
130	0xbd53b813	-0.05168922
131	0xbde6790b	-0.11253556
132	0x3d828c7f	0.06374454
133	0xbc89164b	-0.016734263
134	0xbcf46465	-0.029833028
135	0xbd926f95	-0.07150189
136	0x3d164ced	0.036694456
137	0x3d3bdad4	0.045862988
138	0x3e186525	0.14882334
139	0x3da12efb	0.07870289
140	0xbd8fca63	-0.07021024
141	0xbbf37526	-0.0074297367
142	0x3d385135	0.04499932
143	0xbd655911	-0.055993143
144	0xbc3cc032	-0.011520432
145	0x3d622753	0.055213284
146	0x3d6b5308	0.05745223
147	0x3d3e2524	0.04642214
148	0xbc5d9474	-0.0135241635
149	0xbe05572c	-0.13021535
150	0x3e628176	0.22119698
151	0x3df933de	0.12168096
152	0xbd6e9495	-0.058247168
153	0x3db35ae9	0.08757574
154	0x3dfa518f	0.12222587
155	0xbde69dc6	-0.11260562
156	0xbd989db9	-0.07451958
157	0xbe822960	-0.25422192
158	0xbdbfbd0e	-0.09362231
159	0x3d5a8ba4	0.053355828
160	0xbd2c130b	-0.04201035
161	0x3e0dada5	0.13835771
162	0xbda90575	-0.08252994
163	0x3d1c946e	0.03822749
164	0x3bdb48cb	0.006692027
165	0xbce798f0	-0.028271168
166	0x3dafdb36	0.08586733
167	0x3d868b2d	0.065695144
168	0x3be82ab8	0.0070851706
169	0xbdff359e	-0.124613985
170	0x3df8065c	0.12110588
171	0x3dad123a	0.08450742
172	0x3d74cf6c	0.059768125
173	0xbe728700	-0.23684311
174	0xbca0704c	-0.019584797
175	0x3d171f8b	0.036895316
176	0xbd839973	-0.064257525
177	0xbe7da115	-0.24768479
178	0x3d030aa9	0.03199259
179	0x3dd4287e	0.10359286
180	0x3d407b4c	0.046992585
181	0x3d22a178	0.03970477
182	0x3de27bb9	0.110587545
183	0xbe0f59ca	-0.13999096
184	0xbdd40895	-0.103531994
185	0xbba01425	-0.004885214
186	0x3d1ec259	0.038759563
187	0x3dad7f80	0.08471584
188	0xbd8d6652	-0.06904282
189	0xbd2efe5f	-0.042723056
190	0xbdce55ce	-0.1007496
191	0xbcc9632e	-0.024583425
192	0xbdbd21f5	-0.092349924
193	0x3e334a0a	0.17508712
194	0xbbb2760a	-0.0054462003
195	0x3d5dc329	0.054141197
196	0xbbd667e2	-0.0065431455
197	0xbd8c99a1	-0.0686524
198	0x3d6a1fd7	0.05715927
199	0x3d831fbf	0.064025395
200	0xbe0d0220	-0.13770342
201	0xbda35717	-0.079755954
202	0x3dbd1639	0.09232754
203	0x3da6db8f	0.08147346
204	0xbe073cad	-0.1320674
205	0x3dfb9370	0.12283981
206	0x3d99003e	0.07470749
207	0x3c74bc8c	0.014937531
208	0x3aec5ea1	0.0018033573
209	0xbdd98acb	-0.10622176
210	0x3cc7911c	0.024361186
211	0x3da3bdd3	0.079951905
212	0x3d3ba552	0.04581196
213	0xbe20d222	-0.1570516
214	0x3e35dc37	0.17759787
215	0x3de8c141	0.11364985
216	0x3ce01dcb	0.027357956
217	0xbd0d27a1	-0.03446162
218	0xbc59b1ae	-0.013286991
219	0xbdd849a9	-0.105609246
220	0xbde3ebea	-0.111289814
221	0xbddbd5c1	-0.1073413
222	0xbe047c0e	-0.12937948
223	0xbd3b11e7	-0.04567137
224	0x3da74034	0.08166543
225	0x3e44b29b	0.19208758
226	0x3dd2132f	0.10257565
227	0x3c1fca96	0.00975289
228	0xbc46640a	-0.012108812
229	0xbd0d1f2d	-0.03445356
230	0x3b483029	0.0030546284
231	0xbd716670	-0.058935583
232	0xbdef8f44	-0.116972476
233	0x3bde9c4e	0.0067935353
234	0x3d3b0a41	0.045664076
235	0x3dbae999	0.091265865
236	0xbd96aabf	-0.07356786
237	0x3e0a16f5	0.1348532
238	0x3d8d33de	0.068946585
239	0xbd955b7e	-0.072928414
240	0x3da3b5e8	0.0799368
241	0xbd05cf7c	-0.032668576
242	0xbe2dc5c5	-0.16969974
243	0x3de01a12	0.109424725
244	0xbe0a8f96	-0.13531336
245	0xbdfeb933	-0.12437668
246	0xbe00d643	-0.12581734
247	0x3da6e156	0.08148448
248	0xbc06cc6a	-0.008227447
249	0x3b7a027f	0.003814846
250	0xbc9dc3c4	-0.019258387
251	0xbddf5d85	-0.10906509
252	0x3b4d9554	0.0031369524
253	0xbab83502	-0.0014053883
254	0xbdf3c487	-0.11902719
255	0x3e1841a6	0.14868793

model.bigrill.fwd_rnn.spatial_decoder.graph_conv.mlp.bias f4 [32]
0	0xbe0bef2c	-0.13665456
1	0x3e638ca2	0.22221616
2	0x3e079e9b	0.13244097
3	0x3dbde535	0.092722334
4	0xbb95a0bb	-0.0045662797
5	0xbdcdf262	-0.100559965
6	0xbd1f7c63	-0.038936984
7	0x3e6446a4	0.22292572
8	0xbcbd25b8	-0.023089275
9	0xbe27f324	-0.16401345
10	0x3d286698	0.041113466
11	0x3e51fcd9	0.2050661
12	0x3eba04e8	0.36331868
13	0xbe9b75d8	-0.30363345
14	0x3e303afb	0.1721
15	0xbe02fbed	-0.12791415
16	0x3e78fdfa	0.24315634
17	0xbcad15fb	-0.021128645
18	0xbe7595ec	-0.23982972
19	0xbe9f22d3	-0.31081256
20	0x3e220bad	0.15824766
21	0xbce6c156	-0.028168362
22	0xbd32a4f7	-0.043614354
23	0x3e4e3c3b	0.20140164
24	0x3d1463b0	0.036227882
25	0xbe193a72	-0.14963701
26	0xbd84faf4	-0.06493178
27	0xbe61db92	-0.22056416
28	0x3dde1fbb	0.10845896
29	0x3e2401a7	0.16016255
30	0xbe19b233	-0.15009384
31	0x3e537495	0.20649941

model.bigrill.fwd_rnn.spatial_decoder.lin_out.weight f4 [32, 64, 1]
0	0x3e083424	0.1330114
1	0xbd80aaac	-0.06282553
2	0xbce30b3c	-0.027715318
3	0xbd247bc1	-0.040157083
4	0x3d9ac23a	0.07556577
5	0x3df66066	0.12030105
6	0x3e1c8732	0.15285948
7	0xbdd4869e	-0.10377239
8	0xbc11d35f	-0.008900492
9	0x3e3f7584	0.18697172
10	0xbcac1330	-0.021005243
11	0xbd2ac5bb	-0.041692477
12	0xbdc0ed89	-0.09420306
13	0x3d9bdf8d	0.07610998
14	0xbe150f88	-0.14556706
15	0x3e0d3a23	0.13791709
16	0xbe434955	-0.19070943
17	0x3cde57e6	0.027141523
18	0x3e8940ed	0.26807347
19	0x3dc24bca	0.09487112
20	0xbd5e9438	-0.05434057
21	0x3d0c5018	0.03425607
22	0x3de18e79	0.11013503
23	0xbdb65b75	-0.08904163
24	0xbc998b34	-0.018743135
25	0xbc5a06e6	-0.013307309
26	0xbc510726	-0.012758052
27	0x3dedc823	0.11610439
28	0xbe535c22	-0.20640615
29	0xbe36693f	-0.17813586
30	0x3e23d69c	0.15999836
31	0xbdacbaee	-0.084340915
32	0x3e8b4806	0.27203387
33	0xbebe7877	-0.37201282
34	0xbe98bd61	-0.29831985
35	0x3e3836ef	0.17989706
36	0xbb30efb7	-0.002699835
37	0xbea3cd46	-0.3199255
38	0x3ca45662	0.020060722
39	0xbe4ca294	-0.19983894
40	0xbf0855eb	-0.532561
41	0xbdc3ecc6	-0.09566645
42	0x3d9cf964	0.07664755
43	0xbe260039	-0.16211022
44	0x3e40ecbf	0.18840311
45	0xbdf91184	-0.12161544
46	0xbe594efd	-0.21221538
47	0x3f00658b	0.5015494
48	0xbb7cbf37	-0.0038566121
49	0xbe50423e	-0.2033777
50	0x3ea61156	0.324351
51	0x3d826bb9	0.06368203
52	0xbe82ec68	-0.2557099
53	0xbe4cc805	-0.19998176
54	0x3d908ae1	0.07057739
55	0xbe9a9393	-0.30190715
56	0x3f140226	0.5781578
57	0xbdcf6c89	-0.10128123
58	0xbe3b1358	-0.18269098
59	0x3e72eace	0.23722383
60	0xbe9003f0	-0.28128004
61	0x3f0785ad	0.5293835
62	0x3db99483	0.090615295
63	0x3ecb4c3e	0.39706606
64	0x3e6e2380	0.2325573
65	0x3cf29267	0.029610826
66	0xbdc5a317	-0.096502475
67	0xbe0aae7d	-0.13543124
68	0x3e39668e	0.18105528
69	0x3e5dfaa9	0.2167765
70	0x3d11ae9b	0.035566907
71	0xbe5b509c	-0.21417469
72	0x3e54a7d6	0.2076715
73	0x3e2dab53	0.16959886
74	0x3db2a3ec	0.08722672
75	0xbe69c668	-0.22829592
76	0xbd917c14	-0.07103744
77	0x3e6dc88e	0.23221037
78	0xbb25deb1	-0.0025309736
79	0x3bce2ee3	0.0062922104
80	0xbde15c51	-0.11003936
81	0x3c6b28c2	0.014352979
82	0x3e0a6057	0.13513313
83	0x3e0366ea	0.12832227
84	0xbe2dda9d	-0.16977926
85	0x3c69dff9	0.014274591
86	0x3d17b48f	0.03703743
87	0xbe167267	-0.14692079
88	0x3d67272e	0.05643385
89	0x3c274efe	0.010211704
90	0x3df4f35f	0.11960482
91	0x3e0de815	0.13858064
92	0xbe2662fa	-0.16248694
93	0xbcb02802	-0.021503452
94	0x3d35550e	0.044270568
95	0xbe3fc512	-0.1872752
96	0x3e90d01e	0.2828378
97	0xbea43bbf	-0.32076833
98	0xbe392262	-0.18079522
99	0x3c9fad35	0.019491771
100	0x3e59b4e6	0.21260414
101	0xbe9e8662	-0.309619
102	0x3c832d5b	0.016012838
103	0xbe890127	-0.26758692
104	0xbe6e4a85	-0.23270614
105	0xbddc7231	-0.10763968
106	0x3dca1e8b	0.09869107
107	0xbebd6f94	-0.3699919
108	0x3e4d5f11	0.20055796
109	0xbe2771dd	-0.16352029
110	0xbe32410d	-0.17407627
111	0x3f0a2f8b	0.53978795
112	0xbd48b15f	-0.04899728
113	0xbe770aed	-0.24125262
114	0x3e9c5f53	0.30541477
115	0x3d0dc0f5	0.034607846
116	0xbe84890f	-0.25885817
117	0xbe4e5067	-0.20147859
118	0x3da5c730	0.080946326
119	0xbe994e26	-0.29942435
120	0x3ee77e89	0.45213726
121	0xbd4691d3	-0.048478913
122	0xbcb41147	-0.021980895
123	0x3e0ff5b5	0.14058574
124	0xbd886f82	-0.066618934
125	0x3f0e324b	0.5554549
126	0x3e4ca448	0.19984543
127	0x3dca58e3	0.09880235
128	0xbd9bf9c4	-0.076159984
129	0xbe13e143	-0.144414
130	0xbe01f04f	-0.12689327
131	0x3dae648f	0.08515274
132	0xbdb58390	-0.08862984
133	0xbd67e69e	-0.056616418
134	0x3d9c272b	0.07624658
135	0x3db1f086	0.08688454
136	0x3d4054f9	0.046956036
137	0x3d00a78c	0.031409785
138	0xbd27be7c	-0.040953144
139	0xbd282120	-0.041047215
140	0x3d1df667	0.038565066
141	0xbcb43616	-0.021998446
142	0xbda01e83	-0.0781832
143	0x3da2da82	0.07951833
144	0xbb2e3627	-0.002658257
145	0x3e26ce01	0.16289522
146	0xbda3b046	-0.07992606
147	0x3e004e8d	0.12529965
148	0xbdcf54e9	-0.10123617
149	0xbd47f79c	-0.048820123
150	0x3d9e1230	0.07718313
151	0xbc792f65	-0.015209054
152	0x3da7cbfa	0.08193202
153	0xbd93f326	-0.07224111
154	0xbdd8a8fb	-0.105791055
155	0xbcf6aea4	-0.030112572
156	0xbda1ae5d	-0.07894585
157	0x3da270f1	0.07931698
158	0xbdbdc770	-0.09266555
159	0x3dd9948c	0.10624036
160	0xbd8cf8d9	-0.068834014
161	0x3ec98393	0.39358196
162	0x3e3af426	0.18257198
163	0xbe130662	-0.14357904
164	0xbdd100bf	-0.102052204
165	0x3e43a6a4	0.19106537
166	0xbe08282c	-0.13296574
167	0x3ddba481	0.10724736
168	0x3df8e9d9	0.12153978
169	0x3d83e500	0.06440163
170	0xbdd79aea	-0.105275944
171	0x3de3ca3b	0.11122557
172	0xbe3382be	-0.17530343
173	0x3c2717d9	0.010198557
174	0x3e0772bc	0.13227361
175	0xbe7e82bd	-0.2485456
176	0x3e043a02	0.12912753
177	0x3e0ce2c7	0.13758384
178	0xbe6d098a	-0.2314817
179	0x3dd41254	0.10355058
180	0x3dc08474	0.094002634
181	0x3c6e63c9	0.014550158
182	0xbdeed7ed	-0.11662278
183	0x3ca392bd	0.019967431
184	0xbdf74fb7	-0.12075751
185	0x3d3ee2c5	0.046602983
186	0x3c80832c	0.015687548
187	0xbd8410d5	-0.06448523
188	0x3da6789e	0.08128475
189	0xbeb4b265	-0.35292354
190	0xbda702bc	-0.081548184
191	0xbd16abe1	-0.03678501
192	0x3dbe2a7b	0.09285446
193	0xbcb837ef	-0.022487609
194	0xbd635c88	-0.055508167
195	0xbda9413c	-0.082643956
196	0x3d69ae28	0.057050854
197	0xbc300d07	-0.010745293
198	0x3d0fb639	0.03508589
199	0x3d839c66	0.06426315
200	0xbdce2328	-0.10065299
201	0xbd051f11	-0.03250033
202	0xbdb27810	-0.08714306
203	0x3dded065	0.10879592
204	0x3d04e8a1	0.032448415
205	0x3da9cc02	0.082908645
206	0x3df25107	0.11831861
207	0xbd705692	-0.05867631
208	0xbbe4716d	-0.006971529
209	0x3c078224	0.008270774
210	0xbce4015c	-0.02783268
211	0x3d16c625	0.03681006
212	0xbd3063df	-0.043063994
213	0x3d96b949	0.07359559
214	0xbd27db70	-0.040980756
215	0x3d687cc9	0.05675963
216	0xbd059d1f	-0.032620545
217	0xbd19142d	-0.037372757
218	0x3b2bc906	0.0026212349
219	0xbdf1e54f	-0.11811315
220	0xbdfa3a45	-0.12218145
221	0x3d13cf59	0.036086414
222	0x3d0f518a	0.03498987
223	0x3e02ff7a	0.12792769
224	0xbda8b23a	-0.08237119
225	0x3e9edf38	0.31029677
226	0x3eb5cd0a	0.35507995
227	0xbda6da63	-0.08147123
228	0xbdb97978	-0.090563715
229	0x3d68e20f	0.05685621
230	0xbdf24514	-0.11829582
231	0x3db5c6ba	0.08875795
232	0x3ea6ed90	0.3260312
233	0x3e16f3bc	0.14741415
234	0xbe224c54	-0.1584943
235	0x3df3d660	0.11906123
236	0xbe15559b	-0.14583437
237	0xbb628228	-0.0034562442
238	0x3db59786	0.088667914
239	0xbe47f8a9	-0.1952845
240	0x3aa9006e	0.0012893805
241	0x3e183c62	0.14866784
242	0xbe434e5b	-0.19072859
243	0xbdc2ce1a	-0.09511967
244	0x3d52743d	0.051380385
245	0x3e0c9bef	0.13731359
246	0xbd902c40	-0.0703969
247	0xbd297aa7	-0.041376736
248	0xbe4a1bd8	-0.19737184
249	0xbd176363	-0.036960017
250	0x3d2eb4b4	0.0426528
251	0xbe09d2b0	-0.13459277
252	0x3e2ebc1e	0.17063949
253	0xbeecfe67	-0.46287844
254	0x3cfdaf6b	0.030967435
255	0xbded1df5	-0.115779795
