logs/discharge_point/grin/2023-10-26_16-44-35_292360581/epoch=34-step=3045.ckpt (torch, 707635 bytes, 102 tensors)

model.bigrill.emb f4 [8, 20]
000000 40 9a 54 3f be ea 0e bf 16 5e fa 3d 3a 4e cc bd
       0.83047867 -0.5582694 0.12224977 -0.09975858
000010 f7 97 9a 3e 34 06 5e 3f e1 f8 ce 3e 25 74 d1 3e
       0.30194065 0.86728215 0.40424255 0.40908924
000020 19 c5 e0 3e fd 06 a2 3d 96 63 23 3f 0e e0 08 3f
       0.43900374 0.07911489 0.6382383 0.5346688
000030 c1 0e 32 3e 4a f2 7c be 44 1e 27 bd 08 ff 0b be
       0.1738844 -0.24701801 -0.040800348 -0.13671505
000040 71 de ec 3e 1a 61 a6 3e 36 eb c3 3e 61 f2 c0 3e
       0.4626346 0.32495958 0.3826539 0.3768492
000050 56 a3 5c 3e c8 ae 63 be 84 37 8b be 1b 56 1a be
       0.21546683 -0.22234643 -0.27190793 -0.15071909
000060 a1 63 25 be cd 8d 3a 3e b5 64 53 3e d8 0c a7 3e
       -0.16151287 0.18218155 0.20643885 0.32626987
000070 80 c9 44 3e 26 af b5 3e 40 f6 82 bd 64 4c cc 3e
       0.19217491 0.3548519 -0.06394625 0.3990203
000080 de 93 66 bd d2 30 95 bd 57 83 22 3d 95 36 b9 3d
       -0.05629336 -0.07284702 0.039676037 0.09043614
000090 68 84 f4 be 2c 9c 8e 3e ea 03 28 3e 35 7f 3e 3d
       -0.47757268 0.27853525 0.16407743 0.046508033
0000a0 a1 e3 11 bf 65 ab 92 be 48 58 c1 3e 23 e3 bc bd
       -0.5698796 -0.2864639 0.37762666 -0.092230104
0000b0 4d 69 2a 3f 92 35 1f be 04 89 e5 bd 31 d8 a9 3c
       0.66566926 -0.15547779 -0.11207774 0.02073297
0000c0 0c 8b d6 3b 05 85 ad be 84 8a 47 be 05 ce 09 bd
       0.0065473374 -0.33890548 -0.19486433 -0.03364374
0000d0 66 93 7b 3e 61 25 65 3e f0 7f 86 bd db 83 5d bd
       0.24567947 0.2237754 -0.06567371 -0.054080825
0000e0 be a7 b6 3e 0b 55 a3 be 23 d5 88 be bb fe 43 3f
       0.35674852 -0.3190082 -0.2672511 0.7656056
0000f0 28 45 f1 3d eb 31 26 bf 96 be df be 98 10 f5 bc
       0.11780769 -0.6491992 -0.43700093 -0.02991514
000100 60 1e b4 3e bc e2 60 be c5 04 d0 be 73 50 ec 3e
       0.35179424 -0.21961492 -0.4062864 0.46155128
000110 38 f0 f3 be 80 1a 23 bf e5 a9 96 3d 60 7c 94 be
       -0.4764421 -0.6371231 0.073566236 -0.2900114
000120 ca d7 e5 3e d5 f5 94 3e 2a e5 12 bf df 6d 3e bf
       0.44891196 0.29093805 -0.57380927 -0.743864
000130 61 24 e9 3c 31 23 08 3f ea ba 12 3e e4 a9 df be
       0.02845973 0.531787 0.14329115 -0.43684304
000140 bb 48 45 3f c5 18 11 be 51 0c bb bc 36 31 a7 3e
       0.770641 -0.14169605 -0.022833021 0.32654732
000150 da 7c 4c 3f e7 38 0d 3d 2f a7 56 3e 74 59 e1 3e
       0.7987801 0.034478094 0.20962213 0.4401356
000160 04 e5 19 3f a8 f0 eb 3e a1 3e a9 3e 82 50 81 be
       0.60115075 0.46082044 0.33055595 -0.25256735
000170 f4 8b 45 3e fc eb 90 bd 94 cc 0c be 84 97 05 3f
       0.19291669 -0.070762604 -0.13749915 0.5218432
000180 e6 20 87 3e a9 e7 50 3e 38 57 99 3e a2 a2 ad 3e
       0.26392287 0.20400871 0.29949355 0.3391314
000190 5f af 77 be 38 31 5a 3e fa ec ac be 3e f5 86 3e
       -0.24187993 0.21307838 -0.3377455 0.2635898
0001a0 35 a4 cb be eb 78 78 bf 95 df b0 be f1 af 8b be
       -0.39773718 -0.97059506 -0.3454558 -0.2728267
0001b0 a3 7d 7a bc 77 80 72 3e f9 a9 29 bf df e7 0d bf
       -0.015288743 0.23681818 -0.6627498 -0.5543193
0001c0 7d 49 4b 3e e4 e8 0d 3e 76 0b e8 be ce b3 d3 3e
       0.19852252 0.13858372 -0.45321244 0.41348118
0001d0 15 50 0e bf f1 8c 10 bf fd 73 89 be 15 79 f4 3c
       -0.55590945 -0.5646506 -0.26846305 0.029842893
0001e0 46 b3 19 3f e4 13 e4 be 35 27 1f 3e 21 b4 9b be
       0.60039175 -0.44546425 0.155423 -0.30410865
0001f0 64 ee 5c be 78 f4 0d 3f 78 78 f1 bd b2 29 b9 3e
       -0.21575314 0.55451155 -0.11790556 0.36164623
000200 a5 3b 91 be 81 1d 84 3e 01 cd 16 3e eb 58 a8 3d
       -0.28365818 0.2580376 0.1472664 0.08220085
000210 26 f6 18 bf f2 88 63 3d 6a 15 39 3e ce f9 ac be
       -0.5975059 0.055550523 0.18074575 -0.33784336
000220 5b f6 1e 3f 9b 0c 4c bd 61 78 ab be 0d 51 23 3f
       0.6209466 -0.04981671 -0.3349028 0.6379555
000230 a9 12 65 3e 09 01 df be 71 a0 cf 3d e7 9a 27 bf
       0.223704 -0.43555477 0.10138024 -0.6547074
000240 c5 28 3b 3d 6e 3b 59 be 5a e3 dd 3e 1d 8b 19 3f
       0.045693178 -0.21214077 0.43337518 0.59977895
000250 d5 ba d0 3d 47 8c 67 bc 9a 62 af be 63 c5 68 3d
       0.101918854 -0.014132566 -0.34254915 0.056828868
000260 80 f0 5c be 64 f7 70 be 10 35 ad bd 82 5e 94 3d
       -0.21576118 -0.23531872 -0.084573865 0.072445884
000270 1a 83 ff be 27 cb b1 3e 1b 4a 16 3e 43 f1 31 bf
       -0.4990471 0.34725305 0.14676706 -0.6950876

model.bigrill.fwd_rnn.cells.0.forget_gate.mlp.weight f4 [32, 170, 1, 1]
000000 90 58 8d 3c 31 c2 65 3c 54 0f d9 3d a0 aa 3d 3d
       0.017254144 0.01402335 0.10598627 0.0463053
000010 e0 bf d4 bd 44 7b c1 3d fc 9d 99 bd fd ff 1e 3c
       -0.1038816 0.09447339 -0.07500836 0.009704587
000020 59 4d 55 3d a7 55 7b bd 56 c1 2a bc 29 96 34 be
       0.052075718 -0.06136098 -0.010422071 -0.17635407
000030 cd 2b 94 bd 0b 0c 63 bc 76 d6 a5 3c 67 da ef bd
       -0.07234917 -0.013857852 0.020243865 -0.11711579
000040 44 92 44 3d 44 35 cf 3d 4a c5 03 3a 6a 67 e5 3c
       0.047991052 0.101175815 0.0005026652 0.028003413
000050 33 82 c4 bd ae e1 0e bd 3a 1b fc 3b 01 8c e3 3d
       -0.09595146 -0.034883194 0.0076936753 0.11110688
000060 29 84 8e bc 81 91 a3 bd 86 d2 1c 3e 9b 36 26 3d
       -0.017397003 -0.07986737 0.15314683 0.04057942
000070 df dd 11 be b4 c8 3b 3e b7 63 c4 3d 9c 99 75 3b
       -0.14244793 0.18338281 0.095893316 0.0037475592
000080 1a 06 13 bc 8b c9 52 3e e8 20 c0 bd 46 d4 ad 3e
       -0.008973623 0.20584695 -0.09381276 0.33951014
000090 7d 92 92 be af ba 76 bd a2 21 26 3c ab 26 9d 3c
       -0.28627387 -0.06023663 0.010139855 0.019183477
0000a0 ff ae 2c be e6 b8 0f 3c 9f 38 00 be 25 2a 03 be
       -0.1686363 0.008772111 -0.12521599 -0.12809046
0000b0 50 f4 6c bd 49 cc 2b 3d 9a c7 be 3b 2d e6 1f bb
       -0.057850182 0.04194287 0.005822134 -0.002439867
0000c0 58 5f 7a bb 32 2c 16 3e c5 30 b1 3d e5 02 f6 bd
       -0.0038203802 0.14665297 0.0865188 -0.12012271
0000d0 b6 50 dd 3d 41 01 d2 bd 60 63 4e 3d 6b 24 2b be
       0.1080641 -0.102541454 0.05038774 -0.16713111
0000e0 a9 9b 22 3d b9 da 13 be 38 96 7d bd d2 49 88 bd
       0.03969923 -0.14438905 -0.061910838 -0.06654705
0000f0 f9 11 73 be 5a 05 a9 bd f4 57 11 be 6a 7e ce 3d
       -0.23737325 -0.08252974 -0.14193708 0.10082705
000100 b7 18 65 bd c1 c6 c6 bd d1 e0 a4 bd d7 77 04 3e
       -0.055931773 -0.09705878 -0.08050693 0.1293634
000110 91 a6 4c 3e 1b 0e f2 bc f7 40 b3 bd 4a 8b 1d 3e
       0.19985415 -0.029547742 -0.087526254 0.15385166
000120 cb 68 88 bd db b8 90 3e fc d1 38 be 41 fd c1 bd
       -0.06660613 0.28266034 -0.18048853 -0.094721325
000130 5c 50 e9 bc c1 16 2a be 6f 88 5d bc b0 43 19 bd
       -0.028480701 -0.16610242 -0.013521298 -0.037418067
000140 a9 8f 1a be 88 76 35 bd ea ad dc 3d 0a 37 15 be
       -0.15093865 -0.044302493 0.10775359 -0.14571777
000150 d6 a4 53 bd 49 e2 85 3d 99 56 79 3d 47 c3 18 bd
       -0.05167087 0.06537301 0.0608736 -0.037295606
000160 c4 2f c1 bd bb 6c 48 3d 8b e7 a0 bc 44 4c 8b 3b
       -0.09432939 0.04893182 -0.019641658 0.004251035
000170 de c6 f2 bd 2d 50 b4 be cc d1 95 3d fd 0d f8 3d
       -0.11854337 -0.3521742 0.07315406 0.12112043
000180 1b be 46 be 71 10 54 3e bf 55 b9 bb 0e ff 99 bd
       -0.19408457 0.20709397 -0.0056559737 -0.07519351
000190 4d 77 19 3c ab 59 b2 3d 48 2d 4f bc 15 02 1f 3e
       0.009366822 0.08708509 -0.012645073 0.15528138
0001a0 13 03 2a 3c e7 95 91 3d ab 16 95 bd 6e 24 02 3e
       0.0103767095 0.0710867 -0.07279714 0.1270921
0001b0 f9 e4 f1 bd d9 10 67 be 34 de 47 bd 0c e3 eb bd
       -0.11811251 -0.2256502 -0.048795894 -0.11517915
0001c0 55 2f 9d 3c 0a 1a bc bd 45 3c 9c bd 9e 60 cf bd
       0.019187609 -0.09184654 -0.07628683 -0.1012585
0001d0 6c 91 da 3b 9d d2 8c bd 42 24 09 be f1 49 82 bd
       0.0066701677 -0.06876109 -0.13392738 -0.063617595
0001e0 44 d4 00 3e fc 99 bc 3d 88 8e 04 be b9 22 db 3d
       0.12580973 0.09209058 -0.12944996 0.10699982
0001f0 c6 f3 eb 3d a7 29 70 3d ed 2f c8 bc 1c 98 e2 bd
       0.115211055 0.058633473 -0.024436915 -0.11064169
000200 02 9d 89 3d e0 b4 24 3d 0a c5 62 bc 2e b7 31 3e
       0.067194 0.04021156 -0.013840923 0.17355034
000210 71 a0 9f 3c e7 dc 3d 3e 0b 52 27 3d 86 f0 af 3d
       0.019485684 0.18541299 0.040849727 0.08590798
000220 ec 5f b0 bb af ed 8b 3d 5c ed b3 3d 52 8e fb 3b
       -0.0053825285 0.06832444 0.08785507 0.007676878
000230 e0 c4 26 bd 70 98 cd 3d 54 46 e0 3c b9 79 c9 bd
       -0.0407151 0.10038841 0.027377285 -0.0983767
000240 ac 0a 28 bd dd be 79 bd 60 a8 bc 3d 46 d4 82 bd
       -0.041025802 -0.060973037 0.092118025 -0.06388144
000250 d2 e7 1c bd 3f ae 76 bd 0c f0 55 bd d3 0f 84 bd
       -0.03830702 -0.060224768 -0.05223088 -0.06448331
000260 2f 81 8a bd f6 16 2e 3c 01 a8 f8 3d 52 f3 89 3d
       -0.06762921 0.0106255915 0.12141419 0.06735863
000270 e4 8d 33 bd de 92 75 3e 09 e3 ae 3b f3 d3 8a 3e
       -0.04383649 0.23981807 0.0053371233 0.2711483
000280 03 31 43 bd 8b e9 21 bd f2 12 7e 3e fd e6 93 bd
       -0.047654163 -0.039529365 0.24811915 -0.07221792
000290 6d 1e df bc 63 3e d4 3d ab 45 b2 3d 51 08 67 3e
       -0.027236188 0.10363462 0.08704694 0.22561766
0002a0 b8 e4 52 3d 8e e5 ff 3d a9 ce de bb c6 36 bf bd
       0.051487654 0.12494956 -0.006799538 -0.09336619
0002b0 6d 07 4b 3d c0 22 ab 3d 1d e8 c7 bd 37 d2 8e 3c
       0.04956763 0.083562374 -0.09761069 0.017434223
0002c0 5b 70 b4 bd 53 64 e0 ba 9b 80 97 bd d4 31 8e 3c
       -0.088104926 -0.0017119743 -0.073975764 0.017357744
0002d0 4c 87 21 bd 7e 33 84 bd 21 02 ba bd b2 e8 0c be
       -0.03943567 -0.06455134 -0.09082437 -0.13760641
0002e0 2d 63 40 3d e3 bc 31 bb 58 b6 e3 bc 33 1b 79 3d
       0.04696958 -0.0027120642 -0.02779691 0.060816955
0002f0 e6 48 08 3d e3 cd ce 3d 6c e3 24 bd 71 80 15 bd
       0.033272646 0.100978635 -0.04025595 -0.036499444
000300 c6 d5 a0 3d 03 13 9e 3d 8e 53 a6 bd de d8 ef bd
       0.07853274 0.0771847 -0.081214055 -0.11711286
000310 85 02 55 3e de a8 bf 3d e6 c4 7d bc ba 6d e1 3d
       0.20801742 0.09358381 -0.015488839 0.11007257
000320 e6 6e bf 3d 07 e2 e0 bb eb 73 b3 3d 9c d8 ce bc
       0.09347324 -0.006862882 0.08762344 -0.025249772
000330 be d0 bc 3b 6c 4f 9a bd 38 ea 05 be 5a d5 8a bd
       0.0057621887 -0.0753468 -0.13077629 -0.06778975
000340 a7 e0 ba bc 57 58 8b 3d ce 73 41 bd 54 fd 8f bc
       -0.0228122 0.06803959 -0.04722958 -0.017576851
000350 82 a6 cd bd b9 de f9 bd db da a0 3d 5b 0c be bc
       -0.100415245 -0.12200684 0.07854243 -0.02319925
000360 36 40 91 bb 65 80 82 3d 05 47 7a 3d 20 51 61 3d
       -0.0044327034 0.063721456 0.061102886 0.055009007
000370 3f 96 c0 bd 2e 46 c7 3d cb 75 8a 3c 4a d9 ca 3d
       -0.09403657 0.097301826 0.016901871 0.09904726
000380 39 df 94 bc 32 5d ec 3c 89 4f 5f bb 65 11 0a 3d
       -0.018172847 0.028853033 -0.0034074506 0.033707995
000390 00 35 03 3d dc 4e ae bd e1 aa dc 3d c9 d0 4e bd
       0.032032967 -0.08511135 0.1077478 -0.05049208
0003a0 1e cd 1d 3d 1a 1c 8d 3d bb b3 9d 3d 69 3b 86 3d
       0.038525693 0.068901256 0.077002965 0.065543
0003b0 49 7b 28 3e 0b ee 88 3d 86 58 da bc bb c5 d4 b9
       0.1645328 0.06686028 -0.02665354 -0.00040583112
0003c0 44 5c ad 3d 56 9d 63 3d 12 60 24 3c fe 62 01 bb
       0.08464864 0.05556997 0.010032671 -0.0019742842
0003d0 94 31 7f 3d 24 43 b3 bd 3f b9 6c bc 22 2d f8 3c
       0.06230314 -0.087530404 -0.014448463 0.030294959
0003e0 51 7e f9 3b f2 22 e5 bc e2 2d f8 3b ab 71 b4 bd
       0.007613935 -0.027970765 0.007573829 -0.08810743
0003f0 ad f5 c0 bc fd 85 3c bd 6a 6d bd 3c b7 37 dc 3c
       -0.023554647 -0.04602622 0.023123462 0.026882036

model.bigrill.fwd_rnn.cells.0.forget_gate.mlp.bias f4 [32]
000000 6c b2 30 3d 5a 16 c7 3d f9 69 f2 3d 02 d5 6d 3d
       0.043138906 0.0972106 0.11836619 0.05806447
000010 4e 9c 09 be 72 c3 ad 3d e8 32 db 3d 2b 58 6b 3d
       -0.13438532 0.08484544 0.10703069 0.05745713
000020 c6 70 cd 3d 30 cb 94 bb 0b 52 14 bd 73 64 e0 bc
       0.100312755 -0.0045408234 -0.036211055 -0.027391648
000030 bc 17 b5 3c e3 7e 16 bc 2f 96 a1 3d ed ea 0b bd
       0.022106044 -0.009185526 0.07889973 -0.03415959
000040 58 e9 1c bd 60 b2 b9 bd fc 97 20 3e 23 5a 85 b8
       -0.03830847 -0.090672255 0.15682977 -6.3587235e-05
000050 ac 01 a6 3d b8 f2 ec bc 50 6e 4e 3e 57 40 a0 bc
       0.08105788 -0.028924331 0.20159268 -0.01956193
000060 b6 a0 12 be e4 3e eb 3d 24 80 0f be 38 26 4e 3d
       -0.14319119 0.11486605 -0.14013726 0.050329417
000070 d0 7b 0a 3e c8 cc c4 bd 1f 9c a4 bb d4 37 38 bc
       0.13523793 -0.096093714 -0.005023494 -0.011243779

model.bigrill.fwd_rnn.cells.0.update_gate.mlp.weight f4 [32, 170, 1, 1]
000000 60 69 68 bc 93 52 31 3f 5e 51 cf bd 57 2b 07 bd
       -0.01418528 0.69266623 -0.101229414 -0.033000316
000010 c8 5f 67 3d 88 df 31 bd 22 89 1b be 91 08 3c 3e
       0.05648783 -0.043426067 -0.15189031 0.18362643
000020 83 9e 0d 3e fd 66 2e 3e 1c 0b df bd 16 58 b6 3c
       0.13829999 0.17031474 -0.10890791 0.0222588
000030 a8 c6 87 3d 14 3b 21 3e 04 82 57 3d 3c 3a 0c 3e
       0.066296875 0.15745193 0.052614227 0.1369409
000040 9b 68 06 be d6 67 f9 3c 61 a6 80 be 21 96 9d bd
       -0.13125841 0.03044502 -0.25126937 -0.076946504
000050 6f 5b e4 3d 1f 8e 52 3d da 10 2a be 38 7f 80 3e
       0.11150252 0.05140507 -0.16607991 0.2509706
000060 8a a8 53 3e c5 be 1b 3e ea 00 95 3d b2 12 3a 3e
       0.20669761 0.15209492 0.07275565 0.18171194
000070 22 c6 46 be 31 6d 51 3d f8 4b 0b bd 46 f9 7d 3d
       -0.19411519 0.051129524 -0.034007996 0.062005304
000080 de 7e 2b 3e 94 28 01 be 96 15 d9 39 5c 3c be 3e
       0.16747615 -0.12613136 0.00041405548 0.37155426
000090 a9 48 e2 bd a8 87 1d 3d 38 f9 38 3d 7d 5b b7 bd
       -0.11049015 0.03845945 0.04515955 -0.08952997
0000a0 9d 80 ec bc a3 e7 94 3d b6 24 29 3e ba 41 55 3e
       -0.028869921 0.07270744 0.1651791 0.20825854
0000b0 9b a6 b0 3a a8 b1 43 3e bf 9e 9b 3e f2 6b 35 3e
       0.0013477387 0.19110739 0.3039455 0.17716959
0000c0 6e 58 52 be f0 92 33 3e 27 f5 08 be d9 a8 e8 3d
       -0.20541546 0.17536521 -0.13374768 0.1136033
0000d0 5d a5 b0 be c6 03 a0 bd 15 4b 06 3e 3c 3a e2 3d
       -0.34501162 -0.0781322 0.13114579 0.110462636
0000e0 29 f0 27 be b1 66 37 be 6f 81 24 3e 7e 44 63 bc
       -0.16400208 -0.17910267 0.16065 -0.01387131
0000f0 84 28 13 be 37 b0 53 be fa 1e 5f bd df 94 74 bd
       -0.14370924 -0.2067269 -0.0544729 -0.059712287
000100 4f 42 2a 3e 94 43 2d 3d ef cc a2 be 74 8c 0d be
       0.16626857 0.042300776 -0.31796977 -0.1382311
000110 57 24 a0 3b 31 6c 7e 3e 49 58 53 be 60 dd 38 bd
       0.0048871445 0.24845959 -0.20639147 -0.045132995
000120 42 75 2d 3d ec 97 53 be 2f 5d 21 3e 8b 25 e5 3d
       0.042348154 -0.20663422 0.15758203 0.111888014
000130 d8 cd 83 3e 9f 09 8c 3e cb 0f e8 bd 96 f9 95 3e
       0.25742984 0.2735109 -0.11331137 0.2929198
000140 7a 9c 66 3e db ee b4 3e c5 42 ed 3c 60 46 a9 3d
       0.22520629 0.35338482 0.028962502 0.08265376
000150 46 50 4e be c4 e2 fc 3d 78 c6 c3 be f7 cd ea 3d
       -0.2014781 0.123479396 -0.38237357 0.11465066
000160 f6 bc 4e 3e 14 c4 0e 3e d6 d7 70 bd 1d 7e 51 bd
       0.2018927 0.13941985 -0.058799587 -0.05114566
000170 9a 9b fa 3d 85 58 b8 3d 6f a3 3f be f7 63 95 3b
       0.1223671 0.09001259 -0.18714689 0.004559036
000180 32 93 5a bd 64 38 8a bc c2 93 59 3e 1f 45 2b be
       -0.053363033 -0.016872592 0.21247771 -0.16725586
000190 c1 cf 23 be 8f 30 97 be 34 b4 89 bc 7d 30 01 3f
       -0.1599722 -0.29529235 -0.01680956 0.5046461
0001a0 af 2c 04 3d 42 53 f2 bc d2 6e 0d be cb 0f 1b 3d
       0.032269176 -0.029580716 -0.13811806 0.03785686
0001b0 86 e4 7b bd 5e 72 c7 bb bd 95 d5 3c f8 74 24 3e
       -0.061497234 -0.0060866317 0.026072377 0.16060245
0001c0 9c 4e b2 bd 87 e8 cb bc b8 2b 44 3e ac f6 b8 bc
       -0.087064 -0.024891151 0.19157302 -0.02257856
0001d0 c2 12 a5 3d 80 b8 fb 3d 89 06 2e bd 43 7c 4d 3d
       0.080602184 0.1229105 -0.0424867 0.050167333
0001e0 57 27 3a bd 54 80 42 bd 0a 6a ab 3c a3 32 97 bd
       -0.045447674 -0.047485664 0.020924587 -0.07382705
0001f0 19 ce 2d 3d a1 5c ef bc a1 13 53 3c 92 e2 d2 bd
       0.04243288 -0.029218974 0.012883098 -0.10297121
000200 6b 44 dc 3e 75 28 cd 3d 64 a9 96 be b0 2a 3b 3e
       0.4302095 0.10017482 -0.2942611 0.18278003
000210 08 94 65 3e f5 ff 5a bd 12 c8 c7 3d 30 74 95 bd
       0.2241975 -0.053466756 0.09754957 -0.07297552
000220 3c 72 31 bd 21 f9 2b 3f 16 f6 17 3e a6 ef f5 3c
       -0.043321833 0.67177016 0.14839968 0.0300215
000230 e9 69 a6 bd 06 5b 0a 3e d8 d3 0e be 27 18 cb 3d
       -0.081256695 0.13511285 -0.13948 0.09916716
000240 06 19 64 be 90 5c 89 be 56 6a 45 3e 15 37 d9 bd
       -0.2227517 -0.26828432 0.19278845 -0.10606209
000250 1c d3 3b bd a0 ff f3 bd f6 b8 d8 3e 11 15 d4 be
       -0.045855626 -0.11913991 0.42328614 -0.41422322
000260 8b 80 18 be a9 7e 1d 3e 7b 6f db 3d bd 27 3c 3e
       -0.14892785 0.15380348 0.107146226 0.18374534
000270 86 bc 66 bd a4 4a 1e 3e 82 fb 04 3e 0c dc 08 be
       -0.056332134 0.1545816 0.12986568 -0.13365191
000280 87 0a 13 bd c0 71 ac bd be 61 cf bd 74 6f de 3d
       -0.03589871 -0.084201336 -0.10126065 0.10861102
000290 78 d4 c8 bc b2 42 13 3e 61 57 68 3e 69 27 01 be
       -0.024515375 0.14380911 0.22689582 -0.1261269
0002a0 e0 1a 8c 3e 2d 46 59 3e 7e 61 95 bd 5c 58 b5 3e
       0.27364254 0.21218176 -0.07293986 0.35418975
0002b0 34 17 04 3c 2a b2 88 3e 46 80 79 3d 29 c1 c8 bd
       0.008062173 0.26698428 0.060913347 -0.098024674
0002c0 0a 72 89 3d 64 40 10 3e 88 54 fc 3d 73 65 bd 3d
       0.06711204 0.14087063 0.123208106 0.092478655
0002d0 be 45 f8 3d e6 b0 3d bb 33 d6 52 bd 55 9b 6f 3d
       0.12122677 -0.002894455 -0.051473808 0.058497746
0002e0 f1 11 fb bc 57 70 80 3d b2 5b b4 3d 9c 58 ef bc
       -0.030648204 0.06271427 0.08806552 -0.029217057
0002f0 3b 4a 4f 3d 9f b4 c2 bc ce bc 00 3d be fe 96 bd
       0.0506079 -0.023767767 0.03143006 -0.07372807
000300 a8 c6 88 bd c4 9a 01 be 3f ad 20 3e c4 ab c7 3d
       -0.06678516 -0.12656695 0.15691088 0.097495586
000310 c5 78 6b bc af 04 8f 3c e1 b0 d1 3d b4 43 76 bc
       -0.014372055 0.017458288 0.10238815 -0.01503079
000320 33 30 95 bd 53 7e f5 bc ca 12 78 bd d0 50 0f bd
       -0.07284584 -0.029967463 -0.060564794 -0.03498918
000330 9f a9 97 bd e7 db 75 3e 82 15 ab bb 77 9d 9b bc
       -0.074053995 0.24009667 -0.00522107 -0.018995984
000340 cd 44 95 bc ee 5d d9 bd 93 bb 99 3c 9e 01 fc 3d
       -0.018221283 -0.10613619 0.0187662 0.12304996
000350 f9 f3 14 3b 18 2a 41 bc ea aa 26 be 5d a2 76 3d
       0.0022728427 -0.011789821 -0.16276136 0.060213435
000360 72 cc 9e 3d a4 6f 00 bd 30 6f 5c bd 15 03 f6 3d
       0.077538386 -0.03135647 -0.053816974 0.120123066
000370 4e 32 bc 3d 3f 82 ce bd 5a 07 d9 bd b3 61 0a be
       0.09189282 -0.10083436 -0.10597105 -0.13513832
000380 9c ec c2 3d fd 20 12 be 85 af 8a bd bf 81 ad bd
       0.09517786 -0.14270397 -0.06771759 -0.08472013
000390 28 54 10 3e 1b 1b ee 3b 3e c9 74 bd d7 9c 5a 3c
       0.14094603 0.007266415 -0.059762232 0.013343058
0003a0 aa f1 ee bb 05 4d 77 3c 4a 4a fd bd 81 b1 e3 bd
       -0.007291992 0.0150940465 -0.12367685 -0.111178406
0003b0 df 39 b8 bd 1e de 20 bd 25 51 69 bd d7 ea 45 3e
       -0.08995413 -0.039274327 -0.05696215 0.19327866
0003c0 52 66 30 bd 17 01 b1 bc 06 2c b0 3d 9c e6 1d 3c
       -0.04306633 -0.021606965 0.08602147 0.009637501
0003d0 74 08 a4 3a 8d 7b f5 3b 1b cc e4 3d 72 04 66 bc
       0.0012514726 0.007491535 0.111717425 -0.014039146
0003e0 0a ed d0 bd 17 76 dc 3c cc 7f a7 ba 9a bd 80 bb
       -0.102014616 0.026911778 -0.0012779175 -0.0039288523
0003f0 d1 63 b1 bd d5 45 5e 3c 81 2b 90 3d 69 19 8b bc
       -0.086616166 0.013566454 0.07039548 -0.01697989

model.bigrill.fwd_rnn.cells.0.update_gate.mlp.bias f4 [32]
000000 44 6e 9b 3d c3 96 0b bd fd 0c 05 be 8a 10 4e bc
       0.07589391 -0.034079324 -0.12993236 -0.012577185
000010 87 ab 92 3d 5e 29 ca 3a 15 41 f9 3d 6f fa 22 3d
       0.071616225 0.0015423705 0.121706165 0.039789613
000020 ab 81 06 bd 83 0c 0c 3e 0d ef b9 3d ff 7b f2 3d
       -0.032838505 0.13676648 0.090787984 0.11840057
000030 d6 67 1f bc aa 5e f7 3d d1 41 ee bc d8 3f f2 bc
       -0.009729346 0.120786026 -0.029084118 -0.029571459
000040 a0 38 30 3d b6 6d 2f 3e 6b e0 e0 3c 83 97 30 3e
       0.04302275 0.17131695 0.02745076 0.17245297
000050 ba 7b 02 be 52 e7 70 3c cd de d4 bd 5f 53 34 3d
       -0.1274251 0.014703589 -0.103940584 0.04402482
000060 aa 67 4b 3e a7 68 11 3e 66 c9 0a 3d d5 f5 b6 3d
       0.19863763 0.14200078 0.033883475 0.089336075
000070 88 c2 42 be 0c 1c 09 3e e8 55 0b 3d 06 00 33 3e
       -0.1901952 0.13389605 0.034017473 0.17480478

model.bigrill.fwd_rnn.cells.0.c_gate.mlp.weight f4 [32, 170, 1, 1]
000000 2f 2e 65 3d b3 51 07 3e 87 3a 38 be b3 27 7d be
       0.055952247 0.1321476 -0.17991076 -0.24722175
000010 dd a1 ac 3d a0 61 36 be 50 b5 80 bd a1 c7 51 be
       0.084293105 -0.17810678 -0.062845826 -0.20486309
000020 4a b6 4a bb 04 d3 89 3d 60 a9 cf 3d 08 4b 28 3d
       -0.0030931407 0.06729701 0.101397276 0.04108718
000030 bb 9f 5b 3b 0b 0c 1d bc 81 5c 41 be f3 57 07 bd
       0.0033511955 -0.009585391 -0.18882944 -0.03304286
000040 c5 d0 4e 3e 13 58 2f 3b 08 da db bc f6 5e 14 bd
       0.20196827 0.0026755377 -0.026837364 -0.036223374
000050 14 ac 7b 3e fd b7 ed 3d f0 fb 1a be d4 e8 82 bc
       0.24577361 0.116073586 -0.15135169 -0.015980162
000060 0c 61 77 3e 6c ec 93 3d 78 c3 40 bd c7 c5 8b bd
       0.24158114 0.07222828 -0.047061414 -0.068248324
000070 7c 07 f6 3d e8 5c 46 bd 57 e4 27 be e7 1d 1a 3e
       0.12013146 -0.048428446 -0.16395698 0.1505047
000080 ee 1e fd 3b b7 d9 b2 bd 5a ff 07 bc 49 bc 49 3d
       0.0077246344 -0.08732932 -0.008300627 0.04925183
000090 23 ff 57 bd 39 39 d4 bd 8c 55 11 3e e1 f2 8c bc
       -0.05273355 -0.10362477 0.1419279 -0.017205657
0000a0 ec 38 17 bd 23 6b b4 3d f4 de 19 3e ac 2a 22 bd
       -0.03691952 0.08809497 0.15026456 -0.039591476
0000b0 13 95 37 be 1c 6c 39 bd 5b a3 97 3d f1 5d 05 be
       -0.17927961 -0.045269117 0.074042045 -0.13024117
0000c0 e3 b6 50 be e4 5d 57 bd 08 71 a9 3d ff 41 f8 3b
       -0.20382266 -0.052579775 0.08273512 0.0075762267
0000d0 6d a8 10 be c1 d0 52 bd 59 13 10 3e 79 e2 a6 bc
       -0.1412675 -0.051468614 0.1406988 -0.020371662
0000e0 ba 50 a1 bd 85 75 d6 bd 7c d8 c4 3d 40 f0 45 3d
       -0.078767255 -0.10471634 0.096116036 0.048324823
0000f0 a9 10 8e 3c f7 01 b7 bc 50 29 77 3b 60 79 bf bd
       0.017341929 -0.022339804 0.0037713833 -0.09349322
000100 cb cd 3c be 7b cf a0 bd 10 70 1d bd 72 85 ca bd
       -0.18437879 -0.07852074 -0.03843695 -0.09888734
000110 b8 f0 8b 3b 80 e3 23 3d 74 33 7d 3d 7a 31 17 be
       0.0042706393 0.040011883 0.061816648 -0.14764968
000120 a7 de 15 3e 1f 21 b9 bc 26 c5 82 bd dc 3e 22 3e
       0.14635716 -0.022598801 -0.06385259 0.15844291
000130 a7 a2 e9 3c f2 69 0e bd d0 31 06 3b 24 f7 92 bd
       0.028519941 -0.034769006 0.0020476468 -0.071760446
000140 79 d4 c9 bd 1c 9c d0 bd c5 cf 11 3e 13 af 19 bd
       -0.09854979 -0.101860255 0.14239414 -0.03752048
000150 cb 76 44 bd 9f d8 35 bc 5e 4c bd 3a 00 99 a3 3c
       -0.047964852 -0.01109901 0.0014442315 0.019970417
000160 23 ca d6 3c 3d c5 27 bd cc 7a 41 bd 44 86 15 bd
       0.026219433 -0.040959585 -0.04723625 -0.036505
000170 07 93 8c bd 89 b4 0a bd f2 ca ea 3b bf a7 f0 bc
       -0.06863981 -0.033863578 0.0071653062 -0.029376863
000180 8c 21 b8 bd f6 31 c8 3d 3e 67 40 be fa 50 b7 bc
       -0.089907736 0.09775154 -0.18789384 -0.02237748
000190 6b da 76 bc 3e ab f1 3c f0 d1 d2 3b 16 50 87 3d
       -0.015066723 0.0295006 0.006433718 0.06607072
0001a0 88 c0 23 be 71 28 09 be 34 41 11 3e 57 7b 17 3e
       -0.15991414 -0.13394333 0.1418503 0.14793144
0001b0 7e 42 c4 3d 77 7e 17 bd 79 7a c1 3c 7a 87 cf 3c
       0.09582995 -0.03698584 0.02361797 0.025333155
0001c0 be d0 35 bd f2 c3 00 3d 4e b3 11 3d 92 cf 17 3d
       -0.044388525 0.031436868 0.03557139 0.03706319
0001d0 fa 23 2b bc 83 43 a6 bd 80 e9 bb 3d d1 2b 27 bd
       -0.010445589 -0.081183456 0.09175396 -0.04081327
0001e0 c2 c5 4d be bd 16 ec bb 38 3d 6a 3e 26 82 e8 bd
       -0.2009497 -0.007204859 0.22874916 -0.11352949
0001f0 9b 4e 9b bd 7b 81 58 be 9a 5d 93 3d dc 36 f6 3c
       -0.07583352 -0.21143143 0.071955875 0.030055456
000200 a7 65 54 be c1 8b a9 bb 8c 2e a9 3d 5f 3b a8 bc
       -0.20741902 -0.0051741307 0.08260831 -0.020536123
000210 ad 15 1f bd b2 02 fe bd 46 d8 1c be d6 f6 3d bd
       -0.03883903 -0.12402858 -0.15316877 -0.04637798
000220 68 2c 21 3d 7c 46 14 bd 4c c3 11 be 4e 72 f3 bd
       0.03934899 -0.03620003 -0.14234656 -0.11887036
000230 ca af 79 3d f0 19 81 bc 51 70 71 3c cf a1 b3 3b
       0.06095866 -0.015759438 0.014736251 0.0054819356
000240 02 85 63 3e cb e3 a9 3d 9a 89 84 be db ec 76 bc
       0.22218707 0.08295401 -0.25886232 -0.015071119
000250 87 54 87 3d 85 29 b4 ba 14 c1 c6 bc d9 ee 30 3e
       0.06607919 -0.0013745284 -0.024261989 0.17278613
000260 7c 10 19 bc 96 02 a9 bd 05 d6 64 be af dd 91 3c
       -0.009342309 -0.08252446 -0.22347267 0.017805902
000270 99 55 3a 3c be 6c 1a bd 8e 95 17 be 0d cd 1d be
       0.011372947 -0.03770136 -0.14803144 -0.15410252
000280 53 fe a0 3b ed e8 db 3d 11 53 80 be df a5 30 be
       0.0049131303 0.107377864 -0.25063375 -0.17250775
000290 2f c7 19 3d a5 4d 24 be 6d 14 0d be f5 77 0c 3c
       0.037543472 -0.16045244 -0.13777323 0.008573522
0002a0 63 01 08 be 93 f1 cb bd 4f a4 5e 3d f6 f2 1c 3d
       -0.13281779 -0.09958186 0.054355916 0.038317643
0002b0 ad 1d 93 bd 4b b6 bd bd 97 e5 2e 3d 3c 72 14 3e
       -0.071833946 -0.09263285 0.042699423 0.14496702
0002c0 ad 4b 9e bd eb 6b 55 be f8 87 b4 ba 3c 88 a0 bc
       -0.07729278 -0.20841949 -0.0013773432 -0.019596212
0002d0 d7 40 08 bd 4f 72 fc bd 87 b0 0f be 51 c9 39 be
       -0.03326496 -0.1232649 -0.14032184 -0.18143202
0002e0 08 92 34 be a2 49 d5 be ee 88 04 3e 86 e8 46 3e
       -0.17633832 -0.4165774 0.1294286 0.19424638
0002f0 f9 87 57 3d 2c 28 4a 3e 9d 9a 35 bd 6a 44 ff 3d
       0.052619908 0.19741887 -0.044336904 0.12464221
000300 74 59 24 bd f3 77 d0 3d 68 a1 9c 3e e7 44 ac bc
       -0.04012437 0.101791285 0.30591893 -0.021028949
000310 ae 42 32 3c 1b 35 1a bd 25 fc a7 bd b1 2e 70 bd
       0.0108801555 -0.0376483 -0.0820239 -0.05863828
000320 19 58 d2 be 44 dd c8 3d 3b bc 6c 3e 4c ea d5 bc
       -0.41082838 0.09807828 0.23118679 -0.026112698
000330 2f b5 95 3b 07 5d e8 3d 77 d2 af 3d a3 67 78 bd
       0.004568718 0.113458686 0.08585065 -0.06064571
000340 5c 7b 0e 3e 38 3c 96 3c 6d da b1 3a be 1f 6c bd
       0.13914245 0.018339261 0.0013569124 -0.05764746
000350 60 b1 15 3b fc e5 cc bd 6b 83 f3 bd ad 2a 9b bc
       0.002284132 -0.100048035 -0.118903 -0.018941248
000360 5b 9e e8 bd 31 13 d0 bc 19 ec bb 3d d8 fb 6e bd
       -0.11358329 -0.025399776 0.091758914 -0.058345646
000370 a0 c6 11 3e 83 a6 98 3d 76 ce 1a be af 6b b3 3d
       0.14235926 0.074536346 -0.15117821 0.087607734
000380 17 ce 68 bd 28 60 b7 bd cb 05 e5 bd 1b 09 63 39
       -0.056837168 -0.08953887 -0.111827455 0.00021651799
000390 5a 94 6b 3c d2 2e 52 bd a9 e3 08 be f5 c3 8c bd
       0.0143786315 -0.051314183 -0.13368095 -0.06873313
0003a0 c3 47 10 be ab 57 7f bc 90 5d 97 be 66 f5 e1 bd
       -0.14089875 -0.0155848665 -0.2956357 -0.11033134
0003b0 90 47 cb 3d 2b 4c 60 3d 30 df 26 3c 28 1a cc 3d
       0.09925759 0.05476014 0.010185048 0.099659264
0003c0 68 d3 18 3d 12 7a b7 be 9f a9 d2 3d 64 78 41 3d
       0.037310988 -0.3583532 0.10286259 0.047233954
0003d0 44 29 d7 bd 96 f3 18 bd 89 4d 1e 3d 71 e1 b4 bd
       -0.10505918 -0.037341677 0.038648162 -0.08832062
0003e0 9b 11 3c 3d 1c 5a d2 bc 28 52 56 3d cc 37 32 bd
       0.045915227 -0.025677733 0.052324444 -0.043510243
0003f0 cc 99 24 3d a1 4b 57 bc b3 d9 44 3e b4 93 c7 bc
       0.040185735 -0.01314059 0.1922367 -0.024362423

model.bigrill.fwd_rnn.cells.0.c_gate.mlp.bias f4 [32]
000000 39 37 81 bd fc 20 a8 bd 13 ee 0b be 08 d6 a2 bd
       -0.06309361 -0.08209416 -0.13665037 -0.079509795
000010 a9 6b 23 3d 54 4e 50 3e 3d 24 bc bb 08 36 1b 3d
       0.039897595 0.2034238 -0.0057416246 0.037893325
000020 40 75 07 be 6d 56 16 3e 4d cb 13 3e ba c1 0b 3d
       -0.13228321 0.14681406 0.14433022 0.0341203
000030 2d e0 2d 3c f6 55 d8 3d 96 5d f3 3d 0d 11 02 be
       0.01061253 0.10563271 0.118830845 -0.12701817
000040 a5 e5 84 bd 21 48 66 bd f0 ed 08 3e ac ef 93 bd
       -0.06489114 -0.05622113 0.13372016 -0.07223448
000050 89 1b 17 3e ec af 1e bd 37 50 01 bd b5 67 22 3e
       0.14756598 -0.03874199 -0.03157064 0.15859874
000060 a6 19 c8 bb 55 8b 81 3e eb f1 af 3d 32 fd 82 bd
       -0.006106573 0.25301614 0.08591064 -0.063959494
000070 f0 b3 da bd 8e bb 35 be 35 08 f7 bd cc 76 0c be
       -0.106788516 -0.17747328 -0.12062112 -0.13717192

model.bigrill.fwd_rnn.first_stage.weight f4 [1, 32, 1]
000000 3d 6a 11 3f 39 b4 8a 3f 0f 88 60 bf 59 53 74 3f
       0.5680273 1.083625 -0.8770761 0.9543968
000010 35 98 48 bf c1 60 0b 3e 12 78 6c bf a0 88 59 bf
       -0.7835725 0.13611127 -0.9237071 -0.849741
000020 c1 da 87 3f b1 0b 52 bf 10 82 55 bf ac 05 5f bf
       1.0613633 -0.8204909 -0.83401585 -0.8711803
000030 44 50 56 3f f8 78 7a bf 06 76 88 bf 96 42 49 3f
       0.83716226 -0.97840834 -1.0661018 0.7861723
000040 f1 ab 85 3f 8e 2b 51 3f 84 c1 0a bf 75 00 9d 3e
       1.0443097 0.81707084 -0.5420153 0.3066441
000050 59 af 5d 3f c0 62 93 be 5b 02 69 bf 0a fb 73 bf
       0.86595684 -0.28786278 -0.9101922 -0.9530493
000060 21 79 0e 3e d3 bf 22 3f e1 42 68 bf c1 42 67 3f
       0.13913395 0.6357395 -0.9072705 0.90336233
000070 6c 83 8c 3f ab a3 5e bf 9c a1 29 3f 60 55 4d 3f
       1.0977607 -0.8696849 0.6626222 0.80208397

model.bigrill.fwd_rnn.spatial_decoder.lin_in.weight f4 [32, 34, 1]
000000 5e 46 f9 bb 01 f2 40 bd 9f 9b 21 3e 75 d7 4a 3e
       -0.0076072654 -0.047105793 0.15782021 0.19808753
000010 41 8b ce bd 3e a0 c3 3d a4 c6 5a bd c3 ca 82 be
       -0.10085154 0.09552048 -0.053412095 -0.2554532
000020 02 21 72 3d be 74 0c be a4 2c 0f 3d d9 33 40 3d
       0.05911351 -0.13716409 0.034954682 0.046924446
000030 7c a2 84 bd 0a c4 3a be 85 5e 09 3e ad 8c f5 bd
       -0.06476304 -0.18238845 0.13414963 -0.119897224
000040 5e e8 1c 3d 3c cd c4 bd 8f b9 6f bd 9f 25 a9 bd
       0.03830754 -0.09609458 -0.05852657 -0.08259129
000050 a8 88 60 3b 4f 0b ad 3d 60 6c 4c bc f4 93 8e 3d
       0.003426114 0.084494226 -0.0124770105 0.069618136
000060 b7 e5 a8 3d 69 ef 3f bc e1 6d 0c be 63 86 07 be
       0.0824694 -0.011714795 -0.1371379 -0.13234858
000070 74 3f 0c be 7c 5b fc 3c c0 91 76 bd 95 a3 2f 3e
       -0.1369608 0.030805342 -0.06019759 0.17152245
000080 2e c4 cf 3d 8b c6 91 bc 1c d6 1c bd 31 85 ad 3d
       0.1014484 -0.017794868 -0.038290128 0.0847267
000090 04 54 62 3d 5a 69 09 be 59 7f 8b 3d 22 93 0f 3d
       0.055255905 -0.13419095 0.06811399 0.035052426
0000a0 e4 61 47 3e 77 4c 0e 3e a2 7e 6a 3e f9 fc d8 3c
       0.19470936 0.13896357 0.22899869 0.026487814
0000b0 b6 de 98 3d 4e 75 b1 bd 63 55 f3 3d a5 ca 4f bd
       0.07464354 -0.08664952 0.118815206 -0.050730366
0000c0 28 67 3a bd 90 e2 8c bd 91 ed 86 3d 02 6a 15 be
       -0.045508534 -0.06879151 0.06588281 -0.1459122
0000d0 64 5e 46 3d 61 67 02 be 9a b9 bb bd 3e f1 ec 3d
       0.04842986 -0.12734748 -0.0916626 0.11569451
0000e0 7d 78 3e bd 45 a9 e4 3d 22 5a b7 3d a7 33 c7 3d
       -0.046501625 0.11165098 0.08952738 0.09726649
0000f0 eb 82 2c bd 0a d2 c8 3d 24 b7 51 3e a3 44 3d be
       -0.04211704 0.09805687 0.20480019 -0.18483214
000100 7f e4 23 3d 08 92 87 be f8 b8 6b 3c 37 c2 56 bd
       0.040012833 -0.264786 0.014387362 -0.05243131
000110 de 25 9e 3b 2e 7e 1a be 61 20 51 be 0b 22 df bd
       0.0048262915 -0.15087196 -0.20422508 -0.10895165
000120 42 a9 18 be 74 51 03 3d 26 3b 23 3e a2 59 3d be
       -0.14908317 0.0320601 0.15940532 -0.18491223
000130 0c 1e 6c bd 7e 6a b8 bc 89 a6 59 3d b7 96 31 3e
       -0.057645842 -0.022511717 0.053137336 0.1734265
000140 c7 5e 70 bd fc da 0f 3e d1 8d 75 3e 96 19 23 3d
       -0.058684137 0.1404838 0.2397988 0.039819323
000150 81 c7 d8 bd 9d 2c 7e 3d 62 4b ec 3d cc 8e 8a 3a
       -0.10584927 0.062054265 0.11537816 0.0010571121
000160 bc 0a 72 be bc 73 06 3e 9a 82 b5 bd d2 30 37 3e
       -0.23636907 0.13130087 -0.08862801 0.17889717
000170 f6 72 03 3e 5b 54 b6 bd 1a 0f 35 be 6d 78 77 3c
       0.12836823 -0.08902808 -0.17681542 0.015104395
000180 4f 40 0e 3d bf 05 7f bd f6 5e 8d 3d d9 72 c8 bd
       0.0347293 -0.06226134 0.06902878 -0.097875305
000190 99 4c 5f 3e 2c 0f 0b 3d ee 73 94 bb 04 88 d2 bc
       0.21806563 0.033950016 -0.0045304215 -0.025699623
0001a0 3d ce f2 bd 24 f8 e6 3d 90 f3 d3 3d ab c2 d6 3d
       -0.11855743 0.11277798 0.1034919 0.10486349
0001b0 f6 c0 c5 bc ad dc a9 3d ed 30 cd bd 24 5c 44 3e
       -0.024139863 0.08294044 -0.100190975 0.19175774
0001c0 65 4e de 3d 12 e9 67 be 5c 7a 66 3c 3a 5b 22 3e
       0.10854796 -0.22647503 0.014067259 0.15855113
0001d0 cc 9f 09 bd 3f 8d 04 3e ba f9 af 3a 35 d6 3b 3d
       -0.03359966 0.12944506 0.0013425865 0.04585858
0001e0 9d 25 38 bd e0 8d 97 bc 5c 0f aa 3c ac 26 62 bd
       -0.044957746 -0.018500268 0.020759277 -0.05521266
0001f0 72 9c 1e be f0 53 81 bd c9 04 00 3e e3 f5 c0 bd
       -0.15489367 -0.06314838 0.12501825 -0.09421899
000200 68 2b bf 3d ce 58 c5 bd 0d f9 d8 3d 77 57 21 bc
       0.09334451 -0.09636079 0.10594378 -0.009847513
000210 02 d3 24 3e b6 8a ce bd 32 da 71 be 59 cd 7b bd
       0.16096118 -0.10085051 -0.23618391 -0.06147513
000220 74 82 5d 3c 10 e5 b3 bd 63 e5 76 bd ff c3 05 be
       0.013519872 -0.087839246 -0.060277354 -0.13063048
000230 21 e5 54 3e 65 04 92 bd ee 32 51 3e 49 af c4 3d
       0.2079053 -0.071297444 0.20429584 0.096037455
000240 7b 3f 1f 3e a4 f8 30 bc fe df 9b 3d 8b 0d 59 3e
       0.1555156 -0.010801468 0.076110825 0.21196572
000250 b8 e4 87 bd 52 1b 9c 3d b6 3f 85 3d 66 be fe bd
       -0.066354215 0.076223984 0.065062925 -0.12438659
000260 56 97 25 3e ac 61 2b 3e 73 b4 30 3d af bd 45 3d
       0.16171011 0.16736478 0.04314084 0.0482766
000270 19 35 58 3e 76 3f d8 3d ef db 4b bc d1 8a c8 3d
       0.21114005 0.10558979 -0.012442573 0.09792102
000280 36 60 96 3c 7b 28 14 3e 65 5c 67 bc 96 7b 4d 3d
       0.018356424 0.14468567 -0.01412115 0.05016669
000290 1b 45 19 3e 6f 54 07 be ec 5c de 3d 6e 29 26 bd
       0.14967768 -0.13215803 0.10857567 -0.040566854
0002a0 3f ed 8a 3d 35 08 2f be 63 4e 51 bd 7f b6 cf bc
       0.06783532 -0.17092974 -0.051100146 -0.025355576
0002b0 b5 56 24 3e f2 66 e4 bd 33 64 06 bd 94 8f 40 bd
       0.16048701 -0.11152448 -0.0328104 -0.047011927
0002c0 d4 3c 1e bd 5d 23 93 3e 10 aa 0d 3d 79 63 10 be
       -0.03863223 0.28737918 0.034586012 -0.14100446
0002d0 ae fd 49 3d 37 7a 52 be e7 a6 e3 bd ac ab 49 3e
       0.049314193 -0.20554434 -0.111158185 0.19694394
0002e0 13 ac 25 be e3 ff 89 3e 49 f1 ea bd d6 6d cb bb
       -0.16178922 0.2695304 -0.11471803 -0.006208162
0002f0 f1 c7 8f bd 25 6c 29 3e 58 30 3c 3e 53 93 22 3d
       -0.07020558 0.1654516 0.18377817 0.03969128
000300 2b ca 08 be 40 22 29 be 5a 24 5f be e9 73 fa 3d
       -0.13358371 -0.16516972 -0.21791211 0.12229139
000310 a7 0a 4f 3c 2a ad a1 3d 72 2d 3b be 69 ab f5 bd
       0.012636817 0.078943565 -0.18279055 -0.119955845
000320 89 89 11 be a2 71 db bd f0 6a 90 be 40 b9 85 39
       -0.14212622 -0.10715033 -0.28206587 0.0002550576
000330 e9 02 6a bc 0b bc 54 3e 2c e6 4e 3d 72 59 b9 3c
       -0.01428292 0.20774858 0.050512478 0.022625659
000340 4f c7 64 bd 21 f3 d2 3d 9b af 2d bd 6c 4d b4 3e
       -0.055854138 0.103002794 -0.0424038 0.35215318
000350 fa 0f b3 bb c1 c3 24 3e 98 b7 f8 3d 93 08 45 be
       -0.005464551 0.16090299 0.12144393 -0.19241552
000360 3d 0a 27 3e b5 5a 6c 3d 4d 12 58 be fd f4 5c 3e
       0.163125 0.057703692 -0.21100731 0.2157783
000370 f6 22 16 3d 75 02 67 bd 67 89 bd bd 6e a0 6e bd
       0.036654435 -0.056398828 -0.09254723 -0.058258466
000380 2a 70 78 3d d5 de 29 be 9c d6 1b be e7 ea 27 bd
       0.060653843 -0.1658891 -0.15218586 -0.040995505
000390 8a 0c cd 3d 7c 22 2b 3e db 4e ce bd 15 73 33 3d
       0.10012157 0.16712373 -0.10073634 0.043810923
0003a0 e1 c9 e5 3d 47 29 8c 3d 29 dc 26 3e f5 b3 5e be
       0.11220146 0.068438105 0.16294922 -0.21748336
0003b0 12 ae 72 be f0 77 15 be 44 d4 47 3d a4 cf 26 3e
       -0.23699215 -0.14596534 0.048786417 0.16290146
0003c0 d1 db c4 bd eb 6b 13 3e 43 fe b6 3c 4d 3d 12 be
       -0.09612239 0.14396636 0.022338038 -0.14281197
0003d0 7a 50 31 3e cc 78 60 3d 4c 39 1c 3e 4f c6 83 3d
       0.17315856 0.0548027 0.15256232 0.06434309
0003e0 25 d0 26 3e a7 e0 04 be b2 57 9d 3c d5 30 00 be
       0.16290338 -0.12976323 0.019206855 -0.12518628
0003f0 55 7c 9c 3d 64 9d 1b bd 19 34 c0 3a 64 c7 5d 3e
       0.07640902 -0.037991896 0.0014663964 0.21658093

model.bigrill.fwd_rnn.spatial_decoder.lin_in.bias f4 [32]
000000 d9 32 20 3e 12 f6 d7 bd 87 f6 41 bd b9 43 62 be
       0.15644397 -0.10544981 -0.047354247 -0.22096147
000010 f3 d2 ae bd 3a b7 c5 bd 93 8d 0e be 37 8d f8 bd
       -0.08536329 -0.09654088 -0.13921194 -0.121363096
000020 60 9c f7 bd dc c0 40 3e 3d d7 8c 3d eb d6 15 be
       -0.12090373 0.1882357 0.06876991 -0.14632766
000030 70 b4 72 3e d5 ff 94 be 83 18 e1 3c 5a 16 14 be
       0.23701644 -0.29101434 0.027477508 -0.14461651
000040 f5 57 dc bc e7 b4 46 bc 29 8d 31 be e7 b1 54 3e
       -0.02689741 -0.012128091 -0.17339005 0.2077099
000050 60 d2 cc bc 9b 7c a7 ba 81 0c 39 bd a3 fb 33 3c
       -0.025002658 -0.0012778224 -0.04517794 0.010985288
000060 04 bb e4 bb 58 43 d6 3d 5f d5 58 be ed 7b 29 bc
       -0.006980302 0.104620636 -0.21175145 -0.010344488
000070 bf bb 40 bd 15 48 e5 3d 75 66 2e be 4d 35 c1 3d
       -0.04705405 0.11195389 -0.17031272 0.094339944

model.bigrill.fwd_rnn.spatial_decoder.graph_conv.mlp.weight f4 [32, 64, 1, 1]
000000 49 33 0c be 56 4e 08 bc ac 75 94 bc 16 64 92 bd
       -0.13691439 -0.008319458 -0.018122517 -0.07147996
000010 53 69 02 3d 40 59 c4 3d 44 09 2c 3e 49 81 a7 3d
       0.031838726 0.095873356 0.1680041 0.08178956
000020 c2 6e a7 3d a7 7b 9a 3d c1 83 af bc 20 c5 d6 3d
       0.08175422 0.07543116 -0.02142513 0.10486817
000030 d4 52 b0 bd de c1 d0 bd fb fb ea 3c c0 39 7c bd
       -0.08609548 -0.10193227 0.028684607 -0.061578512
000040 ac 4f fd 3d f6 af 7d bd 56 b6 31 3d 87 19 fe bd
       0.12368712 -0.061935388 0.04338678 -0.12407213
000050 08 0c 0b 3e a3 cc 8f bd ea d4 8d 3d 1d a5 39 3d
       0.13578808 -0.07021453 0.06925376 0.04532348
000060 16 ca ed 3d a8 ed 55 bd ee 46 a8 3d 02 f3 ed bd
       0.116108105 -0.0522286 0.08216654 -0.11618616
000070 b3 69 79 3d 7a 1d 61 3d 6a 6c 3f 3c 73 5b 16 be
       0.06089182 0.05495975 0.011683563 -0.14683323
000080 e9 f4 16 bd db eb b1 3d 97 60 40 be fe 80 e7 3d
       -0.03685466 0.08687564 -0.18786846 0.113039
000090 b1 f2 9a bd dc f4 48 bd bb ae 72 3c 4a 25 9b bd
       -0.07565821 -0.04906164 0.014812167 -0.07575472
0000a0 6c 2d a2 3d ae c2 89 bc c2 77 7b bd aa 3c 6e bc
       0.0791882 -0.016816463 -0.061393507 -0.014540831
0000b0 af f0 a7 3c 7a 5d e8 bc 0c 83 73 3d 86 9d 5e 3e
       0.020500509 -0.028364886 0.059451148 0.21739778
0000c0 7b 81 99 3d 53 1b b8 bc c6 7d 24 3c 7d 19 25 bd
       0.074953996 -0.022473967 0.010039752 -0.04030751
0000d0 45 07 e2 3d 15 71 17 3b 50 1f 1a be 26 0e 72 bd
       0.11036543 0.0023108174 -0.15051007 -0.059095524
0000e0 c7 06 d2 bd 9a cb c6 3d b9 6f 1e 3e 71 a8 39 3c
       -0.10255199 0.09706803 0.15472306 0.0113316635
0000f0 97 9a b4 bc 32 3e b4 3d 43 49 bc bc 20 c9 02 3e
       -0.02204637 0.08800925 -0.022984153 0.12772036
000100 c9 a2 06 be be 56 98 3d f9 65 5b 3d 57 84 4d 3e
       -0.13148035 0.0743842 0.053564046 0.20070015
000110 9b fc 2f 3d 81 f2 ca bd bb 6f 16 bd 11 11 bd 3d
       0.042965513 -0.09909535 -0.03672765 0.09231771
000120 f1 dc f1 3d c8 5f 10 be 40 93 3f bd 79 c7 a4 3d
       0.11809719 -0.14099038 -0.046771288 0.08045859
000130 39 f0 20 be 02 1d 08 3e 47 95 17 3e 51 5f 7f bd
       -0.15716638 0.13292316 0.14803039 -0.06234676
000140 6b 5a bd bd ee ad 0b 3e af 0e 41 bd ed 78 2d be
       -0.092457615 0.13640568 -0.047133144 -0.16940661
000150 a3 eb d9 bd fd 0a 68 3d 43 7e 57 3c 6b 34 40 3c
       -0.10640647 0.056651104 0.013152662 0.011731247
000160 b2 07 08 3d 30 b4 0b be 5c 2d 9b 3c 6b 94 a9 bd
       0.033210464 -0.13642955 0.018942527 -0.082802616
000170 88 18 c5 bd d2 c0 87 3d 44 c4 3f bd 37 91 7e 3d
       -0.096238196 0.066285744 -0.046818033 0.062150206
000180 da c7 11 bd 57 89 19 bd 83 a7 91 bd e7 b1 8b 3d
       -0.035590984 -0.037484493 -0.071120284 0.068210416
000190 76 f2 16 3d a8 e2 b7 3d e4 40 b5 bb 25 2c c6 3c
       0.036852323 0.08978778 -0.005531417 0.024190972
0001a0 d5 d7 e1 bb aa 96 ea 3c f5 ee d9 bc e6 2a 06 bd
       -0.0068921843 0.028636295 -0.026603201 -0.032755755
0001b0 85 fe d0 bd 4e 89 22 bd 56 6c 94 3d 62 4f 63 bd
       -0.10204796 -0.039681725 0.07247226 -0.055495627
0001c0 a6 20 36 bd ec a0 8d 3d 3c d8 53 b7 e5 e9 06 be
       -0.04446473 0.06915459 -1.2626926e-05 -0.13175161
0001d0 7c e4 90 bd 9d 21 5c bc 48 2c 13 be 7c 60 62 3d
       -0.0707483 -0.013435748 -0.1437236 0.055267796
0001e0 c1 46 eb bd e9 3d 95 bd 26 32 82 3c 86 82 19 3e
       -0.114881046 -0.07287199 0.015893053 0.14991197
0001f0 c3 fc b4 bd 79 07 c5 39 47 8d c4 3c e8 88 5e bd
       -0.08837273 0.00037580336 0.023993148 -0.054329783
000200 99 7b 8b bd a5 78 d4 bd 67 8e 87 bd b2 2d a0 bd
       -0.06810684 -0.103745736 -0.06618958 -0.07821216
000210 6a fc ce 3d 88 c5 b2 bd 0e 2d dd 3d 18 10 5b bd
       0.10106738 -0.08729082 0.10799609 -0.053482145
000220 17 4b 84 bd 62 22 c8 3c be 93 74 3c b8 34 b9 bd
       -0.06459635 0.024430458 0.014927803 -0.090432584
000230 53 71 a6 bd 1b 6d 50 bd 73 73 85 3d fd 78 08 bd
       -0.08127084 -0.0508853 0.06516161 -0.03331851
000240 a9 48 c3 3d 7e 94 b4 bc 28 41 3c 3c 7e b1 94 bd
       0.09535343 -0.022043463 0.011490144 -0.072604164
000250 79 c6 ab 3d 85 4c 40 bc 0a 4a bc 3d 8f 20 c2 3c
       0.08387465 -0.011736994 0.09193809 0.023697166
000260 5d 70 3e bd 62 f5 b5 bb 32 7b af 3d de 0d e7 bd
       -0.046493877 -0.0055529336 0.085684195 -0.11281942
000270 39 aa 96 3d 1a c6 d8 bd 3f 37 5b 3d 75 fe 3b 3b
       0.07356686 -0.1058466 0.053519484 0.0028685604
000280 f4 23 0c be 25 eb c1 bc 94 11 dc bd 11 07 47 bd
       -0.1368559 -0.023671696 -0.1074554 -0.048590723
000290 33 77 81 bc 8d 42 a6 bc f5 6e 01 3e f3 36 ba bc
       -0.015803909 -0.020295406 0.12639983 -0.02273128
0002a0 10 d8 be bc 0b 83 b8 bd 0d 79 c3 3d 45 68 de bc
       -0.023296386 -0.090093695 0.09544573 -0.027149329
0002b0 06 ab 28 3b 42 b2 d8 bd 11 b5 d1 bc 24 85 cf 3d
       0.0025736704 -0.10580875 -0.025599035 0.101328164
0002c0 e7 aa 79 bd 84 b2 f1 3b db 71 c7 bd 61 e1 a3 bd
       -0.060954 0.007376017 -0.09738513 -0.08001972
0002d0 23 91 e7 3c 57 8c d1 bc cf b3 a0 bd 98 92 0d 3b
       0.028267449 -0.025579615 -0.07846796 0.002160227
0002e0 e6 c0 35 3d 54 ac 94 bd 50 b5 5c 3c 50 93 2e bd
       0.044373415 -0.072594315 0.013470963 -0.042620957
0002f0 b4 63 1a 3d 14 52 d8 bd 96 73 e6 bd 89 f8 a5 3d
       0.03769274 -0.1056253 -0.11252515 0.08104045
000300 55 db c9 bd 10 af 9a 3d 71 bf 4d 3d 02 39 a6 3d
       -0.098562874 0.07552922 0.0502314 0.08116342
000310 ae 62 03 3d f6 4d 03 3e f7 cf ee 3c a2 9c cd bd
       0.03207653 0.12822708 0.0291519 -0.10039641
000320 11 98 55 3d 63 1a bf 3c f5 60 11 3d 79 62 e9 bd
       0.052146975 0.023328012 0.035492856 -0.11395735
000330 e6 26 94 bd 19 a9 3e bd 97 e9 1f 3d ba d1 d9 bd
       -0.07233982 -0.046547983 0.039041128 -0.10635705
000340 78 08 d7 3d ee 38 7a bc 20 5c 07 3e 3a 38 0a be
       0.10499662 -0.015272362 0.13218737 -0.13498011
000350 2a a2 0e 3d e4 e2 99 3d eb e2 25 be 9b 78 e7 3d
       0.03482262 0.07513979 -0.16199844 0.113023005
000360 e8 e0 13 bd 81 23 e6 3c 3f ac cf bc 7b 41 23 3c
       -0.03610316 0.028093101 -0.025350688 0.009964342
000370 cb ad e3 3d ee 88 fe 3b 7c eb ce 3d a7 8f 90 3d
       0.11117133 0.007767788 0.10103509 0.070586495
000380 2d 92 13 be de 32 8c bd fe 27 43 be 52 c1 64 bd
       -0.1441123 -0.0684564 -0.19058225 -0.055848427
000390 0b 80 38 3d 17 80 e8 3d ef 83 6a 3d d2 d2 13 3e
       0.045043986 0.11352556 0.057254728 0.1443589
0003a0 65 85 04 3e f5 ee 91 3d 29 22 90 bd be db 23 3d
       0.12941511 0.071256556 -0.070377655 0.040004484
0003b0 f9 a6 0a 3d 3e ec 8b 3c 8d f6 55 bd d3 30 20 3d
       0.033850644 0.017080422 -0.052237082 0.039109062
0003c0 f8 d6 13 bd 03 d2 e8 bc 0e 8f 01 3c 41 31 8c bd
       -0.036093682 -0.028420454 0.007907642 -0.06845332
0003d0 f6 42 31 bc 04 14 b4 3a bc 01 91 3d 21 4b 7f 3d
       -0.010819187 0.0013738875 0.07080409 0.062327508
0003e0 14 de 83 3d f8 0e da bd 6d ee 34 3d c5 ba 22 3b
       0.064388424 -0.10647386 0.044172693 0.0024830562
0003f0 0a 34 94 bd 00 36 df bd 6f 55 21 3d d3 3f e3 3c
       -0.07236488 -0.108989716 0.039388116 0.027740395

model.bigrill.fwd_rnn.spatial_decoder.graph_conv.mlp.bias f4 [32]
000000 2c 3e 3a be cc b8 f5 bd d6 90 fd bd 3f 4d 33 bd
       -0.18187779 -0.11998138 -0.12381141 -0.04377484
000010 de 8e e6 3c 2b fb f1 3d af c9 fd bd 97 47 3f be
       0.028144296 0.118154846 -0.12391984 -0.18679653
000020 51 5d 53 3e 1c 37 20 be 91 df 1c be df 21 5d 3e
       0.20641066 -0.15646023 -0.15319659 0.21594952
000030 82 6e 3c be d1 7d 2c be 44 e9 9b 3d 84 fe 39 be
       -0.1840153 -0.1684487 0.07612851 -0.18163496
000040 2e 63 3e 3e 75 e1 10 3d ba 55 08 3e a9 b3 c0 3d
       0.18592522 0.035371263 0.13313952 0.094092675
000050 f4 40 2e 3d 3c 0c af be 04 13 d0 bd 02 eb 13 be
       0.042542413 -0.34189022 -0.10159877 -0.14445117
000060 35 77 44 be b6 e8 a4 bd 13 b7 5c 3e 8a d3 3e 3e
       -0.19186099 -0.080521986 0.21554212 0.18635383
000070 00 39 20 3e d2 3a 74 be aa fd 90 3d 17 01 07 3e
       0.15646744 -0.23850563 0.070796326 0.1318401
